…
I0321 14:30:38.498366 14821 net.cpp:296] The NetState phase (0) differed from the phase (1) specified by a rule in layer data
I0321 14:30:38.498476 14821 net.cpp:296] The NetState phase (0) differed from the phase (1) specified by a rule in layer loss3_my/loss3_test
I0321 14:30:38.499436 14821 net.cpp:53] Initializing net from parameters: 
name: "GoogleNet-half-3loss"
state {
  phase: TRAIN
  level: 0
  stage: ""
}
layer {
  name: "data"
  type: "Python"
  top: "data"
  top: "label"
  include {
    phase: TRAIN
  }
  python_param {
    module: "data_generator"
    layer: "DataLayer"
    param_str: "/home/zhongzhen/dataset/attribute/age/train.txt"
  }
}
layer {
  name: "conv1/7x7_s2"
  type: "Convolution"
  bottom: "data"
  top: "conv1/7x7_s2"
  param {
    lr_mult: 1
    decay_mult: 1
  }
  param {
    lr_mult: 2
    decay_mult: 0
  }
  convolution_param {
    num_output: 32
    pad: 3
    kernel_size: 7
    stride: 2
    weight_filler {
      type: "xavier"
      std: 0.1
    }
    bias_filler {
      type: "constant"
      value: 0.2
    }
  }
}
layer {
  name: "conv1/relu_7x7"
  type: "ReLU"
  bottom: "conv1/7x7_s2"
  top: "conv1/7x7_s2"
}
layer {
  name: "pool1/3x3_s2"
  type: "Pooling"
  bottom: "conv1/7x7_s2"
  top: "pool1/3x3_s2"
  pooling_param {
    pool: MAX
    kernel_size: 3
    stride: 2
  }
}
layer {
  name: "pool1/norm1"
  type: "LRN"
  bottom: "pool1/3x3_s2"
  top: "pool1/norm1"
  lrn_param {
    local_size: 5
    alpha: 0.0001
    beta: 0.75
  }
}
layer {
  name: "conv2/3x3_reduce"
  type: "Convolution"
  bottom: "pool1/norm1"
  top: "conv2/3x3_reduce"
  param {
    lr_mult: 1
    decay_mult: 1
  }
  param {
    lr_mult: 2
    decay_mult: 0
  }
  convolution_param {
    num_output: 32
    kernel_size: 1
    weight_filler {
      type: "xavier"
      std: 0.1
    }
    bias_filler {
      type: "constant"
      value: 0.2
    }
  }
}
layer {
  name: "conv2/relu_3x3_reduce"
  type: "ReLU"
  bottom: "conv2/3x3_reduce"
  top: "conv2/3x3_reduce"
}
layer {
  name: "conv2/3x3"
  type: "Convolution"
  bottom: "conv2/3x3_reduce"
  top: "conv2/3x3"
  param {
    lr_mult: 1
    decay_mult: 1
  }
  param {
    lr_mult: 2
    decay_mult: 0
  }
  convolution_param {
    num_output: 96
    pad: 1
    kernel_size: 3
    weight_filler {
      type: "xavier"
      std: 0.03
    }
    bias_filler {
      type: "constant"
      value: 0.2
    }
  }
}
layer {
  name: "conv2/relu_3x3"
  type: "ReLU"
  bottom: "conv2/3x3"
  top: "conv2/3x3"
}
layer {
  name: "conv2/norm2"
  type: "LRN"
  bottom: "conv2/3x3"
  top: "conv2/norm2"
  lrn_param {
    local_size: 5
    alpha: 0.0001
    beta: 0.75
  }
}
layer {
  name: "pool2/3x3_s2"
  type: "Pooling"
  bottom: "conv2/norm2"
  top: "pool2/3x3_s2"
  pooling_param {
    pool: MAX
    kernel_size: 3
    stride: 2
  }
}
layer {
  name: "inception_3a/1x1"
  type: "Convolution"
  bottom: "pool2/3x3_s2"
  top: "inception_3a/1x1"
  param {
    lr_mult: 1
    decay_mult: 1
  }
  param {
    lr_mult: 2
    decay_mult: 0
  }
  convolution_param {
    num_output: 32
    kernel_size: 1
    weight_filler {
      type: "xavier"
      std: 0.03
    }
    bias_filler {
      type: "constant"
      value: 0.2
    }
  }
}
layer {
  name: "inception_3a/relu_1x1"
  type: "ReLU"
  bottom: "inception_3a/1x1"
  top: "inception_3a/1x1"
}
layer {
  name: "inception_3a/3x3_reduce"
  type: "Convolution"
  bottom: "pool2/3x3_s2"
  top: "inception_3a/3x3_reduce"
  param {
    lr_mult: 1
    decay_mult: 1
  }
  param {
    lr_mult: 2
    decay_mult: 0
  }
  convolution_param {
    num_output: 48
    kernel_size: 1
    weight_filler {
      type: "xavier"
      std: 0.09
    }
    bias_filler {
      type: "constant"
      value: 0.2
    }
  }
}
layer {
  name: "inception_3a/relu_3x3_reduce"
  type: "ReLU"
  bottom: "inception_3a/3x3_reduce"
  top: "inception_3a/3x3_reduce"
}
layer {
  name: "inception_3a/3x3"
  type: "Convolution"
  bottom: "inception_3a/3x3_reduce"
  top: "inception_3a/3x3"
  param {
    lr_mult: 1
    decay_mult: 1
  }
  param {
    lr_mult: 2
    decay_mult: 0
  }
  convolution_param {
    num_output: 64
    pad: 1
    kernel_size: 3
    weight_filler {
      type: "xavier"
      std: 0.03
    }
    bias_filler {
      type: "constant"
      value: 0.2
    }
  }
}
layer {
  name: "inception_3a/relu_3x3"
  type: "ReLU"
  bottom: "inception_3a/3x3"
  top: "inception_3a/3x3"
}
layer {
  name: "inception_3a/5x5_reduce"
  type: "Convolution"
  bottom: "pool2/3x3_s2"
  top: "inception_3a/5x5_reduce"
  param {
    lr_mult: 1
    decay_mult: 1
  }
  param {
    lr_mult: 2
    decay_mult: 0
  }
  convolution_param {
    num_output: 8
    kernel_size: 1
    weight_filler {
      type: "xavier"
      std: 0.2
    }
    bias_filler {
      type: "constant"
      value: 0.2
    }
  }
}
layer {
  name: "inception_3a/relu_5x5_reduce"
  type: "ReLU"
  bottom: "inception_3a/5x5_reduce"
  top: "inception_3a/5x5_reduce"
}
layer {
  name: "inception_3a/5x5"
  type: "Convolution"
  bottom: "inception_3a/5x5_reduce"
  top: "inception_3a/5x5"
  param {
    lr_mult: 1
    decay_mult: 1
  }
  param {
    lr_mult: 2
    decay_mult: 0
  }
  convolution_param {
    num_output: 16
    pad: 2
    kernel_size: 5
    weight_filler {
      type: "xavier"
      std: 0.03
    }
    bias_filler {
      type: "constant"
      value: 0.2
    }
  }
}
layer {
  name: "inception_3a/relu_5x5"
  type: "ReLU"
  bottom: "inception_3a/5x5"
  top: "inception_3a/5x5"
}
layer {
  name: "inception_3a/pool"
  type: "Pooling"
  bottom: "pool2/3x3_s2"
  top: "inception_3a/pool"
  pooling_param {
    pool: MAX
    kernel_size: 3
    stride: 1
    pad: 1
  }
}
layer {
  name: "inception_3a/pool_proj"
  type: "Convolution"
  bottom: "inception_3a/pool"
  top: "inception_3a/pool_proj"
  param {
    lr_mult: 1
    decay_mult: 1
  }
  param {
    lr_mult: 2
    decay_mult: 0
  }
  convolution_param {
    num_output: 16
    kernel_size: 1
    weight_filler {
      type: "xavier"
      std: 0.1
    }
    bias_filler {
      type: "constant"
      value: 0.2
    }
  }
}
layer {
  name: "inception_3a/relu_pool_proj"
  type: "ReLU"
  bottom: "inception_3a/pool_proj"
  top: "inception_3a/pool_proj"
}
layer {
  name: "inception_3a/output"
  type: "Concat"
  bottom: "inception_3a/1x1"
  bottom: "inception_3a/3x3"
  bottom: "inception_3a/5x5"
  bottom: "inception_3a/pool_proj"
  top: "inception_3a/output"
}
layer {
  name: "inception_3b/1x1"
  type: "Convolution"
  bottom: "inception_3a/output"
  top: "inception_3b/1x1"
  param {
    lr_mult: 1
    decay_mult: 1
  }
  param {
    lr_mult: 2
    decay_mult: 0
  }
  convolution_param {
    num_output: 64
    kernel_size: 1
    weight_filler {
      type: "xavier"
      std: 0.03
    }
    bias_filler {
      type: "constant"
      value: 0.2
    }
  }
}
layer {
  name: "inception_3b/relu_1x1"
  type: "ReLU"
  bottom: "inception_3b/1x1"
  top: "inception_3b/1x1"
}
layer {
  name: "inception_3b/3x3_reduce"
  type: "Convolution"
  bottom: "inception_3a/output"
  top: "inception_3b/3x3_reduce"
  param {
    lr_mult: 1
    decay_mult: 1
  }
  param {
    lr_mult: 2
    decay_mult: 0
  }
  convolution_param {
    num_output: 64
    kernel_size: 1
    weight_filler {
      type: "xavier"
      std: 0.09
    }
    bias_filler {
      type: "constant"
      value: 0.2
    }
  }
}
layer {
  name: "inception_3b/relu_3x3_reduce"
  type: "ReLU"
  bottom: "inception_3b/3x3_reduce"
  top: "inception_3b/3x3_reduce"
}
layer {
  name: "inception_3b/3x3"
  type: "Convolution"
  bottom: "inception_3b/3x3_reduce"
  top: "inception_3b/3x3"
  param {
    lr_mult: 1
    decay_mult: 1
  }
  param {
    lr_mult: 2
    decay_mult: 0
  }
  convolution_param {
    num_output: 96
    pad: 1
    kernel_size: 3
    weight_filler {
      type: "xavier"
      std: 0.03
    }
    bias_filler {
      type: "constant"
      value: 0.2
    }
  }
}
layer {
  name: "inception_3b/relu_3x3"
  type: "ReLU"
  bottom: "inception_3b/3x3"
  top: "inception_3b/3x3"
}
layer {
  name: "inception_3b/5x5_reduce"
  type: "Convolution"
  bottom: "inception_3a/output"
  top: "inception_3b/5x5_reduce"
  param {
    lr_mult: 1
    decay_mult: 1
  }
  param {
    lr_mult: 2
    decay_mult: 0
  }
  convolution_param {
    num_output: 16
    kernel_size: 1
    weight_filler {
      type: "xavier"
      std: 0.2
    }
    bias_filler {
      type: "constant"
      value: 0.2
    }
  }
}
layer {
  name: "inception_3b/relu_5x5_reduce"
  type: "ReLU"
  bottom: "inception_3b/5x5_reduce"
  top: "inception_3b/5x5_reduce"
}
layer {
  name: "inception_3b/5x5"
  type: "Convolution"
  bottom: "inception_3b/5x5_reduce"
  top: "inception_3b/5x5"
  param {
    lr_mult: 1
    decay_mult: 1
  }
  param {
    lr_mult: 2
    decay_mult: 0
  }
  convolution_param {
    num_output: 48
    pad: 2
    kernel_size: 5
    weight_filler {
      type: "xavier"
      std: 0.03
    }
    bias_filler {
      type: "constant"
      value: 0.2
    }
  }
}
layer {
  name: "inception_3b/relu_5x5"
  type: "ReLU"
  bottom: "inception_3b/5x5"
  top: "inception_3b/5x5"
}
layer {
  name: "inception_3b/pool"
  type: "Pooling"
  bottom: "inception_3a/output"
  top: "inception_3b/pool"
  pooling_param {
    pool: MAX
    kernel_size: 3
    stride: 1
    pad: 1
  }
}
layer {
  name: "inception_3b/pool_proj"
  type: "Convolution"
  bottom: "inception_3b/pool"
  top: "inception_3b/pool_proj"
  param {
    lr_mult: 1
    decay_mult: 1
  }
  param {
    lr_mult: 2
    decay_mult: 0
  }
  convolution_param {
    num_output: 32
    kernel_size: 1
    weight_filler {
      type: "xavier"
      std: 0.1
    }
    bias_filler {
      type: "constant"
      value: 0.2
    }
  }
}
layer {
  name: "inception_3b/relu_pool_proj"
  type: "ReLU"
  bottom: "inception_3b/pool_proj"
  top: "inception_3b/pool_proj"
}
layer {
  name: "inception_3b/output"
  type: "Concat"
  bottom: "inception_3b/1x1"
  bottom: "inception_3b/3x3"
  bottom: "inception_3b/5x5"
  bottom: "inception_3b/pool_proj"
  top: "inception_3b/output"
}
layer {
  name: "loss1_my/ave_pool"
  type: "Pooling"
  bottom: "inception_3b/output"
  top: "loss1_my/ave_pool"
  pooling_param {
    pool: AVE
    kernel_size: 5
    stride: 3
  }
}
layer {
  name: "loss1_my/conv"
  type: "Convolution"
  bottom: "loss1_my/ave_pool"
  top: "loss1_my/conv"
  param {
    lr_mult: 1
    decay_mult: 1
  }
  param {
    lr_mult: 2
    decay_mult: 0
  }
  convolution_param {
    num_output: 20
    kernel_size: 1
    weight_filler {
      type: "xavier"
    }
    bias_filler {
      type: "constant"
      value: 0.2
    }
  }
}
layer {
  name: "loss1_my/relu_conv"
  type: "ReLU"
  bottom: "loss1_my/conv"
  top: "loss1_my/conv"
}
layer {
  name: "loss1_my/drop_conv"
  type: "Dropout"
  bottom: "loss1_my/conv"
  top: "loss1_my/conv"
  dropout_param {
    dropout_ratio: 0.7
  }
}
layer {
  name: "loss1_lite/classifier"
  type: "InnerProduct"
  bottom: "loss1_my/conv"
  top: "loss1_lite/classifier"
  param {
    lr_mult: 1
    decay_mult: 1
  }
  param {
    lr_mult: 2
    decay_mult: 0
  }
  inner_product_param {
    num_output: 1
    weight_filler {
      type: "xavier"
    }
    bias_filler {
      type: "constant"
      value: 0
    }
  }
}
layer {
  name: "loss1_my/loss"
  type: "Python"
  bottom: "loss1_lite/classifier"
  bottom: "label"
  top: "loss1_my/loss"
  loss_weight: 0.1
  python_param {
    module: "robust_loss"
    layer: "RobustLossLayer"
  }
}
layer {
  name: "pool3/3x3_s2"
  type: "Pooling"
  bottom: "inception_3b/output"
  top: "pool3/3x3_s2"
  pooling_param {
    pool: MAX
    kernel_size: 3
    stride: 2
  }
}
layer {
  name: "inception_4a/1x1"
  type: "Convolution"
  bottom: "pool3/3x3_s2"
  top: "inception_4a/1x1"
  param {
    lr_mult: 1
    decay_mult: 1
  }
  param {
    lr_mult: 2
    decay_mult: 0
  }
  convolution_param {
    num_output: 96
    kernel_size: 1
    weight_filler {
      type: "xavier"
      std: 0.03
    }
    bias_filler {
      type: "constant"
      value: 0.2
    }
  }
}
layer {
  name: "inception_4a/relu_1x1"
  type: "ReLU"
  bottom: "inception_4a/1x1"
  top: "inception_4a/1x1"
}
layer {
  name: "inception_4a/3x3_reduce"
  type: "Convolution"
  bottom: "pool3/3x3_s2"
  top: "inception_4a/3x3_reduce"
  param {
    lr_mult: 1
    decay_mult: 1
  }
  param {
    lr_mult: 2
    decay_mult: 0
  }
  convolution_param {
    num_output: 48
    kernel_size: 1
    weight_filler {
      type: "xavier"
      std: 0.09
    }
    bias_filler {
      type: "constant"
      value: 0.2
    }
  }
}
layer {
  name: "inception_4a/relu_3x3_reduce"
  type: "ReLU"
  bottom: "inception_4a/3x3_reduce"
  top: "inception_4a/3x3_reduce"
}
layer {
  name: "inception_4a/3x3"
  type: "Convolution"
  bottom: "inception_4a/3x3_reduce"
  top: "inception_4a/3x3"
  param {
    lr_mult: 1
    decay_mult: 1
  }
  param {
    lr_mult: 2
    decay_mult: 0
  }
  convolution_param {
    num_output: 104
    pad: 1
    kernel_size: 3
    weight_filler {
      type: "xavier"
      std: 0.03
    }
    bias_filler {
      type: "constant"
      value: 0.2
    }
  }
}
layer {
  name: "inception_4a/relu_3x3"
  type: "ReLU"
  bottom: "inception_4a/3x3"
  top: "inception_4a/3x3"
}
layer {
  name: "inception_4a/5x5_reduce"
  type: "Convolution"
  bottom: "pool3/3x3_s2"
  top: "inception_4a/5x5_reduce"
  param {
    lr_mult: 1
    decay_mult: 1
  }
  param {
    lr_mult: 2
    decay_mult: 0
  }
  convolution_param {
    num_output: 8
    kernel_size: 1
    weight_filler {
      type: "xavier"
      std: 0.2
    }
    bias_filler {
      type: "constant"
      value: 0.2
    }
  }
}
layer {
  name: "inception_4a/relu_5x5_reduce"
  type: "ReLU"
  bottom: "inception_4a/5x5_reduce"
  top: "inception_4a/5x5_reduce"
}
layer {
  name: "inception_4a/5x5"
  type: "Convolution"
  bottom: "inception_4a/5x5_reduce"
  top: "inception_4a/5x5"
  param {
    lr_mult: 1
    decay_mult: 1
  }
  param {
    lr_mult: 2
    decay_mult: 0
  }
  convolution_param {
    num_output: 24
    pad: 2
    kernel_size: 5
    weight_filler {
      type: "xavier"
      std: 0.03
    }
    bias_filler {
      type: "constant"
      value: 0.2
    }
  }
}
layer {
  name: "inception_4a/relu_5x5"
  type: "ReLU"
  bottom: "inception_4a/5x5"
  top: "inception_4a/5x5"
}
layer {
  name: "inception_4a/pool"
  type: "Pooling"
  bottom: "pool3/3x3_s2"
  top: "inception_4a/pool"
  pooling_param {
    pool: MAX
    kernel_size: 3
    stride: 1
    pad: 1
  }
}
layer {
  name: "inception_4a/pool_proj"
  type: "Convolution"
  bottom: "inception_4a/pool"
  top: "inception_4a/pool_proj"
  param {
    lr_mult: 1
    decay_mult: 1
  }
  param {
    lr_mult: 2
    decay_mult: 0
  }
  convolution_param {
    num_output: 32
    kernel_size: 1
    weight_filler {
      type: "xavier"
      std: 0.1
    }
    bias_filler {
      type: "constant"
      value: 0.2
    }
  }
}
layer {
  name: "inception_4a/relu_pool_proj"
  type: "ReLU"
  bottom: "inception_4a/pool_proj"
  top: "inception_4a/pool_proj"
}
layer {
  name: "inception_4a/output"
  type: "Concat"
  bottom: "inception_4a/1x1"
  bottom: "inception_4a/3x3"
  bottom: "inception_4a/5x5"
  bottom: "inception_4a/pool_proj"
  top: "inception_4a/output"
}
layer {
  name: "inception_4b/1x1"
  type: "Convolution"
  bottom: "inception_4a/output"
  top: "inception_4b/1x1"
  param {
    lr_mult: 1
    decay_mult: 1
  }
  param {
    lr_mult: 2
    decay_mult: 0
  }
  convolution_param {
    num_output: 80
    kernel_size: 1
    weight_filler {
      type: "xavier"
      std: 0.03
    }
    bias_filler {
      type: "constant"
      value: 0.2
    }
  }
}
layer {
  name: "inception_4b/relu_1x1"
  type: "ReLU"
  bottom: "inception_4b/1x1"
  top: "inception_4b/1x1"
}
layer {
  name: "inception_4b/3x3_reduce"
  type: "Convolution"
  bottom: "inception_4a/output"
  top: "inception_4b/3x3_reduce"
  param {
    lr_mult: 1
    decay_mult: 1
  }
  param {
    lr_mult: 2
    decay_mult: 0
  }
  convolution_param {
    num_output: 56
    kernel_size: 1
    weight_filler {
      type: "xavier"
      std: 0.09
    }
    bias_filler {
      type: "constant"
      value: 0.2
    }
  }
}
layer {
  name: "inception_4b/relu_3x3_reduce"
  type: "ReLU"
  bottom: "inception_4b/3x3_reduce"
  top: "inception_4b/3x3_reduce"
}
layer {
  name: "inception_4b/3x3"
  type: "Convolution"
  bottom: "inception_4b/3x3_reduce"
  top: "inception_4b/3x3"
  param {
    lr_mult: 1
    decay_mult: 1
  }
  param {
    lr_mult: 2
    decay_mult: 0
  }
  convolution_param {
    num_output: 112
    pad: 1
    kernel_size: 3
    weight_filler {
      type: "xavier"
      std: 0.03
    }
    bias_filler {
      type: "constant"
      value: 0.2
    }
  }
}
layer {
  name: "inception_4b/relu_3x3"
  type: "ReLU"
  bottom: "inception_4b/3x3"
  top: "inception_4b/3x3"
}
layer {
  name: "inception_4b/5x5_reduce"
  type: "Convolution"
  bottom: "inception_4a/output"
  top: "inception_4b/5x5_reduce"
  param {
    lr_mult: 1
    decay_mult: 1
  }
  param {
    lr_mult: 2
    decay_mult: 0
  }
  convolution_param {
    num_output: 12
    kernel_size: 1
    weight_filler {
      type: "xavier"
      std: 0.2
    }
    bias_filler {
      type: "constant"
      value: 0.2
    }
  }
}
layer {
  name: "inception_4b/relu_5x5_reduce"
  type: "ReLU"
  bottom: "inception_4b/5x5_reduce"
  top: "inception_4b/5x5_reduce"
}
layer {
  name: "inception_4b/5x5"
  type: "Convolution"
  bottom: "inception_4b/5x5_reduce"
  top: "inception_4b/5x5"
  param {
    lr_mult: 1
    decay_mult: 1
  }
  param {
    lr_mult: 2
    decay_mult: 0
  }
  convolution_param {
    num_output: 32
    pad: 2
    kernel_size: 5
    weight_filler {
      type: "xavier"
      std: 0.03
    }
    bias_filler {
      type: "constant"
      value: 0.2
    }
  }
}
layer {
  name: "inception_4b/relu_5x5"
  type: "ReLU"
  bottom: "inception_4b/5x5"
  top: "inception_4b/5x5"
}
layer {
  name: "inception_4b/pool"
  type: "Pooling"
  bottom: "inception_4a/output"
  top: "inception_4b/pool"
  pooling_param {
    pool: MAX
    kernel_size: 3
    stride: 1
    pad: 1
  }
}
layer {
  name: "inception_4b/pool_proj"
  type: "Convolution"
  bottom: "inception_4b/pool"
  top: "inception_4b/pool_proj"
  param {
    lr_mult: 1
    decay_mult: 1
  }
  param {
    lr_mult: 2
    decay_mult: 0
  }
  convolution_param {
    num_output: 32
    kernel_size: 1
    weight_filler {
      type: "xavier"
      std: 0.1
    }
    bias_filler {
      type: "constant"
      value: 0.2
    }
  }
}
layer {
  name: "inception_4b/relu_pool_proj"
  type: "ReLU"
  bottom: "inception_4b/pool_proj"
  top: "inception_4b/pool_proj"
}
layer {
  name: "inception_4b/output"
  type: "Concat"
  bottom: "inception_4b/1x1"
  bottom: "inception_4b/3x3"
  bottom: "inception_4b/5x5"
  bottom: "inception_4b/pool_proj"
  top: "inception_4b/output"
}
layer {
  name: "loss2_my/ave_pool"
  type: "Pooling"
  bottom: "inception_4b/output"
  top: "loss2_my/ave_pool"
  pooling_param {
    pool: AVE
    kernel_size: 5
    stride: 3
  }
}
layer {
  name: "loss2_my/conv"
  type: "Convolution"
  bottom: "loss2_my/ave_pool"
  top: "loss2_my/conv"
  param {
    lr_mult: 1
    decay_mult: 1
  }
  param {
    lr_mult: 2
    decay_mult: 0
  }
  convolution_param {
    num_output: 20
    kernel_size: 1
    weight_filler {
      type: "xavier"
    }
    bias_filler {
      type: "constant"
      value: 0.2
    }
  }
}
layer {
  name: "loss2_my/relu_conv"
  type: "ReLU"
  bottom: "loss2_my/conv"
  top: "loss2_my/conv"
}
layer {
  name: "loss2_my/drop_fc"
  type: "Dropout"
  bottom: "loss2_my/conv"
  top: "loss2_my/conv"
  dropout_param {
    dropout_ratio: 0.7
  }
}
layer {
  name: "loss2_lite/classifier"
  type: "InnerProduct"
  bottom: "loss2_my/conv"
  top: "loss2_lite/classifier"
  param {
    lr_mult: 1
    decay_mult: 1
  }
  param {
    lr_mult: 2
    decay_mult: 0
  }
  inner_product_param {
    num_output: 1
    weight_filler {
      type: "xavier"
    }
    bias_filler {
      type: "constant"
      value: 0
    }
  }
}
layer {
  name: "loss2_my/loss"
  type: "Python"
  bottom: "loss2_lite/classifier"
  bottom: "label"
  top: "loss2_my/loss"
  loss_weight: 0.4
  python_param {
    module: "robust_loss"
    layer: "RobustLossLayer"
  }
}
layer {
  name: "inception_4c/1x1"
  type: "Convolution"
  bottom: "inception_4b/output"
  top: "inception_4c/1x1"
  param {
    lr_mult: 1
    decay_mult: 1
  }
  param {
    lr_mult: 2
    decay_mult: 0
  }
  convolution_param {
    num_output: 64
    kernel_size: 1
    weight_filler {
      type: "xavier"
      std: 0.03
    }
    bias_filler {
      type: "constant"
      value: 0.2
    }
  }
}
layer {
  name: "inception_4c/relu_1x1"
  type: "ReLU"
  bottom: "inception_4c/1x1"
  top: "inception_4c/1x1"
}
layer {
  name: "inception_4c/3x3_reduce"
  type: "Convolution"
  bottom: "inception_4b/output"
  top: "inception_4c/3x3_reduce"
  param {
    lr_mult: 1
    decay_mult: 1
  }
  param {
    lr_mult: 2
    decay_mult: 0
  }
  convolution_param {
    num_output: 64
    kernel_size: 1
    weight_filler {
      type: "xavier"
      std: 0.09
    }
    bias_filler {
      type: "constant"
      value: 0.2
    }
  }
}
layer {
  name: "inception_4c/relu_3x3_reduce"
  type: "ReLU"
  bottom: "inception_4c/3x3_reduce"
  top: "inception_4c/3x3_reduce"
}
layer {
  name: "inception_4c/3x3"
  type: "Convolution"
  bottom: "inception_4c/3x3_reduce"
  top: "inception_4c/3x3"
  param {
    lr_mult: 1
    decay_mult: 1
  }
  param {
    lr_mult: 2
    decay_mult: 0
  }
  convolution_param {
    num_output: 128
    pad: 1
    kernel_size: 3
    weight_filler {
      type: "xavier"
      std: 0.03
    }
    bias_filler {
      type: "constant"
      value: 0.2
    }
  }
}
layer {
  name: "inception_4c/relu_3x3"
  type: "ReLU"
  bottom: "inception_4c/3x3"
  top: "inception_4c/3x3"
}
layer {
  name: "inception_4c/5x5_reduce"
  type: "Convolution"
  bottom: "inception_4b/output"
  top: "inception_4c/5x5_reduce"
  param {
    lr_mult: 1
    decay_mult: 1
  }
  param {
    lr_mult: 2
    decay_mult: 0
  }
  convolution_param {
    num_output: 12
    kernel_size: 1
    weight_filler {
      type: "xavier"
      std: 0.2
    }
    bias_filler {
      type: "constant"
      value: 0.2
    }
  }
}
layer {
  name: "inception_4c/relu_5x5_reduce"
  type: "ReLU"
  bottom: "inception_4c/5x5_reduce"
  top: "inception_4c/5x5_reduce"
}
layer {
  name: "inception_4c/5x5"
  type: "Convolution"
  bottom: "inception_4c/5x5_reduce"
  top: "inception_4c/5x5"
  param {
    lr_mult: 1
    decay_mult: 1
  }
  param {
    lr_mult: 2
    decay_mult: 0
  }
  convolution_param {
    num_output: 32
    pad: 2
    kernel_size: 5
    weight_filler {
      type: "xavier"
      std: 0.03
    }
    bias_filler {
      type: "constant"
      value: 0.2
    }
  }
}
layer {
  name: "inception_4c/relu_5x5"
  type: "ReLU"
  bottom: "inception_4c/5x5"
  top: "inception_4c/5x5"
}
layer {
  name: "inception_4c/pool"
  type: "Pooling"
  bottom: "inception_4b/output"
  top: "inception_4c/pool"
  pooling_param {
    pool: MAX
    kernel_size: 3
    stride: 1
    pad: 1
  }
}
layer {
  name: "inception_4c/pool_proj"
  type: "Convolution"
  bottom: "inception_4c/pool"
  top: "inception_4c/pool_proj"
  param {
    lr_mult: 1
    decay_mult: 1
  }
  param {
    lr_mult: 2
    decay_mult: 0
  }
  convolution_param {
    num_output: 32
    kernel_size: 1
    weight_filler {
      type: "xavier"
      std: 0.1
    }
    bias_filler {
      type: "constant"
      value: 0.2
    }
  }
}
layer {
  name: "inception_4c/relu_pool_proj"
  type: "ReLU"
  bottom: "inception_4c/pool_proj"
  top: "inception_4c/pool_proj"
}
layer {
  name: "inception_4c/output"
  type: "Concat"
  bottom: "inception_4c/1x1"
  bottom: "inception_4c/3x3"
  bottom: "inception_4c/5x5"
  bottom: "inception_4c/pool_proj"
  top: "inception_4c/output"
}
layer {
  name: "inception_4d/1x1"
  type: "Convolution"
  bottom: "inception_4c/output"
  top: "inception_4d/1x1"
  param {
    lr_mult: 1
    decay_mult: 1
  }
  param {
    lr_mult: 2
    decay_mult: 0
  }
  convolution_param {
    num_output: 56
    kernel_size: 1
    weight_filler {
      type: "xavier"
      std: 0.03
    }
    bias_filler {
      type: "constant"
      value: 0.2
    }
  }
}
layer {
  name: "inception_4d/relu_1x1"
  type: "ReLU"
  bottom: "inception_4d/1x1"
  top: "inception_4d/1x1"
}
layer {
  name: "inception_4d/3x3_reduce"
  type: "Convolution"
  bottom: "inception_4c/output"
  top: "inception_4d/3x3_reduce"
  param {
    lr_mult: 1
    decay_mult: 1
  }
  param {
    lr_mult: 2
    decay_mult: 0
  }
  convolution_param {
    num_output: 72
    kernel_size: 1
    weight_filler {
      type: "xavier"
      std: 0.09
    }
    bias_filler {
      type: "constant"
      value: 0.2
    }
  }
}
layer {
  name: "inception_4d/relu_3x3_reduce"
  type: "ReLU"
  bottom: "inception_4d/3x3_reduce"
  top: "inception_4d/3x3_reduce"
}
layer {
  name: "inception_4d/3x3"
  type: "Convolution"
  bottom: "inception_4d/3x3_reduce"
  top: "inception_4d/3x3"
  param {
    lr_mult: 1
    decay_mult: 1
  }
  param {
    lr_mult: 2
    decay_mult: 0
  }
  convolution_param {
    num_output: 144
    pad: 1
    kernel_size: 3
    weight_filler {
      type: "xavier"
      std: 0.03
    }
    bias_filler {
      type: "constant"
      value: 0.2
    }
  }
}
layer {
  name: "inception_4d/relu_3x3"
  type: "ReLU"
  bottom: "inception_4d/3x3"
  top: "inception_4d/3x3"
}
layer {
  name: "inception_4d/5x5_reduce"
  type: "Convolution"
  bottom: "inception_4c/output"
  top: "inception_4d/5x5_reduce"
  param {
    lr_mult: 1
    decay_mult: 1
  }
  param {
    lr_mult: 2
    decay_mult: 0
  }
  convolution_param {
    num_output: 16
    kernel_size: 1
    weight_filler {
      type: "xavier"
      std: 0.2
    }
    bias_filler {
      type: "constant"
      value: 0.2
    }
  }
}
layer {
  name: "inception_4d/relu_5x5_reduce"
  type: "ReLU"
  bottom: "inception_4d/5x5_reduce"
  top: "inception_4d/5x5_reduce"
}
layer {
  name: "inception_4d/5x5"
  type: "Convolution"
  bottom: "inception_4d/5x5_reduce"
  top: "inception_4d/5x5"
  param {
    lr_mult: 1
    decay_mult: 1
  }
  param {
    lr_mult: 2
    decay_mult: 0
  }
  convolution_param {
    num_output: 32
    pad: 2
    kernel_size: 5
    weight_filler {
      type: "xavier"
      std: 0.03
    }
    bias_filler {
      type: "constant"
      value: 0.2
    }
  }
}
layer {
  name: "inception_4d/relu_5x5"
  type: "ReLU"
  bottom: "inception_4d/5x5"
  top: "inception_4d/5x5"
}
layer {
  name: "inception_4d/pool"
  type: "Pooling"
  bottom: "inception_4c/output"
  top: "inception_4d/pool"
  pooling_param {
    pool: MAX
    kernel_size: 3
    stride: 1
    pad: 1
  }
}
layer {
  name: "inception_4d/pool_proj"
  type: "Convolution"
  bottom: "inception_4d/pool"
  top: "inception_4d/pool_proj"
  param {
    lr_mult: 1
    decay_mult: 1
  }
  param {
    lr_mult: 2
    decay_mult: 0
  }
  convolution_param {
    num_output: 32
    kernel_size: 1
    weight_filler {
      type: "xavier"
      std: 0.1
    }
    bias_filler {
      type: "constant"
      value: 0.2
    }
  }
}
layer {
  name: "inception_4d/relu_pool_proj"
  type: "ReLU"
  bottom: "inception_4d/pool_proj"
  top: "inception_4d/pool_proj"
}
layer {
  name: "inception_4d/output"
  type: "Concat"
  bottom: "inception_4d/1x1"
  bottom: "inception_4d/3x3"
  bottom: "inception_4d/5x5"
  bottom: "inception_4d/pool_proj"
  top: "inception_4d/output"
}
layer {
  name: "inception_4e/1x1"
  type: "Convolution"
  bottom: "inception_4d/output"
  top: "inception_4e/1x1"
  param {
    lr_mult: 1
    decay_mult: 1
  }
  param {
    lr_mult: 2
    decay_mult: 0
  }
  convolution_param {
    num_output: 128
    kernel_size: 1
    weight_filler {
      type: "xavier"
      std: 0.03
    }
    bias_filler {
      type: "constant"
      value: 0.2
    }
  }
}
layer {
  name: "inception_4e/relu_1x1"
  type: "ReLU"
  bottom: "inception_4e/1x1"
  top: "inception_4e/1x1"
}
layer {
  name: "inception_4e/3x3_reduce"
  type: "Convolution"
  bottom: "inception_4d/output"
  top: "inception_4e/3x3_reduce"
  param {
    lr_mult: 1
    decay_mult: 1
  }
  param {
    lr_mult: 2
    decay_mult: 0
  }
  convolution_param {
    num_output: 80
    kernel_size: 1
    weight_filler {
      type: "xavier"
      std: 0.09
    }
    bias_filler {
      type: "constant"
      value: 0.2
    }
  }
}
layer {
  name: "inception_4e/relu_3x3_reduce"
  type: "ReLU"
  bottom: "inception_4e/3x3_reduce"
  top: "inception_4e/3x3_reduce"
}
layer {
  name: "inception_4e/3x3"
  type: "Convolution"
  bottom: "inception_4e/3x3_reduce"
  top: "inception_4e/3x3"
  param {
    lr_mult: 1
    decay_mult: 1
  }
  param {
    lr_mult: 2
    decay_mult: 0
  }
  convolution_param {
    num_output: 160
    pad: 1
    kernel_size: 3
    weight_filler {
      type: "xavier"
      std: 0.03
    }
    bias_filler {
      type: "constant"
      value: 0.2
    }
  }
}
layer {
  name: "inception_4e/relu_3x3"
  type: "ReLU"
  bottom: "inception_4e/3x3"
  top: "inception_4e/3x3"
}
layer {
  name: "inception_4e/5x5_reduce"
  type: "Convolution"
  bottom: "inception_4d/output"
  top: "inception_4e/5x5_reduce"
  param {
    lr_mult: 1
    decay_mult: 1
  }
  param {
    lr_mult: 2
    decay_mult: 0
  }
  convolution_param {
    num_output: 16
    kernel_size: 1
    weight_filler {
      type: "xavier"
      std: 0.2
    }
    bias_filler {
      type: "constant"
      value: 0.2
    }
  }
}
layer {
  name: "inception_4e/relu_5x5_reduce"
  type: "ReLU"
  bottom: "inception_4e/5x5_reduce"
  top: "inception_4e/5x5_reduce"
}
layer {
  name: "inception_4e/5x5"
  type: "Convolution"
  bottom: "inception_4e/5x5_reduce"
  top: "inception_4e/5x5"
  param {
    lr_mult: 1
    decay_mult: 1
  }
  param {
    lr_mult: 2
    decay_mult: 0
  }
  convolution_param {
    num_output: 64
    pad: 2
    kernel_size: 5
    weight_filler {
      type: "xavier"
      std: 0.03
    }
    bias_filler {
      type: "constant"
      value: 0.2
    }
  }
}
layer {
  name: "inception_4e/relu_5x5"
  type: "ReLU"
  bottom: "inception_4e/5x5"
  top: "inception_4e/5x5"
}
layer {
  name: "inception_4e/pool"
  type: "Pooling"
  bottom: "inception_4d/output"
  top: "inception_4e/pool"
  pooling_param {
    pool: MAX
    kernel_size: 3
    stride: 1
I0321 14:30:38.500211 14821 layer_factory.hpp:77] Creating layer data
I0321 14:30:39.593536 14821 net.cpp:86] Creating Layer data
I0321 14:30:39.593603 14821 net.cpp:382] data -> data
I0321 14:30:39.593648 14821 net.cpp:382] data -> label
I0321 14:30:39.957859 14821 net.cpp:124] Setting up data
I0321 14:30:39.957932 14821 net.cpp:131] Top shape: 128 3 224 224 (19267584)
I0321 14:30:39.957952 14821 net.cpp:131] Top shape: 128 1 (128)
I0321 14:30:39.957965 14821 net.cpp:139] Memory required for data: 77070848
I0321 14:30:39.957988 14821 layer_factory.hpp:77] Creating layer label_data_1_split
I0321 14:30:39.958043 14821 net.cpp:86] Creating Layer label_data_1_split
I0321 14:30:39.958063 14821 net.cpp:408] label_data_1_split <- label
I0321 14:30:39.958117 14821 net.cpp:382] label_data_1_split -> label_data_1_split_0
I0321 14:30:39.958149 14821 net.cpp:382] label_data_1_split -> label_data_1_split_1
I0321 14:30:39.958168 14821 net.cpp:382] label_data_1_split -> label_data_1_split_2
I0321 14:30:39.958267 14821 net.cpp:124] Setting up label_data_1_split
I0321 14:30:39.958287 14821 net.cpp:131] Top shape: 128 1 (128)
I0321 14:30:39.958300 14821 net.cpp:131] Top shape: 128 1 (128)
I0321 14:30:39.958312 14821 net.cpp:131] Top shape: 128 1 (128)
I0321 14:30:39.958323 14821 net.cpp:139] Memory required for data: 77072384
I0321 14:30:39.958341 14821 layer_factory.hpp:77] Creating layer conv1/7x7_s2
I0321 14:30:39.958400 14821 net.cpp:86] Creating Layer conv1/7x7_s2
I0321 14:30:39.958412 14821 net.cpp:408] conv1/7x7_s2 <- data
I0321 14:30:39.958428 14821 net.cpp:382] conv1/7x7_s2 -> conv1/7x7_s2
I0321 14:30:39.961349 14821 net.cpp:124] Setting up conv1/7x7_s2
I0321 14:30:39.961380 14821 net.cpp:131] Top shape: 128 32 112 112 (51380224)
I0321 14:30:39.961395 14821 net.cpp:139] Memory required for data: 282593280
I0321 14:30:39.961433 14821 layer_factory.hpp:77] Creating layer conv1/relu_7x7
I0321 14:30:39.961536 14821 net.cpp:86] Creating Layer conv1/relu_7x7
I0321 14:30:39.961581 14821 net.cpp:408] conv1/relu_7x7 <- conv1/7x7_s2
I0321 14:30:39.961606 14821 net.cpp:369] conv1/relu_7x7 -> conv1/7x7_s2 (in-place)
I0321 14:30:39.961632 14821 net.cpp:124] Setting up conv1/relu_7x7
I0321 14:30:39.961652 14821 net.cpp:131] Top shape: 128 32 112 112 (51380224)
I0321 14:30:39.961663 14821 net.cpp:139] Memory required for data: 488114176
I0321 14:30:39.961673 14821 layer_factory.hpp:77] Creating layer pool1/3x3_s2
I0321 14:30:39.961752 14821 net.cpp:86] Creating Layer pool1/3x3_s2
I0321 14:30:39.961796 14821 net.cpp:408] pool1/3x3_s2 <- conv1/7x7_s2
I0321 14:30:39.961849 14821 net.cpp:382] pool1/3x3_s2 -> pool1/3x3_s2
I0321 14:30:39.961993 14821 net.cpp:124] Setting up pool1/3x3_s2
I0321 14:30:39.962040 14821 net.cpp:131] Top shape: 128 32 56 56 (12845056)
I0321 14:30:39.962074 14821 net.cpp:139] Memory required for data: 539494400
I0321 14:30:39.962107 14821 layer_factory.hpp:77] Creating layer pool1/norm1
I0321 14:30:39.962158 14821 net.cpp:86] Creating Layer pool1/norm1
I0321 14:30:39.962195 14821 net.cpp:408] pool1/norm1 <- pool1/3x3_s2
I0321 14:30:39.962234 14821 net.cpp:382] pool1/norm1 -> pool1/norm1
I0321 14:30:39.962332 14821 net.cpp:124] Setting up pool1/norm1
I0321 14:30:39.962378 14821 net.cpp:131] Top shape: 128 32 56 56 (12845056)
I0321 14:30:39.962419 14821 net.cpp:139] Memory required for data: 590874624
I0321 14:30:39.962458 14821 layer_factory.hpp:77] Creating layer conv2/3x3_reduce
I0321 14:30:39.962512 14821 net.cpp:86] Creating Layer conv2/3x3_reduce
I0321 14:30:39.962555 14821 net.cpp:408] conv2/3x3_reduce <- pool1/norm1
I0321 14:30:39.962608 14821 net.cpp:382] conv2/3x3_reduce -> conv2/3x3_reduce
I0321 14:30:39.966300 14821 net.cpp:124] Setting up conv2/3x3_reduce
I0321 14:30:39.966334 14821 net.cpp:131] Top shape: 128 32 56 56 (12845056)
I0321 14:30:39.966349 14821 net.cpp:139] Memory required for data: 642254848
I0321 14:30:39.966379 14821 layer_factory.hpp:77] Creating layer conv2/relu_3x3_reduce
I0321 14:30:39.966449 14821 net.cpp:86] Creating Layer conv2/relu_3x3_reduce
I0321 14:30:39.966493 14821 net.cpp:408] conv2/relu_3x3_reduce <- conv2/3x3_reduce
I0321 14:30:39.966536 14821 net.cpp:369] conv2/relu_3x3_reduce -> conv2/3x3_reduce (in-place)
I0321 14:30:39.966583 14821 net.cpp:124] Setting up conv2/relu_3x3_reduce
I0321 14:30:39.966622 14821 net.cpp:131] Top shape: 128 32 56 56 (12845056)
I0321 14:30:39.966656 14821 net.cpp:139] Memory required for data: 693635072
I0321 14:30:39.966701 14821 layer_factory.hpp:77] Creating layer conv2/3x3
I0321 14:30:39.966751 14821 net.cpp:86] Creating Layer conv2/3x3
I0321 14:30:39.966789 14821 net.cpp:408] conv2/3x3 <- conv2/3x3_reduce
I0321 14:30:39.966840 14821 net.cpp:382] conv2/3x3 -> conv2/3x3
I0321 14:30:39.969238 14821 net.cpp:124] Setting up conv2/3x3
I0321 14:30:39.969265 14821 net.cpp:131] Top shape: 128 96 56 56 (38535168)
I0321 14:30:39.969280 14821 net.cpp:139] Memory required for data: 847775744
I0321 14:30:39.969306 14821 layer_factory.hpp:77] Creating layer conv2/relu_3x3
I0321 14:30:39.969372 14821 net.cpp:86] Creating Layer conv2/relu_3x3
I0321 14:30:39.969425 14821 net.cpp:408] conv2/relu_3x3 <- conv2/3x3
I0321 14:30:39.969468 14821 net.cpp:369] conv2/relu_3x3 -> conv2/3x3 (in-place)
I0321 14:30:39.969512 14821 net.cpp:124] Setting up conv2/relu_3x3
I0321 14:30:39.969552 14821 net.cpp:131] Top shape: 128 96 56 56 (38535168)
I0321 14:30:39.969585 14821 net.cpp:139] Memory required for data: 1001916416
I0321 14:30:39.969619 14821 layer_factory.hpp:77] Creating layer conv2/norm2
I0321 14:30:39.969668 14821 net.cpp:86] Creating Layer conv2/norm2
I0321 14:30:39.969723 14821 net.cpp:408] conv2/norm2 <- conv2/3x3
I0321 14:30:39.969770 14821 net.cpp:382] conv2/norm2 -> conv2/norm2
I0321 14:30:39.969866 14821 net.cpp:124] Setting up conv2/norm2
I0321 14:30:39.969911 14821 net.cpp:131] Top shape: 128 96 56 56 (38535168)
I0321 14:30:39.969945 14821 net.cpp:139] Memory required for data: 1156057088
I0321 14:30:39.970018 14821 layer_factory.hpp:77] Creating layer pool2/3x3_s2
I0321 14:30:39.970060 14821 net.cpp:86] Creating Layer pool2/3x3_s2
I0321 14:30:39.970094 14821 net.cpp:408] pool2/3x3_s2 <- conv2/norm2
I0321 14:30:39.970134 14821 net.cpp:382] pool2/3x3_s2 -> pool2/3x3_s2
I0321 14:30:39.970226 14821 net.cpp:124] Setting up pool2/3x3_s2
I0321 14:30:39.970269 14821 net.cpp:131] Top shape: 128 96 28 28 (9633792)
I0321 14:30:39.970304 14821 net.cpp:139] Memory required for data: 1194592256
I0321 14:30:39.970343 14821 layer_factory.hpp:77] Creating layer pool2/3x3_s2_pool2/3x3_s2_0_split
I0321 14:30:39.970392 14821 net.cpp:86] Creating Layer pool2/3x3_s2_pool2/3x3_s2_0_split
I0321 14:30:39.970433 14821 net.cpp:408] pool2/3x3_s2_pool2/3x3_s2_0_split <- pool2/3x3_s2
I0321 14:30:39.970475 14821 net.cpp:382] pool2/3x3_s2_pool2/3x3_s2_0_split -> pool2/3x3_s2_pool2/3x3_s2_0_split_0
I0321 14:30:39.970521 14821 net.cpp:382] pool2/3x3_s2_pool2/3x3_s2_0_split -> pool2/3x3_s2_pool2/3x3_s2_0_split_1
I0321 14:30:39.970567 14821 net.cpp:382] pool2/3x3_s2_pool2/3x3_s2_0_split -> pool2/3x3_s2_pool2/3x3_s2_0_split_2
I0321 14:30:39.970613 14821 net.cpp:382] pool2/3x3_s2_pool2/3x3_s2_0_split -> pool2/3x3_s2_pool2/3x3_s2_0_split_3
I0321 14:30:39.970747 14821 net.cpp:124] Setting up pool2/3x3_s2_pool2/3x3_s2_0_split
I0321 14:30:39.970796 14821 net.cpp:131] Top shape: 128 96 28 28 (9633792)
I0321 14:30:39.970837 14821 net.cpp:131] Top shape: 128 96 28 28 (9633792)
I0321 14:30:39.970883 14821 net.cpp:131] Top shape: 128 96 28 28 (9633792)
I0321 14:30:39.970924 14821 net.cpp:131] Top shape: 128 96 28 28 (9633792)
I0321 14:30:39.970957 14821 net.cpp:139] Memory required for data: 1348732928
I0321 14:30:39.970990 14821 layer_factory.hpp:77] Creating layer inception_3a/1x1
I0321 14:30:39.971035 14821 net.cpp:86] Creating Layer inception_3a/1x1
I0321 14:30:39.971071 14821 net.cpp:408] inception_3a/1x1 <- pool2/3x3_s2_pool2/3x3_s2_0_split_0
I0321 14:30:39.971112 14821 net.cpp:382] inception_3a/1x1 -> inception_3a/1x1
I0321 14:30:39.971549 14821 net.cpp:124] Setting up inception_3a/1x1
I0321 14:30:39.971597 14821 net.cpp:131] Top shape: 128 32 28 28 (3211264)
I0321 14:30:39.971632 14821 net.cpp:139] Memory required for data: 1361577984
I0321 14:30:39.971673 14821 layer_factory.hpp:77] Creating layer inception_3a/relu_1x1
I0321 14:30:39.971724 14821 net.cpp:86] Creating Layer inception_3a/relu_1x1
I0321 14:30:39.971758 14821 net.cpp:408] inception_3a/relu_1x1 <- inception_3a/1x1
I0321 14:30:39.971806 14821 net.cpp:369] inception_3a/relu_1x1 -> inception_3a/1x1 (in-place)
I0321 14:30:39.971858 14821 net.cpp:124] Setting up inception_3a/relu_1x1
I0321 14:30:39.971904 14821 net.cpp:131] Top shape: 128 32 28 28 (3211264)
I0321 14:30:39.971941 14821 net.cpp:139] Memory required for data: 1374423040
I0321 14:30:39.971989 14821 layer_factory.hpp:77] Creating layer inception_3a/3x3_reduce
I0321 14:30:39.972041 14821 net.cpp:86] Creating Layer inception_3a/3x3_reduce
I0321 14:30:39.972081 14821 net.cpp:408] inception_3a/3x3_reduce <- pool2/3x3_s2_pool2/3x3_s2_0_split_1
I0321 14:30:39.972127 14821 net.cpp:382] inception_3a/3x3_reduce -> inception_3a/3x3_reduce
I0321 14:30:39.972779 14821 net.cpp:124] Setting up inception_3a/3x3_reduce
I0321 14:30:39.972807 14821 net.cpp:131] Top shape: 128 48 28 28 (4816896)
I0321 14:30:39.972817 14821 net.cpp:139] Memory required for data: 1393690624
I0321 14:30:39.972841 14821 layer_factory.hpp:77] Creating layer inception_3a/relu_3x3_reduce
I0321 14:30:39.972867 14821 net.cpp:86] Creating Layer inception_3a/relu_3x3_reduce
I0321 14:30:39.972880 14821 net.cpp:408] inception_3a/relu_3x3_reduce <- inception_3a/3x3_reduce
I0321 14:30:39.972903 14821 net.cpp:369] inception_3a/relu_3x3_reduce -> inception_3a/3x3_reduce (in-place)
I0321 14:30:39.972921 14821 net.cpp:124] Setting up inception_3a/relu_3x3_reduce
I0321 14:30:39.972937 14821 net.cpp:131] Top shape: 128 48 28 28 (4816896)
I0321 14:30:39.972951 14821 net.cpp:139] Memory required for data: 1412958208
I0321 14:30:39.972961 14821 layer_factory.hpp:77] Creating layer inception_3a/3x3
I0321 14:30:39.973013 14821 net.cpp:86] Creating Layer inception_3a/3x3
I0321 14:30:39.973029 14821 net.cpp:408] inception_3a/3x3 <- inception_3a/3x3_reduce
I0321 14:30:39.973050 14821 net.cpp:382] inception_3a/3x3 -> inception_3a/3x3
I0321 14:30:39.973790 14821 net.cpp:124] Setting up inception_3a/3x3
I0321 14:30:39.973819 14821 net.cpp:131] Top shape: 128 64 28 28 (6422528)
I0321 14:30:39.973834 14821 net.cpp:139] Memory required for data: 1438648320
I0321 14:30:39.973855 14821 layer_factory.hpp:77] Creating layer inception_3a/relu_3x3
I0321 14:30:39.973873 14821 net.cpp:86] Creating Layer inception_3a/relu_3x3
I0321 14:30:39.973889 14821 net.cpp:408] inception_3a/relu_3x3 <- inception_3a/3x3
I0321 14:30:39.973908 14821 net.cpp:369] inception_3a/relu_3x3 -> inception_3a/3x3 (in-place)
I0321 14:30:39.973929 14821 net.cpp:124] Setting up inception_3a/relu_3x3
I0321 14:30:39.973948 14821 net.cpp:131] Top shape: 128 64 28 28 (6422528)
I0321 14:30:39.973960 14821 net.cpp:139] Memory required for data: 1464338432
I0321 14:30:39.973973 14821 layer_factory.hpp:77] Creating layer inception_3a/5x5_reduce
I0321 14:30:39.974009 14821 net.cpp:86] Creating Layer inception_3a/5x5_reduce
I0321 14:30:39.974023 14821 net.cpp:408] inception_3a/5x5_reduce <- pool2/3x3_s2_pool2/3x3_s2_0_split_2
I0321 14:30:39.974043 14821 net.cpp:382] inception_3a/5x5_reduce -> inception_3a/5x5_reduce
I0321 14:30:39.974607 14821 net.cpp:124] Setting up inception_3a/5x5_reduce
I0321 14:30:39.974665 14821 net.cpp:131] Top shape: 128 8 28 28 (802816)
I0321 14:30:39.974701 14821 net.cpp:139] Memory required for data: 1467549696
I0321 14:30:39.974743 14821 layer_factory.hpp:77] Creating layer inception_3a/relu_5x5_reduce
I0321 14:30:39.974799 14821 net.cpp:86] Creating Layer inception_3a/relu_5x5_reduce
I0321 14:30:39.974836 14821 net.cpp:408] inception_3a/relu_5x5_reduce <- inception_3a/5x5_reduce
I0321 14:30:39.974876 14821 net.cpp:369] inception_3a/relu_5x5_reduce -> inception_3a/5x5_reduce (in-place)
I0321 14:30:39.974917 14821 net.cpp:124] Setting up inception_3a/relu_5x5_reduce
I0321 14:30:39.974954 14821 net.cpp:131] Top shape: 128 8 28 28 (802816)
I0321 14:30:39.974987 14821 net.cpp:139] Memory required for data: 1470760960
I0321 14:30:39.975029 14821 layer_factory.hpp:77] Creating layer inception_3a/5x5
I0321 14:30:39.975090 14821 net.cpp:86] Creating Layer inception_3a/5x5
I0321 14:30:39.975136 14821 net.cpp:408] inception_3a/5x5 <- inception_3a/5x5_reduce
I0321 14:30:39.975185 14821 net.cpp:382] inception_3a/5x5 -> inception_3a/5x5
I0321 14:30:39.975759 14821 net.cpp:124] Setting up inception_3a/5x5
I0321 14:30:39.975811 14821 net.cpp:131] Top shape: 128 16 28 28 (1605632)
I0321 14:30:39.975831 14821 net.cpp:139] Memory required for data: 1477183488
I0321 14:30:39.975850 14821 layer_factory.hpp:77] Creating layer inception_3a/relu_5x5
I0321 14:30:39.975874 14821 net.cpp:86] Creating Layer inception_3a/relu_5x5
I0321 14:30:39.975888 14821 net.cpp:408] inception_3a/relu_5x5 <- inception_3a/5x5
I0321 14:30:39.975903 14821 net.cpp:369] inception_3a/relu_5x5 -> inception_3a/5x5 (in-place)
I0321 14:30:39.975919 14821 net.cpp:124] Setting up inception_3a/relu_5x5
I0321 14:30:39.975934 14821 net.cpp:131] Top shape: 128 16 28 28 (1605632)
I0321 14:30:39.975950 14821 net.cpp:139] Memory required for data: 1483606016
I0321 14:30:39.975960 14821 layer_factory.hpp:77] Creating layer inception_3a/pool
I0321 14:30:39.975991 14821 net.cpp:86] Creating Layer inception_3a/pool
I0321 14:30:39.976006 14821 net.cpp:408] inception_3a/pool <- pool2/3x3_s2_pool2/3x3_s2_0_split_3
I0321 14:30:39.976022 14821 net.cpp:382] inception_3a/pool -> inception_3a/pool
I0321 14:30:39.976105 14821 net.cpp:124] Setting up inception_3a/pool
I0321 14:30:39.976130 14821 net.cpp:131] Top shape: 128 96 28 28 (9633792)
I0321 14:30:39.976141 14821 net.cpp:139] Memory required for data: 1522141184
I0321 14:30:39.976151 14821 layer_factory.hpp:77] Creating layer inception_3a/pool_proj
I0321 14:30:39.976172 14821 net.cpp:86] Creating Layer inception_3a/pool_proj
I0321 14:30:39.976186 14821 net.cpp:408] inception_3a/pool_proj <- inception_3a/pool
I0321 14:30:39.976240 14821 net.cpp:382] inception_3a/pool_proj -> inception_3a/pool_proj
I0321 14:30:39.976701 14821 net.cpp:124] Setting up inception_3a/pool_proj
I0321 14:30:39.976724 14821 net.cpp:131] Top shape: 128 16 28 28 (1605632)
I0321 14:30:39.976742 14821 net.cpp:139] Memory required for data: 1528563712
I0321 14:30:39.976766 14821 layer_factory.hpp:77] Creating layer inception_3a/relu_pool_proj
I0321 14:30:39.976785 14821 net.cpp:86] Creating Layer inception_3a/relu_pool_proj
I0321 14:30:39.976801 14821 net.cpp:408] inception_3a/relu_pool_proj <- inception_3a/pool_proj
I0321 14:30:39.976814 14821 net.cpp:369] inception_3a/relu_pool_proj -> inception_3a/pool_proj (in-place)
I0321 14:30:39.976832 14821 net.cpp:124] Setting up inception_3a/relu_pool_proj
I0321 14:30:39.976848 14821 net.cpp:131] Top shape: 128 16 28 28 (1605632)
I0321 14:30:39.976861 14821 net.cpp:139] Memory required for data: 1534986240
I0321 14:30:39.976871 14821 layer_factory.hpp:77] Creating layer inception_3a/output
I0321 14:30:39.976910 14821 net.cpp:86] Creating Layer inception_3a/output
I0321 14:30:39.976924 14821 net.cpp:408] inception_3a/output <- inception_3a/1x1
I0321 14:30:39.976938 14821 net.cpp:408] inception_3a/output <- inception_3a/3x3
I0321 14:30:39.976951 14821 net.cpp:408] inception_3a/output <- inception_3a/5x5
I0321 14:30:39.976963 14821 net.cpp:408] inception_3a/output <- inception_3a/pool_proj
I0321 14:30:39.976979 14821 net.cpp:382] inception_3a/output -> inception_3a/output
I0321 14:30:39.977030 14821 net.cpp:124] Setting up inception_3a/output
I0321 14:30:39.977048 14821 net.cpp:131] Top shape: 128 128 28 28 (12845056)
I0321 14:30:39.977061 14821 net.cpp:139] Memory required for data: 1586366464
I0321 14:30:39.977072 14821 layer_factory.hpp:77] Creating layer inception_3a/output_inception_3a/output_0_split
I0321 14:30:39.977087 14821 net.cpp:86] Creating Layer inception_3a/output_inception_3a/output_0_split
I0321 14:30:39.977100 14821 net.cpp:408] inception_3a/output_inception_3a/output_0_split <- inception_3a/output
I0321 14:30:39.977115 14821 net.cpp:382] inception_3a/output_inception_3a/output_0_split -> inception_3a/output_inception_3a/output_0_split_0
I0321 14:30:39.977135 14821 net.cpp:382] inception_3a/output_inception_3a/output_0_split -> inception_3a/output_inception_3a/output_0_split_1
I0321 14:30:39.977154 14821 net.cpp:382] inception_3a/output_inception_3a/output_0_split -> inception_3a/output_inception_3a/output_0_split_2
I0321 14:30:39.977172 14821 net.cpp:382] inception_3a/output_inception_3a/output_0_split -> inception_3a/output_inception_3a/output_0_split_3
I0321 14:30:39.977267 14821 net.cpp:124] Setting up inception_3a/output_inception_3a/output_0_split
I0321 14:30:39.977286 14821 net.cpp:131] Top shape: 128 128 28 28 (12845056)
I0321 14:30:39.977301 14821 net.cpp:131] Top shape: 128 128 28 28 (12845056)
I0321 14:30:39.977315 14821 net.cpp:131] Top shape: 128 128 28 28 (12845056)
I0321 14:30:39.977327 14821 net.cpp:131] Top shape: 128 128 28 28 (12845056)
I0321 14:30:39.977339 14821 net.cpp:139] Memory required for data: 1791887360
I0321 14:30:39.977360 14821 layer_factory.hpp:77] Creating layer inception_3b/1x1
I0321 14:30:39.977385 14821 net.cpp:86] Creating Layer inception_3b/1x1
I0321 14:30:39.977398 14821 net.cpp:408] inception_3b/1x1 <- inception_3a/output_inception_3a/output_0_split_0
I0321 14:30:39.977416 14821 net.cpp:382] inception_3b/1x1 -> inception_3b/1x1
I0321 14:30:39.977964 14821 net.cpp:124] Setting up inception_3b/1x1
I0321 14:30:39.977994 14821 net.cpp:131] Top shape: 128 64 28 28 (6422528)
I0321 14:30:39.978004 14821 net.cpp:139] Memory required for data: 1817577472
I0321 14:30:39.978020 14821 layer_factory.hpp:77] Creating layer inception_3b/relu_1x1
I0321 14:30:39.978035 14821 net.cpp:86] Creating Layer inception_3b/relu_1x1
I0321 14:30:39.978050 14821 net.cpp:408] inception_3b/relu_1x1 <- inception_3b/1x1
I0321 14:30:39.978068 14821 net.cpp:369] inception_3b/relu_1x1 -> inception_3b/1x1 (in-place)
I0321 14:30:39.978091 14821 net.cpp:124] Setting up inception_3b/relu_1x1
I0321 14:30:39.978127 14821 net.cpp:131] Top shape: 128 64 28 28 (6422528)
I0321 14:30:39.978142 14821 net.cpp:139] Memory required for data: 1843267584
I0321 14:30:39.978152 14821 layer_factory.hpp:77] Creating layer inception_3b/3x3_reduce
I0321 14:30:39.978188 14821 net.cpp:86] Creating Layer inception_3b/3x3_reduce
I0321 14:30:39.978204 14821 net.cpp:408] inception_3b/3x3_reduce <- inception_3a/output_inception_3a/output_0_split_1
I0321 14:30:39.978225 14821 net.cpp:382] inception_3b/3x3_reduce -> inception_3b/3x3_reduce
I0321 14:30:39.978749 14821 net.cpp:124] Setting up inception_3b/3x3_reduce
I0321 14:30:39.978775 14821 net.cpp:131] Top shape: 128 64 28 28 (6422528)
I0321 14:30:39.978788 14821 net.cpp:139] Memory required for data: 1868957696
I0321 14:30:39.978806 14821 layer_factory.hpp:77] Creating layer inception_3b/relu_3x3_reduce
I0321 14:30:39.978823 14821 net.cpp:86] Creating Layer inception_3b/relu_3x3_reduce
I0321 14:30:39.978837 14821 net.cpp:408] inception_3b/relu_3x3_reduce <- inception_3b/3x3_reduce
I0321 14:30:39.978854 14821 net.cpp:369] inception_3b/relu_3x3_reduce -> inception_3b/3x3_reduce (in-place)
I0321 14:30:39.978873 14821 net.cpp:124] Setting up inception_3b/relu_3x3_reduce
I0321 14:30:39.978889 14821 net.cpp:131] Top shape: 128 64 28 28 (6422528)
I0321 14:30:39.978901 14821 net.cpp:139] Memory required for data: 1894647808
I0321 14:30:39.978911 14821 layer_factory.hpp:77] Creating layer inception_3b/3x3
I0321 14:30:39.978940 14821 net.cpp:86] Creating Layer inception_3b/3x3
I0321 14:30:39.978955 14821 net.cpp:408] inception_3b/3x3 <- inception_3b/3x3_reduce
I0321 14:30:39.978987 14821 net.cpp:382] inception_3b/3x3 -> inception_3b/3x3
I0321 14:30:39.980067 14821 net.cpp:124] Setting up inception_3b/3x3
I0321 14:30:39.980092 14821 net.cpp:131] Top shape: 128 96 28 28 (9633792)
I0321 14:30:39.980103 14821 net.cpp:139] Memory required for data: 1933182976
I0321 14:30:39.980123 14821 layer_factory.hpp:77] Creating layer inception_3b/relu_3x3
I0321 14:30:39.980154 14821 net.cpp:86] Creating Layer inception_3b/relu_3x3
I0321 14:30:39.980170 14821 net.cpp:408] inception_3b/relu_3x3 <- inception_3b/3x3
I0321 14:30:39.980187 14821 net.cpp:369] inception_3b/relu_3x3 -> inception_3b/3x3 (in-place)
I0321 14:30:39.980208 14821 net.cpp:124] Setting up inception_3b/relu_3x3
I0321 14:30:39.980226 14821 net.cpp:131] Top shape: 128 96 28 28 (9633792)
I0321 14:30:39.980239 14821 net.cpp:139] Memory required for data: 1971718144
I0321 14:30:39.980252 14821 layer_factory.hpp:77] Creating layer inception_3b/5x5_reduce
I0321 14:30:39.980278 14821 net.cpp:86] Creating Layer inception_3b/5x5_reduce
I0321 14:30:39.980293 14821 net.cpp:408] inception_3b/5x5_reduce <- inception_3a/output_inception_3a/output_0_split_2
I0321 14:30:39.980316 14821 net.cpp:382] inception_3b/5x5_reduce -> inception_3b/5x5_reduce
I0321 14:30:39.980748 14821 net.cpp:124] Setting up inception_3b/5x5_reduce
I0321 14:30:39.980774 14821 net.cpp:131] Top shape: 128 16 28 28 (1605632)
I0321 14:30:39.980789 14821 net.cpp:139] Memory required for data: 1978140672
I0321 14:30:39.980828 14821 layer_factory.hpp:77] Creating layer inception_3b/relu_5x5_reduce
I0321 14:30:39.980861 14821 net.cpp:86] Creating Layer inception_3b/relu_5x5_reduce
I0321 14:30:39.980880 14821 net.cpp:408] inception_3b/relu_5x5_reduce <- inception_3b/5x5_reduce
I0321 14:30:39.980900 14821 net.cpp:369] inception_3b/relu_5x5_reduce -> inception_3b/5x5_reduce (in-place)
I0321 14:30:39.980918 14821 net.cpp:124] Setting up inception_3b/relu_5x5_reduce
I0321 14:30:39.980936 14821 net.cpp:131] Top shape: 128 16 28 28 (1605632)
I0321 14:30:39.980947 14821 net.cpp:139] Memory required for data: 1984563200
I0321 14:30:39.980957 14821 layer_factory.hpp:77] Creating layer inception_3b/5x5
I0321 14:30:39.980979 14821 net.cpp:86] Creating Layer inception_3b/5x5
I0321 14:30:39.980993 14821 net.cpp:408] inception_3b/5x5 <- inception_3b/5x5_reduce
I0321 14:30:39.981014 14821 net.cpp:382] inception_3b/5x5 -> inception_3b/5x5
I0321 14:30:39.981649 14821 net.cpp:124] Setting up inception_3b/5x5
I0321 14:30:39.981691 14821 net.cpp:131] Top shape: 128 48 28 28 (4816896)
I0321 14:30:39.981719 14821 net.cpp:139] Memory required for data: 2003830784
I0321 14:30:39.981742 14821 layer_factory.hpp:77] Creating layer inception_3b/relu_5x5
I0321 14:30:39.981760 14821 net.cpp:86] Creating Layer inception_3b/relu_5x5
I0321 14:30:39.981775 14821 net.cpp:408] inception_3b/relu_5x5 <- inception_3b/5x5
I0321 14:30:39.981791 14821 net.cpp:369] inception_3b/relu_5x5 -> inception_3b/5x5 (in-place)
I0321 14:30:39.981809 14821 net.cpp:124] Setting up inception_3b/relu_5x5
I0321 14:30:39.981827 14821 net.cpp:131] Top shape: 128 48 28 28 (4816896)
I0321 14:30:39.981835 14821 net.cpp:139] Memory required for data: 2023098368
I0321 14:30:39.981844 14821 layer_factory.hpp:77] Creating layer inception_3b/pool
I0321 14:30:39.981858 14821 net.cpp:86] Creating Layer inception_3b/pool
I0321 14:30:39.981868 14821 net.cpp:408] inception_3b/pool <- inception_3a/output_inception_3a/output_0_split_3
I0321 14:30:39.981884 14821 net.cpp:382] inception_3b/pool -> inception_3b/pool
I0321 14:30:39.981952 14821 net.cpp:124] Setting up inception_3b/pool
I0321 14:30:39.981973 14821 net.cpp:131] Top shape: 128 128 28 28 (12845056)
I0321 14:30:39.981986 14821 net.cpp:139] Memory required for data: 2074478592
I0321 14:30:39.981997 14821 layer_factory.hpp:77] Creating layer inception_3b/pool_proj
I0321 14:30:39.982031 14821 net.cpp:86] Creating Layer inception_3b/pool_proj
I0321 14:30:39.982046 14821 net.cpp:408] inception_3b/pool_proj <- inception_3b/pool
I0321 14:30:39.982067 14821 net.cpp:382] inception_3b/pool_proj -> inception_3b/pool_proj
I0321 14:30:39.982496 14821 net.cpp:124] Setting up inception_3b/pool_proj
I0321 14:30:39.982519 14821 net.cpp:131] Top shape: 128 32 28 28 (3211264)
I0321 14:30:39.982532 14821 net.cpp:139] Memory required for data: 2087323648
I0321 14:30:39.982547 14821 layer_factory.hpp:77] Creating layer inception_3b/relu_pool_proj
I0321 14:30:39.982565 14821 net.cpp:86] Creating Layer inception_3b/relu_pool_proj
I0321 14:30:39.982579 14821 net.cpp:408] inception_3b/relu_pool_proj <- inception_3b/pool_proj
I0321 14:30:39.982595 14821 net.cpp:369] inception_3b/relu_pool_proj -> inception_3b/pool_proj (in-place)
I0321 14:30:39.982614 14821 net.cpp:124] Setting up inception_3b/relu_pool_proj
I0321 14:30:39.982630 14821 net.cpp:131] Top shape: 128 32 28 28 (3211264)
I0321 14:30:39.982641 14821 net.cpp:139] Memory required for data: 2100168704
I0321 14:30:39.982650 14821 layer_factory.hpp:77] Creating layer inception_3b/output
I0321 14:30:39.982666 14821 net.cpp:86] Creating Layer inception_3b/output
I0321 14:30:39.982678 14821 net.cpp:408] inception_3b/output <- inception_3b/1x1
I0321 14:30:39.982693 14821 net.cpp:408] inception_3b/output <- inception_3b/3x3
I0321 14:30:39.982708 14821 net.cpp:408] inception_3b/output <- inception_3b/5x5
I0321 14:30:39.982724 14821 net.cpp:408] inception_3b/output <- inception_3b/pool_proj
I0321 14:30:39.982740 14821 net.cpp:382] inception_3b/output -> inception_3b/output
I0321 14:30:39.982787 14821 net.cpp:124] Setting up inception_3b/output
I0321 14:30:39.982808 14821 net.cpp:131] Top shape: 128 240 28 28 (24084480)
I0321 14:30:39.982821 14821 net.cpp:139] Memory required for data: 2196506624
I0321 14:30:39.982846 14821 layer_factory.hpp:77] Creating layer inception_3b/output_inception_3b/output_0_split
I0321 14:30:39.982863 14821 net.cpp:86] Creating Layer inception_3b/output_inception_3b/output_0_split
I0321 14:30:39.982877 14821 net.cpp:408] inception_3b/output_inception_3b/output_0_split <- inception_3b/output
I0321 14:30:39.982894 14821 net.cpp:382] inception_3b/output_inception_3b/output_0_split -> inception_3b/output_inception_3b/output_0_split_0
I0321 14:30:39.982915 14821 net.cpp:382] inception_3b/output_inception_3b/output_0_split -> inception_3b/output_inception_3b/output_0_split_1
I0321 14:30:39.982982 14821 net.cpp:124] Setting up inception_3b/output_inception_3b/output_0_split
I0321 14:30:39.983002 14821 net.cpp:131] Top shape: 128 240 28 28 (24084480)
I0321 14:30:39.983036 14821 net.cpp:131] Top shape: 128 240 28 28 (24084480)
I0321 14:30:39.983052 14821 net.cpp:139] Memory required for data: 2389182464
I0321 14:30:39.983065 14821 layer_factory.hpp:77] Creating layer loss1_my/ave_pool
I0321 14:30:39.983095 14821 net.cpp:86] Creating Layer loss1_my/ave_pool
I0321 14:30:39.983111 14821 net.cpp:408] loss1_my/ave_pool <- inception_3b/output_inception_3b/output_0_split_0
I0321 14:30:39.983131 14821 net.cpp:382] loss1_my/ave_pool -> loss1_my/ave_pool
I0321 14:30:39.983183 14821 net.cpp:124] Setting up loss1_my/ave_pool
I0321 14:30:39.983206 14821 net.cpp:131] Top shape: 128 240 9 9 (2488320)
I0321 14:30:39.983220 14821 net.cpp:139] Memory required for data: 2399135744
I0321 14:30:39.983234 14821 layer_factory.hpp:77] Creating layer loss1_my/conv
I0321 14:30:39.983258 14821 net.cpp:86] Creating Layer loss1_my/conv
I0321 14:30:39.983273 14821 net.cpp:408] loss1_my/conv <- loss1_my/ave_pool
I0321 14:30:39.983292 14821 net.cpp:382] loss1_my/conv -> loss1_my/conv
I0321 14:30:39.983759 14821 net.cpp:124] Setting up loss1_my/conv
I0321 14:30:39.983784 14821 net.cpp:131] Top shape: 128 20 9 9 (207360)
I0321 14:30:39.983801 14821 net.cpp:139] Memory required for data: 2399965184
I0321 14:30:39.983820 14821 layer_factory.hpp:77] Creating layer loss1_my/relu_conv
I0321 14:30:39.983837 14821 net.cpp:86] Creating Layer loss1_my/relu_conv
I0321 14:30:39.983855 14821 net.cpp:408] loss1_my/relu_conv <- loss1_my/conv
I0321 14:30:39.983871 14821 net.cpp:369] loss1_my/relu_conv -> loss1_my/conv (in-place)
I0321 14:30:39.983891 14821 net.cpp:124] Setting up loss1_my/relu_conv
I0321 14:30:39.983909 14821 net.cpp:131] Top shape: 128 20 9 9 (207360)
I0321 14:30:39.983924 14821 net.cpp:139] Memory required for data: 2400794624
I0321 14:30:39.983950 14821 layer_factory.hpp:77] Creating layer loss1_my/drop_conv
I0321 14:30:39.983986 14821 net.cpp:86] Creating Layer loss1_my/drop_conv
I0321 14:30:39.984001 14821 net.cpp:408] loss1_my/drop_conv <- loss1_my/conv
I0321 14:30:39.984019 14821 net.cpp:369] loss1_my/drop_conv -> loss1_my/conv (in-place)
I0321 14:30:39.984078 14821 net.cpp:124] Setting up loss1_my/drop_conv
I0321 14:30:39.984099 14821 net.cpp:131] Top shape: 128 20 9 9 (207360)
I0321 14:30:39.984112 14821 net.cpp:139] Memory required for data: 2401624064
I0321 14:30:39.984125 14821 layer_factory.hpp:77] Creating layer loss1_lite/classifier
I0321 14:30:39.984146 14821 net.cpp:86] Creating Layer loss1_lite/classifier
I0321 14:30:39.984160 14821 net.cpp:408] loss1_lite/classifier <- loss1_my/conv
I0321 14:30:39.984179 14821 net.cpp:382] loss1_lite/classifier -> loss1_lite/classifier
I0321 14:30:39.984369 14821 net.cpp:124] Setting up loss1_lite/classifier
I0321 14:30:39.984390 14821 net.cpp:131] Top shape: 128 1 (128)
I0321 14:30:39.984403 14821 net.cpp:139] Memory required for data: 2401624576
I0321 14:30:39.984433 14821 layer_factory.hpp:77] Creating layer loss1_my/loss
I0321 14:30:39.985319 14821 net.cpp:86] Creating Layer loss1_my/loss
I0321 14:30:39.985342 14821 net.cpp:408] loss1_my/loss <- loss1_lite/classifier
I0321 14:30:39.985358 14821 net.cpp:408] loss1_my/loss <- label_data_1_split_0
I0321 14:30:39.985375 14821 net.cpp:382] loss1_my/loss -> loss1_my/loss
I0321 14:30:39.985818 14821 net.cpp:124] Setting up loss1_my/loss
I0321 14:30:39.985846 14821 net.cpp:131] Top shape: 1 (1)
I0321 14:30:39.985859 14821 net.cpp:134]     with loss weight 0.1
I0321 14:30:39.985905 14821 net.cpp:139] Memory required for data: 2401624580
I0321 14:30:39.985919 14821 layer_factory.hpp:77] Creating layer pool3/3x3_s2
I0321 14:30:39.985949 14821 net.cpp:86] Creating Layer pool3/3x3_s2
I0321 14:30:39.985965 14821 net.cpp:408] pool3/3x3_s2 <- inception_3b/output_inception_3b/output_0_split_1
I0321 14:30:39.985982 14821 net.cpp:382] pool3/3x3_s2 -> pool3/3x3_s2
I0321 14:30:39.986053 14821 net.cpp:124] Setting up pool3/3x3_s2
I0321 14:30:39.986074 14821 net.cpp:131] Top shape: 128 240 14 14 (6021120)
I0321 14:30:39.986088 14821 net.cpp:139] Memory required for data: 2425709060
I0321 14:30:39.986120 14821 layer_factory.hpp:77] Creating layer pool3/3x3_s2_pool3/3x3_s2_0_split
I0321 14:30:39.986137 14821 net.cpp:86] Creating Layer pool3/3x3_s2_pool3/3x3_s2_0_split
I0321 14:30:39.986147 14821 net.cpp:408] pool3/3x3_s2_pool3/3x3_s2_0_split <- pool3/3x3_s2
I0321 14:30:39.986161 14821 net.cpp:382] pool3/3x3_s2_pool3/3x3_s2_0_split -> pool3/3x3_s2_pool3/3x3_s2_0_split_0
I0321 14:30:39.986178 14821 net.cpp:382] pool3/3x3_s2_pool3/3x3_s2_0_split -> pool3/3x3_s2_pool3/3x3_s2_0_split_1
I0321 14:30:39.986196 14821 net.cpp:382] pool3/3x3_s2_pool3/3x3_s2_0_split -> pool3/3x3_s2_pool3/3x3_s2_0_split_2
I0321 14:30:39.986210 14821 net.cpp:382] pool3/3x3_s2_pool3/3x3_s2_0_split -> pool3/3x3_s2_pool3/3x3_s2_0_split_3
I0321 14:30:39.986310 14821 net.cpp:124] Setting up pool3/3x3_s2_pool3/3x3_s2_0_split
I0321 14:30:39.986330 14821 net.cpp:131] Top shape: 128 240 14 14 (6021120)
I0321 14:30:39.986346 14821 net.cpp:131] Top shape: 128 240 14 14 (6021120)
I0321 14:30:39.986361 14821 net.cpp:131] Top shape: 128 240 14 14 (6021120)
I0321 14:30:39.986374 14821 net.cpp:131] Top shape: 128 240 14 14 (6021120)
I0321 14:30:39.986387 14821 net.cpp:139] Memory required for data: 2522046980
I0321 14:30:39.986397 14821 layer_factory.hpp:77] Creating layer inception_4a/1x1
I0321 14:30:39.986431 14821 net.cpp:86] Creating Layer inception_4a/1x1
I0321 14:30:39.986446 14821 net.cpp:408] inception_4a/1x1 <- pool3/3x3_s2_pool3/3x3_s2_0_split_0
I0321 14:30:39.986466 14821 net.cpp:382] inception_4a/1x1 -> inception_4a/1x1
I0321 14:30:39.987136 14821 net.cpp:124] Setting up inception_4a/1x1
I0321 14:30:39.987162 14821 net.cpp:131] Top shape: 128 96 14 14 (2408448)
I0321 14:30:39.987177 14821 net.cpp:139] Memory required for data: 2531680772
I0321 14:30:39.987197 14821 layer_factory.hpp:77] Creating layer inception_4a/relu_1x1
I0321 14:30:39.987215 14821 net.cpp:86] Creating Layer inception_4a/relu_1x1
I0321 14:30:39.987228 14821 net.cpp:408] inception_4a/relu_1x1 <- inception_4a/1x1
I0321 14:30:39.987246 14821 net.cpp:369] inception_4a/relu_1x1 -> inception_4a/1x1 (in-place)
I0321 14:30:39.987265 14821 net.cpp:124] Setting up inception_4a/relu_1x1
I0321 14:30:39.987282 14821 net.cpp:131] Top shape: 128 96 14 14 (2408448)
I0321 14:30:39.987296 14821 net.cpp:139] Memory required for data: 2541314564
I0321 14:30:39.987323 14821 layer_factory.hpp:77] Creating layer inception_4a/3x3_reduce
I0321 14:30:39.987360 14821 net.cpp:86] Creating Layer inception_4a/3x3_reduce
I0321 14:30:39.987380 14821 net.cpp:408] inception_4a/3x3_reduce <- pool3/3x3_s2_pool3/3x3_s2_0_split_1
I0321 14:30:39.987403 14821 net.cpp:382] inception_4a/3x3_reduce -> inception_4a/3x3_reduce
I0321 14:30:39.988147 14821 net.cpp:124] Setting up inception_4a/3x3_reduce
I0321 14:30:39.988173 14821 net.cpp:131] Top shape: 128 48 14 14 (1204224)
I0321 14:30:39.988188 14821 net.cpp:139] Memory required for data: 2546131460
I0321 14:30:39.988207 14821 layer_factory.hpp:77] Creating layer inception_4a/relu_3x3_reduce
I0321 14:30:39.988225 14821 net.cpp:86] Creating Layer inception_4a/relu_3x3_reduce
I0321 14:30:39.988240 14821 net.cpp:408] inception_4a/relu_3x3_reduce <- inception_4a/3x3_reduce
I0321 14:30:39.988258 14821 net.cpp:369] inception_4a/relu_3x3_reduce -> inception_4a/3x3_reduce (in-place)
I0321 14:30:39.988278 14821 net.cpp:124] Setting up inception_4a/relu_3x3_reduce
I0321 14:30:39.988296 14821 net.cpp:131] Top shape: 128 48 14 14 (1204224)
I0321 14:30:39.988307 14821 net.cpp:139] Memory required for data: 2550948356
I0321 14:30:39.988322 14821 layer_factory.hpp:77] Creating layer inception_4a/3x3
I0321 14:30:39.988363 14821 net.cpp:86] Creating Layer inception_4a/3x3
I0321 14:30:39.988380 14821 net.cpp:408] inception_4a/3x3 <- inception_4a/3x3_reduce
I0321 14:30:39.988400 14821 net.cpp:382] inception_4a/3x3 -> inception_4a/3x3
I0321 14:30:39.989346 14821 net.cpp:124] Setting up inception_4a/3x3
I0321 14:30:39.989370 14821 net.cpp:131] Top shape: 128 104 14 14 (2609152)
I0321 14:30:39.989384 14821 net.cpp:139] Memory required for data: 2561384964
I0321 14:30:39.989401 14821 layer_factory.hpp:77] Creating layer inception_4a/relu_3x3
I0321 14:30:39.989445 14821 net.cpp:86] Creating Layer inception_4a/relu_3x3
I0321 14:30:39.989461 14821 net.cpp:408] inception_4a/relu_3x3 <- inception_4a/3x3
I0321 14:30:39.989477 14821 net.cpp:369] inception_4a/relu_3x3 -> inception_4a/3x3 (in-place)
I0321 14:30:39.989496 14821 net.cpp:124] Setting up inception_4a/relu_3x3
I0321 14:30:39.989513 14821 net.cpp:131] Top shape: 128 104 14 14 (2609152)
I0321 14:30:39.989526 14821 net.cpp:139] Memory required for data: 2571821572
I0321 14:30:39.989544 14821 layer_factory.hpp:77] Creating layer inception_4a/5x5_reduce
I0321 14:30:39.989567 14821 net.cpp:86] Creating Layer inception_4a/5x5_reduce
I0321 14:30:39.989583 14821 net.cpp:408] inception_4a/5x5_reduce <- pool3/3x3_s2_pool3/3x3_s2_0_split_2
I0321 14:30:39.989603 14821 net.cpp:382] inception_4a/5x5_reduce -> inception_4a/5x5_reduce
I0321 14:30:39.990020 14821 net.cpp:124] Setting up inception_4a/5x5_reduce
I0321 14:30:39.990039 14821 net.cpp:131] Top shape: 128 8 14 14 (200704)
I0321 14:30:39.990046 14821 net.cpp:139] Memory required for data: 2572624388
I0321 14:30:39.990056 14821 layer_factory.hpp:77] Creating layer inception_4a/relu_5x5_reduce
I0321 14:30:39.990077 14821 net.cpp:86] Creating Layer inception_4a/relu_5x5_reduce
I0321 14:30:39.990087 14821 net.cpp:408] inception_4a/relu_5x5_reduce <- inception_4a/5x5_reduce
I0321 14:30:39.990097 14821 net.cpp:369] inception_4a/relu_5x5_reduce -> inception_4a/5x5_reduce (in-place)
I0321 14:30:39.990108 14821 net.cpp:124] Setting up inception_4a/relu_5x5_reduce
I0321 14:30:39.990118 14821 net.cpp:131] Top shape: 128 8 14 14 (200704)
I0321 14:30:39.990123 14821 net.cpp:139] Memory required for data: 2573427204
I0321 14:30:39.990128 14821 layer_factory.hpp:77] Creating layer inception_4a/5x5
I0321 14:30:39.990140 14821 net.cpp:86] Creating Layer inception_4a/5x5
I0321 14:30:39.990147 14821 net.cpp:408] inception_4a/5x5 <- inception_4a/5x5_reduce
I0321 14:30:39.990156 14821 net.cpp:382] inception_4a/5x5 -> inception_4a/5x5
I0321 14:30:39.990458 14821 net.cpp:124] Setting up inception_4a/5x5
I0321 14:30:39.990473 14821 net.cpp:131] Top shape: 128 24 14 14 (602112)
I0321 14:30:39.990480 14821 net.cpp:139] Memory required for data: 2575835652
I0321 14:30:39.990489 14821 layer_factory.hpp:77] Creating layer inception_4a/relu_5x5
I0321 14:30:39.990501 14821 net.cpp:86] Creating Layer inception_4a/relu_5x5
I0321 14:30:39.990511 14821 net.cpp:408] inception_4a/relu_5x5 <- inception_4a/5x5
I0321 14:30:39.990520 14821 net.cpp:369] inception_4a/relu_5x5 -> inception_4a/5x5 (in-place)
I0321 14:30:39.990530 14821 net.cpp:124] Setting up inception_4a/relu_5x5
I0321 14:30:39.990540 14821 net.cpp:131] Top shape: 128 24 14 14 (602112)
I0321 14:30:39.990545 14821 net.cpp:139] Memory required for data: 2578244100
I0321 14:30:39.990558 14821 layer_factory.hpp:77] Creating layer inception_4a/pool
I0321 14:30:39.990569 14821 net.cpp:86] Creating Layer inception_4a/pool
I0321 14:30:39.990576 14821 net.cpp:408] inception_4a/pool <- pool3/3x3_s2_pool3/3x3_s2_0_split_3
I0321 14:30:39.990586 14821 net.cpp:382] inception_4a/pool -> inception_4a/pool
I0321 14:30:39.990636 14821 net.cpp:124] Setting up inception_4a/pool
I0321 14:30:39.990650 14821 net.cpp:131] Top shape: 128 240 14 14 (6021120)
I0321 14:30:39.990656 14821 net.cpp:139] Memory required for data: 2602328580
I0321 14:30:39.990663 14821 layer_factory.hpp:77] Creating layer inception_4a/pool_proj
I0321 14:30:39.990684 14821 net.cpp:86] Creating Layer inception_4a/pool_proj
I0321 14:30:39.990691 14821 net.cpp:408] inception_4a/pool_proj <- inception_4a/pool
I0321 14:30:39.990702 14821 net.cpp:382] inception_4a/pool_proj -> inception_4a/pool_proj
I0321 14:30:39.991029 14821 net.cpp:124] Setting up inception_4a/pool_proj
I0321 14:30:39.991045 14821 net.cpp:131] Top shape: 128 32 14 14 (802816)
I0321 14:30:39.991051 14821 net.cpp:139] Memory required for data: 2605539844
I0321 14:30:39.991061 14821 layer_factory.hpp:77] Creating layer inception_4a/relu_pool_proj
I0321 14:30:39.991070 14821 net.cpp:86] Creating Layer inception_4a/relu_pool_proj
I0321 14:30:39.991096 14821 net.cpp:408] inception_4a/relu_pool_proj <- inception_4a/pool_proj
I0321 14:30:39.991106 14821 net.cpp:369] inception_4a/relu_pool_proj -> inception_4a/pool_proj (in-place)
I0321 14:30:39.991118 14821 net.cpp:124] Setting up inception_4a/relu_pool_proj
I0321 14:30:39.991129 14821 net.cpp:131] Top shape: 128 32 14 14 (802816)
I0321 14:30:39.991135 14821 net.cpp:139] Memory required for data: 2608751108
I0321 14:30:39.991140 14821 layer_factory.hpp:77] Creating layer inception_4a/output
I0321 14:30:39.991168 14821 net.cpp:86] Creating Layer inception_4a/output
I0321 14:30:39.991178 14821 net.cpp:408] inception_4a/output <- inception_4a/1x1
I0321 14:30:39.991185 14821 net.cpp:408] inception_4a/output <- inception_4a/3x3
I0321 14:30:39.991194 14821 net.cpp:408] inception_4a/output <- inception_4a/5x5
I0321 14:30:39.991200 14821 net.cpp:408] inception_4a/output <- inception_4a/pool_proj
I0321 14:30:39.991209 14821 net.cpp:382] inception_4a/output -> inception_4a/output
I0321 14:30:39.991245 14821 net.cpp:124] Setting up inception_4a/output
I0321 14:30:39.991258 14821 net.cpp:131] Top shape: 128 256 14 14 (6422528)
I0321 14:30:39.991264 14821 net.cpp:139] Memory required for data: 2634441220
I0321 14:30:39.991271 14821 layer_factory.hpp:77] Creating layer inception_4a/output_inception_4a/output_0_split
I0321 14:30:39.991281 14821 net.cpp:86] Creating Layer inception_4a/output_inception_4a/output_0_split
I0321 14:30:39.991288 14821 net.cpp:408] inception_4a/output_inception_4a/output_0_split <- inception_4a/output
I0321 14:30:39.991298 14821 net.cpp:382] inception_4a/output_inception_4a/output_0_split -> inception_4a/output_inception_4a/output_0_split_0
I0321 14:30:39.991312 14821 net.cpp:382] inception_4a/output_inception_4a/output_0_split -> inception_4a/output_inception_4a/output_0_split_1
I0321 14:30:39.991324 14821 net.cpp:382] inception_4a/output_inception_4a/output_0_split -> inception_4a/output_inception_4a/output_0_split_2
I0321 14:30:39.991338 14821 net.cpp:382] inception_4a/output_inception_4a/output_0_split -> inception_4a/output_inception_4a/output_0_split_3
I0321 14:30:39.991405 14821 net.cpp:124] Setting up inception_4a/output_inception_4a/output_0_split
I0321 14:30:39.991418 14821 net.cpp:131] Top shape: 128 256 14 14 (6422528)
I0321 14:30:39.991426 14821 net.cpp:131] Top shape: 128 256 14 14 (6422528)
I0321 14:30:39.991432 14821 net.cpp:131] Top shape: 128 256 14 14 (6422528)
I0321 14:30:39.991439 14821 net.cpp:131] Top shape: 128 256 14 14 (6422528)
I0321 14:30:39.991444 14821 net.cpp:139] Memory required for data: 2737201668
I0321 14:30:39.991451 14821 layer_factory.hpp:77] Creating layer inception_4b/1x1
I0321 14:30:39.991473 14821 net.cpp:86] Creating Layer inception_4b/1x1
I0321 14:30:39.991483 14821 net.cpp:408] inception_4b/1x1 <- inception_4a/output_inception_4a/output_0_split_0
I0321 14:30:39.991494 14821 net.cpp:382] inception_4b/1x1 -> inception_4b/1x1
I0321 14:30:39.991930 14821 net.cpp:124] Setting up inception_4b/1x1
I0321 14:30:39.991947 14821 net.cpp:131] Top shape: 128 80 14 14 (2007040)
I0321 14:30:39.991953 14821 net.cpp:139] Memory required for data: 2745229828
I0321 14:30:39.991962 14821 layer_factory.hpp:77] Creating layer inception_4b/relu_1x1
I0321 14:30:39.991973 14821 net.cpp:86] Creating Layer inception_4b/relu_1x1
I0321 14:30:39.991981 14821 net.cpp:408] inception_4b/relu_1x1 <- inception_4b/1x1
I0321 14:30:39.991989 14821 net.cpp:369] inception_4b/relu_1x1 -> inception_4b/1x1 (in-place)
I0321 14:30:39.992002 14821 net.cpp:124] Setting up inception_4b/relu_1x1
I0321 14:30:39.992009 14821 net.cpp:131] Top shape: 128 80 14 14 (2007040)
I0321 14:30:39.992018 14821 net.cpp:139] Memory required for data: 2753257988
I0321 14:30:39.992034 14821 layer_factory.hpp:77] Creating layer inception_4b/3x3_reduce
I0321 14:30:39.992049 14821 net.cpp:86] Creating Layer inception_4b/3x3_reduce
I0321 14:30:39.992058 14821 net.cpp:408] inception_4b/3x3_reduce <- inception_4a/output_inception_4a/output_0_split_1
I0321 14:30:39.992069 14821 net.cpp:382] inception_4b/3x3_reduce -> inception_4b/3x3_reduce
I0321 14:30:39.992547 14821 net.cpp:124] Setting up inception_4b/3x3_reduce
I0321 14:30:39.992564 14821 net.cpp:131] Top shape: 128 56 14 14 (1404928)
I0321 14:30:39.992573 14821 net.cpp:139] Memory required for data: 2758877700
I0321 14:30:39.992583 14821 layer_factory.hpp:77] Creating layer inception_4b/relu_3x3_reduce
I0321 14:30:39.992599 14821 net.cpp:86] Creating Layer inception_4b/relu_3x3_reduce
I0321 14:30:39.992610 14821 net.cpp:408] inception_4b/relu_3x3_reduce <- inception_4b/3x3_reduce
I0321 14:30:39.992619 14821 net.cpp:369] inception_4b/relu_3x3_reduce -> inception_4b/3x3_reduce (in-place)
I0321 14:30:39.992629 14821 net.cpp:124] Setting up inception_4b/relu_3x3_reduce
I0321 14:30:39.992638 14821 net.cpp:131] Top shape: 128 56 14 14 (1404928)
I0321 14:30:39.992645 14821 net.cpp:139] Memory required for data: 2764497412
I0321 14:30:39.992650 14821 layer_factory.hpp:77] Creating layer inception_4b/3x3
I0321 14:30:39.992662 14821 net.cpp:86] Creating Layer inception_4b/3x3
I0321 14:30:39.992668 14821 net.cpp:408] inception_4b/3x3 <- inception_4b/3x3_reduce
I0321 14:30:39.992678 14821 net.cpp:382] inception_4b/3x3 -> inception_4b/3x3
I0321 14:30:39.993441 14821 net.cpp:124] Setting up inception_4b/3x3
I0321 14:30:39.993458 14821 net.cpp:131] Top shape: 128 112 14 14 (2809856)
I0321 14:30:39.993464 14821 net.cpp:139] Memory required for data: 2775736836
I0321 14:30:39.993474 14821 layer_factory.hpp:77] Creating layer inception_4b/relu_3x3
I0321 14:30:39.993502 14821 net.cpp:86] Creating Layer inception_4b/relu_3x3
I0321 14:30:39.993510 14821 net.cpp:408] inception_4b/relu_3x3 <- inception_4b/3x3
I0321 14:30:39.993518 14821 net.cpp:369] inception_4b/relu_3x3 -> inception_4b/3x3 (in-place)
I0321 14:30:39.993530 14821 net.cpp:124] Setting up inception_4b/relu_3x3
I0321 14:30:39.993538 14821 net.cpp:131] Top shape: 128 112 14 14 (2809856)
I0321 14:30:39.993544 14821 net.cpp:139] Memory required for data: 2786976260
I0321 14:30:39.993556 14821 layer_factory.hpp:77] Creating layer inception_4b/5x5_reduce
I0321 14:30:39.993571 14821 net.cpp:86] Creating Layer inception_4b/5x5_reduce
I0321 14:30:39.993579 14821 net.cpp:408] inception_4b/5x5_reduce <- inception_4a/output_inception_4a/output_0_split_2
I0321 14:30:39.993592 14821 net.cpp:382] inception_4b/5x5_reduce -> inception_4b/5x5_reduce
I0321 14:30:39.993902 14821 net.cpp:124] Setting up inception_4b/5x5_reduce
I0321 14:30:39.993921 14821 net.cpp:131] Top shape: 128 12 14 14 (301056)
I0321 14:30:39.993927 14821 net.cpp:139] Memory required for data: 2788180484
I0321 14:30:39.993935 14821 layer_factory.hpp:77] Creating layer inception_4b/relu_5x5_reduce
I0321 14:30:39.993944 14821 net.cpp:86] Creating Layer inception_4b/relu_5x5_reduce
I0321 14:30:39.993954 14821 net.cpp:408] inception_4b/relu_5x5_reduce <- inception_4b/5x5_reduce
I0321 14:30:39.993963 14821 net.cpp:369] inception_4b/relu_5x5_reduce -> inception_4b/5x5_reduce (in-place)
I0321 14:30:39.993973 14821 net.cpp:124] Setting up inception_4b/relu_5x5_reduce
I0321 14:30:39.993980 14821 net.cpp:131] Top shape: 128 12 14 14 (301056)
I0321 14:30:39.993985 14821 net.cpp:139] Memory required for data: 2789384708
I0321 14:30:39.993990 14821 layer_factory.hpp:77] Creating layer inception_4b/5x5
I0321 14:30:39.994014 14821 net.cpp:86] Creating Layer inception_4b/5x5
I0321 14:30:39.994024 14821 net.cpp:408] inception_4b/5x5 <- inception_4b/5x5_reduce
I0321 14:30:39.994035 14821 net.cpp:382] inception_4b/5x5 -> inception_4b/5x5
I0321 14:30:39.994380 14821 net.cpp:124] Setting up inception_4b/5x5
I0321 14:30:39.994397 14821 net.cpp:131] Top shape: 128 32 14 14 (802816)
I0321 14:30:39.994405 14821 net.cpp:139] Memory required for data: 2792595972
I0321 14:30:39.994413 14821 layer_factory.hpp:77] Creating layer inception_4b/relu_5x5
I0321 14:30:39.994423 14821 net.cpp:86] Creating Layer inception_4b/relu_5x5
I0321 14:30:39.994431 14821 net.cpp:408] inception_4b/relu_5x5 <- inception_4b/5x5
I0321 14:30:39.994439 14821 net.cpp:369] inception_4b/relu_5x5 -> inception_4b/5x5 (in-place)
I0321 14:30:39.994465 14821 net.cpp:124] Setting up inception_4b/relu_5x5
I0321 14:30:39.994477 14821 net.cpp:131] Top shape: 128 32 14 14 (802816)
I0321 14:30:39.994483 14821 net.cpp:139] Memory required for data: 2795807236
I0321 14:30:39.994496 14821 layer_factory.hpp:77] Creating layer inception_4b/pool
I0321 14:30:39.994508 14821 net.cpp:86] Creating Layer inception_4b/pool
I0321 14:30:39.994514 14821 net.cpp:408] inception_4b/pool <- inception_4a/output_inception_4a/output_0_split_3
I0321 14:30:39.994524 14821 net.cpp:382] inception_4b/pool -> inception_4b/pool
I0321 14:30:39.994586 14821 net.cpp:124] Setting up inception_4b/pool
I0321 14:30:39.994602 14821 net.cpp:131] Top shape: 128 256 14 14 (6422528)
I0321 14:30:39.994611 14821 net.cpp:139] Memory required for data: 2821497348
I0321 14:30:39.994617 14821 layer_factory.hpp:77] Creating layer inception_4b/pool_proj
I0321 14:30:39.994643 14821 net.cpp:86] Creating Layer inception_4b/pool_proj
I0321 14:30:39.994653 14821 net.cpp:408] inception_4b/pool_proj <- inception_4b/pool
I0321 14:30:39.994664 14821 net.cpp:382] inception_4b/pool_proj -> inception_4b/pool_proj
I0321 14:30:39.994992 14821 net.cpp:124] Setting up inception_4b/pool_proj
I0321 14:30:39.995007 14821 net.cpp:131] Top shape: 128 32 14 14 (802816)
I0321 14:30:39.995013 14821 net.cpp:139] Memory required for data: 2824708612
I0321 14:30:39.995023 14821 layer_factory.hpp:77] Creating layer inception_4b/relu_pool_proj
I0321 14:30:39.995031 14821 net.cpp:86] Creating Layer inception_4b/relu_pool_proj
I0321 14:30:39.995038 14821 net.cpp:408] inception_4b/relu_pool_proj <- inception_4b/pool_proj
I0321 14:30:39.995046 14821 net.cpp:369] inception_4b/relu_pool_proj -> inception_4b/pool_proj (in-place)
I0321 14:30:39.995056 14821 net.cpp:124] Setting up inception_4b/relu_pool_proj
I0321 14:30:39.995064 14821 net.cpp:131] Top shape: 128 32 14 14 (802816)
I0321 14:30:39.995069 14821 net.cpp:139] Memory required for data: 2827919876
I0321 14:30:39.995074 14821 layer_factory.hpp:77] Creating layer inception_4b/output
I0321 14:30:39.995081 14821 net.cpp:86] Creating Layer inception_4b/output
I0321 14:30:39.995087 14821 net.cpp:408] inception_4b/output <- inception_4b/1x1
I0321 14:30:39.995095 14821 net.cpp:408] inception_4b/output <- inception_4b/3x3
I0321 14:30:39.995102 14821 net.cpp:408] inception_4b/output <- inception_4b/5x5
I0321 14:30:39.995110 14821 net.cpp:408] inception_4b/output <- inception_4b/pool_proj
I0321 14:30:39.995117 14821 net.cpp:382] inception_4b/output -> inception_4b/output
I0321 14:30:39.995151 14821 net.cpp:124] Setting up inception_4b/output
I0321 14:30:39.995165 14821 net.cpp:131] Top shape: 128 256 14 14 (6422528)
I0321 14:30:39.995172 14821 net.cpp:139] Memory required for data: 2853609988
I0321 14:30:39.995184 14821 layer_factory.hpp:77] Creating layer inception_4b/output_inception_4b/output_0_split
I0321 14:30:39.995198 14821 net.cpp:86] Creating Layer inception_4b/output_inception_4b/output_0_split
I0321 14:30:39.995203 14821 net.cpp:408] inception_4b/output_inception_4b/output_0_split <- inception_4b/output
I0321 14:30:39.995214 14821 net.cpp:382] inception_4b/output_inception_4b/output_0_split -> inception_4b/output_inception_4b/output_0_split_0
I0321 14:30:39.995227 14821 net.cpp:382] inception_4b/output_inception_4b/output_0_split -> inception_4b/output_inception_4b/output_0_split_1
I0321 14:30:39.995240 14821 net.cpp:382] inception_4b/output_inception_4b/output_0_split -> inception_4b/output_inception_4b/output_0_split_2
I0321 14:30:39.995252 14821 net.cpp:382] inception_4b/output_inception_4b/output_0_split -> inception_4b/output_inception_4b/output_0_split_3
I0321 14:30:39.995265 14821 net.cpp:382] inception_4b/output_inception_4b/output_0_split -> inception_4b/output_inception_4b/output_0_split_4
I0321 14:30:39.995342 14821 net.cpp:124] Setting up inception_4b/output_inception_4b/output_0_split
I0321 14:30:39.995357 14821 net.cpp:131] Top shape: 128 256 14 14 (6422528)
I0321 14:30:39.995363 14821 net.cpp:131] Top shape: 128 256 14 14 (6422528)
I0321 14:30:39.995385 14821 net.cpp:131] Top shape: 128 256 14 14 (6422528)
I0321 14:30:39.995393 14821 net.cpp:131] Top shape: 128 256 14 14 (6422528)
I0321 14:30:39.995399 14821 net.cpp:131] Top shape: 128 256 14 14 (6422528)
I0321 14:30:39.995405 14821 net.cpp:139] Memory required for data: 2982060548
I0321 14:30:39.995411 14821 layer_factory.hpp:77] Creating layer loss2_my/ave_pool
I0321 14:30:39.995429 14821 net.cpp:86] Creating Layer loss2_my/ave_pool
I0321 14:30:39.995437 14821 net.cpp:408] loss2_my/ave_pool <- inception_4b/output_inception_4b/output_0_split_0
I0321 14:30:39.995448 14821 net.cpp:382] loss2_my/ave_pool -> loss2_my/ave_pool
I0321 14:30:39.995484 14821 net.cpp:124] Setting up loss2_my/ave_pool
I0321 14:30:39.995499 14821 net.cpp:131] Top shape: 128 256 4 4 (524288)
I0321 14:30:39.995506 14821 net.cpp:139] Memory required for data: 2984157700
I0321 14:30:39.995510 14821 layer_factory.hpp:77] Creating layer loss2_my/conv
I0321 14:30:39.995523 14821 net.cpp:86] Creating Layer loss2_my/conv
I0321 14:30:39.995532 14821 net.cpp:408] loss2_my/conv <- loss2_my/ave_pool
I0321 14:30:39.995543 14821 net.cpp:382] loss2_my/conv -> loss2_my/conv
I0321 14:30:39.995838 14821 net.cpp:124] Setting up loss2_my/conv
I0321 14:30:39.995856 14821 net.cpp:131] Top shape: 128 20 4 4 (40960)
I0321 14:30:39.995862 14821 net.cpp:139] Memory required for data: 2984321540
I0321 14:30:39.995878 14821 layer_factory.hpp:77] Creating layer loss2_my/relu_conv
I0321 14:30:39.995890 14821 net.cpp:86] Creating Layer loss2_my/relu_conv
I0321 14:30:39.995898 14821 net.cpp:408] loss2_my/relu_conv <- loss2_my/conv
I0321 14:30:39.995905 14821 net.cpp:369] loss2_my/relu_conv -> loss2_my/conv (in-place)
I0321 14:30:39.995918 14821 net.cpp:124] Setting up loss2_my/relu_conv
I0321 14:30:39.995925 14821 net.cpp:131] Top shape: 128 20 4 4 (40960)
I0321 14:30:39.995934 14821 net.cpp:139] Memory required for data: 2984485380
I0321 14:30:39.995939 14821 layer_factory.hpp:77] Creating layer loss2_my/drop_fc
I0321 14:30:39.995954 14821 net.cpp:86] Creating Layer loss2_my/drop_fc
I0321 14:30:39.995962 14821 net.cpp:408] loss2_my/drop_fc <- loss2_my/conv
I0321 14:30:39.995972 14821 net.cpp:369] loss2_my/drop_fc -> loss2_my/conv (in-place)
I0321 14:30:39.996003 14821 net.cpp:124] Setting up loss2_my/drop_fc
I0321 14:30:39.996017 14821 net.cpp:131] Top shape: 128 20 4 4 (40960)
I0321 14:30:39.996023 14821 net.cpp:139] Memory required for data: 2984649220
I0321 14:30:39.996028 14821 layer_factory.hpp:77] Creating layer loss2_lite/classifier
I0321 14:30:39.996040 14821 net.cpp:86] Creating Layer loss2_lite/classifier
I0321 14:30:39.996050 14821 net.cpp:408] loss2_lite/classifier <- loss2_my/conv
I0321 14:30:39.996062 14821 net.cpp:382] loss2_lite/classifier -> loss2_lite/classifier
I0321 14:30:39.996184 14821 net.cpp:124] Setting up loss2_lite/classifier
I0321 14:30:39.996201 14821 net.cpp:131] Top shape: 128 1 (128)
I0321 14:30:39.996206 14821 net.cpp:139] Memory required for data: 2984649732
I0321 14:30:39.996215 14821 layer_factory.hpp:77] Creating layer loss2_my/loss
I0321 14:30:39.996273 14821 net.cpp:86] Creating Layer loss2_my/loss
I0321 14:30:39.996285 14821 net.cpp:408] loss2_my/loss <- loss2_lite/classifier
I0321 14:30:39.996294 14821 net.cpp:408] loss2_my/loss <- label_data_1_split_1
I0321 14:30:39.996304 14821 net.cpp:382] loss2_my/loss -> loss2_my/loss
I0321 14:30:39.996424 14821 net.cpp:124] Setting up loss2_my/loss
I0321 14:30:39.996443 14821 net.cpp:131] Top shape: 1 (1)
I0321 14:30:39.996448 14821 net.cpp:134]     with loss weight 0.4
I0321 14:30:39.996464 14821 net.cpp:139] Memory required for data: 2984649736
I0321 14:30:39.996479 14821 layer_factory.hpp:77] Creating layer inception_4c/1x1
I0321 14:30:39.996502 14821 net.cpp:86] Creating Layer inception_4c/1x1
I0321 14:30:39.996512 14821 net.cpp:408] inception_4c/1x1 <- inception_4b/output_inception_4b/output_0_split_1
I0321 14:30:39.996523 14821 net.cpp:382] inception_4c/1x1 -> inception_4c/1x1
I0321 14:30:39.996923 14821 net.cpp:124] Setting up inception_4c/1x1
I0321 14:30:39.996942 14821 net.cpp:131] Top shape: 128 64 14 14 (1605632)
I0321 14:30:39.996966 14821 net.cpp:139] Memory required for data: 2991072264
I0321 14:30:39.996978 14821 layer_factory.hpp:77] Creating layer inception_4c/relu_1x1
I0321 14:30:39.996989 14821 net.cpp:86] Creating Layer inception_4c/relu_1x1
I0321 14:30:39.996999 14821 net.cpp:408] inception_4c/relu_1x1 <- inception_4c/1x1
I0321 14:30:39.997007 14821 net.cpp:369] inception_4c/relu_1x1 -> inception_4c/1x1 (in-place)
I0321 14:30:39.997017 14821 net.cpp:124] Setting up inception_4c/relu_1x1
I0321 14:30:39.997027 14821 net.cpp:131] Top shape: 128 64 14 14 (1605632)
I0321 14:30:39.997032 14821 net.cpp:139] Memory required for data: 2997494792
I0321 14:30:39.997037 14821 layer_factory.hpp:77] Creating layer inception_4c/3x3_reduce
I0321 14:30:39.997051 14821 net.cpp:86] Creating Layer inception_4c/3x3_reduce
I0321 14:30:39.997061 14821 net.cpp:408] inception_4c/3x3_reduce <- inception_4b/output_inception_4b/output_0_split_2
I0321 14:30:39.997071 14821 net.cpp:382] inception_4c/3x3_reduce -> inception_4c/3x3_reduce
I0321 14:30:39.997467 14821 net.cpp:124] Setting up inception_4c/3x3_reduce
I0321 14:30:39.997484 14821 net.cpp:131] Top shape: 128 64 14 14 (1605632)
I0321 14:30:39.997490 14821 net.cpp:139] Memory required for data: 3003917320
I0321 14:30:39.997514 14821 layer_factory.hpp:77] Creating layer inception_4c/relu_3x3_reduce
I0321 14:30:39.997535 14821 net.cpp:86] Creating Layer inception_4c/relu_3x3_reduce
I0321 14:30:39.997545 14821 net.cpp:408] inception_4c/relu_3x3_reduce <- inception_4c/3x3_reduce
I0321 14:30:39.997555 14821 net.cpp:369] inception_4c/relu_3x3_reduce -> inception_4c/3x3_reduce (in-place)
I0321 14:30:39.997565 14821 net.cpp:124] Setting up inception_4c/relu_3x3_reduce
I0321 14:30:39.997575 14821 net.cpp:131] Top shape: 128 64 14 14 (1605632)
I0321 14:30:39.997581 14821 net.cpp:139] Memory required for data: 3010339848
I0321 14:30:39.997592 14821 layer_factory.hpp:77] Creating layer inception_4c/3x3
I0321 14:30:39.997607 14821 net.cpp:86] Creating Layer inception_4c/3x3
I0321 14:30:39.997617 14821 net.cpp:408] inception_4c/3x3 <- inception_4c/3x3_reduce
I0321 14:30:39.997628 14821 net.cpp:382] inception_4c/3x3 -> inception_4c/3x3
I0321 14:30:40.000069 14821 net.cpp:124] Setting up inception_4c/3x3
I0321 14:30:40.000103 14821 net.cpp:131] Top shape: 128 128 14 14 (3211264)
I0321 14:30:40.000111 14821 net.cpp:139] Memory required for data: 3023184904
I0321 14:30:40.000123 14821 layer_factory.hpp:77] Creating layer inception_4c/relu_3x3
I0321 14:30:40.000135 14821 net.cpp:86] Creating Layer inception_4c/relu_3x3
I0321 14:30:40.000144 14821 net.cpp:408] inception_4c/relu_3x3 <- inception_4c/3x3
I0321 14:30:40.000154 14821 net.cpp:369] inception_4c/relu_3x3 -> inception_4c/3x3 (in-place)
I0321 14:30:40.000165 14821 net.cpp:124] Setting up inception_4c/relu_3x3
I0321 14:30:40.000174 14821 net.cpp:131] Top shape: 128 128 14 14 (3211264)
I0321 14:30:40.000180 14821 net.cpp:139] Memory required for data: 3036029960
I0321 14:30:40.000185 14821 layer_factory.hpp:77] Creating layer inception_4c/5x5_reduce
I0321 14:30:40.000212 14821 net.cpp:86] Creating Layer inception_4c/5x5_reduce
I0321 14:30:40.000221 14821 net.cpp:408] inception_4c/5x5_reduce <- inception_4b/output_inception_4b/output_0_split_3
I0321 14:30:40.000232 14821 net.cpp:382] inception_4c/5x5_reduce -> inception_4c/5x5_reduce
I0321 14:30:40.000524 14821 net.cpp:124] Setting up inception_4c/5x5_reduce
I0321 14:30:40.000541 14821 net.cpp:131] Top shape: 128 12 14 14 (301056)
I0321 14:30:40.000547 14821 net.cpp:139] Memory required for data: 3037234184
I0321 14:30:40.000557 14821 layer_factory.hpp:77] Creating layer inception_4c/relu_5x5_reduce
I0321 14:30:40.000576 14821 net.cpp:86] Creating Layer inception_4c/relu_5x5_reduce
I0321 14:30:40.000583 14821 net.cpp:408] inception_4c/relu_5x5_reduce <- inception_4c/5x5_reduce
I0321 14:30:40.000592 14821 net.cpp:369] inception_4c/relu_5x5_reduce -> inception_4c/5x5_reduce (in-place)
I0321 14:30:40.000602 14821 net.cpp:124] Setting up inception_4c/relu_5x5_reduce
I0321 14:30:40.000635 14821 net.cpp:131] Top shape: 128 12 14 14 (301056)
I0321 14:30:40.000643 14821 net.cpp:139] Memory required for data: 3038438408
I0321 14:30:40.000648 14821 layer_factory.hpp:77] Creating layer inception_4c/5x5
I0321 14:30:40.000672 14821 net.cpp:86] Creating Layer inception_4c/5x5
I0321 14:30:40.000680 14821 net.cpp:408] inception_4c/5x5 <- inception_4c/5x5_reduce
I0321 14:30:40.000692 14821 net.cpp:382] inception_4c/5x5 -> inception_4c/5x5
I0321 14:30:40.001044 14821 net.cpp:124] Setting up inception_4c/5x5
I0321 14:30:40.001062 14821 net.cpp:131] Top shape: 128 32 14 14 (802816)
I0321 14:30:40.001070 14821 net.cpp:139] Memory required for data: 3041649672
I0321 14:30:40.001078 14821 layer_factory.hpp:77] Creating layer inception_4c/relu_5x5
I0321 14:30:40.001096 14821 net.cpp:86] Creating Layer inception_4c/relu_5x5
I0321 14:30:40.001104 14821 net.cpp:408] inception_4c/relu_5x5 <- inception_4c/5x5
I0321 14:30:40.001112 14821 net.cpp:369] inception_4c/relu_5x5 -> inception_4c/5x5 (in-place)
I0321 14:30:40.001122 14821 net.cpp:124] Setting up inception_4c/relu_5x5
I0321 14:30:40.001130 14821 net.cpp:131] Top shape: 128 32 14 14 (802816)
I0321 14:30:40.001135 14821 net.cpp:139] Memory required for data: 3044860936
I0321 14:30:40.001140 14821 layer_factory.hpp:77] Creating layer inception_4c/pool
I0321 14:30:40.001149 14821 net.cpp:86] Creating Layer inception_4c/pool
I0321 14:30:40.001155 14821 net.cpp:408] inception_4c/pool <- inception_4b/output_inception_4b/output_0_split_4
I0321 14:30:40.001164 14821 net.cpp:382] inception_4c/pool -> inception_4c/pool
I0321 14:30:40.001214 14821 net.cpp:124] Setting up inception_4c/pool
I0321 14:30:40.001230 14821 net.cpp:131] Top shape: 128 256 14 14 (6422528)
I0321 14:30:40.001235 14821 net.cpp:139] Memory required for data: 3070551048
I0321 14:30:40.001250 14821 layer_factory.hpp:77] Creating layer inception_4c/pool_proj
I0321 14:30:40.001263 14821 net.cpp:86] Creating Layer inception_4c/pool_proj
I0321 14:30:40.001271 14821 net.cpp:408] inception_4c/pool_proj <- inception_4c/pool
I0321 14:30:40.001282 14821 net.cpp:382] inception_4c/pool_proj -> inception_4c/pool_proj
I0321 14:30:40.001603 14821 net.cpp:124] Setting up inception_4c/pool_proj
I0321 14:30:40.001621 14821 net.cpp:131] Top shape: 128 32 14 14 (802816)
I0321 14:30:40.001626 14821 net.cpp:139] Memory required for data: 3073762312
I0321 14:30:40.001636 14821 layer_factory.hpp:77] Creating layer inception_4c/relu_pool_proj
I0321 14:30:40.001652 14821 net.cpp:86] Creating Layer inception_4c/relu_pool_proj
I0321 14:30:40.001660 14821 net.cpp:408] inception_4c/relu_pool_proj <- inception_4c/pool_proj
I0321 14:30:40.001668 14821 net.cpp:369] inception_4c/relu_pool_proj -> inception_4c/pool_proj (in-place)
I0321 14:30:40.001678 14821 net.cpp:124] Setting up inception_4c/relu_pool_proj
I0321 14:30:40.001687 14821 net.cpp:131] Top shape: 128 32 14 14 (802816)
I0321 14:30:40.001691 14821 net.cpp:139] Memory required for data: 3076973576
I0321 14:30:40.001708 14821 layer_factory.hpp:77] Creating layer inception_4c/output
I0321 14:30:40.001716 14821 net.cpp:86] Creating Layer inception_4c/output
I0321 14:30:40.001723 14821 net.cpp:408] inception_4c/output <- inception_4c/1x1
I0321 14:30:40.001731 14821 net.cpp:408] inception_4c/output <- inception_4c/3x3
I0321 14:30:40.001739 14821 net.cpp:408] inception_4c/output <- inception_4c/5x5
I0321 14:30:40.001745 14821 net.cpp:408] inception_4c/output <- inception_4c/pool_proj
I0321 14:30:40.001754 14821 net.cpp:382] inception_4c/output -> inception_4c/output
I0321 14:30:40.001790 14821 net.cpp:124] Setting up inception_4c/output
I0321 14:30:40.001804 14821 net.cpp:131] Top shape: 128 256 14 14 (6422528)
I0321 14:30:40.001811 14821 net.cpp:139] Memory required for data: 3102663688
I0321 14:30:40.001816 14821 layer_factory.hpp:77] Creating layer inception_4c/output_inception_4c/output_0_split
I0321 14:30:40.001827 14821 net.cpp:86] Creating Layer inception_4c/output_inception_4c/output_0_split
I0321 14:30:40.001832 14821 net.cpp:408] inception_4c/output_inception_4c/output_0_split <- inception_4c/output
I0321 14:30:40.001857 14821 net.cpp:382] inception_4c/output_inception_4c/output_0_split -> inception_4c/output_inception_4c/output_0_split_0
I0321 14:30:40.001869 14821 net.cpp:382] inception_4c/output_inception_4c/output_0_split -> inception_4c/output_inception_4c/output_0_split_1
I0321 14:30:40.001880 14821 net.cpp:382] inception_4c/output_inception_4c/output_0_split -> inception_4c/output_inception_4c/output_0_split_2
I0321 14:30:40.001891 14821 net.cpp:382] inception_4c/output_inception_4c/output_0_split -> inception_4c/output_inception_4c/output_0_split_3
I0321 14:30:40.001957 14821 net.cpp:124] Setting up inception_4c/output_inception_4c/output_0_split
I0321 14:30:40.001971 14821 net.cpp:131] Top shape: 128 256 14 14 (6422528)
I0321 14:30:40.001978 14821 net.cpp:131] Top shape: 128 256 14 14 (6422528)
I0321 14:30:40.001986 14821 net.cpp:131] Top shape: 128 256 14 14 (6422528)
I0321 14:30:40.001991 14821 net.cpp:131] Top shape: 128 256 14 14 (6422528)
I0321 14:30:40.001996 14821 net.cpp:139] Memory required for data: 3205424136
I0321 14:30:40.002012 14821 layer_factory.hpp:77] Creating layer inception_4d/1x1
I0321 14:30:40.002025 14821 net.cpp:86] Creating Layer inception_4d/1x1
I0321 14:30:40.002032 14821 net.cpp:408] inception_4d/1x1 <- inception_4c/output_inception_4c/output_0_split_0
I0321 14:30:40.002044 14821 net.cpp:382] inception_4d/1x1 -> inception_4d/1x1
I0321 14:30:40.002434 14821 net.cpp:124] Setting up inception_4d/1x1
I0321 14:30:40.002451 14821 net.cpp:131] Top shape: 128 56 14 14 (1404928)
I0321 14:30:40.002457 14821 net.cpp:139] Memory required for data: 3211043848
I0321 14:30:40.002466 14821 layer_factory.hpp:77] Creating layer inception_4d/relu_1x1
I0321 14:30:40.002485 14821 net.cpp:86] Creating Layer inception_4d/relu_1x1
I0321 14:30:40.002492 14821 net.cpp:408] inception_4d/relu_1x1 <- inception_4d/1x1
I0321 14:30:40.002501 14821 net.cpp:369] inception_4d/relu_1x1 -> inception_4d/1x1 (in-place)
I0321 14:30:40.002511 14821 net.cpp:124] Setting up inception_4d/relu_1x1
I0321 14:30:40.002518 14821 net.cpp:131] Top shape: 128 56 14 14 (1404928)
I0321 14:30:40.002523 14821 net.cpp:139] Memory required for data: 3216663560
I0321 14:30:40.002528 14821 layer_factory.hpp:77] Creating layer inception_4d/3x3_reduce
I0321 14:30:40.002542 14821 net.cpp:86] Creating Layer inception_4d/3x3_reduce
I0321 14:30:40.002548 14821 net.cpp:408] inception_4d/3x3_reduce <- inception_4c/output_inception_4c/output_0_split_1
I0321 14:30:40.002559 14821 net.cpp:382] inception_4d/3x3_reduce -> inception_4d/3x3_reduce
I0321 14:30:40.002986 14821 net.cpp:124] Setting up inception_4d/3x3_reduce
I0321 14:30:40.003003 14821 net.cpp:131] Top shape: 128 72 14 14 (1806336)
I0321 14:30:40.003010 14821 net.cpp:139] Memory required for data: 3223888904
I0321 14:30:40.003018 14821 layer_factory.hpp:77] Creating layer inception_4d/relu_3x3_reduce
I0321 14:30:40.003044 14821 net.cpp:86] Creating Layer inception_4d/relu_3x3_reduce
I0321 14:30:40.003054 14821 net.cpp:408] inception_4d/relu_3x3_reduce <- inception_4d/3x3_reduce
I0321 14:30:40.003063 14821 net.cpp:369] inception_4d/relu_3x3_reduce -> inception_4d/3x3_reduce (in-place)
I0321 14:30:40.003073 14821 net.cpp:124] Setting up inception_4d/relu_3x3_reduce
I0321 14:30:40.003082 14821 net.cpp:131] Top shape: 128 72 14 14 (1806336)
I0321 14:30:40.003087 14821 net.cpp:139] Memory required for data: 3231114248
I0321 14:30:40.003092 14821 layer_factory.hpp:77] Creating layer inception_4d/3x3
I0321 14:30:40.003105 14821 net.cpp:86] Creating Layer inception_4d/3x3
I0321 14:30:40.003111 14821 net.cpp:408] inception_4d/3x3 <- inception_4d/3x3_reduce
I0321 14:30:40.003121 14821 net.cpp:382] inception_4d/3x3 -> inception_4d/3x3
I0321 14:30:40.004211 14821 net.cpp:124] Setting up inception_4d/3x3
I0321 14:30:40.004228 14821 net.cpp:131] Top shape: 128 144 14 14 (3612672)
I0321 14:30:40.004235 14821 net.cpp:139] Memory required for data: 3245564936
I0321 14:30:40.004243 14821 layer_factory.hpp:77] Creating layer inception_4d/relu_3x3
I0321 14:30:40.004252 14821 net.cpp:86] Creating Layer inception_4d/relu_3x3
I0321 14:30:40.004272 14821 net.cpp:408] inception_4d/relu_3x3 <- inception_4d/3x3
I0321 14:30:40.004282 14821 net.cpp:369] inception_4d/relu_3x3 -> inception_4d/3x3 (in-place)
I0321 14:30:40.004292 14821 net.cpp:124] Setting up inception_4d/relu_3x3
I0321 14:30:40.004300 14821 net.cpp:131] Top shape: 128 144 14 14 (3612672)
I0321 14:30:40.004305 14821 net.cpp:139] Memory required for data: 3260015624
I0321 14:30:40.004310 14821 layer_factory.hpp:77] Creating layer inception_4d/5x5_reduce
I0321 14:30:40.004333 14821 net.cpp:86] Creating Layer inception_4d/5x5_reduce
I0321 14:30:40.004339 14821 net.cpp:408] inception_4d/5x5_reduce <- inception_4c/output_inception_4c/output_0_split_2
I0321 14:30:40.004351 14821 net.cpp:382] inception_4d/5x5_reduce -> inception_4d/5x5_reduce
I0321 14:30:40.004647 14821 net.cpp:124] Setting up inception_4d/5x5_reduce
I0321 14:30:40.004663 14821 net.cpp:131] Top shape: 128 16 14 14 (401408)
I0321 14:30:40.004669 14821 net.cpp:139] Memory required for data: 3261621256
I0321 14:30:40.004686 14821 layer_factory.hpp:77] Creating layer inception_4d/relu_5x5_reduce
I0321 14:30:40.004696 14821 net.cpp:86] Creating Layer inception_4d/relu_5x5_reduce
I0321 14:30:40.004703 14821 net.cpp:408] inception_4d/relu_5x5_reduce <- inception_4d/5x5_reduce
I0321 14:30:40.004712 14821 net.cpp:369] inception_4d/relu_5x5_reduce -> inception_4d/5x5_reduce (in-place)
I0321 14:30:40.004721 14821 net.cpp:124] Setting up inception_4d/relu_5x5_reduce
I0321 14:30:40.004729 14821 net.cpp:131] Top shape: 128 16 14 14 (401408)
I0321 14:30:40.004734 14821 net.cpp:139] Memory required for data: 3263226888
I0321 14:30:40.004739 14821 layer_factory.hpp:77] Creating layer inception_4d/5x5
I0321 14:30:40.004752 14821 net.cpp:86] Creating Layer inception_4d/5x5
I0321 14:30:40.004758 14821 net.cpp:408] inception_4d/5x5 <- inception_4d/5x5_reduce
I0321 14:30:40.004770 14821 net.cpp:382] inception_4d/5x5 -> inception_4d/5x5
I0321 14:30:40.005139 14821 net.cpp:124] Setting up inception_4d/5x5
I0321 14:30:40.005156 14821 net.cpp:131] Top shape: 128 32 14 14 (802816)
I0321 14:30:40.005163 14821 net.cpp:139] Memory required for data: 3266438152
I0321 14:30:40.005172 14821 layer_factory.hpp:77] Creating layer inception_4d/relu_5x5
I0321 14:30:40.005189 14821 net.cpp:86] Creating Layer inception_4d/relu_5x5
I0321 14:30:40.005198 14821 net.cpp:408] inception_4d/relu_5x5 <- inception_4d/5x5
I0321 14:30:40.005206 14821 net.cpp:369] inception_4d/relu_5x5 -> inception_4d/5x5 (in-place)
I0321 14:30:40.005215 14821 net.cpp:124] Setting up inception_4d/relu_5x5
I0321 14:30:40.005223 14821 net.cpp:131] Top shape: 128 32 14 14 (802816)
I0321 14:30:40.005228 14821 net.cpp:139] Memory required for data: 3269649416
I0321 14:30:40.005234 14821 layer_factory.hpp:77] Creating layer inception_4d/pool
I0321 14:30:40.005242 14821 net.cpp:86] Creating Layer inception_4d/pool
I0321 14:30:40.005249 14821 net.cpp:408] inception_4d/pool <- inception_4c/output_inception_4c/output_0_split_3
I0321 14:30:40.005257 14821 net.cpp:382] inception_4d/pool -> inception_4d/pool
I0321 14:30:40.005307 14821 net.cpp:124] Setting up inception_4d/pool
I0321 14:30:40.005322 14821 net.cpp:131] Top shape: 128 256 14 14 (6422528)
I0321 14:30:40.005328 14821 net.cpp:139] Memory required for data: 3295339528
I0321 14:30:40.005342 14821 layer_factory.hpp:77] Creating layer inception_4d/pool_proj
I0321 14:30:40.005355 14821 net.cpp:86] Creating Layer inception_4d/pool_proj
I0321 14:30:40.005362 14821 net.cpp:408] inception_4d/pool_proj <- inception_4d/pool
I0321 14:30:40.005373 14821 net.cpp:382] inception_4d/pool_proj -> inception_4d/pool_proj
I0321 14:30:40.005712 14821 net.cpp:124] Setting up inception_4d/pool_proj
I0321 14:30:40.005734 14821 net.cpp:131] Top shape: 128 32 14 14 (802816)
I0321 14:30:40.005740 14821 net.cpp:139] Memory required for data: 3298550792
I0321 14:30:40.005749 14821 layer_factory.hpp:77] Creating layer inception_4d/relu_pool_proj
I0321 14:30:40.005767 14821 net.cpp:86] Creating Layer inception_4d/relu_pool_proj
I0321 14:30:40.005789 14821 net.cpp:408] inception_4d/relu_pool_proj <- inception_4d/pool_proj
I0321 14:30:40.005800 14821 net.cpp:369] inception_4d/relu_pool_proj -> inception_4d/pool_proj (in-place)
I0321 14:30:40.005810 14821 net.cpp:124] Setting up inception_4d/relu_pool_proj
I0321 14:30:40.005817 14821 net.cpp:131] Top shape: 128 32 14 14 (802816)
I0321 14:30:40.005822 14821 net.cpp:139] Memory required for data: 3301762056
I0321 14:30:40.005828 14821 layer_factory.hpp:77] Creating layer inception_4d/output
I0321 14:30:40.005836 14821 net.cpp:86] Creating Layer inception_4d/output
I0321 14:30:40.005842 14821 net.cpp:408] inception_4d/output <- inception_4d/1x1
I0321 14:30:40.005851 14821 net.cpp:408] inception_4d/output <- inception_4d/3x3
I0321 14:30:40.005857 14821 net.cpp:408] inception_4d/output <- inception_4d/5x5
I0321 14:30:40.005866 14821 net.cpp:408] inception_4d/output <- inception_4d/pool_proj
I0321 14:30:40.005873 14821 net.cpp:382] inception_4d/output -> inception_4d/output
I0321 14:30:40.005908 14821 net.cpp:124] Setting up inception_4d/output
I0321 14:30:40.005925 14821 net.cpp:131] Top shape: 128 264 14 14 (6623232)
I0321 14:30:40.005931 14821 net.cpp:139] Memory required for data: 3328254984
I0321 14:30:40.005937 14821 layer_factory.hpp:77] Creating layer inception_4d/output_inception_4d/output_0_split
I0321 14:30:40.005964 14821 net.cpp:86] Creating Layer inception_4d/output_inception_4d/output_0_split
I0321 14:30:40.005973 14821 net.cpp:408] inception_4d/output_inception_4d/output_0_split <- inception_4d/output
I0321 14:30:40.005983 14821 net.cpp:382] inception_4d/output_inception_4d/output_0_split -> inception_4d/output_inception_4d/output_0_split_0
I0321 14:30:40.005995 14821 net.cpp:382] inception_4d/output_inception_4d/output_0_split -> inception_4d/output_inception_4d/output_0_split_1
I0321 14:30:40.006014 14821 net.cpp:382] inception_4d/output_inception_4d/output_0_split -> inception_4d/output_inception_4d/output_0_split_2
I0321 14:30:40.006024 14821 net.cpp:382] inception_4d/output_inception_4d/output_0_split -> inception_4d/output_inception_4d/output_0_split_3
I0321 14:30:40.006098 14821 net.cpp:124] Setting up inception_4d/output_inception_4d/output_0_split
I0321 14:30:40.006111 14821 net.cpp:131] Top shape: 128 264 14 14 (6623232)
I0321 14:30:40.006119 14821 net.cpp:131] Top shape: 128 264 14 14 (6623232)
I0321 14:30:40.006125 14821 net.cpp:131] Top shape: 128 264 14 14 (6623232)
I0321 14:30:40.006131 14821 net.cpp:131] Top shape: 128 264 14 14 (6623232)
I0321 14:30:40.006137 14821 net.cpp:139] Memory required for data: 3434226696
I0321 14:30:40.006142 14821 layer_factory.hpp:77] Creating layer inception_4e/1x1
I0321 14:30:40.006156 14821 net.cpp:86] Creating Layer inception_4e/1x1
I0321 14:30:40.006168 14821 net.cpp:408] inception_4e/1x1 <- inception_4d/output_inception_4d/output_0_split_0
I0321 14:30:40.006181 14821 net.cpp:382] inception_4e/1x1 -> inception_4e/1x1
I0321 14:30:40.006741 14821 net.cpp:124] Setting up inception_4e/1x1
I0321 14:30:40.006757 14821 net.cpp:131] Top shape: 128 128 14 14 (3211264)
I0321 14:30:40.006763 14821 net.cpp:139] Memory required for data: 3447071752
I0321 14:30:40.006772 14821 layer_factory.hpp:77] Creating layer inception_4e/relu_1x1
I0321 14:30:40.006790 14821 net.cpp:86] Creating Layer inception_4e/relu_1x1
I0321 14:30:40.006798 14821 net.cpp:408] inception_4e/relu_1x1 <- inception_4e/1x1
I0321 14:30:40.006809 14821 net.cpp:369] inception_4e/relu_1x1 -> inception_4e/1x1 (in-place)
I0321 14:30:40.006820 14821 net.cpp:124] Setting up inception_4e/relu_1x1
I0321 14:30:40.006827 14821 net.cpp:131] Top shape: 128 128 14 14 (3211264)
I0321 14:30:40.006834 14821 net.cpp:139] Memory required for data: 3459916808
I0321 14:30:40.006839 14821 layer_factory.hpp:77] Creating layer inception_4e/3x3_reduce
I0321 14:30:40.006850 14821 net.cpp:86] Creating Layer inception_4e/3x3_reduce
I0321 14:30:40.006857 14821 net.cpp:408] inception_4e/3x3_reduce <- inception_4d/output_inception_4d/output_0_split_1
I0321 14:30:40.006868 14821 net.cpp:382] inception_4e/3x3_reduce -> inception_4e/3x3_reduce
I0321 14:30:40.007344 14821 net.cpp:124] Setting up inception_4e/3x3_reduce
I0321 14:30:40.007360 14821 net.cpp:131] Top shape: 128 80 14 14 (2007040)
I0321 14:30:40.007366 14821 net.cpp:139] Memory required for data: 3467944968
I0321 14:30:40.007383 14821 layer_factory.hpp:77] Creating layer inception_4e/relu_3x3_reduce
I0321 14:30:40.007395 14821 net.cpp:86] Creating Layer inception_4e/relu_3x3_reduce
I0321 14:30:40.007402 14821 net.cpp:408] inception_4e/relu_3x3_reduce <- inception_4e/3x3_reduce
I0321 14:30:40.007411 14821 net.cpp:369] inception_4e/relu_3x3_reduce -> inception_4e/3x3_reduce (in-place)
I0321 14:30:40.007419 14821 net.cpp:124] Setting up inception_4e/relu_3x3_reduce
I0321 14:30:40.007427 14821 net.cpp:131] Top shape: 128 80 14 14 (2007040)
I0321 14:30:40.007432 14821 net.cpp:139] Memory required for data: 3475973128
I0321 14:30:40.007437 14821 layer_factory.hpp:77] Creating layer inception_4e/3x3
I0321 14:30:40.007457 14821 net.cpp:86] Creating Layer inception_4e/3x3
I0321 14:30:40.007467 14821 net.cpp:408] inception_4e/3x3 <- inception_4e/3x3_reduce
I0321 14:30:40.007475 14821 net.cpp:382] inception_4e/3x3 -> inception_4e/3x3
I0321 14:30:40.008776 14821 net.cpp:124] Setting up inception_4e/3x3
I0321 14:30:40.008795 14821 net.cpp:131] Top shape: 128 160 14 14 (4014080)
I0321 14:30:40.008800 14821 net.cpp:139] Memory required for data: 3492029448
I0321 14:30:40.008810 14821 layer_factory.hpp:77] Creating layer inception_4e/relu_3x3
I0321 14:30:40.008817 14821 net.cpp:86] Creating Layer inception_4e/relu_3x3
I0321 14:30:40.008824 14821 net.cpp:408] inception_4e/relu_3x3 <- inception_4e/3x3
I0321 14:30:40.008834 14821 net.cpp:369] inception_4e/relu_3x3 -> inception_4e/3x3 (in-place)
I0321 14:30:40.008844 14821 net.cpp:124] Setting up inception_4e/relu_3x3
I0321 14:30:40.008852 14821 net.cpp:131] Top shape: 128 160 14 14 (4014080)
I0321 14:30:40.008858 14821 net.cpp:139] Memory required for data: 3508085768
I0321 14:30:40.008863 14821 layer_factory.hpp:77] Creating layer inception_4e/5x5_reduce
I0321 14:30:40.008873 14821 net.cpp:86] Creating Layer inception_4e/5x5_reduce
I0321 14:30:40.008880 14821 net.cpp:408] inception_4e/5x5_reduce <- inception_4d/output_inception_4d/output_0_split_2
I0321 14:30:40.008898 14821 net.cpp:382] inception_4e/5x5_reduce -> inception_4e/5x5_reduce
I0321 14:30:40.009197 14821 net.cpp:124] Setting up inception_4e/5x5_reduce
I0321 14:30:40.009213 14821 net.cpp:131] Top shape: 128 16 14 14 (401408)
I0321 14:30:40.009219 14821 net.cpp:139] Memory required for data: 3509691400
I0321 14:30:40.009238 14821 layer_factory.hpp:77] Creating layer inception_4e/relu_5x5_reduce
I0321 14:30:40.009253 14821 net.cpp:86] Creating Layer inception_4e/relu_5x5_reduce
I0321 14:30:40.009259 14821 net.cpp:408] inception_4e/relu_5x5_reduce <- inception_4e/5x5_reduce
I0321 14:30:40.009266 14821 net.cpp:369] inception_4e/relu_5x5_reduce -> inception_4e/5x5_reduce (in-place)
I0321 14:30:40.009280 14821 net.cpp:124] Setting up inception_4e/relu_5x5_reduce
I0321 14:30:40.009289 14821 net.cpp:131] Top shape: 128 16 14 14 (401408)
I0321 14:30:40.009294 14821 net.cpp:139] Memory required for data: 3511297032
I0321 14:30:40.009299 14821 layer_factory.hpp:77] Creating layer inception_4e/5x5
I0321 14:30:40.009313 14821 net.cpp:86] Creating Layer inception_4e/5x5
I0321 14:30:40.009320 14821 net.cpp:408] inception_4e/5x5 <- inception_4e/5x5_reduce
I0321 14:30:40.009331 14821 net.cpp:382] inception_4e/5x5 -> inception_4e/5x5
I0321 14:30:40.009837 14821 net.cpp:124] Setting up inception_4e/5x5
I0321 14:30:40.009856 14821 net.cpp:131] Top shape: 128 64 14 14 (1605632)
I0321 14:30:40.009862 14821 net.cpp:139] Memory required for data: 3517719560
I0321 14:30:40.009871 14821 layer_factory.hpp:77] Creating layer inception_4e/relu_5x5
I0321 14:30:40.009879 14821 net.cpp:86] Creating Layer inception_4e/relu_5x5
I0321 14:30:40.009886 14821 net.cpp:408] inception_4e/relu_5x5 <- inception_4e/5x5
I0321 14:30:40.009893 14821 net.cpp:369] inception_4e/relu_5x5 -> inception_4e/5x5 (in-place)
I0321 14:30:40.009922 14821 net.cpp:124] Setting up inception_4e/relu_5x5
I0321 14:30:40.009932 14821 net.cpp:131] Top shape: 128 64 14 14 (1605632)
I0321 14:30:40.009937 14821 net.cpp:139] Memory required for data: 3524142088
I0321 14:30:40.009943 14821 layer_factory.hpp:77] Creating layer inception_4e/pool
I0321 14:30:40.009959 14821 net.cpp:86] Creating Layer inception_4e/pool
I0321 14:30:40.009966 14821 net.cpp:408] inception_4e/pool <- inception_4d/output_inception_4d/output_0_split_3
I0321 14:30:40.009974 14821 net.cpp:382] inception_4e/pool -> inception_4e/pool
I0321 14:30:40.010027 14821 net.cpp:124] Setting up inception_4e/pool
I0321 14:30:40.010042 14821 net.cpp:131] Top shape: 128 264 14 14 (6623232)
I0321 14:30:40.010048 14821 net.cpp:139] Memory required for data: 3550635016
I0321 14:30:40.010054 14821 layer_factory.hpp:77] Creating layer inception_4e/pool_proj
I0321 14:30:40.010088 14821 net.cpp:86] Creating Layer inception_4e/pool_proj
I0321 14:30:40.010099 14821 net.cpp:408] inception_4e/pool_proj <- inception_4e/pool
I0321 14:30:40.010109 14821 net.cpp:382] inception_4e/pool_proj -> inception_4e/pool_proj
I0321 14:30:40.010520 14821 net.cpp:124] Setting up inception_4e/pool_proj
I0321 14:30:40.010536 14821 net.cpp:131] Top shape: 128 64 14 14 (1605632)
I0321 14:30:40.010542 14821 net.cpp:139] Memory required for data: 3557057544
I0321 14:30:40.010552 14821 layer_factory.hpp:77] Creating layer inception_4e/relu_pool_proj
I0321 14:30:40.010560 14821 net.cpp:86] Creating Layer inception_4e/relu_pool_proj
I0321 14:30:40.010567 14821 net.cpp:408] inception_4e/relu_pool_proj <- inception_4e/pool_proj
I0321 14:30:40.010574 14821 net.cpp:369] inception_4e/relu_pool_proj -> inception_4e/pool_proj (in-place)
I0321 14:30:40.010584 14821 net.cpp:124] Setting up inception_4e/relu_pool_proj
I0321 14:30:40.010591 14821 net.cpp:131] Top shape: 128 64 14 14 (1605632)
I0321 14:30:40.010597 14821 net.cpp:139] Memory required for data: 3563480072
I0321 14:30:40.010602 14821 layer_factory.hpp:77] Creating layer inception_4e/output
I0321 14:30:40.010619 14821 net.cpp:86] Creating Layer inception_4e/output
I0321 14:30:40.010625 14821 net.cpp:408] inception_4e/output <- inception_4e/1x1
I0321 14:30:40.010637 14821 net.cpp:408] inception_4e/output <- inception_4e/3x3
I0321 14:30:40.010644 14821 net.cpp:408] inception_4e/output <- inception_4e/5x5
I0321 14:30:40.010651 14821 net.cpp:408] inception_4e/output <- inception_4e/pool_proj
I0321 14:30:40.010659 14821 net.cpp:382] inception_4e/output -> inception_4e/output
I0321 14:30:40.010699 14821 net.cpp:124] Setting up inception_4e/output
I0321 14:30:40.010715 14821 net.cpp:131] Top shape: 128 416 14 14 (10436608)
I0321 14:30:40.010720 14821 net.cpp:139] Memory required for data: 3605226504
I0321 14:30:40.010725 14821 layer_factory.hpp:77] Creating layer conv_16
I0321 14:30:40.010738 14821 net.cpp:86] Creating Layer conv_16
I0321 14:30:40.010748 14821 net.cpp:408] conv_16 <- inception_4e/output
I0321 14:30:40.010758 14821 net.cpp:382] conv_16 -> conv_16
I0321 14:30:40.013053 14821 net.cpp:124] Setting up conv_16
I0321 14:30:40.013077 14821 net.cpp:131] Top shape: 128 128 14 14 (3211264)
I0321 14:30:40.013089 14821 net.cpp:139] Memory required for data: 3618071560
I0321 14:30:40.013108 14821 layer_factory.hpp:77] Creating layer relu_16
I0321 14:30:40.013125 14821 net.cpp:86] Creating Layer relu_16
I0321 14:30:40.013139 14821 net.cpp:408] relu_16 <- conv_16
I0321 14:30:40.013155 14821 net.cpp:369] relu_16 -> conv_16 (in-place)
I0321 14:30:40.013175 14821 net.cpp:124] Setting up relu_16
I0321 14:30:40.013208 14821 net.cpp:131] Top shape: 128 128 14 14 (3211264)
I0321 14:30:40.013228 14821 net.cpp:139] Memory required for data: 3630916616
I0321 14:30:40.013242 14821 layer_factory.hpp:77] Creating layer conv_face_predict
I0321 14:30:40.013286 14821 net.cpp:86] Creating Layer conv_face_predict
I0321 14:30:40.013303 14821 net.cpp:408] conv_face_predict <- conv_16
I0321 14:30:40.013324 14821 net.cpp:382] conv_face_predict -> conv_face_predict
I0321 14:30:40.013736 14821 net.cpp:124] Setting up conv_face_predict
I0321 14:30:40.013772 14821 net.cpp:131] Top shape: 128 20 14 14 (501760)
I0321 14:30:40.013787 14821 net.cpp:139] Memory required for data: 3632923656
I0321 14:30:40.013819 14821 layer_factory.hpp:77] Creating layer pool5/7x7_s1
I0321 14:30:40.013841 14821 net.cpp:86] Creating Layer pool5/7x7_s1
I0321 14:30:40.013859 14821 net.cpp:408] pool5/7x7_s1 <- conv_face_predict
I0321 14:30:40.013883 14821 net.cpp:382] pool5/7x7_s1 -> pool5/7x7_s1
I0321 14:30:40.013936 14821 net.cpp:124] Setting up pool5/7x7_s1
I0321 14:30:40.013955 14821 net.cpp:131] Top shape: 128 20 11 11 (309760)
I0321 14:30:40.013967 14821 net.cpp:139] Memory required for data: 3634162696
I0321 14:30:40.013980 14821 layer_factory.hpp:77] Creating layer pool5/drop_7x7_s1
I0321 14:30:40.014003 14821 net.cpp:86] Creating Layer pool5/drop_7x7_s1
I0321 14:30:40.014019 14821 net.cpp:408] pool5/drop_7x7_s1 <- pool5/7x7_s1
I0321 14:30:40.014035 14821 net.cpp:369] pool5/drop_7x7_s1 -> pool5/7x7_s1 (in-place)
I0321 14:30:40.014091 14821 net.cpp:124] Setting up pool5/drop_7x7_s1
I0321 14:30:40.014111 14821 net.cpp:131] Top shape: 128 20 11 11 (309760)
I0321 14:30:40.014122 14821 net.cpp:139] Memory required for data: 3635401736
I0321 14:30:40.014133 14821 layer_factory.hpp:77] Creating layer loss3_my/predict
I0321 14:30:40.014154 14821 net.cpp:86] Creating Layer loss3_my/predict
I0321 14:30:40.014168 14821 net.cpp:408] loss3_my/predict <- pool5/7x7_s1
I0321 14:30:40.014192 14821 net.cpp:382] loss3_my/predict -> loss3_my/predict
I0321 14:30:40.014363 14821 net.cpp:124] Setting up loss3_my/predict
I0321 14:30:40.014382 14821 net.cpp:131] Top shape: 128 1 (128)
I0321 14:30:40.014394 14821 net.cpp:139] Memory required for data: 3635402248
I0321 14:30:40.014415 14821 layer_factory.hpp:77] Creating layer loss3_my/loss3_my
I0321 14:30:40.014525 14821 net.cpp:86] Creating Layer loss3_my/loss3_my
I0321 14:30:40.014544 14821 net.cpp:408] loss3_my/loss3_my <- loss3_my/predict
I0321 14:30:40.014560 14821 net.cpp:408] loss3_my/loss3_my <- label_data_1_split_2
I0321 14:30:40.014580 14821 net.cpp:382] loss3_my/loss3_my -> loss3_my/loss3_my
I0321 14:30:40.014786 14821 net.cpp:124] Setting up loss3_my/loss3_my
I0321 14:30:40.014807 14821 net.cpp:131] Top shape: 1 (1)
I0321 14:30:40.014819 14821 net.cpp:134]     with loss weight 10
I0321 14:30:40.014848 14821 net.cpp:139] Memory required for data: 3635402252
I0321 14:30:40.014863 14821 net.cpp:200] loss3_my/loss3_my needs backward computation.
I0321 14:30:40.014876 14821 net.cpp:200] loss3_my/predict needs backward computation.
I0321 14:30:40.014889 14821 net.cpp:200] pool5/drop_7x7_s1 needs backward computation.
…
I0321 14:30:40.020419 14821 solver.cpp:173] Creating test net (#0) specified by net file: models/age_google_half_3loss/train_val.prototxt
I0321 14:30:40.020612 14821 net.cpp:296] The NetState phase (1) differed from the phase (0) specified by a rule in layer data
I0321 14:30:40.021641 14821 net.cpp:53] Initializing net from parameters: 
name: "GoogleNet-half-3loss"
state {
  phase: TEST
}
layer {
  name: "data"
  type: "Python"
  top: "data"
  top: "label"
  include {
    phase: TEST
  }
  python_param {
    module: "data_generator"
    layer: "DataLayer"
    param_str: "/home/zhongzhen/dataset/attribute/age/test.txt"
  }
}
layer {
  name: "conv1/7x7_s2"
  type: "Convolution"
  bottom: "data"
  top: "conv1/7x7_s2"
  param {
    lr_mult: 1
    decay_mult: 1
  }
  param {
    lr_mult: 2
    decay_mult: 0
  }
  convolution_param {
    num_output: 32
    pad: 3
    kernel_size: 7
    stride: 2
    weight_filler {
      type: "xavier"
      std: 0.1
    }
    bias_filler {
      type: "constant"
      value: 0.2
    }
  }
}
layer {
  name: "conv1/relu_7x7"
  type: "ReLU"
  bottom: "conv1/7x7_s2"
  top: "conv1/7x7_s2"
}
layer {
  name: "pool1/3x3_s2"
  type: "Pooling"
  bottom: "conv1/7x7_s2"
  top: "pool1/3x3_s2"
  pooling_param {
    pool: MAX
    kernel_size: 3
    stride: 2
  }
}
layer {
  name: "pool1/norm1"
  type: "LRN"
  bottom: "pool1/3x3_s2"
  top: "pool1/norm1"
  lrn_param {
    local_size: 5
    alpha: 0.0001
    beta: 0.75
  }
}
layer {
  name: "conv2/3x3_reduce"
  type: "Convolution"
  bottom: "pool1/norm1"
  top: "conv2/3x3_reduce"
  param {
    lr_mult: 1
    decay_mult: 1
  }
  param {
    lr_mult: 2
    decay_mult: 0
  }
  convolution_param {
    num_output: 32
    kernel_size: 1
    weight_filler {
      type: "xavier"
      std: 0.1
    }
    bias_filler {
      type: "constant"
      value: 0.2
    }
  }
}
layer {
  name: "conv2/relu_3x3_reduce"
  type: "ReLU"
  bottom: "conv2/3x3_reduce"
  top: "conv2/3x3_reduce"
}
layer {
  name: "conv2/3x3"
  type: "Convolution"
  bottom: "conv2/3x3_reduce"
  top: "conv2/3x3"
  param {
    lr_mult: 1
    decay_mult: 1
  }
  param {
    lr_mult: 2
    decay_mult: 0
  }
  convolution_param {
    num_output: 96
    pad: 1
    kernel_size: 3
    weight_filler {
      type: "xavier"
      std: 0.03
    }
    bias_filler {
      type: "constant"
      value: 0.2
    }
  }
}
layer {
  name: "conv2/relu_3x3"
  type: "ReLU"
  bottom: "conv2/3x3"
  top: "conv2/3x3"
}
layer {
  name: "conv2/norm2"
  type: "LRN"
  bottom: "conv2/3x3"
  top: "conv2/norm2"
  lrn_param {
    local_size: 5
    alpha: 0.0001
    beta: 0.75
  }
}
layer {
  name: "pool2/3x3_s2"
  type: "Pooling"
  bottom: "conv2/norm2"
  top: "pool2/3x3_s2"
  pooling_param {
    pool: MAX
    kernel_size: 3
    stride: 2
  }
}
layer {
  name: "inception_3a/1x1"
  type: "Convolution"
  bottom: "pool2/3x3_s2"
  top: "inception_3a/1x1"
  param {
    lr_mult: 1
    decay_mult: 1
  }
  param {
    lr_mult: 2
    decay_mult: 0
  }
  convolution_param {
    num_output: 32
    kernel_size: 1
    weight_filler {
      type: "xavier"
      std: 0.03
    }
    bias_filler {
      type: "constant"
      value: 0.2
    }
  }
}
layer {
  name: "inception_3a/relu_1x1"
  type: "ReLU"
  bottom: "inception_3a/1x1"
  top: "inception_3a/1x1"
}
layer {
  name: "inception_3a/3x3_reduce"
  type: "Convolution"
  bottom: "pool2/3x3_s2"
  top: "inception_3a/3x3_reduce"
  param {
    lr_mult: 1
    decay_mult: 1
  }
  param {
    lr_mult: 2
    decay_mult: 0
  }
  convolution_param {
    num_output: 48
    kernel_size: 1
    weight_filler {
      type: "xavier"
      std: 0.09
    }
    bias_filler {
      type: "constant"
      value: 0.2
    }
  }
}
layer {
  name: "inception_3a/relu_3x3_reduce"
  type: "ReLU"
  bottom: "inception_3a/3x3_reduce"
  top: "inception_3a/3x3_reduce"
}
layer {
  name: "inception_3a/3x3"
  type: "Convolution"
  bottom: "inception_3a/3x3_reduce"
  top: "inception_3a/3x3"
  param {
    lr_mult: 1
    decay_mult: 1
  }
  param {
    lr_mult: 2
    decay_mult: 0
  }
  convolution_param {
    num_output: 64
    pad: 1
    kernel_size: 3
    weight_filler {
      type: "xavier"
      std: 0.03
    }
    bias_filler {
      type: "constant"
      value: 0.2
    }
  }
}
layer {
  name: "inception_3a/relu_3x3"
  type: "ReLU"
  bottom: "inception_3a/3x3"
  top: "inception_3a/3x3"
}
layer {
  name: "inception_3a/5x5_reduce"
  type: "Convolution"
  bottom: "pool2/3x3_s2"
  top: "inception_3a/5x5_reduce"
  param {
    lr_mult: 1
    decay_mult: 1
  }
  param {
    lr_mult: 2
    decay_mult: 0
  }
  convolution_param {
    num_output: 8
    kernel_size: 1
    weight_filler {
      type: "xavier"
      std: 0.2
    }
    bias_filler {
      type: "constant"
      value: 0.2
    }
  }
}
layer {
  name: "inception_3a/relu_5x5_reduce"
  type: "ReLU"
  bottom: "inception_3a/5x5_reduce"
  top: "inception_3a/5x5_reduce"
}
layer {
  name: "inception_3a/5x5"
  type: "Convolution"
  bottom: "inception_3a/5x5_reduce"
  top: "inception_3a/5x5"
  param {
    lr_mult: 1
    decay_mult: 1
  }
  param {
    lr_mult: 2
    decay_mult: 0
  }
  convolution_param {
    num_output: 16
    pad: 2
    kernel_size: 5
    weight_filler {
      type: "xavier"
      std: 0.03
    }
    bias_filler {
      type: "constant"
      value: 0.2
    }
  }
}
layer {
  name: "inception_3a/relu_5x5"
  type: "ReLU"
  bottom: "inception_3a/5x5"
  top: "inception_3a/5x5"
}
layer {
  name: "inception_3a/pool"
  type: "Pooling"
  bottom: "pool2/3x3_s2"
  top: "inception_3a/pool"
  pooling_param {
    pool: MAX
    kernel_size: 3
    stride: 1
    pad: 1
  }
}
layer {
  name: "inception_3a/pool_proj"
  type: "Convolution"
  bottom: "inception_3a/pool"
  top: "inception_3a/pool_proj"
  param {
    lr_mult: 1
    decay_mult: 1
  }
  param {
    lr_mult: 2
    decay_mult: 0
  }
  convolution_param {
    num_output: 16
    kernel_size: 1
    weight_filler {
      type: "xavier"
      std: 0.1
    }
    bias_filler {
      type: "constant"
      value: 0.2
    }
  }
}
layer {
  name: "inception_3a/relu_pool_proj"
  type: "ReLU"
  bottom: "inception_3a/pool_proj"
  top: "inception_3a/pool_proj"
}
layer {
  name: "inception_3a/output"
  type: "Concat"
  bottom: "inception_3a/1x1"
  bottom: "inception_3a/3x3"
  bottom: "inception_3a/5x5"
  bottom: "inception_3a/pool_proj"
  top: "inception_3a/output"
}
layer {
  name: "inception_3b/1x1"
  type: "Convolution"
  bottom: "inception_3a/output"
  top: "inception_3b/1x1"
  param {
    lr_mult: 1
    decay_mult: 1
  }
  param {
    lr_mult: 2
    decay_mult: 0
  }
  convolution_param {
    num_output: 64
    kernel_size: 1
    weight_filler {
      type: "xavier"
      std: 0.03
    }
    bias_filler {
      type: "constant"
      value: 0.2
    }
  }
}
layer {
  name: "inception_3b/relu_1x1"
  type: "ReLU"
  bottom: "inception_3b/1x1"
  top: "inception_3b/1x1"
}
layer {
  name: "inception_3b/3x3_reduce"
  type: "Convolution"
  bottom: "inception_3a/output"
  top: "inception_3b/3x3_reduce"
  param {
    lr_mult: 1
    decay_mult: 1
  }
  param {
    lr_mult: 2
    decay_mult: 0
  }
  convolution_param {
    num_output: 64
    kernel_size: 1
    weight_filler {
      type: "xavier"
      std: 0.09
    }
    bias_filler {
      type: "constant"
      value: 0.2
    }
  }
}
layer {
  name: "inception_3b/relu_3x3_reduce"
  type: "ReLU"
  bottom: "inception_3b/3x3_reduce"
  top: "inception_3b/3x3_reduce"
}
layer {
  name: "inception_3b/3x3"
  type: "Convolution"
  bottom: "inception_3b/3x3_reduce"
  top: "inception_3b/3x3"
  param {
    lr_mult: 1
    decay_mult: 1
  }
  param {
    lr_mult: 2
    decay_mult: 0
  }
  convolution_param {
    num_output: 96
    pad: 1
    kernel_size: 3
    weight_filler {
      type: "xavier"
      std: 0.03
    }
    bias_filler {
      type: "constant"
      value: 0.2
    }
  }
}
layer {
  name: "inception_3b/relu_3x3"
  type: "ReLU"
  bottom: "inception_3b/3x3"
  top: "inception_3b/3x3"
}
layer {
  name: "inception_3b/5x5_reduce"
  type: "Convolution"
  bottom: "inception_3a/output"
  top: "inception_3b/5x5_reduce"
  param {
    lr_mult: 1
    decay_mult: 1
  }
  param {
    lr_mult: 2
    decay_mult: 0
  }
  convolution_param {
    num_output: 16
    kernel_size: 1
    weight_filler {
      type: "xavier"
      std: 0.2
    }
    bias_filler {
      type: "constant"
      value: 0.2
    }
  }
}
layer {
  name: "inception_3b/relu_5x5_reduce"
  type: "ReLU"
  bottom: "inception_3b/5x5_reduce"
  top: "inception_3b/5x5_reduce"
}
layer {
  name: "inception_3b/5x5"
  type: "Convolution"
  bottom: "inception_3b/5x5_reduce"
  top: "inception_3b/5x5"
  param {
    lr_mult: 1
    decay_mult: 1
  }
  param {
    lr_mult: 2
    decay_mult: 0
  }
  convolution_param {
    num_output: 48
    pad: 2
    kernel_size: 5
    weight_filler {
      type: "xavier"
      std: 0.03
    }
    bias_filler {
      type: "constant"
      value: 0.2
    }
  }
}
layer {
  name: "inception_3b/relu_5x5"
  type: "ReLU"
  bottom: "inception_3b/5x5"
  top: "inception_3b/5x5"
}
layer {
  name: "inception_3b/pool"
  type: "Pooling"
  bottom: "inception_3a/output"
  top: "inception_3b/pool"
  pooling_param {
    pool: MAX
    kernel_size: 3
    stride: 1
    pad: 1
  }
}
layer {
  name: "inception_3b/pool_proj"
  type: "Convolution"
  bottom: "inception_3b/pool"
  top: "inception_3b/pool_proj"
  param {
    lr_mult: 1
    decay_mult: 1
  }
  param {
    lr_mult: 2
    decay_mult: 0
  }
  convolution_param {
    num_output: 32
    kernel_size: 1
    weight_filler {
      type: "xavier"
      std: 0.1
    }
    bias_filler {
      type: "constant"
      value: 0.2
    }
  }
}
layer {
  name: "inception_3b/relu_pool_proj"
  type: "ReLU"
  bottom: "inception_3b/pool_proj"
  top: "inception_3b/pool_proj"
}
layer {
  name: "inception_3b/output"
  type: "Concat"
  bottom: "inception_3b/1x1"
  bottom: "inception_3b/3x3"
  bottom: "inception_3b/5x5"
  bottom: "inception_3b/pool_proj"
  top: "inception_3b/output"
}
layer {
  name: "loss1_my/ave_pool"
  type: "Pooling"
  bottom: "inception_3b/output"
  top: "loss1_my/ave_pool"
  pooling_param {
    pool: AVE
    kernel_size: 5
    stride: 3
  }
}
layer {
  name: "loss1_my/conv"
  type: "Convolution"
  bottom: "loss1_my/ave_pool"
  top: "loss1_my/conv"
  param {
    lr_mult: 1
    decay_mult: 1
  }
  param {
    lr_mult: 2
    decay_mult: 0
  }
  convolution_param {
    num_output: 20
    kernel_size: 1
    weight_filler {
      type: "xavier"
    }
    bias_filler {
      type: "constant"
      value: 0.2
    }
  }
}
layer {
  name: "loss1_my/relu_conv"
  type: "ReLU"
  bottom: "loss1_my/conv"
  top: "loss1_my/conv"
}
layer {
  name: "loss1_my/drop_conv"
  type: "Dropout"
  bottom: "loss1_my/conv"
  top: "loss1_my/conv"
  dropout_param {
    dropout_ratio: 0.7
  }
}
layer {
  name: "loss1_lite/classifier"
  type: "InnerProduct"
  bottom: "loss1_my/conv"
  top: "loss1_lite/classifier"
  param {
    lr_mult: 1
    decay_mult: 1
  }
  param {
    lr_mult: 2
    decay_mult: 0
  }
  inner_product_param {
    num_output: 1
    weight_filler {
      type: "xavier"
    }
    bias_filler {
      type: "constant"
      value: 0
    }
  }
}
layer {
  name: "loss1_my/loss"
  type: "Python"
  bottom: "loss1_lite/classifier"
  bottom: "label"
  top: "loss1_my/loss"
  loss_weight: 0.1
  python_param {
    module: "robust_loss"
    layer: "RobustLossLayer"
  }
}
layer {
  name: "pool3/3x3_s2"
  type: "Pooling"
  bottom: "inception_3b/output"
  top: "pool3/3x3_s2"
  pooling_param {
    pool: MAX
    kernel_size: 3
    stride: 2
  }
}
layer {
  name: "inception_4a/1x1"
  type: "Convolution"
  bottom: "pool3/3x3_s2"
  top: "inception_4a/1x1"
  param {
    lr_mult: 1
    decay_mult: 1
  }
  param {
    lr_mult: 2
    decay_mult: 0
  }
  convolution_param {
    num_output: 96
    kernel_size: 1
    weight_filler {
      type: "xavier"
      std: 0.03
    }
    bias_filler {
      type: "constant"
      value: 0.2
    }
  }
}
layer {
  name: "inception_4a/relu_1x1"
  type: "ReLU"
  bottom: "inception_4a/1x1"
  top: "inception_4a/1x1"
}
layer {
  name: "inception_4a/3x3_reduce"
  type: "Convolution"
  bottom: "pool3/3x3_s2"
  top: "inception_4a/3x3_reduce"
  param {
    lr_mult: 1
    decay_mult: 1
  }
  param {
    lr_mult: 2
    decay_mult: 0
  }
  convolution_param {
    num_output: 48
    kernel_size: 1
    weight_filler {
      type: "xavier"
      std: 0.09
    }
    bias_filler {
      type: "constant"
      value: 0.2
    }
  }
}
layer {
  name: "inception_4a/relu_3x3_reduce"
  type: "ReLU"
  bottom: "inception_4a/3x3_reduce"
  top: "inception_4a/3x3_reduce"
}
layer {
  name: "inception_4a/3x3"
  type: "Convolution"
  bottom: "inception_4a/3x3_reduce"
  top: "inception_4a/3x3"
  param {
    lr_mult: 1
    decay_mult: 1
  }
  param {
    lr_mult: 2
    decay_mult: 0
  }
  convolution_param {
    num_output: 104
    pad: 1
    kernel_size: 3
    weight_filler {
      type: "xavier"
      std: 0.03
    }
    bias_filler {
      type: "constant"
      value: 0.2
    }
  }
}
layer {
  name: "inception_4a/relu_3x3"
  type: "ReLU"
  bottom: "inception_4a/3x3"
  top: "inception_4a/3x3"
}
layer {
  name: "inception_4a/5x5_reduce"
  type: "Convolution"
  bottom: "pool3/3x3_s2"
  top: "inception_4a/5x5_reduce"
  param {
    lr_mult: 1
    decay_mult: 1
  }
  param {
    lr_mult: 2
    decay_mult: 0
  }
  convolution_param {
    num_output: 8
    kernel_size: 1
    weight_filler {
      type: "xavier"
      std: 0.2
    }
    bias_filler {
      type: "constant"
      value: 0.2
    }
  }
}
layer {
  name: "inception_4a/relu_5x5_reduce"
  type: "ReLU"
  bottom: "inception_4a/5x5_reduce"
  top: "inception_4a/5x5_reduce"
}
layer {
  name: "inception_4a/5x5"
  type: "Convolution"
  bottom: "inception_4a/5x5_reduce"
  top: "inception_4a/5x5"
  param {
    lr_mult: 1
    decay_mult: 1
  }
  param {
    lr_mult: 2
    decay_mult: 0
  }
  convolution_param {
    num_output: 24
    pad: 2
    kernel_size: 5
    weight_filler {
      type: "xavier"
      std: 0.03
    }
    bias_filler {
      type: "constant"
      value: 0.2
    }
  }
}
layer {
  name: "inception_4a/relu_5x5"
  type: "ReLU"
  bottom: "inception_4a/5x5"
  top: "inception_4a/5x5"
}
layer {
  name: "inception_4a/pool"
  type: "Pooling"
  bottom: "pool3/3x3_s2"
  top: "inception_4a/pool"
  pooling_param {
    pool: MAX
    kernel_size: 3
    stride: 1
    pad: 1
  }
}
layer {
  name: "inception_4a/pool_proj"
  type: "Convolution"
  bottom: "inception_4a/pool"
  top: "inception_4a/pool_proj"
  param {
    lr_mult: 1
    decay_mult: 1
  }
  param {
    lr_mult: 2
    decay_mult: 0
  }
  convolution_param {
    num_output: 32
    kernel_size: 1
    weight_filler {
      type: "xavier"
      std: 0.1
    }
    bias_filler {
      type: "constant"
      value: 0.2
    }
  }
}
layer {
  name: "inception_4a/relu_pool_proj"
  type: "ReLU"
  bottom: "inception_4a/pool_proj"
  top: "inception_4a/pool_proj"
}
layer {
  name: "inception_4a/output"
  type: "Concat"
  bottom: "inception_4a/1x1"
  bottom: "inception_4a/3x3"
  bottom: "inception_4a/5x5"
  bottom: "inception_4a/pool_proj"
  top: "inception_4a/output"
}
layer {
  name: "inception_4b/1x1"
  type: "Convolution"
  bottom: "inception_4a/output"
  top: "inception_4b/1x1"
  param {
    lr_mult: 1
    decay_mult: 1
  }
  param {
    lr_mult: 2
    decay_mult: 0
  }
  convolution_param {
    num_output: 80
    kernel_size: 1
    weight_filler {
      type: "xavier"
      std: 0.03
    }
    bias_filler {
      type: "constant"
      value: 0.2
    }
  }
}
layer {
  name: "inception_4b/relu_1x1"
  type: "ReLU"
  bottom: "inception_4b/1x1"
  top: "inception_4b/1x1"
}
layer {
  name: "inception_4b/3x3_reduce"
  type: "Convolution"
  bottom: "inception_4a/output"
  top: "inception_4b/3x3_reduce"
  param {
    lr_mult: 1
    decay_mult: 1
  }
  param {
    lr_mult: 2
    decay_mult: 0
  }
  convolution_param {
    num_output: 56
    kernel_size: 1
    weight_filler {
      type: "xavier"
      std: 0.09
    }
    bias_filler {
      type: "constant"
      value: 0.2
    }
  }
}
layer {
  name: "inception_4b/relu_3x3_reduce"
  type: "ReLU"
  bottom: "inception_4b/3x3_reduce"
  top: "inception_4b/3x3_reduce"
}
layer {
  name: "inception_4b/3x3"
  type: "Convolution"
  bottom: "inception_4b/3x3_reduce"
  top: "inception_4b/3x3"
  param {
    lr_mult: 1
    decay_mult: 1
  }
  param {
    lr_mult: 2
    decay_mult: 0
  }
  convolution_param {
    num_output: 112
    pad: 1
    kernel_size: 3
    weight_filler {
      type: "xavier"
      std: 0.03
    }
    bias_filler {
      type: "constant"
      value: 0.2
    }
  }
}
layer {
  name: "inception_4b/relu_3x3"
  type: "ReLU"
  bottom: "inception_4b/3x3"
  top: "inception_4b/3x3"
}
layer {
  name: "inception_4b/5x5_reduce"
  type: "Convolution"
  bottom: "inception_4a/output"
  top: "inception_4b/5x5_reduce"
  param {
    lr_mult: 1
    decay_mult: 1
  }
  param {
    lr_mult: 2
    decay_mult: 0
  }
  convolution_param {
    num_output: 12
    kernel_size: 1
    weight_filler {
      type: "xavier"
      std: 0.2
    }
    bias_filler {
      type: "constant"
      value: 0.2
    }
  }
}
layer {
  name: "inception_4b/relu_5x5_reduce"
  type: "ReLU"
  bottom: "inception_4b/5x5_reduce"
  top: "inception_4b/5x5_reduce"
}
layer {
  name: "inception_4b/5x5"
  type: "Convolution"
  bottom: "inception_4b/5x5_reduce"
  top: "inception_4b/5x5"
  param {
    lr_mult: 1
    decay_mult: 1
  }
  param {
    lr_mult: 2
    decay_mult: 0
  }
  convolution_param {
    num_output: 32
    pad: 2
    kernel_size: 5
    weight_filler {
      type: "xavier"
      std: 0.03
    }
    bias_filler {
      type: "constant"
      value: 0.2
    }
  }
}
layer {
  name: "inception_4b/relu_5x5"
  type: "ReLU"
  bottom: "inception_4b/5x5"
  top: "inception_4b/5x5"
}
layer {
  name: "inception_4b/pool"
  type: "Pooling"
  bottom: "inception_4a/output"
  top: "inception_4b/pool"
  pooling_param {
    pool: MAX
    kernel_size: 3
    stride: 1
    pad: 1
  }
}
layer {
  name: "inception_4b/pool_proj"
  type: "Convolution"
  bottom: "inception_4b/pool"
  top: "inception_4b/pool_proj"
  param {
    lr_mult: 1
    decay_mult: 1
  }
  param {
    lr_mult: 2
    decay_mult: 0
  }
  convolution_param {
    num_output: 32
    kernel_size: 1
    weight_filler {
      type: "xavier"
      std: 0.1
    }
    bias_filler {
      type: "constant"
      value: 0.2
    }
  }
}
layer {
  name: "inception_4b/relu_pool_proj"
  type: "ReLU"
  bottom: "inception_4b/pool_proj"
  top: "inception_4b/pool_proj"
}
layer {
  name: "inception_4b/output"
  type: "Concat"
  bottom: "inception_4b/1x1"
  bottom: "inception_4b/3x3"
  bottom: "inception_4b/5x5"
  bottom: "inception_4b/pool_proj"
  top: "inception_4b/output"
}
layer {
  name: "loss2_my/ave_pool"
  type: "Pooling"
  bottom: "inception_4b/output"
  top: "loss2_my/ave_pool"
  pooling_param {
    pool: AVE
    kernel_size: 5
    stride: 3
  }
}
layer {
  name: "loss2_my/conv"
  type: "Convolution"
  bottom: "loss2_my/ave_pool"
  top: "loss2_my/conv"
  param {
    lr_mult: 1
    decay_mult: 1
  }
  param {
    lr_mult: 2
    decay_mult: 0
  }
  convolution_param {
    num_output: 20
    kernel_size: 1
    weight_filler {
      type: "xavier"
    }
    bias_filler {
      type: "constant"
      value: 0.2
    }
  }
}
layer {
  name: "loss2_my/relu_conv"
  type: "ReLU"
  bottom: "loss2_my/conv"
  top: "loss2_my/conv"
}
layer {
  name: "loss2_my/drop_fc"
  type: "Dropout"
  bottom: "loss2_my/conv"
  top: "loss2_my/conv"
  dropout_param {
    dropout_ratio: 0.7
  }
}
layer {
  name: "loss2_lite/classifier"
  type: "InnerProduct"
  bottom: "loss2_my/conv"
  top: "loss2_lite/classifier"
  param {
    lr_mult: 1
    decay_mult: 1
  }
  param {
    lr_mult: 2
    decay_mult: 0
  }
  inner_product_param {
    num_output: 1
    weight_filler {
      type: "xavier"
    }
    bias_filler {
      type: "constant"
      value: 0
    }
  }
}
layer {
  name: "loss2_my/loss"
  type: "Python"
  bottom: "loss2_lite/classifier"
  bottom: "label"
  top: "loss2_my/loss"
  loss_weight: 0.4
  python_param {
    module: "robust_loss"
    layer: "RobustLossLayer"
  }
}
layer {
  name: "inception_4c/1x1"
  type: "Convolution"
  bottom: "inception_4b/output"
  top: "inception_4c/1x1"
  param {
    lr_mult: 1
    decay_mult: 1
  }
  param {
    lr_mult: 2
    decay_mult: 0
  }
  convolution_param {
    num_output: 64
    kernel_size: 1
    weight_filler {
      type: "xavier"
      std: 0.03
    }
    bias_filler {
      type: "constant"
      value: 0.2
    }
  }
}
layer {
  name: "inception_4c/relu_1x1"
  type: "ReLU"
  bottom: "inception_4c/1x1"
  top: "inception_4c/1x1"
}
layer {
  name: "inception_4c/3x3_reduce"
  type: "Convolution"
  bottom: "inception_4b/output"
  top: "inception_4c/3x3_reduce"
  param {
    lr_mult: 1
    decay_mult: 1
  }
  param {
    lr_mult: 2
    decay_mult: 0
  }
  convolution_param {
    num_output: 64
    kernel_size: 1
    weight_filler {
      type: "xavier"
      std: 0.09
    }
    bias_filler {
      type: "constant"
      value: 0.2
    }
  }
}
layer {
  name: "inception_4c/relu_3x3_reduce"
  type: "ReLU"
  bottom: "inception_4c/3x3_reduce"
  top: "inception_4c/3x3_reduce"
}
layer {
  name: "inception_4c/3x3"
  type: "Convolution"
  bottom: "inception_4c/3x3_reduce"
  top: "inception_4c/3x3"
  param {
    lr_mult: 1
    decay_mult: 1
  }
  param {
    lr_mult: 2
    decay_mult: 0
  }
  convolution_param {
    num_output: 128
    pad: 1
    kernel_size: 3
    weight_filler {
      type: "xavier"
      std: 0.03
    }
    bias_filler {
      type: "constant"
      value: 0.2
    }
  }
}
layer {
  name: "inception_4c/relu_3x3"
  type: "ReLU"
  bottom: "inception_4c/3x3"
  top: "inception_4c/3x3"
}
layer {
  name: "inception_4c/5x5_reduce"
  type: "Convolution"
  bottom: "inception_4b/output"
  top: "inception_4c/5x5_reduce"
  param {
    lr_mult: 1
    decay_mult: 1
  }
  param {
    lr_mult: 2
    decay_mult: 0
  }
  convolution_param {
    num_output: 12
    kernel_size: 1
    weight_filler {
      type: "xavier"
      std: 0.2
    }
    bias_filler {
      type: "constant"
      value: 0.2
    }
  }
}
layer {
  name: "inception_4c/relu_5x5_reduce"
  type: "ReLU"
  bottom: "inception_4c/5x5_reduce"
  top: "inception_4c/5x5_reduce"
}
layer {
  name: "inception_4c/5x5"
  type: "Convolution"
  bottom: "inception_4c/5x5_reduce"
  top: "inception_4c/5x5"
  param {
    lr_mult: 1
    decay_mult: 1
  }
  param {
    lr_mult: 2
    decay_mult: 0
  }
  convolution_param {
    num_output: 32
    pad: 2
    kernel_size: 5
    weight_filler {
      type: "xavier"
      std: 0.03
    }
    bias_filler {
      type: "constant"
      value: 0.2
    }
  }
}
layer {
  name: "inception_4c/relu_5x5"
  type: "ReLU"
  bottom: "inception_4c/5x5"
  top: "inception_4c/5x5"
}
layer {
  name: "inception_4c/pool"
  type: "Pooling"
  bottom: "inception_4b/output"
  top: "inception_4c/pool"
  pooling_param {
    pool: MAX
    kernel_size: 3
    stride: 1
    pad: 1
  }
}
layer {
  name: "inception_4c/pool_proj"
  type: "Convolution"
  bottom: "inception_4c/pool"
  top: "inception_4c/pool_proj"
  param {
    lr_mult: 1
    decay_mult: 1
  }
  param {
    lr_mult: 2
    decay_mult: 0
  }
  convolution_param {
    num_output: 32
    kernel_size: 1
    weight_filler {
      type: "xavier"
      std: 0.1
    }
    bias_filler {
      type: "constant"
      value: 0.2
    }
  }
}
layer {
  name: "inception_4c/relu_pool_proj"
  type: "ReLU"
  bottom: "inception_4c/pool_proj"
  top: "inception_4c/pool_proj"
}
layer {
  name: "inception_4c/output"
  type: "Concat"
  bottom: "inception_4c/1x1"
  bottom: "inception_4c/3x3"
  bottom: "inception_4c/5x5"
  bottom: "inception_4c/pool_proj"
  top: "inception_4c/output"
}
layer {
  name: "inception_4d/1x1"
  type: "Convolution"
  bottom: "inception_4c/output"
  top: "inception_4d/1x1"
  param {
    lr_mult: 1
    decay_mult: 1
  }
  param {
    lr_mult: 2
    decay_mult: 0
  }
  convolution_param {
    num_output: 56
    kernel_size: 1
    weight_filler {
      type: "xavier"
      std: 0.03
    }
    bias_filler {
      type: "constant"
      value: 0.2
    }
  }
}
layer {
  name: "inception_4d/relu_1x1"
  type: "ReLU"
  bottom: "inception_4d/1x1"
  top: "inception_4d/1x1"
}
layer {
  name: "inception_4d/3x3_reduce"
  type: "Convolution"
  bottom: "inception_4c/output"
  top: "inception_4d/3x3_reduce"
  param {
    lr_mult: 1
    decay_mult: 1
  }
  param {
    lr_mult: 2
    decay_mult: 0
  }
  convolution_param {
    num_output: 72
    kernel_size: 1
    weight_filler {
      type: "xavier"
      std: 0.09
    }
    bias_filler {
      type: "constant"
      value: 0.2
    }
  }
}
layer {
  name: "inception_4d/relu_3x3_reduce"
  type: "ReLU"
  bottom: "inception_4d/3x3_reduce"
  top: "inception_4d/3x3_reduce"
}
layer {
  name: "inception_4d/3x3"
  type: "Convolution"
  bottom: "inception_4d/3x3_reduce"
  top: "inception_4d/3x3"
  param {
    lr_mult: 1
    decay_mult: 1
  }
  param {
    lr_mult: 2
    decay_mult: 0
  }
  convolution_param {
    num_output: 144
    pad: 1
    kernel_size: 3
    weight_filler {
      type: "xavier"
      std: 0.03
    }
    bias_filler {
      type: "constant"
      value: 0.2
    }
  }
}
layer {
  name: "inception_4d/relu_3x3"
  type: "ReLU"
  bottom: "inception_4d/3x3"
  top: "inception_4d/3x3"
}
layer {
  name: "inception_4d/5x5_reduce"
  type: "Convolution"
  bottom: "inception_4c/output"
  top: "inception_4d/5x5_reduce"
  param {
    lr_mult: 1
    decay_mult: 1
  }
  param {
    lr_mult: 2
    decay_mult: 0
  }
  convolution_param {
    num_output: 16
    kernel_size: 1
    weight_filler {
      type: "xavier"
      std: 0.2
    }
    bias_filler {
      type: "constant"
      value: 0.2
    }
  }
}
layer {
  name: "inception_4d/relu_5x5_reduce"
  type: "ReLU"
  bottom: "inception_4d/5x5_reduce"
  top: "inception_4d/5x5_reduce"
}
layer {
  name: "inception_4d/5x5"
  type: "Convolution"
  bottom: "inception_4d/5x5_reduce"
  top: "inception_4d/5x5"
  param {
    lr_mult: 1
    decay_mult: 1
  }
  param {
    lr_mult: 2
    decay_mult: 0
  }
  convolution_param {
    num_output: 32
    pad: 2
    kernel_size: 5
    weight_filler {
      type: "xavier"
      std: 0.03
    }
    bias_filler {
      type: "constant"
      value: 0.2
    }
  }
}
layer {
  name: "inception_4d/relu_5x5"
  type: "ReLU"
  bottom: "inception_4d/5x5"
  top: "inception_4d/5x5"
}
layer {
  name: "inception_4d/pool"
  type: "Pooling"
  bottom: "inception_4c/output"
  top: "inception_4d/pool"
  pooling_param {
    pool: MAX
    kernel_size: 3
    stride: 1
    pad: 1
  }
}
layer {
  name: "inception_4d/pool_proj"
  type: "Convolution"
  bottom: "inception_4d/pool"
  top: "inception_4d/pool_proj"
  param {
    lr_mult: 1
    decay_mult: 1
  }
  param {
    lr_mult: 2
    decay_mult: 0
  }
  convolution_param {
    num_output: 32
    kernel_size: 1
    weight_filler {
      type: "xavier"
      std: 0.1
    }
    bias_filler {
      type: "constant"
      value: 0.2
    }
  }
}
layer {
  name: "inception_4d/relu_pool_proj"
  type: "ReLU"
  bottom: "inception_4d/pool_proj"
  top: "inception_4d/pool_proj"
}
layer {
  name: "inception_4d/output"
  type: "Concat"
  bottom: "inception_4d/1x1"
  bottom: "inception_4d/3x3"
  bottom: "inception_4d/5x5"
  bottom: "inception_4d/pool_proj"
  top: "inception_4d/output"
}
layer {
  name: "inception_4e/1x1"
  type: "Convolution"
  bottom: "inception_4d/output"
  top: "inception_4e/1x1"
  param {
    lr_mult: 1
    decay_mult: 1
  }
  param {
    lr_mult: 2
    decay_mult: 0
  }
  convolution_param {
    num_output: 128
    kernel_size: 1
    weight_filler {
      type: "xavier"
      std: 0.03
    }
    bias_filler {
      type: "constant"
      value: 0.2
    }
  }
}
layer {
  name: "inception_4e/relu_1x1"
  type: "ReLU"
  bottom: "inception_4e/1x1"
  top: "inception_4e/1x1"
}
layer {
  name: "inception_4e/3x3_reduce"
  type: "Convolution"
  bottom: "inception_4d/output"
  top: "inception_4e/3x3_reduce"
  param {
    lr_mult: 1
    decay_mult: 1
  }
  param {
    lr_mult: 2
    decay_mult: 0
  }
  convolution_param {
    num_output: 80
    kernel_size: 1
    weight_filler {
      type: "xavier"
      std: 0.09
    }
    bias_filler {
      type: "constant"
      value: 0.2
    }
  }
}
layer {
  name: "inception_4e/relu_3x3_reduce"
  type: "ReLU"
  bottom: "inception_4e/3x3_reduce"
  top: "inception_4e/3x3_reduce"
}
layer {
  name: "inception_4e/3x3"
  type: "Convolution"
  bottom: "inception_4e/3x3_reduce"
  top: "inception_4e/3x3"
  param {
    lr_mult: 1
    decay_mult: 1
  }
  param {
    lr_mult: 2
    decay_mult: 0
  }
  convolution_param {
    num_output: 160
    pad: 1
    kernel_size: 3
    weight_filler {
      type: "xavier"
      std: 0.03
    }
    bias_filler {
      type: "constant"
      value: 0.2
    }
  }
}
layer {
  name: "inception_4e/relu_3x3"
  type: "ReLU"
  bottom: "inception_4e/3x3"
  top: "inception_4e/3x3"
}
layer {
  name: "inception_4e/5x5_reduce"
  type: "Convolution"
  bottom: "inception_4d/output"
  top: "inception_4e/5x5_reduce"
  param {
    lr_mult: 1
    decay_mult: 1
  }
  param {
    lr_mult: 2
    decay_mult: 0
  }
  convolution_param {
    num_output: 16
    kernel_size: 1
    weight_filler {
      type: "xavier"
      std: 0.2
    }
    bias_filler {
      type: "constant"
      value: 0.2
    }
  }
}
layer {
  name: "inception_4e/relu_5x5_reduce"
  type: "ReLU"
  bottom: "inception_4e/5x5_reduce"
  top: "inception_4e/5x5_reduce"
}
layer {
  name: "inception_4e/5x5"
  type: "Convolution"
  bottom: "inception_4e/5x5_reduce"
  top: "inception_4e/5x5"
  param {
    lr_mult: 1
    decay_mult: 1
  }
  param {
    lr_mult: 2
    decay_mult: 0
  }
  convolution_param {
    num_output: 64
    pad: 2
    kernel_size: 5
    weight_filler {
      type: "xavier"
      std: 0.03
    }
    bias_filler {
      type: "constant"
      value: 0.2
    }
  }
}
layer {
  name: "inception_4e/relu_5x5"
  type: "ReLU"
  bottom: "inception_4e/5x5"
  top: "inception_4e/5x5"
}
layer {
  name: "inception_4e/pool"
  type: "Pooling"
  bottom: "inception_4d/output"
  top: "inception_4e/pool"
  pooling_param {
    pool: MAX
    kernel_size: 3
    stride: 1
    pad: 1
  }
}
layer {
I0321 14:30:40.022821 14821 layer_factory.hpp:77] Creating layer data
I0321 14:30:40.022909 14821 net.cpp:86] Creating Layer data
I0321 14:30:40.022929 14821 net.cpp:382] data -> data
I0321 14:30:40.022953 14821 net.cpp:382] data -> label
I0321 14:30:40.056958 14821 net.cpp:124] Setting up data
I0321 14:30:40.057039 14821 net.cpp:131] Top shape: 128 3 224 224 (19267584)
I0321 14:30:40.057049 14821 net.cpp:131] Top shape: 128 1 (128)
I0321 14:30:40.057056 14821 net.cpp:139] Memory required for data: 77070848
I0321 14:30:40.057077 14821 layer_factory.hpp:77] Creating layer label_data_1_split
I0321 14:30:40.057118 14821 net.cpp:86] Creating Layer label_data_1_split
I0321 14:30:40.057132 14821 net.cpp:408] label_data_1_split <- label
I0321 14:30:40.057150 14821 net.cpp:382] label_data_1_split -> label_data_1_split_0
I0321 14:30:40.057175 14821 net.cpp:382] label_data_1_split -> label_data_1_split_1
I0321 14:30:40.057188 14821 net.cpp:382] label_data_1_split -> label_data_1_split_2
I0321 14:30:40.057199 14821 net.cpp:382] label_data_1_split -> label_data_1_split_3
I0321 14:30:40.057294 14821 net.cpp:124] Setting up label_data_1_split
I0321 14:30:40.057309 14821 net.cpp:131] Top shape: 128 1 (128)
I0321 14:30:40.057317 14821 net.cpp:131] Top shape: 128 1 (128)
I0321 14:30:40.057323 14821 net.cpp:131] Top shape: 128 1 (128)
I0321 14:30:40.057330 14821 net.cpp:131] Top shape: 128 1 (128)
I0321 14:30:40.057337 14821 net.cpp:139] Memory required for data: 77072896
I0321 14:30:40.057343 14821 layer_factory.hpp:77] Creating layer conv1/7x7_s2
I0321 14:30:40.057365 14821 net.cpp:86] Creating Layer conv1/7x7_s2
I0321 14:30:40.057374 14821 net.cpp:408] conv1/7x7_s2 <- data
I0321 14:30:40.057384 14821 net.cpp:382] conv1/7x7_s2 -> conv1/7x7_s2
I0321 14:30:40.057754 14821 net.cpp:124] Setting up conv1/7x7_s2
I0321 14:30:40.057772 14821 net.cpp:131] Top shape: 128 32 112 112 (51380224)
I0321 14:30:40.057778 14821 net.cpp:139] Memory required for data: 282593792
I0321 14:30:40.057796 14821 layer_factory.hpp:77] Creating layer conv1/relu_7x7
I0321 14:30:40.057807 14821 net.cpp:86] Creating Layer conv1/relu_7x7
I0321 14:30:40.057813 14821 net.cpp:408] conv1/relu_7x7 <- conv1/7x7_s2
I0321 14:30:40.057821 14821 net.cpp:369] conv1/relu_7x7 -> conv1/7x7_s2 (in-place)
I0321 14:30:40.057832 14821 net.cpp:124] Setting up conv1/relu_7x7
I0321 14:30:40.057848 14821 net.cpp:131] Top shape: 128 32 112 112 (51380224)
I0321 14:30:40.057854 14821 net.cpp:139] Memory required for data: 488114688
I0321 14:30:40.057859 14821 layer_factory.hpp:77] Creating layer pool1/3x3_s2
I0321 14:30:40.057873 14821 net.cpp:86] Creating Layer pool1/3x3_s2
I0321 14:30:40.057878 14821 net.cpp:408] pool1/3x3_s2 <- conv1/7x7_s2
I0321 14:30:40.057886 14821 net.cpp:382] pool1/3x3_s2 -> pool1/3x3_s2
I0321 14:30:40.057940 14821 net.cpp:124] Setting up pool1/3x3_s2
I0321 14:30:40.057955 14821 net.cpp:131] Top shape: 128 32 56 56 (12845056)
I0321 14:30:40.057960 14821 net.cpp:139] Memory required for data: 539494912
…
I0321 14:30:40.072166 14821 layer_factory.hpp:77] Creating layer inception_4a/pool_proj
I0321 14:30:40.072180 14821 net.cpp:86] Creating Layer inception_4a/pool_proj
I0321 14:30:40.072190 14821 net.cpp:408] inception_4a/pool_proj <- inception_4a/pool
I0321 14:30:40.072201 14821 net.cpp:382] inception_4a/pool_proj -> inception_4a/pool_proj
I0321 14:30:40.072549 14821 net.cpp:124] Setting up inception_4a/pool_proj
I0321 14:30:40.072566 14821 net.cpp:131] Top shape: 128 32 14 14 (802816)
I0321 14:30:40.072571 14821 net.cpp:139] Memory required for data: 2605540356
I0321 14:30:40.072580 14821 layer_factory.hpp:77] Creating layer inception_4a/relu_pool_proj
I0321 14:30:40.072592 14821 net.cpp:86] Creating Layer inception_4a/relu_pool_proj
I0321 14:30:40.072598 14821 net.cpp:408] inception_4a/relu_pool_proj <- inception_4a/pool_proj
I0321 14:30:40.072607 14821 net.cpp:369] inception_4a/relu_pool_proj -> inception_4a/pool_proj (in-place)
I0321 14:30:40.072618 14821 net.cpp:124] Setting up inception_4a/relu_pool_proj
I0321 14:30:40.072626 14821 net.cpp:131] Top shape: 128 32 14 14 (802816)
I0321 14:30:40.072633 14821 net.cpp:139] Memory required for data: 2608751620
I0321 14:30:40.072638 14821 layer_factory.hpp:77] Creating layer inception_4a/output
I0321 14:30:40.072654 14821 net.cpp:86] Creating Layer inception_4a/output
I0321 14:30:40.072664 14821 net.cpp:408] inception_4a/output <- inception_4a/1x1
I0321 14:30:40.072671 14821 net.cpp:408] inception_4a/output <- inception_4a/3x3
I0321 14:30:40.072679 14821 net.cpp:408] inception_4a/output <- inception_4a/5x5
I0321 14:30:40.072685 14821 net.cpp:408] inception_4a/output <- inception_4a/pool_proj
I0321 14:30:40.072696 14821 net.cpp:382] inception_4a/output -> inception_4a/output
I0321 14:30:40.072733 14821 net.cpp:124] Setting up inception_4a/output
I0321 14:30:40.072751 14821 net.cpp:131] Top shape: 128 256 14 14 (6422528)
I0321 14:30:40.072758 14821 net.cpp:139] Memory required for data: 2634441732
I0321 14:30:40.072765 14821 layer_factory.hpp:77] Creating layer inception_4a/output_inception_4a/output_0_split
I0321 14:30:40.072774 14821 net.cpp:86] Creating Layer inception_4a/output_inception_4a/output_0_split
I0321 14:30:40.072780 14821 net.cpp:408] inception_4a/output_inception_4a/output_0_split <- inception_4a/output
I0321 14:30:40.072803 14821 net.cpp:382] inception_4a/output_inception_4a/output_0_split -> inception_4a/output_inception_4a/output_0_split_0
I0321 14:30:40.072815 14821 net.cpp:382] inception_4a/output_inception_4a/output_0_split -> inception_4a/output_inception_4a/output_0_split_1
I0321 14:30:40.072825 14821 net.cpp:382] inception_4a/output_inception_4a/output_0_split -> inception_4a/output_inception_4a/output_0_split_2
I0321 14:30:40.072839 14821 net.cpp:382] inception_4a/output_inception_4a/output_0_split -> inception_4a/output_inception_4a/output_0_split_3
I0321 14:30:40.072917 14821 net.cpp:124] Setting up inception_4a/output_inception_4a/output_0_split
I0321 14:30:40.072932 14821 net.cpp:131] Top shape: 128 256 14 14 (6422528)
I0321 14:30:40.072939 14821 net.cpp:131] Top shape: 128 256 14 14 (6422528)
I0321 14:30:40.072945 14821 net.cpp:131] Top shape: 128 256 14 14 (6422528)
I0321 14:30:40.072952 14821 net.cpp:131] Top shape: 128 256 14 14 (6422528)
I0321 14:30:40.072957 14821 net.cpp:139] Memory required for data: 2737202180
I0321 14:30:40.072963 14821 layer_factory.hpp:77] Creating layer inception_4b/1x1
I0321 14:30:40.072976 14821 net.cpp:86] Creating Layer inception_4b/1x1
I0321 14:30:40.072986 14821 net.cpp:408] inception_4b/1x1 <- inception_4a/output_inception_4a/output_0_split_0
I0321 14:30:40.072998 14821 net.cpp:382] inception_4b/1x1 -> inception_4b/1x1
I0321 14:30:40.073433 14821 net.cpp:124] Setting up inception_4b/1x1
I0321 14:30:40.073451 14821 net.cpp:131] Top shape: 128 80 14 14 (2007040)
I0321 14:30:40.073457 14821 net.cpp:139] Memory required for data: 2745230340
I0321 14:30:40.073465 14821 layer_factory.hpp:77] Creating layer inception_4b/relu_1x1
I0321 14:30:40.073478 14821 net.cpp:86] Creating Layer inception_4b/relu_1x1
I0321 14:30:40.073487 14821 net.cpp:408] inception_4b/relu_1x1 <- inception_4b/1x1
I0321 14:30:40.073496 14821 net.cpp:369] inception_4b/relu_1x1 -> inception_4b/1x1 (in-place)
I0321 14:30:40.073505 14821 net.cpp:124] Setting up inception_4b/relu_1x1
I0321 14:30:40.073515 14821 net.cpp:131] Top shape: 128 80 14 14 (2007040)
I0321 14:30:40.073521 14821 net.cpp:139] Memory required for data: 2753258500
I0321 14:30:40.073526 14821 layer_factory.hpp:77] Creating layer inception_4b/3x3_reduce
I0321 14:30:40.073539 14821 net.cpp:86] Creating Layer inception_4b/3x3_reduce
I0321 14:30:40.073549 14821 net.cpp:408] inception_4b/3x3_reduce <- inception_4a/output_inception_4a/output_0_split_1
I0321 14:30:40.073559 14821 net.cpp:382] inception_4b/3x3_reduce -> inception_4b/3x3_reduce
I0321 14:30:40.073972 14821 net.cpp:124] Setting up inception_4b/3x3_reduce
I0321 14:30:40.073993 14821 net.cpp:131] Top shape: 128 56 14 14 (1404928)
I0321 14:30:40.074002 14821 net.cpp:139] Memory required for data: 2758878212
I0321 14:30:40.074012 14821 layer_factory.hpp:77] Creating layer inception_4b/relu_3x3_reduce
I0321 14:30:40.074021 14821 net.cpp:86] Creating Layer inception_4b/relu_3x3_reduce
I0321 14:30:40.074030 14821 net.cpp:408] inception_4b/relu_3x3_reduce <- inception_4b/3x3_reduce
I0321 14:30:40.074038 14821 net.cpp:369] inception_4b/relu_3x3_reduce -> inception_4b/3x3_reduce (in-place)
I0321 14:30:40.074048 14821 net.cpp:124] Setting up inception_4b/relu_3x3_reduce
I0321 14:30:40.074057 14821 net.cpp:131] Top shape: 128 56 14 14 (1404928)
I0321 14:30:40.074064 14821 net.cpp:139] Memory required for data: 2764497924
I0321 14:30:40.074069 14821 layer_factory.hpp:77] Creating layer inception_4b/3x3
I0321 14:30:40.074082 14821 net.cpp:86] Creating Layer inception_4b/3x3
I0321 14:30:40.074091 14821 net.cpp:408] inception_4b/3x3 <- inception_4b/3x3_reduce
I0321 14:30:40.074102 14821 net.cpp:382] inception_4b/3x3 -> inception_4b/3x3
I0321 14:30:40.074861 14821 net.cpp:124] Setting up inception_4b/3x3
I0321 14:30:40.074878 14821 net.cpp:131] Top shape: 128 112 14 14 (2809856)
I0321 14:30:40.074883 14821 net.cpp:139] Memory required for data: 2775737348
I0321 14:30:40.074892 14821 layer_factory.hpp:77] Creating layer inception_4b/relu_3x3
I0321 14:30:40.074901 14821 net.cpp:86] Creating Layer inception_4b/relu_3x3
I0321 14:30:40.074926 14821 net.cpp:408] inception_4b/relu_3x3 <- inception_4b/3x3
I0321 14:30:40.074939 14821 net.cpp:369] inception_4b/relu_3x3 -> inception_4b/3x3 (in-place)
I0321 14:30:40.074951 14821 net.cpp:124] Setting up inception_4b/relu_3x3
I0321 14:30:40.074962 14821 net.cpp:131] Top shape: 128 112 14 14 (2809856)
I0321 14:30:40.074968 14821 net.cpp:139] Memory required for data: 2786976772
I0321 14:30:40.074973 14821 layer_factory.hpp:77] Creating layer inception_4b/5x5_reduce
I0321 14:30:40.074987 14821 net.cpp:86] Creating Layer inception_4b/5x5_reduce
I0321 14:30:40.074996 14821 net.cpp:408] inception_4b/5x5_reduce <- inception_4a/output_inception_4a/output_0_split_2
I0321 14:30:40.075006 14821 net.cpp:382] inception_4b/5x5_reduce -> inception_4b/5x5_reduce
I0321 14:30:40.075309 14821 net.cpp:124] Setting up inception_4b/5x5_reduce
I0321 14:30:40.075326 14821 net.cpp:131] Top shape: 128 12 14 14 (301056)
I0321 14:30:40.075332 14821 net.cpp:139] Memory required for data: 2788180996
I0321 14:30:40.075341 14821 layer_factory.hpp:77] Creating layer inception_4b/relu_5x5_reduce
I0321 14:30:40.075354 14821 net.cpp:86] Creating Layer inception_4b/relu_5x5_reduce
I0321 14:30:40.075363 14821 net.cpp:408] inception_4b/relu_5x5_reduce <- inception_4b/5x5_reduce
I0321 14:30:40.075372 14821 net.cpp:369] inception_4b/relu_5x5_reduce -> inception_4b/5x5_reduce (in-place)
I0321 14:30:40.075381 14821 net.cpp:124] Setting up inception_4b/relu_5x5_reduce
I0321 14:30:40.075392 14821 net.cpp:131] Top shape: 128 12 14 14 (301056)
I0321 14:30:40.075397 14821 net.cpp:139] Memory required for data: 2789385220
I0321 14:30:40.075402 14821 layer_factory.hpp:77] Creating layer inception_4b/5x5
I0321 14:30:40.075415 14821 net.cpp:86] Creating Layer inception_4b/5x5
I0321 14:30:40.075424 14821 net.cpp:408] inception_4b/5x5 <- inception_4b/5x5_reduce
I0321 14:30:40.075434 14821 net.cpp:382] inception_4b/5x5 -> inception_4b/5x5
I0321 14:30:40.075800 14821 net.cpp:124] Setting up inception_4b/5x5
I0321 14:30:40.075819 14821 net.cpp:131] Top shape: 128 32 14 14 (802816)
I0321 14:30:40.075826 14821 net.cpp:139] Memory required for data: 2792596484
I0321 14:30:40.075836 14821 layer_factory.hpp:77] Creating layer inception_4b/relu_5x5
I0321 14:30:40.075845 14821 net.cpp:86] Creating Layer inception_4b/relu_5x5
I0321 14:30:40.075851 14821 net.cpp:408] inception_4b/relu_5x5 <- inception_4b/5x5
I0321 14:30:40.075863 14821 net.cpp:369] inception_4b/relu_5x5 -> inception_4b/5x5 (in-place)
I0321 14:30:40.075875 14821 net.cpp:124] Setting up inception_4b/relu_5x5
I0321 14:30:40.075886 14821 net.cpp:131] Top shape: 128 32 14 14 (802816)
I0321 14:30:40.075891 14821 net.cpp:139] Memory required for data: 2795807748
I0321 14:30:40.075897 14821 layer_factory.hpp:77] Creating layer inception_4b/pool
I0321 14:30:40.075906 14821 net.cpp:86] Creating Layer inception_4b/pool
I0321 14:30:40.075912 14821 net.cpp:408] inception_4b/pool <- inception_4a/output_inception_4a/output_0_split_3
I0321 14:30:40.075920 14821 net.cpp:382] inception_4b/pool -> inception_4b/pool
I0321 14:30:40.075974 14821 net.cpp:124] Setting up inception_4b/pool
I0321 14:30:40.075989 14821 net.cpp:131] Top shape: 128 256 14 14 (6422528)
I0321 14:30:40.075994 14821 net.cpp:139] Memory required for data: 2821497860
I0321 14:30:40.076000 14821 layer_factory.hpp:77] Creating layer inception_4b/pool_proj
I0321 14:30:40.076014 14821 net.cpp:86] Creating Layer inception_4b/pool_proj
I0321 14:30:40.076023 14821 net.cpp:408] inception_4b/pool_proj <- inception_4b/pool
I0321 14:30:40.076036 14821 net.cpp:382] inception_4b/pool_proj -> inception_4b/pool_proj
I0321 14:30:40.076377 14821 net.cpp:124] Setting up inception_4b/pool_proj
I0321 14:30:40.076393 14821 net.cpp:131] Top shape: 128 32 14 14 (802816)
I0321 14:30:40.076400 14821 net.cpp:139] Memory required for data: 2824709124
I0321 14:30:40.076408 14821 layer_factory.hpp:77] Creating layer inception_4b/relu_pool_proj
I0321 14:30:40.076422 14821 net.cpp:86] Creating Layer inception_4b/relu_pool_proj
I0321 14:30:40.076443 14821 net.cpp:408] inception_4b/relu_pool_proj <- inception_4b/pool_proj
I0321 14:30:40.076453 14821 net.cpp:369] inception_4b/relu_pool_proj -> inception_4b/pool_proj (in-place)
I0321 14:30:40.076462 14821 net.cpp:124] Setting up inception_4b/relu_pool_proj
I0321 14:30:40.076470 14821 net.cpp:131] Top shape: 128 32 14 14 (802816)
I0321 14:30:40.076477 14821 net.cpp:139] Memory required for data: 2827920388
I0321 14:30:40.076481 14821 layer_factory.hpp:77] Creating layer inception_4b/output
I0321 14:30:40.076493 14821 net.cpp:86] Creating Layer inception_4b/output
I0321 14:30:40.076500 14821 net.cpp:408] inception_4b/output <- inception_4b/1x1
I0321 14:30:40.076508 14821 net.cpp:408] inception_4b/output <- inception_4b/3x3
I0321 14:30:40.076515 14821 net.cpp:408] inception_4b/output <- inception_4b/5x5
I0321 14:30:40.076522 14821 net.cpp:408] inception_4b/output <- inception_4b/pool_proj
I0321 14:30:40.076530 14821 net.cpp:382] inception_4b/output -> inception_4b/output
I0321 14:30:40.076567 14821 net.cpp:124] Setting up inception_4b/output
I0321 14:30:40.076581 14821 net.cpp:131] Top shape: 128 256 14 14 (6422528)
I0321 14:30:40.076587 14821 net.cpp:139] Memory required for data: 2853610500
I0321 14:30:40.076592 14821 layer_factory.hpp:77] Creating layer inception_4b/output_inception_4b/output_0_split
I0321 14:30:40.076607 14821 net.cpp:86] Creating Layer inception_4b/output_inception_4b/output_0_split
I0321 14:30:40.076617 14821 net.cpp:408] inception_4b/output_inception_4b/output_0_split <- inception_4b/output
I0321 14:30:40.076625 14821 net.cpp:382] inception_4b/output_inception_4b/output_0_split -> inception_4b/output_inception_4b/output_0_split_0
I0321 14:30:40.076640 14821 net.cpp:382] inception_4b/output_inception_4b/output_0_split -> inception_4b/output_inception_4b/output_0_split_1
I0321 14:30:40.076653 14821 net.cpp:382] inception_4b/output_inception_4b/output_0_split -> inception_4b/output_inception_4b/output_0_split_2
I0321 14:30:40.076665 14821 net.cpp:382] inception_4b/output_inception_4b/output_0_split -> inception_4b/output_inception_4b/output_0_split_3
I0321 14:30:40.076674 14821 net.cpp:382] inception_4b/output_inception_4b/output_0_split -> inception_4b/output_inception_4b/output_0_split_4
I0321 14:30:40.076761 14821 net.cpp:124] Setting up inception_4b/output_inception_4b/output_0_split
I0321 14:30:40.076776 14821 net.cpp:131] Top shape: 128 256 14 14 (6422528)
I0321 14:30:40.076783 14821 net.cpp:131] Top shape: 128 256 14 14 (6422528)
I0321 14:30:40.076789 14821 net.cpp:131] Top shape: 128 256 14 14 (6422528)
I0321 14:30:40.076797 14821 net.cpp:131] Top shape: 128 256 14 14 (6422528)
I0321 14:30:40.076802 14821 net.cpp:131] Top shape: 128 256 14 14 (6422528)
I0321 14:30:40.076807 14821 net.cpp:139] Memory required for data: 2982061060
I0321 14:30:40.076813 14821 layer_factory.hpp:77] Creating layer loss2_my/ave_pool
I0321 14:30:40.076825 14821 net.cpp:86] Creating Layer loss2_my/ave_pool
I0321 14:30:40.076831 14821 net.cpp:408] loss2_my/ave_pool <- inception_4b/output_inception_4b/output_0_split_0
I0321 14:30:40.076840 14821 net.cpp:382] loss2_my/ave_pool -> loss2_my/ave_pool
I0321 14:30:40.076879 14821 net.cpp:124] Setting up loss2_my/ave_pool
I0321 14:30:40.076892 14821 net.cpp:131] Top shape: 128 256 4 4 (524288)
I0321 14:30:40.076899 14821 net.cpp:139] Memory required for data: 2984158212
I0321 14:30:40.076905 14821 layer_factory.hpp:77] Creating layer loss2_my/conv
I0321 14:30:40.076918 14821 net.cpp:86] Creating Layer loss2_my/conv
I0321 14:30:40.076927 14821 net.cpp:408] loss2_my/conv <- loss2_my/ave_pool
I0321 14:30:40.076939 14821 net.cpp:382] loss2_my/conv -> loss2_my/conv
I0321 14:30:40.077256 14821 net.cpp:124] Setting up loss2_my/conv
I0321 14:30:40.077283 14821 net.cpp:131] Top shape: 128 20 4 4 (40960)
I0321 14:30:40.077296 14821 net.cpp:139] Memory required for data: 2984322052
I0321 14:30:40.077314 14821 layer_factory.hpp:77] Creating layer loss2_my/relu_conv
I0321 14:30:40.077337 14821 net.cpp:86] Creating Layer loss2_my/relu_conv
I0321 14:30:40.077352 14821 net.cpp:408] loss2_my/relu_conv <- loss2_my/conv
I0321 14:30:40.077389 14821 net.cpp:369] loss2_my/relu_conv -> loss2_my/conv (in-place)
I0321 14:30:40.077410 14821 net.cpp:124] Setting up loss2_my/relu_conv
I0321 14:30:40.077427 14821 net.cpp:131] Top shape: 128 20 4 4 (40960)
I0321 14:30:40.077440 14821 net.cpp:139] Memory required for data: 2984485892
I0321 14:30:40.077451 14821 layer_factory.hpp:77] Creating layer loss2_my/drop_fc
I0321 14:30:40.077474 14821 net.cpp:86] Creating Layer loss2_my/drop_fc
I0321 14:30:40.077509 14821 net.cpp:408] loss2_my/drop_fc <- loss2_my/conv
I0321 14:30:40.077534 14821 net.cpp:369] loss2_my/drop_fc -> loss2_my/conv (in-place)
I0321 14:30:40.077589 14821 net.cpp:124] Setting up loss2_my/drop_fc
I0321 14:30:40.077608 14821 net.cpp:131] Top shape: 128 20 4 4 (40960)
I0321 14:30:40.077620 14821 net.cpp:139] Memory required for data: 2984649732
I0321 14:30:40.077631 14821 layer_factory.hpp:77] Creating layer loss2_lite/classifier
I0321 14:30:40.077659 14821 net.cpp:86] Creating Layer loss2_lite/classifier
I0321 14:30:40.077677 14821 net.cpp:408] loss2_lite/classifier <- loss2_my/conv
I0321 14:30:40.077709 14821 net.cpp:382] loss2_lite/classifier -> loss2_lite/classifier
I0321 14:30:40.077867 14821 net.cpp:124] Setting up loss2_lite/classifier
I0321 14:30:40.077891 14821 net.cpp:131] Top shape: 128 1 (128)
I0321 14:30:40.077904 14821 net.cpp:139] Memory required for data: 2984650244
I0321 14:30:40.077924 14821 layer_factory.hpp:77] Creating layer loss2_my/loss
I0321 14:30:40.077985 14821 net.cpp:86] Creating Layer loss2_my/loss
I0321 14:30:40.078002 14821 net.cpp:408] loss2_my/loss <- loss2_lite/classifier
I0321 14:30:40.078018 14821 net.cpp:408] loss2_my/loss <- label_data_1_split_1
I0321 14:30:40.078037 14821 net.cpp:382] loss2_my/loss -> loss2_my/loss
I0321 14:30:40.078171 14821 net.cpp:124] Setting up loss2_my/loss
I0321 14:30:40.078192 14821 net.cpp:131] Top shape: 1 (1)
I0321 14:30:40.078205 14821 net.cpp:134]     with loss weight 0.4
I0321 14:30:40.078223 14821 net.cpp:139] Memory required for data: 2984650248
I0321 14:30:40.078236 14821 layer_factory.hpp:77] Creating layer inception_4c/1x1
I0321 14:30:40.078263 14821 net.cpp:86] Creating Layer inception_4c/1x1
I0321 14:30:40.078279 14821 net.cpp:408] inception_4c/1x1 <- inception_4b/output_inception_4b/output_0_split_1
I0321 14:30:40.078299 14821 net.cpp:382] inception_4c/1x1 -> inception_4c/1x1
I0321 14:30:40.078737 14821 net.cpp:124] Setting up inception_4c/1x1
I0321 14:30:40.078758 14821 net.cpp:131] Top shape: 128 64 14 14 (1605632)
I0321 14:30:40.078771 14821 net.cpp:139] Memory required for data: 2991072776
I0321 14:30:40.078791 14821 layer_factory.hpp:77] Creating layer inception_4c/relu_1x1
I0321 14:30:40.078809 14821 net.cpp:86] Creating Layer inception_4c/relu_1x1
I0321 14:30:40.078824 14821 net.cpp:408] inception_4c/relu_1x1 <- inception_4c/1x1
I0321 14:30:40.078843 14821 net.cpp:369] inception_4c/relu_1x1 -> inception_4c/1x1 (in-place)
I0321 14:30:40.078862 14821 net.cpp:124] Setting up inception_4c/relu_1x1
I0321 14:30:40.078878 14821 net.cpp:131] Top shape: 128 64 14 14 (1605632)
I0321 14:30:40.078891 14821 net.cpp:139] Memory required for data: 2997495304
I0321 14:30:40.078902 14821 layer_factory.hpp:77] Creating layer inception_4c/3x3_reduce
I0321 14:30:40.078928 14821 net.cpp:86] Creating Layer inception_4c/3x3_reduce
I0321 14:30:40.078946 14821 net.cpp:408] inception_4c/3x3_reduce <- inception_4b/output_inception_4b/output_0_split_2
I0321 14:30:40.078970 14821 net.cpp:382] inception_4c/3x3_reduce -> inception_4c/3x3_reduce
I0321 14:30:40.079416 14821 net.cpp:124] Setting up inception_4c/3x3_reduce
I0321 14:30:40.079437 14821 net.cpp:131] Top shape: 128 64 14 14 (1605632)
I0321 14:30:40.079448 14821 net.cpp:139] Memory required for data: 3003917832
I0321 14:30:40.079488 14821 layer_factory.hpp:77] Creating layer inception_4c/relu_3x3_reduce
I0321 14:30:40.079506 14821 net.cpp:86] Creating Layer inception_4c/relu_3x3_reduce
I0321 14:30:40.079519 14821 net.cpp:408] inception_4c/relu_3x3_reduce <- inception_4c/3x3_reduce
I0321 14:30:40.079555 14821 net.cpp:369] inception_4c/relu_3x3_reduce -> inception_4c/3x3_reduce (in-place)
I0321 14:30:40.079579 14821 net.cpp:124] Setting up inception_4c/relu_3x3_reduce
I0321 14:30:40.079599 14821 net.cpp:131] Top shape: 128 64 14 14 (1605632)
I0321 14:30:40.079615 14821 net.cpp:139] Memory required for data: 3010340360
I0321 14:30:40.079627 14821 layer_factory.hpp:77] Creating layer inception_4c/3x3
I0321 14:30:40.079654 14821 net.cpp:86] Creating Layer inception_4c/3x3
I0321 14:30:40.079670 14821 net.cpp:408] inception_4c/3x3 <- inception_4c/3x3_reduce
I0321 14:30:40.079694 14821 net.cpp:382] inception_4c/3x3 -> inception_4c/3x3
I0321 14:30:40.080663 14821 net.cpp:124] Setting up inception_4c/3x3
I0321 14:30:40.080684 14821 net.cpp:131] Top shape: 128 128 14 14 (3211264)
I0321 14:30:40.080696 14821 net.cpp:139] Memory required for data: 3023185416
I0321 14:30:40.080715 14821 layer_factory.hpp:77] Creating layer inception_4c/relu_3x3
I0321 14:30:40.080734 14821 net.cpp:86] Creating Layer inception_4c/relu_3x3
I0321 14:30:40.080750 14821 net.cpp:408] inception_4c/relu_3x3 <- inception_4c/3x3
I0321 14:30:40.080770 14821 net.cpp:369] inception_4c/relu_3x3 -> inception_4c/3x3 (in-place)
I0321 14:30:40.080793 14821 net.cpp:124] Setting up inception_4c/relu_3x3
I0321 14:30:40.080811 14821 net.cpp:131] Top shape: 128 128 14 14 (3211264)
I0321 14:30:40.080824 14821 net.cpp:139] Memory required for data: 3036030472
I0321 14:30:40.080837 14821 layer_factory.hpp:77] Creating layer inception_4c/5x5_reduce
I0321 14:30:40.080862 14821 net.cpp:86] Creating Layer inception_4c/5x5_reduce
I0321 14:30:40.080878 14821 net.cpp:408] inception_4c/5x5_reduce <- inception_4b/output_inception_4b/output_0_split_3
I0321 14:30:40.080898 14821 net.cpp:382] inception_4c/5x5_reduce -> inception_4c/5x5_reduce
I0321 14:30:40.081224 14821 net.cpp:124] Setting up inception_4c/5x5_reduce
I0321 14:30:40.081246 14821 net.cpp:131] Top shape: 128 12 14 14 (301056)
I0321 14:30:40.081259 14821 net.cpp:139] Memory required for data: 3037234696
I0321 14:30:40.081277 14821 layer_factory.hpp:77] Creating layer inception_4c/relu_5x5_reduce
I0321 14:30:40.081295 14821 net.cpp:86] Creating Layer inception_4c/relu_5x5_reduce
I0321 14:30:40.081311 14821 net.cpp:408] inception_4c/relu_5x5_reduce <- inception_4c/5x5_reduce
I0321 14:30:40.081332 14821 net.cpp:369] inception_4c/relu_5x5_reduce -> inception_4c/5x5_reduce (in-place)
I0321 14:30:40.081356 14821 net.cpp:124] Setting up inception_4c/relu_5x5_reduce
I0321 14:30:40.081374 14821 net.cpp:131] Top shape: 128 12 14 14 (301056)
I0321 14:30:40.081387 14821 net.cpp:139] Memory required for data: 3038438920
I0321 14:30:40.081399 14821 layer_factory.hpp:77] Creating layer inception_4c/5x5
I0321 14:30:40.081421 14821 net.cpp:86] Creating Layer inception_4c/5x5
I0321 14:30:40.081436 14821 net.cpp:408] inception_4c/5x5 <- inception_4c/5x5_reduce
I0321 14:30:40.081460 14821 net.cpp:382] inception_4c/5x5 -> inception_4c/5x5
I0321 14:30:40.081861 14821 net.cpp:124] Setting up inception_4c/5x5
I0321 14:30:40.081887 14821 net.cpp:131] Top shape: 128 32 14 14 (802816)
I0321 14:30:40.081899 14821 net.cpp:139] Memory required for data: 3041650184
I0321 14:30:40.081918 14821 layer_factory.hpp:77] Creating layer inception_4c/relu_5x5
I0321 14:30:40.081938 14821 net.cpp:86] Creating Layer inception_4c/relu_5x5
I0321 14:30:40.081954 14821 net.cpp:408] inception_4c/relu_5x5 <- inception_4c/5x5
I0321 14:30:40.081971 14821 net.cpp:369] inception_4c/relu_5x5 -> inception_4c/5x5 (in-place)
I0321 14:30:40.081993 14821 net.cpp:124] Setting up inception_4c/relu_5x5
I0321 14:30:40.082015 14821 net.cpp:131] Top shape: 128 32 14 14 (802816)
I0321 14:30:40.082029 14821 net.cpp:139] Memory required for data: 3044861448
I0321 14:30:40.082042 14821 layer_factory.hpp:77] Creating layer inception_4c/pool
I0321 14:30:40.082077 14821 net.cpp:86] Creating Layer inception_4c/pool
I0321 14:30:40.082092 14821 net.cpp:408] inception_4c/pool <- inception_4b/output_inception_4b/output_0_split_4
I0321 14:30:40.082110 14821 net.cpp:382] inception_4c/pool -> inception_4c/pool
I0321 14:30:40.082204 14821 net.cpp:124] Setting up inception_4c/pool
I0321 14:30:40.082226 14821 net.cpp:131] Top shape: 128 256 14 14 (6422528)
I0321 14:30:40.082237 14821 net.cpp:139] Memory required for data: 3070551560
I0321 14:30:40.082249 14821 layer_factory.hpp:77] Creating layer inception_4c/pool_proj
I0321 14:30:40.082281 14821 net.cpp:86] Creating Layer inception_4c/pool_proj
I0321 14:30:40.082296 14821 net.cpp:408] inception_4c/pool_proj <- inception_4c/pool
I0321 14:30:40.082317 14821 net.cpp:382] inception_4c/pool_proj -> inception_4c/pool_proj
I0321 14:30:40.082692 14821 net.cpp:124] Setting up inception_4c/pool_proj
I0321 14:30:40.082717 14821 net.cpp:131] Top shape: 128 32 14 14 (802816)
I0321 14:30:40.082731 14821 net.cpp:139] Memory required for data: 3073762824
I0321 14:30:40.082751 14821 layer_factory.hpp:77] Creating layer inception_4c/relu_pool_proj
I0321 14:30:40.082772 14821 net.cpp:86] Creating Layer inception_4c/relu_pool_proj
I0321 14:30:40.082789 14821 net.cpp:408] inception_4c/relu_pool_proj <- inception_4c/pool_proj
I0321 14:30:40.082808 14821 net.cpp:369] inception_4c/relu_pool_proj -> inception_4c/pool_proj (in-place)
I0321 14:30:40.082829 14821 net.cpp:124] Setting up inception_4c/relu_pool_proj
I0321 14:30:40.082849 14821 net.cpp:131] Top shape: 128 32 14 14 (802816)
I0321 14:30:40.082861 14821 net.cpp:139] Memory required for data: 3076974088
I0321 14:30:40.082875 14821 layer_factory.hpp:77] Creating layer inception_4c/output
I0321 14:30:40.082893 14821 net.cpp:86] Creating Layer inception_4c/output
I0321 14:30:40.082909 14821 net.cpp:408] inception_4c/output <- inception_4c/1x1
I0321 14:30:40.082926 14821 net.cpp:408] inception_4c/output <- inception_4c/3x3
I0321 14:30:40.082940 14821 net.cpp:408] inception_4c/output <- inception_4c/5x5
I0321 14:30:40.082958 14821 net.cpp:408] inception_4c/output <- inception_4c/pool_proj
I0321 14:30:40.082983 14821 net.cpp:382] inception_4c/output -> inception_4c/output
I0321 14:30:40.083037 14821 net.cpp:124] Setting up inception_4c/output
I0321 14:30:40.083062 14821 net.cpp:131] Top shape: 128 256 14 14 (6422528)
I0321 14:30:40.083075 14821 net.cpp:139] Memory required for data: 3102664200
I0321 14:30:40.083087 14821 layer_factory.hpp:77] Creating layer inception_4c/output_inception_4c/output_0_split
I0321 14:30:40.083107 14821 net.cpp:86] Creating Layer inception_4c/output_inception_4c/output_0_split
I0321 14:30:40.083123 14821 net.cpp:408] inception_4c/output_inception_4c/output_0_split <- inception_4c/output
I0321 14:30:40.083140 14821 net.cpp:382] inception_4c/output_inception_4c/output_0_split -> inception_4c/output_inception_4c/output_0_split_0
I0321 14:30:40.083164 14821 net.cpp:382] inception_4c/output_inception_4c/output_0_split -> inception_4c/output_inception_4c/output_0_split_1
I0321 14:30:40.083189 14821 net.cpp:382] inception_4c/output_inception_4c/output_0_split -> inception_4c/output_inception_4c/output_0_split_2
I0321 14:30:40.083212 14821 net.cpp:382] inception_4c/output_inception_4c/output_0_split -> inception_4c/output_inception_4c/output_0_split_3
I0321 14:30:40.083310 14821 net.cpp:124] Setting up inception_4c/output_inception_4c/output_0_split
I0321 14:30:40.083331 14821 net.cpp:131] Top shape: 128 256 14 14 (6422528)
I0321 14:30:40.083346 14821 net.cpp:131] Top shape: 128 256 14 14 (6422528)
I0321 14:30:40.083359 14821 net.cpp:131] Top shape: 128 256 14 14 (6422528)
I0321 14:30:40.083374 14821 net.cpp:131] Top shape: 128 256 14 14 (6422528)
I0321 14:30:40.083385 14821 net.cpp:139] Memory required for data: 3205424648
I0321 14:30:40.083397 14821 layer_factory.hpp:77] Creating layer inception_4d/1x1
I0321 14:30:40.083423 14821 net.cpp:86] Creating Layer inception_4d/1x1
I0321 14:30:40.083441 14821 net.cpp:408] inception_4d/1x1 <- inception_4c/output_inception_4c/output_0_split_0
I0321 14:30:40.083464 14821 net.cpp:382] inception_4d/1x1 -> inception_4d/1x1
I0321 14:30:40.083909 14821 net.cpp:124] Setting up inception_4d/1x1
I0321 14:30:40.083930 14821 net.cpp:131] Top shape: 128 56 14 14 (1404928)
I0321 14:30:40.083963 14821 net.cpp:139] Memory required for data: 3211044360
I0321 14:30:40.083986 14821 layer_factory.hpp:77] Creating layer inception_4d/relu_1x1
I0321 14:30:40.084012 14821 net.cpp:86] Creating Layer inception_4d/relu_1x1
I0321 14:30:40.084028 14821 net.cpp:408] inception_4d/relu_1x1 <- inception_4d/1x1
I0321 14:30:40.084045 14821 net.cpp:369] inception_4d/relu_1x1 -> inception_4d/1x1 (in-place)
I0321 14:30:40.084069 14821 net.cpp:124] Setting up inception_4d/relu_1x1
I0321 14:30:40.084089 14821 net.cpp:131] Top shape: 128 56 14 14 (1404928)
I0321 14:30:40.084100 14821 net.cpp:139] Memory required for data: 3216664072
I0321 14:30:40.084113 14821 layer_factory.hpp:77] Creating layer inception_4d/3x3_reduce
I0321 14:30:40.084138 14821 net.cpp:86] Creating Layer inception_4d/3x3_reduce
I0321 14:30:40.084154 14821 net.cpp:408] inception_4d/3x3_reduce <- inception_4c/output_inception_4c/output_0_split_1
I0321 14:30:40.084173 14821 net.cpp:382] inception_4d/3x3_reduce -> inception_4d/3x3_reduce
I0321 14:30:40.084650 14821 net.cpp:124] Setting up inception_4d/3x3_reduce
I0321 14:30:40.084677 14821 net.cpp:131] Top shape: 128 72 14 14 (1806336)
I0321 14:30:40.084691 14821 net.cpp:139] Memory required for data: 3223889416
I0321 14:30:40.084709 14821 layer_factory.hpp:77] Creating layer inception_4d/relu_3x3_reduce
I0321 14:30:40.084728 14821 net.cpp:86] Creating Layer inception_4d/relu_3x3_reduce
I0321 14:30:40.084743 14821 net.cpp:408] inception_4d/relu_3x3_reduce <- inception_4d/3x3_reduce
I0321 14:30:40.084763 14821 net.cpp:369] inception_4d/relu_3x3_reduce -> inception_4d/3x3_reduce (in-place)
I0321 14:30:40.084781 14821 net.cpp:124] Setting up inception_4d/relu_3x3_reduce
I0321 14:30:40.084800 14821 net.cpp:131] Top shape: 128 72 14 14 (1806336)
I0321 14:30:40.084812 14821 net.cpp:139] Memory required for data: 3231114760
I0321 14:30:40.084825 14821 layer_factory.hpp:77] Creating layer inception_4d/3x3
I0321 14:30:40.084851 14821 net.cpp:86] Creating Layer inception_4d/3x3
I0321 14:30:40.084866 14821 net.cpp:408] inception_4d/3x3 <- inception_4d/3x3_reduce
I0321 14:30:40.084889 14821 net.cpp:382] inception_4d/3x3 -> inception_4d/3x3
I0321 14:30:40.086119 14821 net.cpp:124] Setting up inception_4d/3x3
I0321 14:30:40.086143 14821 net.cpp:131] Top shape: 128 144 14 14 (3612672)
I0321 14:30:40.086154 14821 net.cpp:139] Memory required for data: 3245565448
I0321 14:30:40.086174 14821 layer_factory.hpp:77] Creating layer inception_4d/relu_3x3
I0321 14:30:40.086191 14821 net.cpp:86] Creating Layer inception_4d/relu_3x3
I0321 14:30:40.086208 14821 net.cpp:408] inception_4d/relu_3x3 <- inception_4d/3x3
I0321 14:30:40.086231 14821 net.cpp:369] inception_4d/relu_3x3 -> inception_4d/3x3 (in-place)
I0321 14:30:40.086253 14821 net.cpp:124] Setting up inception_4d/relu_3x3
I0321 14:30:40.086272 14821 net.cpp:131] Top shape: 128 144 14 14 (3612672)
I0321 14:30:40.086285 14821 net.cpp:139] Memory required for data: 3260016136
I0321 14:30:40.086297 14821 layer_factory.hpp:77] Creating layer inception_4d/5x5_reduce
I0321 14:30:40.086323 14821 net.cpp:86] Creating Layer inception_4d/5x5_reduce
I0321 14:30:40.086338 14821 net.cpp:408] inception_4d/5x5_reduce <- inception_4c/output_inception_4c/output_0_split_2
I0321 14:30:40.086357 14821 net.cpp:382] inception_4d/5x5_reduce -> inception_4d/5x5_reduce
I0321 14:30:40.086690 14821 net.cpp:124] Setting up inception_4d/5x5_reduce
I0321 14:30:40.086712 14821 net.cpp:131] Top shape: 128 16 14 14 (401408)
I0321 14:30:40.086724 14821 net.cpp:139] Memory required for data: 3261621768
I0321 14:30:40.086745 14821 layer_factory.hpp:77] Creating layer inception_4d/relu_5x5_reduce
I0321 14:30:40.086769 14821 net.cpp:86] Creating Layer inception_4d/relu_5x5_reduce
I0321 14:30:40.086787 14821 net.cpp:408] inception_4d/relu_5x5_reduce <- inception_4d/5x5_reduce
I0321 14:30:40.086804 14821 net.cpp:369] inception_4d/relu_5x5_reduce -> inception_4d/5x5_reduce (in-place)
I0321 14:30:40.086825 14821 net.cpp:124] Setting up inception_4d/relu_5x5_reduce
I0321 14:30:40.086845 14821 net.cpp:131] Top shape: 128 16 14 14 (401408)
I0321 14:30:40.086875 14821 net.cpp:139] Memory required for data: 3263227400
I0321 14:30:40.086889 14821 layer_factory.hpp:77] Creating layer inception_4d/5x5
I0321 14:30:40.086915 14821 net.cpp:86] Creating Layer inception_4d/5x5
I0321 14:30:40.086931 14821 net.cpp:408] inception_4d/5x5 <- inception_4d/5x5_reduce
I0321 14:30:40.086951 14821 net.cpp:382] inception_4d/5x5 -> inception_4d/5x5
I0321 14:30:40.087375 14821 net.cpp:124] Setting up inception_4d/5x5
I0321 14:30:40.087397 14821 net.cpp:131] Top shape: 128 32 14 14 (802816)
I0321 14:30:40.087409 14821 net.cpp:139] Memory required for data: 3266438664
I0321 14:30:40.087429 14821 layer_factory.hpp:77] Creating layer inception_4d/relu_5x5
I0321 14:30:40.087445 14821 net.cpp:86] Creating Layer inception_4d/relu_5x5
I0321 14:30:40.087461 14821 net.cpp:408] inception_4d/relu_5x5 <- inception_4d/5x5
I0321 14:30:40.087483 14821 net.cpp:369] inception_4d/relu_5x5 -> inception_4d/5x5 (in-place)
I0321 14:30:40.087504 14821 net.cpp:124] Setting up inception_4d/relu_5x5
I0321 14:30:40.087524 14821 net.cpp:131] Top shape: 128 32 14 14 (802816)
I0321 14:30:40.087537 14821 net.cpp:139] Memory required for data: 3269649928
I0321 14:30:40.087548 14821 layer_factory.hpp:77] Creating layer inception_4d/pool
I0321 14:30:40.087565 14821 net.cpp:86] Creating Layer inception_4d/pool
I0321 14:30:40.087584 14821 net.cpp:408] inception_4d/pool <- inception_4c/output_inception_4c/output_0_split_3
I0321 14:30:40.087605 14821 net.cpp:382] inception_4d/pool -> inception_4d/pool
I0321 14:30:40.087678 14821 net.cpp:124] Setting up inception_4d/pool
I0321 14:30:40.087698 14821 net.cpp:131] Top shape: 128 256 14 14 (6422528)
I0321 14:30:40.087710 14821 net.cpp:139] Memory required for data: 3295340040
I0321 14:30:40.087723 14821 layer_factory.hpp:77] Creating layer inception_4d/pool_proj
I0321 14:30:40.087750 14821 net.cpp:86] Creating Layer inception_4d/pool_proj
I0321 14:30:40.087766 14821 net.cpp:408] inception_4d/pool_proj <- inception_4d/pool
I0321 14:30:40.087796 14821 net.cpp:382] inception_4d/pool_proj -> inception_4d/pool_proj
I0321 14:30:40.088161 14821 net.cpp:124] Setting up inception_4d/pool_proj
I0321 14:30:40.088182 14821 net.cpp:131] Top shape: 128 32 14 14 (802816)
I0321 14:30:40.088196 14821 net.cpp:139] Memory required for data: 3298551304
I0321 14:30:40.088215 14821 layer_factory.hpp:77] Creating layer inception_4d/relu_pool_proj
I0321 14:30:40.088237 14821 net.cpp:86] Creating Layer inception_4d/relu_pool_proj
I0321 14:30:40.088254 14821 net.cpp:408] inception_4d/relu_pool_proj <- inception_4d/pool_proj
I0321 14:30:40.088273 14821 net.cpp:369] inception_4d/relu_pool_proj -> inception_4d/pool_proj (in-place)
I0321 14:30:40.088294 14821 net.cpp:124] Setting up inception_4d/relu_pool_proj
I0321 14:30:40.088315 14821 net.cpp:131] Top shape: 128 32 14 14 (802816)
I0321 14:30:40.088327 14821 net.cpp:139] Memory required for data: 3301762568
I0321 14:30:40.088338 14821 layer_factory.hpp:77] Creating layer inception_4d/output
I0321 14:30:40.088356 14821 net.cpp:86] Creating Layer inception_4d/output
I0321 14:30:40.088371 14821 net.cpp:408] inception_4d/output <- inception_4d/1x1
I0321 14:30:40.088387 14821 net.cpp:408] inception_4d/output <- inception_4d/3x3
I0321 14:30:40.088405 14821 net.cpp:408] inception_4d/output <- inception_4d/5x5
I0321 14:30:40.088421 14821 net.cpp:408] inception_4d/output <- inception_4d/pool_proj
I0321 14:30:40.088444 14821 net.cpp:382] inception_4d/output -> inception_4d/output
I0321 14:30:40.088500 14821 net.cpp:124] Setting up inception_4d/output
I0321 14:30:40.088520 14821 net.cpp:131] Top shape: 128 264 14 14 (6623232)
I0321 14:30:40.088531 14821 net.cpp:139] Memory required for data: 3328255496
I0321 14:30:40.088542 14821 layer_factory.hpp:77] Creating layer inception_4d/output_inception_4d/output_0_split
I0321 14:30:40.088559 14821 net.cpp:86] Creating Layer inception_4d/output_inception_4d/output_0_split
I0321 14:30:40.088573 14821 net.cpp:408] inception_4d/output_inception_4d/output_0_split <- inception_4d/output
I0321 14:30:40.088609 14821 net.cpp:382] inception_4d/output_inception_4d/output_0_split -> inception_4d/output_inception_4d/output_0_split_0
I0321 14:30:40.088632 14821 net.cpp:382] inception_4d/output_inception_4d/output_0_split -> inception_4d/output_inception_4d/output_0_split_1
I0321 14:30:40.088661 14821 net.cpp:382] inception_4d/output_inception_4d/output_0_split -> inception_4d/output_inception_4d/output_0_split_2
I0321 14:30:40.088685 14821 net.cpp:382] inception_4d/output_inception_4d/output_0_split -> inception_4d/output_inception_4d/output_0_split_3
I0321 14:30:40.088781 14821 net.cpp:124] Setting up inception_4d/output_inception_4d/output_0_split
I0321 14:30:40.088801 14821 net.cpp:131] Top shape: 128 264 14 14 (6623232)
I0321 14:30:40.088816 14821 net.cpp:131] Top shape: 128 264 14 14 (6623232)
I0321 14:30:40.088831 14821 net.cpp:131] Top shape: 128 264 14 14 (6623232)
I0321 14:30:40.088845 14821 net.cpp:131] Top shape: 128 264 14 14 (6623232)
I0321 14:30:40.088856 14821 net.cpp:139] Memory required for data: 3434227208
I0321 14:30:40.088868 14821 layer_factory.hpp:77] Creating layer inception_4e/1x1
I0321 14:30:40.088894 14821 net.cpp:86] Creating Layer inception_4e/1x1
I0321 14:30:40.088910 14821 net.cpp:408] inception_4e/1x1 <- inception_4d/output_inception_4d/output_0_split_0
I0321 14:30:40.088934 14821 net.cpp:382] inception_4e/1x1 -> inception_4e/1x1
I0321 14:30:40.089540 14821 net.cpp:124] Setting up inception_4e/1x1
I0321 14:30:40.089562 14821 net.cpp:131] Top shape: 128 128 14 14 (3211264)
I0321 14:30:40.089574 14821 net.cpp:139] Memory required for data: 3447072264
I0321 14:30:40.089594 14821 layer_factory.hpp:77] Creating layer inception_4e/relu_1x1
I0321 14:30:40.089617 14821 net.cpp:86] Creating Layer inception_4e/relu_1x1
I0321 14:30:40.089632 14821 net.cpp:408] inception_4e/relu_1x1 <- inception_4e/1x1
I0321 14:30:40.089649 14821 net.cpp:369] inception_4e/relu_1x1 -> inception_4e/1x1 (in-place)
I0321 14:30:40.089669 14821 net.cpp:124] Setting up inception_4e/relu_1x1
I0321 14:30:40.089687 14821 net.cpp:131] Top shape: 128 128 14 14 (3211264)
I0321 14:30:40.089709 14821 net.cpp:139] Memory required for data: 3459917320
I0321 14:30:40.089721 14821 layer_factory.hpp:77] Creating layer inception_4e/3x3_reduce
I0321 14:30:40.089748 14821 net.cpp:86] Creating Layer inception_4e/3x3_reduce
I0321 14:30:40.089766 14821 net.cpp:408] inception_4e/3x3_reduce <- inception_4d/output_inception_4d/output_0_split_1
I0321 14:30:40.089787 14821 net.cpp:382] inception_4e/3x3_reduce -> inception_4e/3x3_reduce
I0321 14:30:40.090297 14821 net.cpp:124] Setting up inception_4e/3x3_reduce
I0321 14:30:40.090319 14821 net.cpp:131] Top shape: 128 80 14 14 (2007040)
I0321 14:30:40.090332 14821 net.cpp:139] Memory required for data: 3467945480
I0321 14:30:40.090351 14821 layer_factory.hpp:77] Creating layer inception_4e/relu_3x3_reduce
I0321 14:30:40.090373 14821 net.cpp:86] Creating Layer inception_4e/relu_3x3_reduce
I0321 14:30:40.090389 14821 net.cpp:408] inception_4e/relu_3x3_reduce <- inception_4e/3x3_reduce
I0321 14:30:40.090405 14821 net.cpp:369] inception_4e/relu_3x3_reduce -> inception_4e/3x3_reduce (in-place)
I0321 14:30:40.090425 14821 net.cpp:124] Setting up inception_4e/relu_3x3_reduce
I0321 14:30:40.090445 14821 net.cpp:131] Top shape: 128 80 14 14 (2007040)
I0321 14:30:40.090457 14821 net.cpp:139] Memory required for data: 3475973640
I0321 14:30:40.090469 14821 layer_factory.hpp:77] Creating layer inception_4e/3x3
I0321 14:30:40.090494 14821 net.cpp:86] Creating Layer inception_4e/3x3
I0321 14:30:40.090510 14821 net.cpp:408] inception_4e/3x3 <- inception_4e/3x3_reduce
I0321 14:30:40.090530 14821 net.cpp:382] inception_4e/3x3 -> inception_4e/3x3
I0321 14:30:40.093230 14821 net.cpp:124] Setting up inception_4e/3x3
I0321 14:30:40.093264 14821 net.cpp:131] Top shape: 128 160 14 14 (4014080)
I0321 14:30:40.093277 14821 net.cpp:139] Memory required for data: 3492029960
I0321 14:30:40.093300 14821 layer_factory.hpp:77] Creating layer inception_4e/relu_3x3
I0321 14:30:40.093323 14821 net.cpp:86] Creating Layer inception_4e/relu_3x3
I0321 14:30:40.093364 14821 net.cpp:408] inception_4e/relu_3x3 <- inception_4e/3x3
I0321 14:30:40.093384 14821 net.cpp:369] inception_4e/relu_3x3 -> inception_4e/3x3 (in-place)
I0321 14:30:40.093408 14821 net.cpp:124] Setting up inception_4e/relu_3x3
I0321 14:30:40.093428 14821 net.cpp:131] Top shape: 128 160 14 14 (4014080)
I0321 14:30:40.093441 14821 net.cpp:139] Memory required for data: 3508086280
I0321 14:30:40.093453 14821 layer_factory.hpp:77] Creating layer inception_4e/5x5_reduce
I0321 14:30:40.093482 14821 net.cpp:86] Creating Layer inception_4e/5x5_reduce
I0321 14:30:40.093497 14821 net.cpp:408] inception_4e/5x5_reduce <- inception_4d/output_inception_4d/output_0_split_2
I0321 14:30:40.093523 14821 net.cpp:382] inception_4e/5x5_reduce -> inception_4e/5x5_reduce
I0321 14:30:40.093904 14821 net.cpp:124] Setting up inception_4e/5x5_reduce
I0321 14:30:40.093927 14821 net.cpp:131] Top shape: 128 16 14 14 (401408)
I0321 14:30:40.093940 14821 net.cpp:139] Memory required for data: 3509691912
I0321 14:30:40.093960 14821 layer_factory.hpp:77] Creating layer inception_4e/relu_5x5_reduce
I0321 14:30:40.093981 14821 net.cpp:86] Creating Layer inception_4e/relu_5x5_reduce
I0321 14:30:40.093999 14821 net.cpp:408] inception_4e/relu_5x5_reduce <- inception_4e/5x5_reduce
I0321 14:30:40.094017 14821 net.cpp:369] inception_4e/relu_5x5_reduce -> inception_4e/5x5_reduce (in-place)
I0321 14:30:40.094040 14821 net.cpp:124] Setting up inception_4e/relu_5x5_reduce
I0321 14:30:40.094060 14821 net.cpp:131] Top shape: 128 16 14 14 (401408)
I0321 14:30:40.094076 14821 net.cpp:139] Memory required for data: 3511297544
I0321 14:30:40.094089 14821 layer_factory.hpp:77] Creating layer inception_4e/5x5
I0321 14:30:40.094120 14821 net.cpp:86] Creating Layer inception_4e/5x5
I0321 14:30:40.094135 14821 net.cpp:408] inception_4e/5x5 <- inception_4e/5x5_reduce
I0321 14:30:40.094156 14821 net.cpp:382] inception_4e/5x5 -> inception_4e/5x5
I0321 14:30:40.094702 14821 net.cpp:124] Setting up inception_4e/5x5
I0321 14:30:40.094727 14821 net.cpp:131] Top shape: 128 64 14 14 (1605632)
I0321 14:30:40.094738 14821 net.cpp:139] Memory required for data: 3517720072
I0321 14:30:40.094758 14821 layer_factory.hpp:77] Creating layer inception_4e/relu_5x5
I0321 14:30:40.094777 14821 net.cpp:86] Creating Layer inception_4e/relu_5x5
I0321 14:30:40.094794 14821 net.cpp:408] inception_4e/relu_5x5 <- inception_4e/5x5
I0321 14:30:40.094811 14821 net.cpp:369] inception_4e/relu_5x5 -> inception_4e/5x5 (in-place)
I0321 14:30:40.094835 14821 net.cpp:124] Setting up inception_4e/relu_5x5
I0321 14:30:40.094853 14821 net.cpp:131] Top shape: 128 64 14 14 (1605632)
I0321 14:30:40.094866 14821 net.cpp:139] Memory required for data: 3524142600
I0321 14:30:40.094877 14821 layer_factory.hpp:77] Creating layer inception_4e/pool
I0321 14:30:40.094897 14821 net.cpp:86] Creating Layer inception_4e/pool
I0321 14:30:40.094913 14821 net.cpp:408] inception_4e/pool <- inception_4d/output_inception_4d/output_0_split_3
I0321 14:30:40.094935 14821 net.cpp:382] inception_4e/pool -> inception_4e/pool
I0321 14:30:40.095010 14821 net.cpp:124] Setting up inception_4e/pool
I0321 14:30:40.095028 14821 net.cpp:131] Top shape: 128 264 14 14 (6623232)
I0321 14:30:40.095041 14821 net.cpp:139] Memory required for data: 3550635528
I0321 14:30:40.095053 14821 layer_factory.hpp:77] Creating layer inception_4e/pool_proj
I0321 14:30:40.095106 14821 net.cpp:86] Creating Layer inception_4e/pool_proj
I0321 14:30:40.095122 14821 net.cpp:408] inception_4e/pool_proj <- inception_4e/pool
I0321 14:30:40.095146 14821 net.cpp:382] inception_4e/pool_proj -> inception_4e/pool_proj
I0321 14:30:40.095594 14821 net.cpp:124] Setting up inception_4e/pool_proj
I0321 14:30:40.095615 14821 net.cpp:131] Top shape: 128 64 14 14 (1605632)
I0321 14:30:40.095628 14821 net.cpp:139] Memory required for data: 3557058056
I0321 14:30:40.095649 14821 layer_factory.hpp:77] Creating layer inception_4e/relu_pool_proj
I0321 14:30:40.095674 14821 net.cpp:86] Creating Layer inception_4e/relu_pool_proj
I0321 14:30:40.095692 14821 net.cpp:408] inception_4e/relu_pool_proj <- inception_4e/pool_proj
I0321 14:30:40.095726 14821 net.cpp:369] inception_4e/relu_pool_proj -> inception_4e/pool_proj (in-place)
I0321 14:30:40.095751 14821 net.cpp:124] Setting up inception_4e/relu_pool_proj
I0321 14:30:40.095772 14821 net.cpp:131] Top shape: 128 64 14 14 (1605632)
I0321 14:30:40.095788 14821 net.cpp:139] Memory required for data: 3563480584
I0321 14:30:40.095800 14821 layer_factory.hpp:77] Creating layer inception_4e/output
I0321 14:30:40.095819 14821 net.cpp:86] Creating Layer inception_4e/output
I0321 14:30:40.095835 14821 net.cpp:408] inception_4e/output <- inception_4e/1x1
I0321 14:30:40.095851 14821 net.cpp:408] inception_4e/output <- inception_4e/3x3
I0321 14:30:40.095870 14821 net.cpp:408] inception_4e/output <- inception_4e/5x5
I0321 14:30:40.095885 14821 net.cpp:408] inception_4e/output <- inception_4e/pool_proj
I0321 14:30:40.095913 14821 net.cpp:382] inception_4e/output -> inception_4e/output
I0321 14:30:40.095966 14821 net.cpp:124] Setting up inception_4e/output
I0321 14:30:40.095986 14821 net.cpp:131] Top shape: 128 416 14 14 (10436608)
I0321 14:30:40.095999 14821 net.cpp:139] Memory required for data: 3605227016
I0321 14:30:40.096010 14821 layer_factory.hpp:77] Creating layer conv_16
I0321 14:30:40.096037 14821 net.cpp:86] Creating Layer conv_16
I0321 14:30:40.096053 14821 net.cpp:408] conv_16 <- inception_4e/output
I0321 14:30:40.096078 14821 net.cpp:382] conv_16 -> conv_16
I0321 14:30:40.098408 14821 net.cpp:124] Setting up conv_16
I0321 14:30:40.098434 14821 net.cpp:131] Top shape: 128 128 14 14 (3211264)
I0321 14:30:40.098446 14821 net.cpp:139] Memory required for data: 3618072072
I0321 14:30:40.098469 14821 layer_factory.hpp:77] Creating layer relu_16
I0321 14:30:40.098487 14821 net.cpp:86] Creating Layer relu_16
I0321 14:30:40.098500 14821 net.cpp:408] relu_16 <- conv_16
I0321 14:30:40.098513 14821 net.cpp:369] relu_16 -> conv_16 (in-place)
I0321 14:30:40.098531 14821 net.cpp:124] Setting up relu_16
I0321 14:30:40.098547 14821 net.cpp:131] Top shape: 128 128 14 14 (3211264)
I0321 14:30:40.098558 14821 net.cpp:139] Memory required for data: 3630917128
I0321 14:30:40.098570 14821 layer_factory.hpp:77] Creating layer conv_face_predict
I0321 14:30:40.098597 14821 net.cpp:86] Creating Layer conv_face_predict
I0321 14:30:40.098613 14821 net.cpp:408] conv_face_predict <- conv_16
I0321 14:30:40.098637 14821 net.cpp:382] conv_face_predict -> conv_face_predict
I0321 14:30:40.099054 14821 net.cpp:124] Setting up conv_face_predict
I0321 14:30:40.099076 14821 net.cpp:131] Top shape: 128 20 14 14 (501760)
I0321 14:30:40.099088 14821 net.cpp:139] Memory required for data: 3632924168
I0321 14:30:40.099108 14821 layer_factory.hpp:77] Creating layer pool5/7x7_s1
I0321 14:30:40.099126 14821 net.cpp:86] Creating Layer pool5/7x7_s1
I0321 14:30:40.099143 14821 net.cpp:408] pool5/7x7_s1 <- conv_face_predict
I0321 14:30:40.099161 14821 net.cpp:382] pool5/7x7_s1 -> pool5/7x7_s1
I0321 14:30:40.099218 14821 net.cpp:124] Setting up pool5/7x7_s1
I0321 14:30:40.099238 14821 net.cpp:131] Top shape: 128 20 11 11 (309760)
I0321 14:30:40.099249 14821 net.cpp:139] Memory required for data: 3634163208
I0321 14:30:40.099261 14821 layer_factory.hpp:77] Creating layer pool5/drop_7x7_s1
I0321 14:30:40.099279 14821 net.cpp:86] Creating Layer pool5/drop_7x7_s1
I0321 14:30:40.099293 14821 net.cpp:408] pool5/drop_7x7_s1 <- pool5/7x7_s1
I0321 14:30:40.099314 14821 net.cpp:369] pool5/drop_7x7_s1 -> pool5/7x7_s1 (in-place)
I0321 14:30:40.099367 14821 net.cpp:124] Setting up pool5/drop_7x7_s1
I0321 14:30:40.099386 14821 net.cpp:131] Top shape: 128 20 11 11 (309760)
I0321 14:30:40.099398 14821 net.cpp:139] Memory required for data: 3635402248
I0321 14:30:40.099411 14821 layer_factory.hpp:77] Creating layer loss3_my/predict
I0321 14:30:40.099438 14821 net.cpp:86] Creating Layer loss3_my/predict
I0321 14:30:40.099453 14821 net.cpp:408] loss3_my/predict <- pool5/7x7_s1
I0321 14:30:40.099478 14821 net.cpp:382] loss3_my/predict -> loss3_my/predict
I0321 14:30:40.099649 14821 net.cpp:124] Setting up loss3_my/predict
I0321 14:30:40.099685 14821 net.cpp:131] Top shape: 128 1 (128)
I0321 14:30:40.099699 14821 net.cpp:139] Memory required for data: 3635402760
I0321 14:30:40.099719 14821 layer_factory.hpp:77] Creating layer loss3_my/predict_loss3_my/predict_0_split
I0321 14:30:40.099747 14821 net.cpp:86] Creating Layer loss3_my/predict_loss3_my/predict_0_split
I0321 14:30:40.099764 14821 net.cpp:408] loss3_my/predict_loss3_my/predict_0_split <- loss3_my/predict
I0321 14:30:40.099782 14821 net.cpp:382] loss3_my/predict_loss3_my/predict_0_split -> loss3_my/predict_loss3_my/predict_0_split_0
I0321 14:30:40.099807 14821 net.cpp:382] loss3_my/predict_loss3_my/predict_0_split -> loss3_my/predict_loss3_my/predict_0_split_1
I0321 14:30:40.099871 14821 net.cpp:124] Setting up loss3_my/predict_loss3_my/predict_0_split
I0321 14:30:40.099895 14821 net.cpp:131] Top shape: 128 1 (128)
I0321 14:30:40.099910 14821 net.cpp:131] Top shape: 128 1 (128)
I0321 14:30:40.099921 14821 net.cpp:139] Memory required for data: 3635403784
I0321 14:30:40.099933 14821 layer_factory.hpp:77] Creating layer loss3_my/loss3_my
I0321 14:30:40.100039 14821 net.cpp:86] Creating Layer loss3_my/loss3_my
I0321 14:30:40.100056 14821 net.cpp:408] loss3_my/loss3_my <- loss3_my/predict_loss3_my/predict_0_split_0
I0321 14:30:40.100072 14821 net.cpp:408] loss3_my/loss3_my <- label_data_1_split_2
I0321 14:30:40.100091 14821 net.cpp:382] loss3_my/loss3_my -> loss3_my/loss3_my
I0321 14:30:40.100306 14821 net.cpp:124] Setting up loss3_my/loss3_my
I0321 14:30:40.100327 14821 net.cpp:131] Top shape: 1 (1)
I0321 14:30:40.100339 14821 net.cpp:134]     with loss weight 10
I0321 14:30:40.100400 14821 net.cpp:139] Memory required for data: 3635403788
I0321 14:30:40.100414 14821 layer_factory.hpp:77] Creating layer loss3_my/loss3_test
I0321 14:30:40.100461 14821 net.cpp:86] Creating Layer loss3_my/loss3_test
I0321 14:30:40.100478 14821 net.cpp:408] loss3_my/loss3_test <- loss3_my/predict_loss3_my/predict_0_split_1
I0321 14:30:40.100494 14821 net.cpp:408] loss3_my/loss3_test <- label_data_1_split_3
I0321 14:30:40.100514 14821 net.cpp:382] loss3_my/loss3_test -> loss3_my/loss3_test
I0321 14:30:40.100641 14821 net.cpp:124] Setting up loss3_my/loss3_test
I0321 14:30:40.100662 14821 net.cpp:131] Top shape: 1 (1)
I0321 14:30:40.100674 14821 net.cpp:134]     with loss weight 10
I0321 14:30:40.100692 14821 net.cpp:139] Memory required for data: 3635403792
I0321 14:30:40.100703 14821 net.cpp:200] loss3_my/loss3_test needs backward computation.
I0321 14:30:40.100718 14821 net.cpp:200] loss3_my/loss3_my needs backward computation.
I0321 14:30:40.100730 14821 net.cpp:200] loss3_my/predict_loss3_my/predict_0_split needs backward computation.
…
