…
I0322 17:25:26.089862 29807 net.cpp:296] The NetState phase (0) differed from the phase (1) specified by a rule in layer data
I0322 17:25:26.089983 29807 net.cpp:296] The NetState phase (0) differed from the phase (1) specified by a rule in layer loss3_my/loss3_test
I0322 17:25:26.090979 29807 net.cpp:53] Initializing net from parameters: 
name: "GoogleNet-half"
state {
  phase: TRAIN
  level: 0
  stage: ""
}
layer {
  name: "data"
  type: "Python"
  top: "data"
  top: "label"
  include {
    phase: TRAIN
  }
  python_param {
    module: "data_generator"
    layer: "DataLayer"
    param_str: "/home/zhongzhen/dataset/attribute/age/train.txt"
  }
}
layer {
  name: "conv1/7x7_s2"
  type: "Convolution"
  bottom: "data"
  top: "conv1/7x7_s2"
  param {
    lr_mult: 1
    decay_mult: 1
  }
  param {
    lr_mult: 2
    decay_mult: 0
  }
  convolution_param {
    num_output: 32
    pad: 3
    kernel_size: 7
    stride: 2
    weight_filler {
      type: "xavier"
      std: 0.1
    }
    bias_filler {
      type: "constant"
      value: 0.2
    }
  }
}
layer {
  name: "conv1/relu_7x7"
  type: "ReLU"
  bottom: "conv1/7x7_s2"
  top: "conv1/7x7_s2"
}
layer {
  name: "pool1/3x3_s2"
  type: "Pooling"
  bottom: "conv1/7x7_s2"
  top: "pool1/3x3_s2"
  pooling_param {
    pool: MAX
    kernel_size: 3
    stride: 2
  }
}
layer {
  name: "pool1/norm1"
  type: "LRN"
  bottom: "pool1/3x3_s2"
  top: "pool1/norm1"
  lrn_param {
    local_size: 5
    alpha: 0.0001
    beta: 0.75
  }
}
layer {
  name: "conv2/3x3_reduce"
  type: "Convolution"
  bottom: "pool1/norm1"
  top: "conv2/3x3_reduce"
  param {
    lr_mult: 1
    decay_mult: 1
  }
  param {
    lr_mult: 2
    decay_mult: 0
  }
  convolution_param {
    num_output: 32
    kernel_size: 1
    weight_filler {
      type: "xavier"
      std: 0.1
    }
    bias_filler {
      type: "constant"
      value: 0.2
    }
  }
}
layer {
  name: "conv2/relu_3x3_reduce"
  type: "ReLU"
  bottom: "conv2/3x3_reduce"
  top: "conv2/3x3_reduce"
}
layer {
  name: "conv2/3x3"
  type: "Convolution"
  bottom: "conv2/3x3_reduce"
  top: "conv2/3x3"
  param {
    lr_mult: 1
    decay_mult: 1
  }
  param {
    lr_mult: 2
    decay_mult: 0
  }
  convolution_param {
    num_output: 96
    pad: 1
    kernel_size: 3
    weight_filler {
      type: "xavier"
      std: 0.03
    }
    bias_filler {
      type: "constant"
      value: 0.2
    }
  }
}
layer {
  name: "conv2/relu_3x3"
  type: "ReLU"
  bottom: "conv2/3x3"
  top: "conv2/3x3"
}
layer {
  name: "conv2/norm2"
  type: "LRN"
  bottom: "conv2/3x3"
  top: "conv2/norm2"
  lrn_param {
    local_size: 5
    alpha: 0.0001
    beta: 0.75
  }
}
layer {
  name: "pool2/3x3_s2"
  type: "Pooling"
  bottom: "conv2/norm2"
  top: "pool2/3x3_s2"
  pooling_param {
    pool: MAX
    kernel_size: 3
    stride: 2
  }
}
layer {
  name: "inception_3a/1x1"
  type: "Convolution"
  bottom: "pool2/3x3_s2"
  top: "inception_3a/1x1"
  param {
    lr_mult: 1
    decay_mult: 1
  }
  param {
    lr_mult: 2
    decay_mult: 0
  }
  convolution_param {
    num_output: 32
    kernel_size: 1
    weight_filler {
      type: "xavier"
      std: 0.03
    }
    bias_filler {
      type: "constant"
      value: 0.2
    }
  }
}
layer {
  name: "inception_3a/relu_1x1"
  type: "ReLU"
  bottom: "inception_3a/1x1"
  top: "inception_3a/1x1"
}
layer {
  name: "inception_3a/3x3_reduce"
  type: "Convolution"
  bottom: "pool2/3x3_s2"
  top: "inception_3a/3x3_reduce"
  param {
    lr_mult: 1
    decay_mult: 1
  }
  param {
    lr_mult: 2
    decay_mult: 0
  }
  convolution_param {
    num_output: 48
    kernel_size: 1
    weight_filler {
      type: "xavier"
      std: 0.09
    }
    bias_filler {
      type: "constant"
      value: 0.2
    }
  }
}
layer {
  name: "inception_3a/relu_3x3_reduce"
  type: "ReLU"
  bottom: "inception_3a/3x3_reduce"
  top: "inception_3a/3x3_reduce"
}
layer {
  name: "inception_3a/3x3"
  type: "Convolution"
  bottom: "inception_3a/3x3_reduce"
  top: "inception_3a/3x3"
  param {
    lr_mult: 1
    decay_mult: 1
  }
  param {
    lr_mult: 2
    decay_mult: 0
  }
  convolution_param {
    num_output: 64
    pad: 1
    kernel_size: 3
    weight_filler {
      type: "xavier"
      std: 0.03
    }
    bias_filler {
      type: "constant"
      value: 0.2
    }
  }
}
layer {
  name: "inception_3a/relu_3x3"
  type: "ReLU"
  bottom: "inception_3a/3x3"
  top: "inception_3a/3x3"
}
layer {
  name: "inception_3a/5x5_reduce"
  type: "Convolution"
  bottom: "pool2/3x3_s2"
  top: "inception_3a/5x5_reduce"
  param {
    lr_mult: 1
    decay_mult: 1
  }
  param {
    lr_mult: 2
    decay_mult: 0
  }
  convolution_param {
    num_output: 8
    kernel_size: 1
    weight_filler {
      type: "xavier"
      std: 0.2
    }
    bias_filler {
      type: "constant"
      value: 0.2
    }
  }
}
layer {
  name: "inception_3a/relu_5x5_reduce"
  type: "ReLU"
  bottom: "inception_3a/5x5_reduce"
  top: "inception_3a/5x5_reduce"
}
layer {
  name: "inception_3a/5x5"
  type: "Convolution"
  bottom: "inception_3a/5x5_reduce"
  top: "inception_3a/5x5"
  param {
    lr_mult: 1
    decay_mult: 1
  }
  param {
    lr_mult: 2
    decay_mult: 0
  }
  convolution_param {
    num_output: 16
    pad: 2
    kernel_size: 5
    weight_filler {
      type: "xavier"
      std: 0.03
    }
    bias_filler {
      type: "constant"
      value: 0.2
    }
  }
}
layer {
  name: "inception_3a/relu_5x5"
  type: "ReLU"
  bottom: "inception_3a/5x5"
  top: "inception_3a/5x5"
}
layer {
  name: "inception_3a/pool"
  type: "Pooling"
  bottom: "pool2/3x3_s2"
  top: "inception_3a/pool"
  pooling_param {
    pool: MAX
    kernel_size: 3
    stride: 1
    pad: 1
  }
}
layer {
  name: "inception_3a/pool_proj"
  type: "Convolution"
  bottom: "inception_3a/pool"
  top: "inception_3a/pool_proj"
  param {
    lr_mult: 1
    decay_mult: 1
  }
  param {
    lr_mult: 2
    decay_mult: 0
  }
  convolution_param {
    num_output: 16
    kernel_size: 1
    weight_filler {
      type: "xavier"
      std: 0.1
    }
    bias_filler {
      type: "constant"
      value: 0.2
    }
  }
}
layer {
  name: "inception_3a/relu_pool_proj"
  type: "ReLU"
  bottom: "inception_3a/pool_proj"
  top: "inception_3a/pool_proj"
}
layer {
  name: "inception_3a/output"
  type: "Concat"
  bottom: "inception_3a/1x1"
  bottom: "inception_3a/3x3"
  bottom: "inception_3a/5x5"
  bottom: "inception_3a/pool_proj"
  top: "inception_3a/output"
}
layer {
  name: "inception_3b/1x1"
  type: "Convolution"
  bottom: "inception_3a/output"
  top: "inception_3b/1x1"
  param {
    lr_mult: 1
    decay_mult: 1
  }
  param {
    lr_mult: 2
    decay_mult: 0
  }
  convolution_param {
    num_output: 64
    kernel_size: 1
    weight_filler {
      type: "xavier"
      std: 0.03
    }
    bias_filler {
      type: "constant"
      value: 0.2
    }
  }
}
layer {
  name: "inception_3b/relu_1x1"
  type: "ReLU"
  bottom: "inception_3b/1x1"
  top: "inception_3b/1x1"
}
layer {
  name: "inception_3b/3x3_reduce"
  type: "Convolution"
  bottom: "inception_3a/output"
  top: "inception_3b/3x3_reduce"
  param {
    lr_mult: 1
    decay_mult: 1
  }
  param {
    lr_mult: 2
    decay_mult: 0
  }
  convolution_param {
    num_output: 64
    kernel_size: 1
    weight_filler {
      type: "xavier"
      std: 0.09
    }
    bias_filler {
      type: "constant"
      value: 0.2
    }
  }
}
layer {
  name: "inception_3b/relu_3x3_reduce"
  type: "ReLU"
  bottom: "inception_3b/3x3_reduce"
  top: "inception_3b/3x3_reduce"
}
layer {
  name: "inception_3b/3x3"
  type: "Convolution"
  bottom: "inception_3b/3x3_reduce"
  top: "inception_3b/3x3"
  param {
    lr_mult: 1
    decay_mult: 1
  }
  param {
    lr_mult: 2
    decay_mult: 0
  }
  convolution_param {
    num_output: 96
    pad: 1
    kernel_size: 3
    weight_filler {
      type: "xavier"
      std: 0.03
    }
    bias_filler {
      type: "constant"
      value: 0.2
    }
  }
}
layer {
  name: "inception_3b/relu_3x3"
  type: "ReLU"
  bottom: "inception_3b/3x3"
  top: "inception_3b/3x3"
}
layer {
  name: "inception_3b/5x5_reduce"
  type: "Convolution"
  bottom: "inception_3a/output"
  top: "inception_3b/5x5_reduce"
  param {
    lr_mult: 1
    decay_mult: 1
  }
  param {
    lr_mult: 2
    decay_mult: 0
  }
  convolution_param {
    num_output: 16
    kernel_size: 1
    weight_filler {
      type: "xavier"
      std: 0.2
    }
    bias_filler {
      type: "constant"
      value: 0.2
    }
  }
}
layer {
  name: "inception_3b/relu_5x5_reduce"
  type: "ReLU"
  bottom: "inception_3b/5x5_reduce"
  top: "inception_3b/5x5_reduce"
}
layer {
  name: "inception_3b/5x5"
  type: "Convolution"
  bottom: "inception_3b/5x5_reduce"
  top: "inception_3b/5x5"
  param {
    lr_mult: 1
    decay_mult: 1
  }
  param {
    lr_mult: 2
    decay_mult: 0
  }
  convolution_param {
    num_output: 48
    pad: 2
    kernel_size: 5
    weight_filler {
      type: "xavier"
      std: 0.03
    }
    bias_filler {
      type: "constant"
      value: 0.2
    }
  }
}
layer {
  name: "inception_3b/relu_5x5"
  type: "ReLU"
  bottom: "inception_3b/5x5"
  top: "inception_3b/5x5"
}
layer {
  name: "inception_3b/pool"
  type: "Pooling"
  bottom: "inception_3a/output"
  top: "inception_3b/pool"
  pooling_param {
    pool: MAX
    kernel_size: 3
    stride: 1
    pad: 1
  }
}
layer {
  name: "inception_3b/pool_proj"
  type: "Convolution"
  bottom: "inception_3b/pool"
  top: "inception_3b/pool_proj"
  param {
    lr_mult: 1
    decay_mult: 1
  }
  param {
    lr_mult: 2
    decay_mult: 0
  }
  convolution_param {
    num_output: 32
    kernel_size: 1
    weight_filler {
      type: "xavier"
      std: 0.1
    }
    bias_filler {
      type: "constant"
      value: 0.2
    }
  }
}
layer {
  name: "inception_3b/relu_pool_proj"
  type: "ReLU"
  bottom: "inception_3b/pool_proj"
  top: "inception_3b/pool_proj"
}
layer {
  name: "inception_3b/output"
  type: "Concat"
  bottom: "inception_3b/1x1"
  bottom: "inception_3b/3x3"
  bottom: "inception_3b/5x5"
  bottom: "inception_3b/pool_proj"
  top: "inception_3b/output"
}
layer {
  name: "pool3/3x3_s2"
  type: "Pooling"
  bottom: "inception_3b/output"
  top: "pool3/3x3_s2"
  pooling_param {
    pool: MAX
    kernel_size: 3
    stride: 2
  }
}
layer {
  name: "inception_4a/1x1"
  type: "Convolution"
  bottom: "pool3/3x3_s2"
  top: "inception_4a/1x1"
  param {
    lr_mult: 1
    decay_mult: 1
  }
  param {
    lr_mult: 2
    decay_mult: 0
  }
  convolution_param {
    num_output: 96
    kernel_size: 1
    weight_filler {
      type: "xavier"
      std: 0.03
    }
    bias_filler {
      type: "constant"
      value: 0.2
    }
  }
}
layer {
  name: "inception_4a/relu_1x1"
  type: "ReLU"
  bottom: "inception_4a/1x1"
  top: "inception_4a/1x1"
}
layer {
  name: "inception_4a/3x3_reduce"
  type: "Convolution"
  bottom: "pool3/3x3_s2"
  top: "inception_4a/3x3_reduce"
  param {
    lr_mult: 1
    decay_mult: 1
  }
  param {
    lr_mult: 2
    decay_mult: 0
  }
  convolution_param {
    num_output: 48
    kernel_size: 1
    weight_filler {
      type: "xavier"
      std: 0.09
    }
    bias_filler {
      type: "constant"
      value: 0.2
    }
  }
}
layer {
  name: "inception_4a/relu_3x3_reduce"
  type: "ReLU"
  bottom: "inception_4a/3x3_reduce"
  top: "inception_4a/3x3_reduce"
}
layer {
  name: "inception_4a/3x3"
  type: "Convolution"
  bottom: "inception_4a/3x3_reduce"
  top: "inception_4a/3x3"
  param {
    lr_mult: 1
    decay_mult: 1
  }
  param {
    lr_mult: 2
    decay_mult: 0
  }
  convolution_param {
    num_output: 104
    pad: 1
    kernel_size: 3
    weight_filler {
      type: "xavier"
      std: 0.03
    }
    bias_filler {
      type: "constant"
      value: 0.2
    }
  }
}
layer {
  name: "inception_4a/relu_3x3"
  type: "ReLU"
  bottom: "inception_4a/3x3"
  top: "inception_4a/3x3"
}
layer {
  name: "inception_4a/5x5_reduce"
  type: "Convolution"
  bottom: "pool3/3x3_s2"
  top: "inception_4a/5x5_reduce"
  param {
    lr_mult: 1
    decay_mult: 1
  }
  param {
    lr_mult: 2
    decay_mult: 0
  }
  convolution_param {
    num_output: 8
    kernel_size: 1
    weight_filler {
      type: "xavier"
      std: 0.2
    }
    bias_filler {
      type: "constant"
      value: 0.2
    }
  }
}
layer {
  name: "inception_4a/relu_5x5_reduce"
  type: "ReLU"
  bottom: "inception_4a/5x5_reduce"
  top: "inception_4a/5x5_reduce"
}
layer {
  name: "inception_4a/5x5"
  type: "Convolution"
  bottom: "inception_4a/5x5_reduce"
  top: "inception_4a/5x5"
  param {
    lr_mult: 1
    decay_mult: 1
  }
  param {
    lr_mult: 2
    decay_mult: 0
  }
  convolution_param {
    num_output: 24
    pad: 2
    kernel_size: 5
    weight_filler {
      type: "xavier"
      std: 0.03
    }
    bias_filler {
      type: "constant"
      value: 0.2
    }
  }
}
layer {
  name: "inception_4a/relu_5x5"
  type: "ReLU"
  bottom: "inception_4a/5x5"
  top: "inception_4a/5x5"
}
layer {
  name: "inception_4a/pool"
  type: "Pooling"
  bottom: "pool3/3x3_s2"
  top: "inception_4a/pool"
  pooling_param {
    pool: MAX
    kernel_size: 3
    stride: 1
    pad: 1
  }
}
layer {
  name: "inception_4a/pool_proj"
  type: "Convolution"
  bottom: "inception_4a/pool"
  top: "inception_4a/pool_proj"
  param {
    lr_mult: 1
    decay_mult: 1
  }
  param {
    lr_mult: 2
    decay_mult: 0
  }
  convolution_param {
    num_output: 32
    kernel_size: 1
    weight_filler {
      type: "xavier"
      std: 0.1
    }
    bias_filler {
      type: "constant"
      value: 0.2
    }
  }
}
layer {
  name: "inception_4a/relu_pool_proj"
  type: "ReLU"
  bottom: "inception_4a/pool_proj"
  top: "inception_4a/pool_proj"
}
layer {
  name: "inception_4a/output"
  type: "Concat"
  bottom: "inception_4a/1x1"
  bottom: "inception_4a/3x3"
  bottom: "inception_4a/5x5"
  bottom: "inception_4a/pool_proj"
  top: "inception_4a/output"
}
layer {
  name: "inception_4b/1x1"
  type: "Convolution"
  bottom: "inception_4a/output"
  top: "inception_4b/1x1"
  param {
    lr_mult: 1
    decay_mult: 1
  }
  param {
    lr_mult: 2
    decay_mult: 0
  }
  convolution_param {
    num_output: 80
    kernel_size: 1
    weight_filler {
      type: "xavier"
      std: 0.03
    }
    bias_filler {
      type: "constant"
      value: 0.2
    }
  }
}
layer {
  name: "inception_4b/relu_1x1"
  type: "ReLU"
  bottom: "inception_4b/1x1"
  top: "inception_4b/1x1"
}
layer {
  name: "inception_4b/3x3_reduce"
  type: "Convolution"
  bottom: "inception_4a/output"
  top: "inception_4b/3x3_reduce"
  param {
    lr_mult: 1
    decay_mult: 1
  }
  param {
    lr_mult: 2
    decay_mult: 0
  }
  convolution_param {
    num_output: 56
    kernel_size: 1
    weight_filler {
      type: "xavier"
      std: 0.09
    }
    bias_filler {
      type: "constant"
      value: 0.2
    }
  }
}
layer {
  name: "inception_4b/relu_3x3_reduce"
  type: "ReLU"
  bottom: "inception_4b/3x3_reduce"
  top: "inception_4b/3x3_reduce"
}
layer {
  name: "inception_4b/3x3"
  type: "Convolution"
  bottom: "inception_4b/3x3_reduce"
  top: "inception_4b/3x3"
  param {
    lr_mult: 1
    decay_mult: 1
  }
  param {
    lr_mult: 2
    decay_mult: 0
  }
  convolution_param {
    num_output: 112
    pad: 1
    kernel_size: 3
    weight_filler {
      type: "xavier"
      std: 0.03
    }
    bias_filler {
      type: "constant"
      value: 0.2
    }
  }
}
layer {
  name: "inception_4b/relu_3x3"
  type: "ReLU"
  bottom: "inception_4b/3x3"
  top: "inception_4b/3x3"
}
layer {
  name: "inception_4b/5x5_reduce"
  type: "Convolution"
  bottom: "inception_4a/output"
  top: "inception_4b/5x5_reduce"
  param {
    lr_mult: 1
    decay_mult: 1
  }
  param {
    lr_mult: 2
    decay_mult: 0
  }
  convolution_param {
    num_output: 12
    kernel_size: 1
    weight_filler {
      type: "xavier"
      std: 0.2
    }
    bias_filler {
      type: "constant"
      value: 0.2
    }
  }
}
layer {
  name: "inception_4b/relu_5x5_reduce"
  type: "ReLU"
  bottom: "inception_4b/5x5_reduce"
  top: "inception_4b/5x5_reduce"
}
layer {
  name: "inception_4b/5x5"
  type: "Convolution"
  bottom: "inception_4b/5x5_reduce"
  top: "inception_4b/5x5"
  param {
    lr_mult: 1
    decay_mult: 1
  }
  param {
    lr_mult: 2
    decay_mult: 0
  }
  convolution_param {
    num_output: 32
    pad: 2
    kernel_size: 5
    weight_filler {
      type: "xavier"
      std: 0.03
    }
    bias_filler {
      type: "constant"
      value: 0.2
    }
  }
}
layer {
  name: "inception_4b/relu_5x5"
  type: "ReLU"
  bottom: "inception_4b/5x5"
  top: "inception_4b/5x5"
}
layer {
  name: "inception_4b/pool"
  type: "Pooling"
  bottom: "inception_4a/output"
  top: "inception_4b/pool"
  pooling_param {
    pool: MAX
    kernel_size: 3
    stride: 1
    pad: 1
  }
}
layer {
  name: "inception_4b/pool_proj"
  type: "Convolution"
  bottom: "inception_4b/pool"
  top: "inception_4b/pool_proj"
  param {
    lr_mult: 1
    decay_mult: 1
  }
  param {
    lr_mult: 2
    decay_mult: 0
  }
  convolution_param {
    num_output: 32
    kernel_size: 1
    weight_filler {
      type: "xavier"
      std: 0.1
    }
    bias_filler {
      type: "constant"
      value: 0.2
    }
  }
}
layer {
  name: "inception_4b/relu_pool_proj"
  type: "ReLU"
  bottom: "inception_4b/pool_proj"
  top: "inception_4b/pool_proj"
}
layer {
  name: "inception_4b/output"
  type: "Concat"
  bottom: "inception_4b/1x1"
  bottom: "inception_4b/3x3"
  bottom: "inception_4b/5x5"
  bottom: "inception_4b/pool_proj"
  top: "inception_4b/output"
}
layer {
  name: "inception_4c/1x1"
  type: "Convolution"
  bottom: "inception_4b/output"
  top: "inception_4c/1x1"
  param {
    lr_mult: 1
    decay_mult: 1
  }
  param {
    lr_mult: 2
    decay_mult: 0
  }
  convolution_param {
    num_output: 64
    kernel_size: 1
    weight_filler {
      type: "xavier"
      std: 0.03
    }
    bias_filler {
      type: "constant"
      value: 0.2
    }
  }
}
layer {
  name: "inception_4c/relu_1x1"
  type: "ReLU"
  bottom: "inception_4c/1x1"
  top: "inception_4c/1x1"
}
layer {
  name: "inception_4c/3x3_reduce"
  type: "Convolution"
  bottom: "inception_4b/output"
  top: "inception_4c/3x3_reduce"
  param {
    lr_mult: 1
    decay_mult: 1
  }
  param {
    lr_mult: 2
    decay_mult: 0
  }
  convolution_param {
    num_output: 64
    kernel_size: 1
    weight_filler {
      type: "xavier"
      std: 0.09
    }
    bias_filler {
      type: "constant"
      value: 0.2
    }
  }
}
layer {
  name: "inception_4c/relu_3x3_reduce"
  type: "ReLU"
  bottom: "inception_4c/3x3_reduce"
  top: "inception_4c/3x3_reduce"
}
layer {
  name: "inception_4c/3x3"
  type: "Convolution"
  bottom: "inception_4c/3x3_reduce"
  top: "inception_4c/3x3"
  param {
    lr_mult: 1
    decay_mult: 1
  }
  param {
    lr_mult: 2
    decay_mult: 0
  }
  convolution_param {
    num_output: 128
    pad: 1
    kernel_size: 3
    weight_filler {
      type: "xavier"
      std: 0.03
    }
    bias_filler {
      type: "constant"
      value: 0.2
    }
  }
}
layer {
  name: "inception_4c/relu_3x3"
  type: "ReLU"
  bottom: "inception_4c/3x3"
  top: "inception_4c/3x3"
}
layer {
  name: "inception_4c/5x5_reduce"
  type: "Convolution"
  bottom: "inception_4b/output"
  top: "inception_4c/5x5_reduce"
  param {
    lr_mult: 1
    decay_mult: 1
  }
  param {
    lr_mult: 2
    decay_mult: 0
  }
  convolution_param {
    num_output: 12
    kernel_size: 1
    weight_filler {
      type: "xavier"
      std: 0.2
    }
    bias_filler {
      type: "constant"
      value: 0.2
    }
  }
}
layer {
  name: "inception_4c/relu_5x5_reduce"
  type: "ReLU"
  bottom: "inception_4c/5x5_reduce"
  top: "inception_4c/5x5_reduce"
}
layer {
  name: "inception_4c/5x5"
  type: "Convolution"
  bottom: "inception_4c/5x5_reduce"
  top: "inception_4c/5x5"
  param {
    lr_mult: 1
    decay_mult: 1
  }
  param {
    lr_mult: 2
    decay_mult: 0
  }
  convolution_param {
    num_output: 32
    pad: 2
    kernel_size: 5
    weight_filler {
      type: "xavier"
      std: 0.03
    }
    bias_filler {
      type: "constant"
      value: 0.2
    }
  }
}
layer {
  name: "inception_4c/relu_5x5"
  type: "ReLU"
  bottom: "inception_4c/5x5"
  top: "inception_4c/5x5"
}
layer {
  name: "inception_4c/pool"
  type: "Pooling"
  bottom: "inception_4b/output"
  top: "inception_4c/pool"
  pooling_param {
    pool: MAX
    kernel_size: 3
    stride: 1
    pad: 1
  }
}
layer {
  name: "inception_4c/pool_proj"
  type: "Convolution"
  bottom: "inception_4c/pool"
  top: "inception_4c/pool_proj"
  param {
    lr_mult: 1
    decay_mult: 1
  }
  param {
    lr_mult: 2
    decay_mult: 0
  }
  convolution_param {
    num_output: 32
    kernel_size: 1
    weight_filler {
      type: "xavier"
      std: 0.1
    }
    bias_filler {
      type: "constant"
      value: 0.2
    }
  }
}
layer {
  name: "inception_4c/relu_pool_proj"
  type: "ReLU"
  bottom: "inception_4c/pool_proj"
  top: "inception_4c/pool_proj"
}
layer {
  name: "inception_4c/output"
  type: "Concat"
  bottom: "inception_4c/1x1"
  bottom: "inception_4c/3x3"
  bottom: "inception_4c/5x5"
  bottom: "inception_4c/pool_proj"
  top: "inception_4c/output"
}
layer {
  name: "inception_4d/1x1"
  type: "Convolution"
  bottom: "inception_4c/output"
  top: "inception_4d/1x1"
  param {
    lr_mult: 1
    decay_mult: 1
  }
  param {
    lr_mult: 2
    decay_mult: 0
  }
  convolution_param {
    num_output: 56
    kernel_size: 1
    weight_filler {
      type: "xavier"
      std: 0.03
    }
    bias_filler {
      type: "constant"
      value: 0.2
    }
  }
}
layer {
  name: "inception_4d/relu_1x1"
  type: "ReLU"
  bottom: "inception_4d/1x1"
  top: "inception_4d/1x1"
}
layer {
  name: "inception_4d/3x3_reduce"
  type: "Convolution"
  bottom: "inception_4c/output"
  top: "inception_4d/3x3_reduce"
  param {
    lr_mult: 1
    decay_mult: 1
  }
  param {
    lr_mult: 2
    decay_mult: 0
  }
  convolution_param {
    num_output: 72
    kernel_size: 1
    weight_filler {
      type: "xavier"
      std: 0.09
    }
    bias_filler {
      type: "constant"
      value: 0.2
    }
  }
}
layer {
  name: "inception_4d/relu_3x3_reduce"
  type: "ReLU"
  bottom: "inception_4d/3x3_reduce"
  top: "inception_4d/3x3_reduce"
}
layer {
  name: "inception_4d/3x3"
  type: "Convolution"
  bottom: "inception_4d/3x3_reduce"
  top: "inception_4d/3x3"
  param {
    lr_mult: 1
    decay_mult: 1
  }
  param {
    lr_mult: 2
    decay_mult: 0
  }
  convolution_param {
    num_output: 144
    pad: 1
    kernel_size: 3
    weight_filler {
      type: "xavier"
      std: 0.03
    }
    bias_filler {
      type: "constant"
      value: 0.2
    }
  }
}
layer {
  name: "inception_4d/relu_3x3"
  type: "ReLU"
  bottom: "inception_4d/3x3"
  top: "inception_4d/3x3"
}
layer {
  name: "inception_4d/5x5_reduce"
  type: "Convolution"
  bottom: "inception_4c/output"
  top: "inception_4d/5x5_reduce"
  param {
    lr_mult: 1
    decay_mult: 1
  }
  param {
    lr_mult: 2
    decay_mult: 0
  }
  convolution_param {
    num_output: 16
    kernel_size: 1
    weight_filler {
      type: "xavier"
      std: 0.2
    }
    bias_filler {
      type: "constant"
      value: 0.2
    }
  }
}
layer {
  name: "inception_4d/relu_5x5_reduce"
  type: "ReLU"
  bottom: "inception_4d/5x5_reduce"
  top: "inception_4d/5x5_reduce"
}
layer {
  name: "inception_4d/5x5"
  type: "Convolution"
  bottom: "inception_4d/5x5_reduce"
  top: "inception_4d/5x5"
  param {
    lr_mult: 1
    decay_mult: 1
  }
  param {
    lr_mult: 2
    decay_mult: 0
  }
  convolution_param {
    num_output: 32
    pad: 2
    kernel_size: 5
    weight_filler {
      type: "xavier"
      std: 0.03
    }
    bias_filler {
      type: "constant"
      value: 0.2
    }
  }
}
layer {
  name: "inception_4d/relu_5x5"
  type: "ReLU"
  bottom: "inception_4d/5x5"
  top: "inception_4d/5x5"
}
layer {
  name: "inception_4d/pool"
  type: "Pooling"
  bottom: "inception_4c/output"
  top: "inception_4d/pool"
  pooling_param {
    pool: MAX
    kernel_size: 3
    stride: 1
    pad: 1
  }
}
layer {
  name: "inception_4d/pool_proj"
  type: "Convolution"
  bottom: "inception_4d/pool"
  top: "inception_4d/pool_proj"
  param {
    lr_mult: 1
    decay_mult: 1
  }
  param {
    lr_mult: 2
    decay_mult: 0
  }
  convolution_param {
    num_output: 32
    kernel_size: 1
    weight_filler {
      type: "xavier"
      std: 0.1
    }
    bias_filler {
      type: "constant"
      value: 0.2
    }
  }
}
layer {
  name: "inception_4d/relu_pool_proj"
  type: "ReLU"
  bottom: "inception_4d/pool_proj"
  top: "inception_4d/pool_proj"
}
layer {
  name: "inception_4d/output"
  type: "Concat"
  bottom: "inception_4d/1x1"
  bottom: "inception_4d/3x3"
  bottom: "inception_4d/5x5"
  bottom: "inception_4d/pool_proj"
  top: "inception_4d/output"
}
layer {
  name: "inception_4e/1x1"
  type: "Convolution"
  bottom: "inception_4d/output"
  top: "inception_4e/1x1"
  param {
    lr_mult: 1
    decay_mult: 1
  }
  param {
    lr_mult: 2
    decay_mult: 0
  }
  convolution_param {
    num_output: 128
    kernel_size: 1
    weight_filler {
      type: "xavier"
      std: 0.03
    }
    bias_filler {
      type: "constant"
      value: 0.2
    }
  }
}
layer {
  name: "inception_4e/relu_1x1"
  type: "ReLU"
  bottom: "inception_4e/1x1"
  top: "inception_4e/1x1"
}
layer {
  name: "inception_4e/3x3_reduce"
  type: "Convolution"
  bottom: "inception_4d/output"
  top: "inception_4e/3x3_reduce"
  param {
    lr_mult: 1
    decay_mult: 1
  }
  param {
    lr_mult: 2
    decay_mult: 0
  }
  convolution_param {
    num_output: 80
    kernel_size: 1
    weight_filler {
      type: "xavier"
      std: 0.09
    }
    bias_filler {
      type: "constant"
      value: 0.2
    }
  }
}
layer {
  name: "inception_4e/relu_3x3_reduce"
  type: "ReLU"
  bottom: "inception_4e/3x3_reduce"
  top: "inception_4e/3x3_reduce"
}
layer {
  name: "inception_4e/3x3"
  type: "Convolution"
  bottom: "inception_4e/3x3_reduce"
  top: "inception_4e/3x3"
  param {
    lr_mult: 1
    decay_mult: 1
  }
  param {
    lr_mult: 2
    decay_mult: 0
  }
  convolution_param {
    num_output: 160
    pad: 1
    kernel_size: 3
    weight_filler {
      type: "xavier"
      std: 0.03
    }
    bias_filler {
      type: "constant"
      value: 0.2
    }
  }
}
layer {
  name: "inception_4e/relu_3x3"
  type: "ReLU"
  bottom: "inception_4e/3x3"
  top: "inception_4e/3x3"
}
layer {
  name: "inception_4e/5x5_reduce"
  type: "Convolution"
  bottom: "inception_4d/output"
  top: "inception_4e/5x5_reduce"
  param {
    lr_mult: 1
    decay_mult: 1
  }
  param {
    lr_mult: 2
    decay_mult: 0
  }
  convolution_param {
    num_output: 16
    kernel_size: 1
    weight_filler {
      type: "xavier"
      std: 0.2
    }
    bias_filler {
      type: "constant"
      value: 0.2
    }
  }
}
layer {
  name: "inception_4e/relu_5x5_reduce"
  type: "ReLU"
  bottom: "inception_4e/5x5_reduce"
  top: "inception_4e/5x5_reduce"
}
layer {
  name: "inception_4e/5x5"
  type: "Convolution"
  bottom: "inception_4e/5x5_reduce"
  top: "inception_4e/5x5"
  param {
    lr_mult: 1
    decay_mult: 1
  }
  param {
    lr_mult: 2
    decay_mult: 0
  }
  convolution_param {
    num_output: 64
    pad: 2
    kernel_size: 5
    weight_filler {
      type: "xavier"
      std: 0.03
    }
    bias_filler {
      type: "constant"
      value: 0.2
    }
  }
}
layer {
  name: "inception_4e/relu_5x5"
  type: "ReLU"
  bottom: "inception_4e/5x5"
  top: "inception_4e/5x5"
}
layer {
  name: "inception_4e/pool"
  type: "Pooling"
  bottom: "inception_4d/output"
  top: "inception_4e/pool"
  pooling_param {
    pool: MAX
    kernel_size: 3
    stride: 1
    pad: 1
  }
}
layer {
  name: "inception_4e/pool_proj"
  type: "Convolution"
  bottom: "inception_4e/pool"
  top: "inception_4e/pool_proj"
  param {
    lr_mult: 1
    decay_mult: 1
  }
  param {
    lr_mult: 2
    decay_mult: 0
  }
  convolution_param {
    num_output: 64
    kernel_size: 1
    weight_filler {
      type: "xavier"
      std: 0.1
    }
    bias_filler {
      type: "constant"
      value: 0.2
    }
  }
}
layer {
  name: "inception_4e/relu_pool_proj"
  type: "ReLU"
  bottom: "inception_4e/pool_proj"
  top: "inception_4e/pool_proj"
}
layer {
  name: "inception_4e/output"
  type: "Concat"
  bottom: "inception_4e/1x1"
  bottom: "inception_4e/3x3"
  bottom: "inception_4e/5x5"
  bottom: "inception_4e/pool_proj"
  top: "inception_4e/output"
}
layer {
  name: "conv_16"
  type: "Convolution"
  bottom: "inception_4e/output"
  top: "conv_16"
  param {
    lr_mult: 1
    decay_mult: 1
  }
  param {
    lr_mult: 2
    decay_mult: 0
  }
  convolution_param {
    num_output: 128
    kernel_size: 1
    weight_filler {
      type: "gaussian"
      std: 0.01
    }
    bias_filler {
      type: "constant"
      value: 0
    }
  }
}
layer {
  name: "relu_16"
  type: "ReLU"
  bottom: "conv_16"
  top: "conv_16"
}
layer {
  name: "conv_face_predict"
  type: "Convolution"
  bottom: "conv_16"
  top: "conv_face_predict"
  param {
    lr_mult: 1
    decay_mult: 1
  }
  param {
    lr_mult: 2
    decay_mult: 0
  }
  convolution_param {
    num_output: 20
    kernel_size: 1
    weight_filler {
      type: "gaussian"
      std: 0.01
    }
    bias_filler {
      type: "constant"
      value: 0
    }
  }
}
layer {
  name: "pool5/7x7_s1"
  type: "Pooling"
  bottom: "conv_face_predict"
  top: "pool5/7x7_s1"
  pooling_param {
    pool: AVE
    kernel_size: 4
    stride: 1
  }
}
layer {
  name: "pool5/drop_7x7_s1"
  type: "Dropout"
  bottom: "pool5/7x7_s1"
  top: "pool5/7x7_s1"
  dropout_param {
    dropout_ratio: 0.4
  }
}
layer {
  name: "loss3_my/predict"
  type: "InnerProduct"
  bottom: "pool5/7x7_s1"
  top: "loss3_my/predict"
  param {
    lr_mult: 1
    decay_mult: 1
  }
  param {
    lr_mult: 2
    decay_mult: 0
  }
  inner_product_param {
    num_output: 1
    weight_filler {
      type: "xavier"
    }
    bias_filler {
      type: "constant"
      value: 0
    }
  }
}
layer {
  name: "loss3_my/loss3_my"
  type: "Python"
  bottom: "loss3_my/predict"
  bottom: "label"
  top: "loss3_my/loss3_my"
  loss_weight: 1
  python_param {
    module: "robust_loss"
    layer: "RobustLossLayer"
  }
}
I0322 17:25:26.091735 29807 layer_factory.hpp:77] Creating layer data
I0322 17:25:27.089403 29807 net.cpp:86] Creating Layer data
I0322 17:25:27.089474 29807 net.cpp:382] data -> data
I0322 17:25:27.089506 29807 net.cpp:382] data -> label
I0322 17:25:27.398990 29807 net.cpp:124] Setting up data
I0322 17:25:27.399063 29807 net.cpp:131] Top shape: 128 3 224 224 (19267584)
I0322 17:25:27.399075 29807 net.cpp:131] Top shape: 128 1 (128)
I0322 17:25:27.399083 29807 net.cpp:139] Memory required for data: 77070848
I0322 17:25:27.399098 29807 layer_factory.hpp:77] Creating layer conv1/7x7_s2
I0322 17:25:27.399163 29807 net.cpp:86] Creating Layer conv1/7x7_s2
I0322 17:25:27.399178 29807 net.cpp:408] conv1/7x7_s2 <- data
I0322 17:25:27.399202 29807 net.cpp:382] conv1/7x7_s2 -> conv1/7x7_s2
I0322 17:25:27.401067 29807 net.cpp:124] Setting up conv1/7x7_s2
I0322 17:25:27.401101 29807 net.cpp:131] Top shape: 128 32 112 112 (51380224)
I0322 17:25:27.401109 29807 net.cpp:139] Memory required for data: 282591744
I0322 17:25:27.401132 29807 layer_factory.hpp:77] Creating layer conv1/relu_7x7
I0322 17:25:27.401154 29807 net.cpp:86] Creating Layer conv1/relu_7x7
I0322 17:25:27.401161 29807 net.cpp:408] conv1/relu_7x7 <- conv1/7x7_s2
I0322 17:25:27.401170 29807 net.cpp:369] conv1/relu_7x7 -> conv1/7x7_s2 (in-place)
I0322 17:25:27.401182 29807 net.cpp:124] Setting up conv1/relu_7x7
I0322 17:25:27.401197 29807 net.cpp:131] Top shape: 128 32 112 112 (51380224)
I0322 17:25:27.401202 29807 net.cpp:139] Memory required for data: 488112640
I0322 17:25:27.401209 29807 layer_factory.hpp:77] Creating layer pool1/3x3_s2
I0322 17:25:27.401228 29807 net.cpp:86] Creating Layer pool1/3x3_s2
I0322 17:25:27.401238 29807 net.cpp:408] pool1/3x3_s2 <- conv1/7x7_s2
I0322 17:25:27.401247 29807 net.cpp:382] pool1/3x3_s2 -> pool1/3x3_s2
I0322 17:25:27.401312 29807 net.cpp:124] Setting up pool1/3x3_s2
I0322 17:25:27.401327 29807 net.cpp:131] Top shape: 128 32 56 56 (12845056)
I0322 17:25:27.401335 29807 net.cpp:139] Memory required for data: 539492864
I0322 17:25:27.401340 29807 layer_factory.hpp:77] Creating layer pool1/norm1
I0322 17:25:27.401352 29807 net.cpp:86] Creating Layer pool1/norm1
I0322 17:25:27.401386 29807 net.cpp:408] pool1/norm1 <- pool1/3x3_s2
I0322 17:25:27.401398 29807 net.cpp:382] pool1/norm1 -> pool1/norm1
I0322 17:25:27.401458 29807 net.cpp:124] Setting up pool1/norm1
I0322 17:25:27.401474 29807 net.cpp:131] Top shape: 128 32 56 56 (12845056)
I0322 17:25:27.401481 29807 net.cpp:139] Memory required for data: 590873088
I0322 17:25:27.401487 29807 layer_factory.hpp:77] Creating layer conv2/3x3_reduce
I0322 17:25:27.401504 29807 net.cpp:86] Creating Layer conv2/3x3_reduce
I0322 17:25:27.401513 29807 net.cpp:408] conv2/3x3_reduce <- pool1/norm1
I0322 17:25:27.401525 29807 net.cpp:382] conv2/3x3_reduce -> conv2/3x3_reduce
I0322 17:25:27.404070 29807 net.cpp:124] Setting up conv2/3x3_reduce
I0322 17:25:27.404105 29807 net.cpp:131] Top shape: 128 32 56 56 (12845056)
I0322 17:25:27.404114 29807 net.cpp:139] Memory required for data: 642253312
I0322 17:25:27.404129 29807 layer_factory.hpp:77] Creating layer conv2/relu_3x3_reduce
I0322 17:25:27.404139 29807 net.cpp:86] Creating Layer conv2/relu_3x3_reduce
I0322 17:25:27.404145 29807 net.cpp:408] conv2/relu_3x3_reduce <- conv2/3x3_reduce
I0322 17:25:27.404156 29807 net.cpp:369] conv2/relu_3x3_reduce -> conv2/3x3_reduce (in-place)
I0322 17:25:27.404168 29807 net.cpp:124] Setting up conv2/relu_3x3_reduce
I0322 17:25:27.404176 29807 net.cpp:131] Top shape: 128 32 56 56 (12845056)
I0322 17:25:27.404181 29807 net.cpp:139] Memory required for data: 693633536
I0322 17:25:27.404187 29807 layer_factory.hpp:77] Creating layer conv2/3x3
I0322 17:25:27.404201 29807 net.cpp:86] Creating Layer conv2/3x3
I0322 17:25:27.404207 29807 net.cpp:408] conv2/3x3 <- conv2/3x3_reduce
I0322 17:25:27.404217 29807 net.cpp:382] conv2/3x3 -> conv2/3x3
I0322 17:25:27.406558 29807 net.cpp:124] Setting up conv2/3x3
I0322 17:25:27.406610 29807 net.cpp:131] Top shape: 128 96 56 56 (38535168)
I0322 17:25:27.406617 29807 net.cpp:139] Memory required for data: 847774208
I0322 17:25:27.406637 29807 layer_factory.hpp:77] Creating layer conv2/relu_3x3
I0322 17:25:27.406659 29807 net.cpp:86] Creating Layer conv2/relu_3x3
I0322 17:25:27.406671 29807 net.cpp:408] conv2/relu_3x3 <- conv2/3x3
I0322 17:25:27.406680 29807 net.cpp:369] conv2/relu_3x3 -> conv2/3x3 (in-place)
I0322 17:25:27.406692 29807 net.cpp:124] Setting up conv2/relu_3x3
I0322 17:25:27.406704 29807 net.cpp:131] Top shape: 128 96 56 56 (38535168)
I0322 17:25:27.406709 29807 net.cpp:139] Memory required for data: 1001914880
I0322 17:25:27.406715 29807 layer_factory.hpp:77] Creating layer conv2/norm2
I0322 17:25:27.406724 29807 net.cpp:86] Creating Layer conv2/norm2
I0322 17:25:27.406730 29807 net.cpp:408] conv2/norm2 <- conv2/3x3
I0322 17:25:27.406738 29807 net.cpp:382] conv2/norm2 -> conv2/norm2
I0322 17:25:27.406785 29807 net.cpp:124] Setting up conv2/norm2
I0322 17:25:27.406798 29807 net.cpp:131] Top shape: 128 96 56 56 (38535168)
I0322 17:25:27.406805 29807 net.cpp:139] Memory required for data: 1156055552
I0322 17:25:27.406811 29807 layer_factory.hpp:77] Creating layer pool2/3x3_s2
I0322 17:25:27.406822 29807 net.cpp:86] Creating Layer pool2/3x3_s2
I0322 17:25:27.406834 29807 net.cpp:408] pool2/3x3_s2 <- conv2/norm2
I0322 17:25:27.406843 29807 net.cpp:382] pool2/3x3_s2 -> pool2/3x3_s2
I0322 17:25:27.406885 29807 net.cpp:124] Setting up pool2/3x3_s2
I0322 17:25:27.406899 29807 net.cpp:131] Top shape: 128 96 28 28 (9633792)
I0322 17:25:27.406905 29807 net.cpp:139] Memory required for data: 1194590720
I0322 17:25:27.406911 29807 layer_factory.hpp:77] Creating layer pool2/3x3_s2_pool2/3x3_s2_0_split
I0322 17:25:27.406924 29807 net.cpp:86] Creating Layer pool2/3x3_s2_pool2/3x3_s2_0_split
I0322 17:25:27.406931 29807 net.cpp:408] pool2/3x3_s2_pool2/3x3_s2_0_split <- pool2/3x3_s2
I0322 17:25:27.406940 29807 net.cpp:382] pool2/3x3_s2_pool2/3x3_s2_0_split -> pool2/3x3_s2_pool2/3x3_s2_0_split_0
I0322 17:25:27.406950 29807 net.cpp:382] pool2/3x3_s2_pool2/3x3_s2_0_split -> pool2/3x3_s2_pool2/3x3_s2_0_split_1
I0322 17:25:27.406963 29807 net.cpp:382] pool2/3x3_s2_pool2/3x3_s2_0_split -> pool2/3x3_s2_pool2/3x3_s2_0_split_2
I0322 17:25:27.406994 29807 net.cpp:382] pool2/3x3_s2_pool2/3x3_s2_0_split -> pool2/3x3_s2_pool2/3x3_s2_0_split_3
I0322 17:25:27.407060 29807 net.cpp:124] Setting up pool2/3x3_s2_pool2/3x3_s2_0_split
I0322 17:25:27.407075 29807 net.cpp:131] Top shape: 128 96 28 28 (9633792)
I0322 17:25:27.407083 29807 net.cpp:131] Top shape: 128 96 28 28 (9633792)
I0322 17:25:27.407089 29807 net.cpp:131] Top shape: 128 96 28 28 (9633792)
I0322 17:25:27.407096 29807 net.cpp:131] Top shape: 128 96 28 28 (9633792)
I0322 17:25:27.407101 29807 net.cpp:139] Memory required for data: 1348731392
I0322 17:25:27.407107 29807 layer_factory.hpp:77] Creating layer inception_3a/1x1
I0322 17:25:27.407121 29807 net.cpp:86] Creating Layer inception_3a/1x1
I0322 17:25:27.407131 29807 net.cpp:408] inception_3a/1x1 <- pool2/3x3_s2_pool2/3x3_s2_0_split_0
I0322 17:25:27.407142 29807 net.cpp:382] inception_3a/1x1 -> inception_3a/1x1
I0322 17:25:27.407409 29807 net.cpp:124] Setting up inception_3a/1x1
I0322 17:25:27.407426 29807 net.cpp:131] Top shape: 128 32 28 28 (3211264)
I0322 17:25:27.407433 29807 net.cpp:139] Memory required for data: 1361576448
I0322 17:25:27.407443 29807 layer_factory.hpp:77] Creating layer inception_3a/relu_1x1
I0322 17:25:27.407456 29807 net.cpp:86] Creating Layer inception_3a/relu_1x1
I0322 17:25:27.407465 29807 net.cpp:408] inception_3a/relu_1x1 <- inception_3a/1x1
I0322 17:25:27.407474 29807 net.cpp:369] inception_3a/relu_1x1 -> inception_3a/1x1 (in-place)
I0322 17:25:27.407485 29807 net.cpp:124] Setting up inception_3a/relu_1x1
I0322 17:25:27.407495 29807 net.cpp:131] Top shape: 128 32 28 28 (3211264)
I0322 17:25:27.407500 29807 net.cpp:139] Memory required for data: 1374421504
I0322 17:25:27.407505 29807 layer_factory.hpp:77] Creating layer inception_3a/3x3_reduce
I0322 17:25:27.407517 29807 net.cpp:86] Creating Layer inception_3a/3x3_reduce
I0322 17:25:27.407524 29807 net.cpp:408] inception_3a/3x3_reduce <- pool2/3x3_s2_pool2/3x3_s2_0_split_1
I0322 17:25:27.407534 29807 net.cpp:382] inception_3a/3x3_reduce -> inception_3a/3x3_reduce
I0322 17:25:27.407829 29807 net.cpp:124] Setting up inception_3a/3x3_reduce
I0322 17:25:27.407845 29807 net.cpp:131] Top shape: 128 48 28 28 (4816896)
I0322 17:25:27.407851 29807 net.cpp:139] Memory required for data: 1393689088
I0322 17:25:27.407866 29807 layer_factory.hpp:77] Creating layer inception_3a/relu_3x3_reduce
I0322 17:25:27.407879 29807 net.cpp:86] Creating Layer inception_3a/relu_3x3_reduce
I0322 17:25:27.407888 29807 net.cpp:408] inception_3a/relu_3x3_reduce <- inception_3a/3x3_reduce
I0322 17:25:27.407898 29807 net.cpp:369] inception_3a/relu_3x3_reduce -> inception_3a/3x3_reduce (in-place)
I0322 17:25:27.407907 29807 net.cpp:124] Setting up inception_3a/relu_3x3_reduce
I0322 17:25:27.407917 29807 net.cpp:131] Top shape: 128 48 28 28 (4816896)
I0322 17:25:27.407923 29807 net.cpp:139] Memory required for data: 1412956672
I0322 17:25:27.407928 29807 layer_factory.hpp:77] Creating layer inception_3a/3x3
I0322 17:25:27.407943 29807 net.cpp:86] Creating Layer inception_3a/3x3
I0322 17:25:27.407950 29807 net.cpp:408] inception_3a/3x3 <- inception_3a/3x3_reduce
I0322 17:25:27.407961 29807 net.cpp:382] inception_3a/3x3 -> inception_3a/3x3
I0322 17:25:27.408432 29807 net.cpp:124] Setting up inception_3a/3x3
I0322 17:25:27.408449 29807 net.cpp:131] Top shape: 128 64 28 28 (6422528)
I0322 17:25:27.408455 29807 net.cpp:139] Memory required for data: 1438646784
I0322 17:25:27.408466 29807 layer_factory.hpp:77] Creating layer inception_3a/relu_3x3
I0322 17:25:27.408478 29807 net.cpp:86] Creating Layer inception_3a/relu_3x3
I0322 17:25:27.408486 29807 net.cpp:408] inception_3a/relu_3x3 <- inception_3a/3x3
I0322 17:25:27.408494 29807 net.cpp:369] inception_3a/relu_3x3 -> inception_3a/3x3 (in-place)
I0322 17:25:27.408504 29807 net.cpp:124] Setting up inception_3a/relu_3x3
I0322 17:25:27.408514 29807 net.cpp:131] Top shape: 128 64 28 28 (6422528)
I0322 17:25:27.408519 29807 net.cpp:139] Memory required for data: 1464336896
I0322 17:25:27.408524 29807 layer_factory.hpp:77] Creating layer inception_3a/5x5_reduce
I0322 17:25:27.408555 29807 net.cpp:86] Creating Layer inception_3a/5x5_reduce
I0322 17:25:27.408566 29807 net.cpp:408] inception_3a/5x5_reduce <- pool2/3x3_s2_pool2/3x3_s2_0_split_2
I0322 17:25:27.408577 29807 net.cpp:382] inception_3a/5x5_reduce -> inception_3a/5x5_reduce
I0322 17:25:27.408830 29807 net.cpp:124] Setting up inception_3a/5x5_reduce
I0322 17:25:27.408849 29807 net.cpp:131] Top shape: 128 8 28 28 (802816)
I0322 17:25:27.408856 29807 net.cpp:139] Memory required for data: 1467548160
I0322 17:25:27.408866 29807 layer_factory.hpp:77] Creating layer inception_3a/relu_5x5_reduce
I0322 17:25:27.408875 29807 net.cpp:86] Creating Layer inception_3a/relu_5x5_reduce
I0322 17:25:27.408885 29807 net.cpp:408] inception_3a/relu_5x5_reduce <- inception_3a/5x5_reduce
I0322 17:25:27.408892 29807 net.cpp:369] inception_3a/relu_5x5_reduce -> inception_3a/5x5_reduce (in-place)
I0322 17:25:27.408902 29807 net.cpp:124] Setting up inception_3a/relu_5x5_reduce
I0322 17:25:27.408912 29807 net.cpp:131] Top shape: 128 8 28 28 (802816)
I0322 17:25:27.408917 29807 net.cpp:139] Memory required for data: 1470759424
I0322 17:25:27.408923 29807 layer_factory.hpp:77] Creating layer inception_3a/5x5
I0322 17:25:27.408936 29807 net.cpp:86] Creating Layer inception_3a/5x5
I0322 17:25:27.408941 29807 net.cpp:408] inception_3a/5x5 <- inception_3a/5x5_reduce
I0322 17:25:27.408951 29807 net.cpp:382] inception_3a/5x5 -> inception_3a/5x5
I0322 17:25:27.409222 29807 net.cpp:124] Setting up inception_3a/5x5
I0322 17:25:27.409240 29807 net.cpp:131] Top shape: 128 16 28 28 (1605632)
I0322 17:25:27.409245 29807 net.cpp:139] Memory required for data: 1477181952
I0322 17:25:27.409255 29807 layer_factory.hpp:77] Creating layer inception_3a/relu_5x5
I0322 17:25:27.409268 29807 net.cpp:86] Creating Layer inception_3a/relu_5x5
I0322 17:25:27.409276 29807 net.cpp:408] inception_3a/relu_5x5 <- inception_3a/5x5
I0322 17:25:27.409283 29807 net.cpp:369] inception_3a/relu_5x5 -> inception_3a/5x5 (in-place)
I0322 17:25:27.409296 29807 net.cpp:124] Setting up inception_3a/relu_5x5
I0322 17:25:27.409303 29807 net.cpp:131] Top shape: 128 16 28 28 (1605632)
I0322 17:25:27.409308 29807 net.cpp:139] Memory required for data: 1483604480
I0322 17:25:27.409314 29807 layer_factory.hpp:77] Creating layer inception_3a/pool
I0322 17:25:27.409322 29807 net.cpp:86] Creating Layer inception_3a/pool
I0322 17:25:27.409328 29807 net.cpp:408] inception_3a/pool <- pool2/3x3_s2_pool2/3x3_s2_0_split_3
I0322 17:25:27.409338 29807 net.cpp:382] inception_3a/pool -> inception_3a/pool
I0322 17:25:27.409387 29807 net.cpp:124] Setting up inception_3a/pool
I0322 17:25:27.409402 29807 net.cpp:131] Top shape: 128 96 28 28 (9633792)
I0322 17:25:27.409409 29807 net.cpp:139] Memory required for data: 1522139648
I0322 17:25:27.409415 29807 layer_factory.hpp:77] Creating layer inception_3a/pool_proj
I0322 17:25:27.409428 29807 net.cpp:86] Creating Layer inception_3a/pool_proj
I0322 17:25:27.409437 29807 net.cpp:408] inception_3a/pool_proj <- inception_3a/pool
I0322 17:25:27.409447 29807 net.cpp:382] inception_3a/pool_proj -> inception_3a/pool_proj
I0322 17:25:27.409693 29807 net.cpp:124] Setting up inception_3a/pool_proj
I0322 17:25:27.409725 29807 net.cpp:131] Top shape: 128 16 28 28 (1605632)
I0322 17:25:27.409739 29807 net.cpp:139] Memory required for data: 1528562176
I0322 17:25:27.409761 29807 layer_factory.hpp:77] Creating layer inception_3a/relu_pool_proj
I0322 17:25:27.409776 29807 net.cpp:86] Creating Layer inception_3a/relu_pool_proj
I0322 17:25:27.409786 29807 net.cpp:408] inception_3a/relu_pool_proj <- inception_3a/pool_proj
I0322 17:25:27.409795 29807 net.cpp:369] inception_3a/relu_pool_proj -> inception_3a/pool_proj (in-place)
I0322 17:25:27.409804 29807 net.cpp:124] Setting up inception_3a/relu_pool_proj
I0322 17:25:27.409814 29807 net.cpp:131] Top shape: 128 16 28 28 (1605632)
I0322 17:25:27.409821 29807 net.cpp:139] Memory required for data: 1534984704
I0322 17:25:27.409826 29807 layer_factory.hpp:77] Creating layer inception_3a/output
I0322 17:25:27.409834 29807 net.cpp:86] Creating Layer inception_3a/output
I0322 17:25:27.409860 29807 net.cpp:408] inception_3a/output <- inception_3a/1x1
I0322 17:25:27.409869 29807 net.cpp:408] inception_3a/output <- inception_3a/3x3
I0322 17:25:27.409878 29807 net.cpp:408] inception_3a/output <- inception_3a/5x5
I0322 17:25:27.409884 29807 net.cpp:408] inception_3a/output <- inception_3a/pool_proj
I0322 17:25:27.409893 29807 net.cpp:382] inception_3a/output -> inception_3a/output
I0322 17:25:27.409927 29807 net.cpp:124] Setting up inception_3a/output
I0322 17:25:27.409941 29807 net.cpp:131] Top shape: 128 128 28 28 (12845056)
I0322 17:25:27.409947 29807 net.cpp:139] Memory required for data: 1586364928
I0322 17:25:27.409953 29807 layer_factory.hpp:77] Creating layer inception_3a/output_inception_3a/output_0_split
I0322 17:25:27.409963 29807 net.cpp:86] Creating Layer inception_3a/output_inception_3a/output_0_split
I0322 17:25:27.409970 29807 net.cpp:408] inception_3a/output_inception_3a/output_0_split <- inception_3a/output
I0322 17:25:27.409978 29807 net.cpp:382] inception_3a/output_inception_3a/output_0_split -> inception_3a/output_inception_3a/output_0_split_0
I0322 17:25:27.409989 29807 net.cpp:382] inception_3a/output_inception_3a/output_0_split -> inception_3a/output_inception_3a/output_0_split_1
I0322 17:25:27.410002 29807 net.cpp:382] inception_3a/output_inception_3a/output_0_split -> inception_3a/output_inception_3a/output_0_split_2
I0322 17:25:27.410015 29807 net.cpp:382] inception_3a/output_inception_3a/output_0_split -> inception_3a/output_inception_3a/output_0_split_3
I0322 17:25:27.410079 29807 net.cpp:124] Setting up inception_3a/output_inception_3a/output_0_split
I0322 17:25:27.410092 29807 net.cpp:131] Top shape: 128 128 28 28 (12845056)
I0322 17:25:27.410099 29807 net.cpp:131] Top shape: 128 128 28 28 (12845056)
I0322 17:25:27.410106 29807 net.cpp:131] Top shape: 128 128 28 28 (12845056)
I0322 17:25:27.410112 29807 net.cpp:131] Top shape: 128 128 28 28 (12845056)
I0322 17:25:27.410118 29807 net.cpp:139] Memory required for data: 1791885824
I0322 17:25:27.410123 29807 layer_factory.hpp:77] Creating layer inception_3b/1x1
I0322 17:25:27.410136 29807 net.cpp:86] Creating Layer inception_3b/1x1
I0322 17:25:27.410146 29807 net.cpp:408] inception_3b/1x1 <- inception_3a/output_inception_3a/output_0_split_0
I0322 17:25:27.410157 29807 net.cpp:382] inception_3b/1x1 -> inception_3b/1x1
I0322 17:25:27.410467 29807 net.cpp:124] Setting up inception_3b/1x1
I0322 17:25:27.410485 29807 net.cpp:131] Top shape: 128 64 28 28 (6422528)
I0322 17:25:27.410490 29807 net.cpp:139] Memory required for data: 1817575936
I0322 17:25:27.410500 29807 layer_factory.hpp:77] Creating layer inception_3b/relu_1x1
I0322 17:25:27.410512 29807 net.cpp:86] Creating Layer inception_3b/relu_1x1
I0322 17:25:27.410522 29807 net.cpp:408] inception_3b/relu_1x1 <- inception_3b/1x1
I0322 17:25:27.410531 29807 net.cpp:369] inception_3b/relu_1x1 -> inception_3b/1x1 (in-place)
I0322 17:25:27.410542 29807 net.cpp:124] Setting up inception_3b/relu_1x1
I0322 17:25:27.410550 29807 net.cpp:131] Top shape: 128 64 28 28 (6422528)
I0322 17:25:27.410557 29807 net.cpp:139] Memory required for data: 1843266048
I0322 17:25:27.410562 29807 layer_factory.hpp:77] Creating layer inception_3b/3x3_reduce
I0322 17:25:27.410573 29807 net.cpp:86] Creating Layer inception_3b/3x3_reduce
I0322 17:25:27.410579 29807 net.cpp:408] inception_3b/3x3_reduce <- inception_3a/output_inception_3a/output_0_split_1
I0322 17:25:27.410589 29807 net.cpp:382] inception_3b/3x3_reduce -> inception_3b/3x3_reduce
I0322 17:25:27.410897 29807 net.cpp:124] Setting up inception_3b/3x3_reduce
I0322 17:25:27.410912 29807 net.cpp:131] Top shape: 128 64 28 28 (6422528)
I0322 17:25:27.410918 29807 net.cpp:139] Memory required for data: 1868956160
I0322 17:25:27.410929 29807 layer_factory.hpp:77] Creating layer inception_3b/relu_3x3_reduce
I0322 17:25:27.410941 29807 net.cpp:86] Creating Layer inception_3b/relu_3x3_reduce
I0322 17:25:27.410948 29807 net.cpp:408] inception_3b/relu_3x3_reduce <- inception_3b/3x3_reduce
I0322 17:25:27.410956 29807 net.cpp:369] inception_3b/relu_3x3_reduce -> inception_3b/3x3_reduce (in-place)
I0322 17:25:27.410982 29807 net.cpp:124] Setting up inception_3b/relu_3x3_reduce
I0322 17:25:27.410995 29807 net.cpp:131] Top shape: 128 64 28 28 (6422528)
I0322 17:25:27.411000 29807 net.cpp:139] Memory required for data: 1894646272
I0322 17:25:27.411005 29807 layer_factory.hpp:77] Creating layer inception_3b/3x3
I0322 17:25:27.411020 29807 net.cpp:86] Creating Layer inception_3b/3x3
I0322 17:25:27.411028 29807 net.cpp:408] inception_3b/3x3 <- inception_3b/3x3_reduce
I0322 17:25:27.411038 29807 net.cpp:382] inception_3b/3x3 -> inception_3b/3x3
I0322 17:25:27.411741 29807 net.cpp:124] Setting up inception_3b/3x3
I0322 17:25:27.411758 29807 net.cpp:131] Top shape: 128 96 28 28 (9633792)
I0322 17:25:27.411764 29807 net.cpp:139] Memory required for data: 1933181440
I0322 17:25:27.411773 29807 layer_factory.hpp:77] Creating layer inception_3b/relu_3x3
I0322 17:25:27.411785 29807 net.cpp:86] Creating Layer inception_3b/relu_3x3
I0322 17:25:27.411794 29807 net.cpp:408] inception_3b/relu_3x3 <- inception_3b/3x3
I0322 17:25:27.411803 29807 net.cpp:369] inception_3b/relu_3x3 -> inception_3b/3x3 (in-place)
I0322 17:25:27.411813 29807 net.cpp:124] Setting up inception_3b/relu_3x3
I0322 17:25:27.411823 29807 net.cpp:131] Top shape: 128 96 28 28 (9633792)
I0322 17:25:27.411828 29807 net.cpp:139] Memory required for data: 1971716608
I0322 17:25:27.411834 29807 layer_factory.hpp:77] Creating layer inception_3b/5x5_reduce
I0322 17:25:27.411845 29807 net.cpp:86] Creating Layer inception_3b/5x5_reduce
I0322 17:25:27.411852 29807 net.cpp:408] inception_3b/5x5_reduce <- inception_3a/output_inception_3a/output_0_split_2
I0322 17:25:27.411862 29807 net.cpp:382] inception_3b/5x5_reduce -> inception_3b/5x5_reduce
I0322 17:25:27.412117 29807 net.cpp:124] Setting up inception_3b/5x5_reduce
I0322 17:25:27.412132 29807 net.cpp:131] Top shape: 128 16 28 28 (1605632)
I0322 17:25:27.412138 29807 net.cpp:139] Memory required for data: 1978139136
I0322 17:25:27.412147 29807 layer_factory.hpp:77] Creating layer inception_3b/relu_5x5_reduce
I0322 17:25:27.412161 29807 net.cpp:86] Creating Layer inception_3b/relu_5x5_reduce
I0322 17:25:27.412171 29807 net.cpp:408] inception_3b/relu_5x5_reduce <- inception_3b/5x5_reduce
I0322 17:25:27.412180 29807 net.cpp:369] inception_3b/relu_5x5_reduce -> inception_3b/5x5_reduce (in-place)
I0322 17:25:27.412189 29807 net.cpp:124] Setting up inception_3b/relu_5x5_reduce
I0322 17:25:27.412199 29807 net.cpp:131] Top shape: 128 16 28 28 (1605632)
I0322 17:25:27.412204 29807 net.cpp:139] Memory required for data: 1984561664
I0322 17:25:27.412210 29807 layer_factory.hpp:77] Creating layer inception_3b/5x5
I0322 17:25:27.412221 29807 net.cpp:86] Creating Layer inception_3b/5x5
I0322 17:25:27.412227 29807 net.cpp:408] inception_3b/5x5 <- inception_3b/5x5_reduce
I0322 17:25:27.412237 29807 net.cpp:382] inception_3b/5x5 -> inception_3b/5x5
I0322 17:25:27.412632 29807 net.cpp:124] Setting up inception_3b/5x5
I0322 17:25:27.412649 29807 net.cpp:131] Top shape: 128 48 28 28 (4816896)
I0322 17:25:27.412655 29807 net.cpp:139] Memory required for data: 2003829248
I0322 17:25:27.412664 29807 layer_factory.hpp:77] Creating layer inception_3b/relu_5x5
I0322 17:25:27.412673 29807 net.cpp:86] Creating Layer inception_3b/relu_5x5
I0322 17:25:27.412683 29807 net.cpp:408] inception_3b/relu_5x5 <- inception_3b/5x5
I0322 17:25:27.412693 29807 net.cpp:369] inception_3b/relu_5x5 -> inception_3b/5x5 (in-place)
I0322 17:25:27.412705 29807 net.cpp:124] Setting up inception_3b/relu_5x5
I0322 17:25:27.412716 29807 net.cpp:131] Top shape: 128 48 28 28 (4816896)
I0322 17:25:27.412721 29807 net.cpp:139] Memory required for data: 2023096832
I0322 17:25:27.412729 29807 layer_factory.hpp:77] Creating layer inception_3b/pool
I0322 17:25:27.412737 29807 net.cpp:86] Creating Layer inception_3b/pool
I0322 17:25:27.412744 29807 net.cpp:408] inception_3b/pool <- inception_3a/output_inception_3a/output_0_split_3
I0322 17:25:27.412753 29807 net.cpp:382] inception_3b/pool -> inception_3b/pool
I0322 17:25:27.412816 29807 net.cpp:124] Setting up inception_3b/pool
I0322 17:25:27.412830 29807 net.cpp:131] Top shape: 128 128 28 28 (12845056)
I0322 17:25:27.412837 29807 net.cpp:139] Memory required for data: 2074477056
I0322 17:25:27.412843 29807 layer_factory.hpp:77] Creating layer inception_3b/pool_proj
I0322 17:25:27.412856 29807 net.cpp:86] Creating Layer inception_3b/pool_proj
I0322 17:25:27.412865 29807 net.cpp:408] inception_3b/pool_proj <- inception_3b/pool
I0322 17:25:27.412875 29807 net.cpp:382] inception_3b/pool_proj -> inception_3b/pool_proj
I0322 17:25:27.413147 29807 net.cpp:124] Setting up inception_3b/pool_proj
I0322 17:25:27.413163 29807 net.cpp:131] Top shape: 128 32 28 28 (3211264)
I0322 17:25:27.413169 29807 net.cpp:139] Memory required for data: 2087322112
I0322 17:25:27.413178 29807 layer_factory.hpp:77] Creating layer inception_3b/relu_pool_proj
I0322 17:25:27.413187 29807 net.cpp:86] Creating Layer inception_3b/relu_pool_proj
I0322 17:25:27.413197 29807 net.cpp:408] inception_3b/relu_pool_proj <- inception_3b/pool_proj
I0322 17:25:27.413204 29807 net.cpp:369] inception_3b/relu_pool_proj -> inception_3b/pool_proj (in-place)
I0322 17:25:27.413214 29807 net.cpp:124] Setting up inception_3b/relu_pool_proj
I0322 17:25:27.413224 29807 net.cpp:131] Top shape: 128 32 28 28 (3211264)
I0322 17:25:27.413229 29807 net.cpp:139] Memory required for data: 2100167168
I0322 17:25:27.413235 29807 layer_factory.hpp:77] Creating layer inception_3b/output
I0322 17:25:27.413245 29807 net.cpp:86] Creating Layer inception_3b/output
I0322 17:25:27.413252 29807 net.cpp:408] inception_3b/output <- inception_3b/1x1
I0322 17:25:27.413259 29807 net.cpp:408] inception_3b/output <- inception_3b/3x3
I0322 17:25:27.413266 29807 net.cpp:408] inception_3b/output <- inception_3b/5x5
I0322 17:25:27.413274 29807 net.cpp:408] inception_3b/output <- inception_3b/pool_proj
I0322 17:25:27.413281 29807 net.cpp:382] inception_3b/output -> inception_3b/output
I0322 17:25:27.413316 29807 net.cpp:124] Setting up inception_3b/output
I0322 17:25:27.413331 29807 net.cpp:131] Top shape: 128 240 28 28 (24084480)
I0322 17:25:27.413336 29807 net.cpp:139] Memory required for data: 2196505088
I0322 17:25:27.413343 29807 layer_factory.hpp:77] Creating layer pool3/3x3_s2
I0322 17:25:27.413353 29807 net.cpp:86] Creating Layer pool3/3x3_s2
I0322 17:25:27.413362 29807 net.cpp:408] pool3/3x3_s2 <- inception_3b/output
I0322 17:25:27.413372 29807 net.cpp:382] pool3/3x3_s2 -> pool3/3x3_s2
I0322 17:25:27.413415 29807 net.cpp:124] Setting up pool3/3x3_s2
I0322 17:25:27.413429 29807 net.cpp:131] Top shape: 128 240 14 14 (6021120)
I0322 17:25:27.413434 29807 net.cpp:139] Memory required for data: 2220589568
I0322 17:25:27.413440 29807 layer_factory.hpp:77] Creating layer pool3/3x3_s2_pool3/3x3_s2_0_split
I0322 17:25:27.413450 29807 net.cpp:86] Creating Layer pool3/3x3_s2_pool3/3x3_s2_0_split
I0322 17:25:27.413455 29807 net.cpp:408] pool3/3x3_s2_pool3/3x3_s2_0_split <- pool3/3x3_s2
I0322 17:25:27.413465 29807 net.cpp:382] pool3/3x3_s2_pool3/3x3_s2_0_split -> pool3/3x3_s2_pool3/3x3_s2_0_split_0
I0322 17:25:27.413475 29807 net.cpp:382] pool3/3x3_s2_pool3/3x3_s2_0_split -> pool3/3x3_s2_pool3/3x3_s2_0_split_1
I0322 17:25:27.413487 29807 net.cpp:382] pool3/3x3_s2_pool3/3x3_s2_0_split -> pool3/3x3_s2_pool3/3x3_s2_0_split_2
I0322 17:25:27.413501 29807 net.cpp:382] pool3/3x3_s2_pool3/3x3_s2_0_split -> pool3/3x3_s2_pool3/3x3_s2_0_split_3
I0322 17:25:27.413563 29807 net.cpp:124] Setting up pool3/3x3_s2_pool3/3x3_s2_0_split
I0322 17:25:27.413574 29807 net.cpp:131] Top shape: 128 240 14 14 (6021120)
I0322 17:25:27.413583 29807 net.cpp:131] Top shape: 128 240 14 14 (6021120)
I0322 17:25:27.413589 29807 net.cpp:131] Top shape: 128 240 14 14 (6021120)
I0322 17:25:27.413595 29807 net.cpp:131] Top shape: 128 240 14 14 (6021120)
I0322 17:25:27.413601 29807 net.cpp:139] Memory required for data: 2316927488
I0322 17:25:27.413606 29807 layer_factory.hpp:77] Creating layer inception_4a/1x1
I0322 17:25:27.413619 29807 net.cpp:86] Creating Layer inception_4a/1x1
I0322 17:25:27.413625 29807 net.cpp:408] inception_4a/1x1 <- pool3/3x3_s2_pool3/3x3_s2_0_split_0
I0322 17:25:27.413653 29807 net.cpp:382] inception_4a/1x1 -> inception_4a/1x1
I0322 17:25:27.414116 29807 net.cpp:124] Setting up inception_4a/1x1
I0322 17:25:27.414135 29807 net.cpp:131] Top shape: 128 96 14 14 (2408448)
I0322 17:25:27.414142 29807 net.cpp:139] Memory required for data: 2326561280
I0322 17:25:27.414151 29807 layer_factory.hpp:77] Creating layer inception_4a/relu_1x1
I0322 17:25:27.414165 29807 net.cpp:86] Creating Layer inception_4a/relu_1x1
I0322 17:25:27.414175 29807 net.cpp:408] inception_4a/relu_1x1 <- inception_4a/1x1
I0322 17:25:27.414185 29807 net.cpp:369] inception_4a/relu_1x1 -> inception_4a/1x1 (in-place)
I0322 17:25:27.414194 29807 net.cpp:124] Setting up inception_4a/relu_1x1
I0322 17:25:27.414204 29807 net.cpp:131] Top shape: 128 96 14 14 (2408448)
I0322 17:25:27.414211 29807 net.cpp:139] Memory required for data: 2336195072
I0322 17:25:27.414216 29807 layer_factory.hpp:77] Creating layer inception_4a/3x3_reduce
I0322 17:25:27.414229 29807 net.cpp:86] Creating Layer inception_4a/3x3_reduce
I0322 17:25:27.414238 29807 net.cpp:408] inception_4a/3x3_reduce <- pool3/3x3_s2_pool3/3x3_s2_0_split_1
I0322 17:25:27.414248 29807 net.cpp:382] inception_4a/3x3_reduce -> inception_4a/3x3_reduce
I0322 17:25:27.414620 29807 net.cpp:124] Setting up inception_4a/3x3_reduce
I0322 17:25:27.414638 29807 net.cpp:131] Top shape: 128 48 14 14 (1204224)
I0322 17:25:27.414644 29807 net.cpp:139] Memory required for data: 2341011968
I0322 17:25:27.414659 29807 layer_factory.hpp:77] Creating layer inception_4a/relu_3x3_reduce
I0322 17:25:27.414670 29807 net.cpp:86] Creating Layer inception_4a/relu_3x3_reduce
I0322 17:25:27.414677 29807 net.cpp:408] inception_4a/relu_3x3_reduce <- inception_4a/3x3_reduce
I0322 17:25:27.414686 29807 net.cpp:369] inception_4a/relu_3x3_reduce -> inception_4a/3x3_reduce (in-place)
I0322 17:25:27.414696 29807 net.cpp:124] Setting up inception_4a/relu_3x3_reduce
I0322 17:25:27.414706 29807 net.cpp:131] Top shape: 128 48 14 14 (1204224)
I0322 17:25:27.414712 29807 net.cpp:139] Memory required for data: 2345828864
I0322 17:25:27.414717 29807 layer_factory.hpp:77] Creating layer inception_4a/3x3
I0322 17:25:27.414731 29807 net.cpp:86] Creating Layer inception_4a/3x3
I0322 17:25:27.414741 29807 net.cpp:408] inception_4a/3x3 <- inception_4a/3x3_reduce
I0322 17:25:27.414750 29807 net.cpp:382] inception_4a/3x3 -> inception_4a/3x3
I0322 17:25:27.415365 29807 net.cpp:124] Setting up inception_4a/3x3
I0322 17:25:27.415382 29807 net.cpp:131] Top shape: 128 104 14 14 (2609152)
I0322 17:25:27.415388 29807 net.cpp:139] Memory required for data: 2356265472
I0322 17:25:27.415397 29807 layer_factory.hpp:77] Creating layer inception_4a/relu_3x3
I0322 17:25:27.415410 29807 net.cpp:86] Creating Layer inception_4a/relu_3x3
I0322 17:25:27.415417 29807 net.cpp:408] inception_4a/relu_3x3 <- inception_4a/3x3
I0322 17:25:27.415426 29807 net.cpp:369] inception_4a/relu_3x3 -> inception_4a/3x3 (in-place)
I0322 17:25:27.415437 29807 net.cpp:124] Setting up inception_4a/relu_3x3
I0322 17:25:27.415444 29807 net.cpp:131] Top shape: 128 104 14 14 (2609152)
I0322 17:25:27.415451 29807 net.cpp:139] Memory required for data: 2366702080
I0322 17:25:27.415457 29807 layer_factory.hpp:77] Creating layer inception_4a/5x5_reduce
I0322 17:25:27.415469 29807 net.cpp:86] Creating Layer inception_4a/5x5_reduce
I0322 17:25:27.415478 29807 net.cpp:408] inception_4a/5x5_reduce <- pool3/3x3_s2_pool3/3x3_s2_0_split_2
I0322 17:25:27.415489 29807 net.cpp:382] inception_4a/5x5_reduce -> inception_4a/5x5_reduce
I0322 17:25:27.415741 29807 net.cpp:124] Setting up inception_4a/5x5_reduce
I0322 17:25:27.415758 29807 net.cpp:131] Top shape: 128 8 14 14 (200704)
I0322 17:25:27.415765 29807 net.cpp:139] Memory required for data: 2367504896
I0322 17:25:27.415773 29807 layer_factory.hpp:77] Creating layer inception_4a/relu_5x5_reduce
I0322 17:25:27.415786 29807 net.cpp:86] Creating Layer inception_4a/relu_5x5_reduce
I0322 17:25:27.415793 29807 net.cpp:408] inception_4a/relu_5x5_reduce <- inception_4a/5x5_reduce
I0322 17:25:27.415819 29807 net.cpp:369] inception_4a/relu_5x5_reduce -> inception_4a/5x5_reduce (in-place)
I0322 17:25:27.415830 29807 net.cpp:124] Setting up inception_4a/relu_5x5_reduce
I0322 17:25:27.415838 29807 net.cpp:131] Top shape: 128 8 14 14 (200704)
I0322 17:25:27.415844 29807 net.cpp:139] Memory required for data: 2368307712
I0322 17:25:27.415849 29807 layer_factory.hpp:77] Creating layer inception_4a/5x5
I0322 17:25:27.415861 29807 net.cpp:86] Creating Layer inception_4a/5x5
I0322 17:25:27.415870 29807 net.cpp:408] inception_4a/5x5 <- inception_4a/5x5_reduce
I0322 17:25:27.415880 29807 net.cpp:382] inception_4a/5x5 -> inception_4a/5x5
I0322 17:25:27.416163 29807 net.cpp:124] Setting up inception_4a/5x5
I0322 17:25:27.416179 29807 net.cpp:131] Top shape: 128 24 14 14 (602112)
I0322 17:25:27.416187 29807 net.cpp:139] Memory required for data: 2370716160
I0322 17:25:27.416198 29807 layer_factory.hpp:77] Creating layer inception_4a/relu_5x5
I0322 17:25:27.416209 29807 net.cpp:86] Creating Layer inception_4a/relu_5x5
I0322 17:25:27.416219 29807 net.cpp:408] inception_4a/relu_5x5 <- inception_4a/5x5
I0322 17:25:27.416229 29807 net.cpp:369] inception_4a/relu_5x5 -> inception_4a/5x5 (in-place)
I0322 17:25:27.416237 29807 net.cpp:124] Setting up inception_4a/relu_5x5
I0322 17:25:27.416247 29807 net.cpp:131] Top shape: 128 24 14 14 (602112)
I0322 17:25:27.416254 29807 net.cpp:139] Memory required for data: 2373124608
I0322 17:25:27.416259 29807 layer_factory.hpp:77] Creating layer inception_4a/pool
I0322 17:25:27.416266 29807 net.cpp:86] Creating Layer inception_4a/pool
I0322 17:25:27.416273 29807 net.cpp:408] inception_4a/pool <- pool3/3x3_s2_pool3/3x3_s2_0_split_3
I0322 17:25:27.416282 29807 net.cpp:382] inception_4a/pool -> inception_4a/pool
I0322 17:25:27.416327 29807 net.cpp:124] Setting up inception_4a/pool
I0322 17:25:27.416342 29807 net.cpp:131] Top shape: 128 240 14 14 (6021120)
I0322 17:25:27.416347 29807 net.cpp:139] Memory required for data: 2397209088
I0322 17:25:27.416353 29807 layer_factory.hpp:77] Creating layer inception_4a/pool_proj
I0322 17:25:27.416368 29807 net.cpp:86] Creating Layer inception_4a/pool_proj
I0322 17:25:27.416383 29807 net.cpp:408] inception_4a/pool_proj <- inception_4a/pool
I0322 17:25:27.416399 29807 net.cpp:382] inception_4a/pool_proj -> inception_4a/pool_proj
I0322 17:25:27.416864 29807 net.cpp:124] Setting up inception_4a/pool_proj
I0322 17:25:27.416889 29807 net.cpp:131] Top shape: 128 32 14 14 (802816)
I0322 17:25:27.416903 29807 net.cpp:139] Memory required for data: 2400420352
I0322 17:25:27.416923 29807 layer_factory.hpp:77] Creating layer inception_4a/relu_pool_proj
I0322 17:25:27.416944 29807 net.cpp:86] Creating Layer inception_4a/relu_pool_proj
I0322 17:25:27.416959 29807 net.cpp:408] inception_4a/relu_pool_proj <- inception_4a/pool_proj
I0322 17:25:27.416976 29807 net.cpp:369] inception_4a/relu_pool_proj -> inception_4a/pool_proj (in-place)
I0322 17:25:27.416996 29807 net.cpp:124] Setting up inception_4a/relu_pool_proj
I0322 17:25:27.417012 29807 net.cpp:131] Top shape: 128 32 14 14 (802816)
I0322 17:25:27.417024 29807 net.cpp:139] Memory required for data: 2403631616
I0322 17:25:27.417039 29807 layer_factory.hpp:77] Creating layer inception_4a/output
I0322 17:25:27.417057 29807 net.cpp:86] Creating Layer inception_4a/output
I0322 17:25:27.417071 29807 net.cpp:408] inception_4a/output <- inception_4a/1x1
I0322 17:25:27.417086 29807 net.cpp:408] inception_4a/output <- inception_4a/3x3
I0322 17:25:27.417101 29807 net.cpp:408] inception_4a/output <- inception_4a/5x5
I0322 17:25:27.417116 29807 net.cpp:408] inception_4a/output <- inception_4a/pool_proj
I0322 17:25:27.417134 29807 net.cpp:382] inception_4a/output -> inception_4a/output
I0322 17:25:27.417184 29807 net.cpp:124] Setting up inception_4a/output
I0322 17:25:27.417206 29807 net.cpp:131] Top shape: 128 256 14 14 (6422528)
I0322 17:25:27.417218 29807 net.cpp:139] Memory required for data: 2429321728
I0322 17:25:27.417232 29807 layer_factory.hpp:77] Creating layer inception_4a/output_inception_4a/output_0_split
I0322 17:25:27.417287 29807 net.cpp:86] Creating Layer inception_4a/output_inception_4a/output_0_split
I0322 17:25:27.417304 29807 net.cpp:408] inception_4a/output_inception_4a/output_0_split <- inception_4a/output
I0322 17:25:27.417321 29807 net.cpp:382] inception_4a/output_inception_4a/output_0_split -> inception_4a/output_inception_4a/output_0_split_0
I0322 17:25:27.417343 29807 net.cpp:382] inception_4a/output_inception_4a/output_0_split -> inception_4a/output_inception_4a/output_0_split_1
I0322 17:25:27.417363 29807 net.cpp:382] inception_4a/output_inception_4a/output_0_split -> inception_4a/output_inception_4a/output_0_split_2
I0322 17:25:27.417383 29807 net.cpp:382] inception_4a/output_inception_4a/output_0_split -> inception_4a/output_inception_4a/output_0_split_3
I0322 17:25:27.417482 29807 net.cpp:124] Setting up inception_4a/output_inception_4a/output_0_split
I0322 17:25:27.417502 29807 net.cpp:131] Top shape: 128 256 14 14 (6422528)
I0322 17:25:27.417518 29807 net.cpp:131] Top shape: 128 256 14 14 (6422528)
I0322 17:25:27.417533 29807 net.cpp:131] Top shape: 128 256 14 14 (6422528)
I0322 17:25:27.417547 29807 net.cpp:131] Top shape: 128 256 14 14 (6422528)
I0322 17:25:27.417560 29807 net.cpp:139] Memory required for data: 2532082176
I0322 17:25:27.417573 29807 layer_factory.hpp:77] Creating layer inception_4b/1x1
I0322 17:25:27.417593 29807 net.cpp:86] Creating Layer inception_4b/1x1
I0322 17:25:27.417608 29807 net.cpp:408] inception_4b/1x1 <- inception_4a/output_inception_4a/output_0_split_0
I0322 17:25:27.417629 29807 net.cpp:382] inception_4b/1x1 -> inception_4b/1x1
I0322 17:25:27.418177 29807 net.cpp:124] Setting up inception_4b/1x1
I0322 17:25:27.418197 29807 net.cpp:131] Top shape: 128 80 14 14 (2007040)
I0322 17:25:27.418203 29807 net.cpp:139] Memory required for data: 2540110336
I0322 17:25:27.418213 29807 layer_factory.hpp:77] Creating layer inception_4b/relu_1x1
I0322 17:25:27.418225 29807 net.cpp:86] Creating Layer inception_4b/relu_1x1
I0322 17:25:27.418234 29807 net.cpp:408] inception_4b/relu_1x1 <- inception_4b/1x1
I0322 17:25:27.418243 29807 net.cpp:369] inception_4b/relu_1x1 -> inception_4b/1x1 (in-place)
I0322 17:25:27.418253 29807 net.cpp:124] Setting up inception_4b/relu_1x1
I0322 17:25:27.418263 29807 net.cpp:131] Top shape: 128 80 14 14 (2007040)
I0322 17:25:27.418269 29807 net.cpp:139] Memory required for data: 2548138496
I0322 17:25:27.418277 29807 layer_factory.hpp:77] Creating layer inception_4b/3x3_reduce
I0322 17:25:27.418289 29807 net.cpp:86] Creating Layer inception_4b/3x3_reduce
I0322 17:25:27.418298 29807 net.cpp:408] inception_4b/3x3_reduce <- inception_4a/output_inception_4a/output_0_split_1
I0322 17:25:27.418308 29807 net.cpp:382] inception_4b/3x3_reduce -> inception_4b/3x3_reduce
I0322 17:25:27.418699 29807 net.cpp:124] Setting up inception_4b/3x3_reduce
I0322 17:25:27.418716 29807 net.cpp:131] Top shape: 128 56 14 14 (1404928)
I0322 17:25:27.418722 29807 net.cpp:139] Memory required for data: 2553758208
I0322 17:25:27.418731 29807 layer_factory.hpp:77] Creating layer inception_4b/relu_3x3_reduce
I0322 17:25:27.418743 29807 net.cpp:86] Creating Layer inception_4b/relu_3x3_reduce
I0322 17:25:27.418751 29807 net.cpp:408] inception_4b/relu_3x3_reduce <- inception_4b/3x3_reduce
I0322 17:25:27.418758 29807 net.cpp:369] inception_4b/relu_3x3_reduce -> inception_4b/3x3_reduce (in-place)
I0322 17:25:27.418771 29807 net.cpp:124] Setting up inception_4b/relu_3x3_reduce
I0322 17:25:27.418778 29807 net.cpp:131] Top shape: 128 56 14 14 (1404928)
I0322 17:25:27.418783 29807 net.cpp:139] Memory required for data: 2559377920
I0322 17:25:27.418788 29807 layer_factory.hpp:77] Creating layer inception_4b/3x3
I0322 17:25:27.418803 29807 net.cpp:86] Creating Layer inception_4b/3x3
I0322 17:25:27.418812 29807 net.cpp:408] inception_4b/3x3 <- inception_4b/3x3_reduce
I0322 17:25:27.418823 29807 net.cpp:382] inception_4b/3x3 -> inception_4b/3x3
I0322 17:25:27.419545 29807 net.cpp:124] Setting up inception_4b/3x3
I0322 17:25:27.419564 29807 net.cpp:131] Top shape: 128 112 14 14 (2809856)
I0322 17:25:27.419587 29807 net.cpp:139] Memory required for data: 2570617344
I0322 17:25:27.419600 29807 layer_factory.hpp:77] Creating layer inception_4b/relu_3x3
I0322 17:25:27.419612 29807 net.cpp:86] Creating Layer inception_4b/relu_3x3
I0322 17:25:27.419620 29807 net.cpp:408] inception_4b/relu_3x3 <- inception_4b/3x3
I0322 17:25:27.419628 29807 net.cpp:369] inception_4b/relu_3x3 -> inception_4b/3x3 (in-place)
I0322 17:25:27.419641 29807 net.cpp:124] Setting up inception_4b/relu_3x3
I0322 17:25:27.419651 29807 net.cpp:131] Top shape: 128 112 14 14 (2809856)
I0322 17:25:27.419656 29807 net.cpp:139] Memory required for data: 2581856768
I0322 17:25:27.419662 29807 layer_factory.hpp:77] Creating layer inception_4b/5x5_reduce
I0322 17:25:27.419680 29807 net.cpp:86] Creating Layer inception_4b/5x5_reduce
I0322 17:25:27.419689 29807 net.cpp:408] inception_4b/5x5_reduce <- inception_4a/output_inception_4a/output_0_split_2
I0322 17:25:27.419699 29807 net.cpp:382] inception_4b/5x5_reduce -> inception_4b/5x5_reduce
I0322 17:25:27.419975 29807 net.cpp:124] Setting up inception_4b/5x5_reduce
I0322 17:25:27.419992 29807 net.cpp:131] Top shape: 128 12 14 14 (301056)
I0322 17:25:27.419998 29807 net.cpp:139] Memory required for data: 2583060992
I0322 17:25:27.420008 29807 layer_factory.hpp:77] Creating layer inception_4b/relu_5x5_reduce
I0322 17:25:27.420020 29807 net.cpp:86] Creating Layer inception_4b/relu_5x5_reduce
I0322 17:25:27.420027 29807 net.cpp:408] inception_4b/relu_5x5_reduce <- inception_4b/5x5_reduce
I0322 17:25:27.420037 29807 net.cpp:369] inception_4b/relu_5x5_reduce -> inception_4b/5x5_reduce (in-place)
I0322 17:25:27.420048 29807 net.cpp:124] Setting up inception_4b/relu_5x5_reduce
I0322 17:25:27.420059 29807 net.cpp:131] Top shape: 128 12 14 14 (301056)
I0322 17:25:27.420064 29807 net.cpp:139] Memory required for data: 2584265216
I0322 17:25:27.420070 29807 layer_factory.hpp:77] Creating layer inception_4b/5x5
I0322 17:25:27.420083 29807 net.cpp:86] Creating Layer inception_4b/5x5
I0322 17:25:27.420089 29807 net.cpp:408] inception_4b/5x5 <- inception_4b/5x5_reduce
I0322 17:25:27.420099 29807 net.cpp:382] inception_4b/5x5 -> inception_4b/5x5
I0322 17:25:27.420421 29807 net.cpp:124] Setting up inception_4b/5x5
I0322 17:25:27.420439 29807 net.cpp:131] Top shape: 128 32 14 14 (802816)
I0322 17:25:27.420444 29807 net.cpp:139] Memory required for data: 2587476480
I0322 17:25:27.420454 29807 layer_factory.hpp:77] Creating layer inception_4b/relu_5x5
I0322 17:25:27.420466 29807 net.cpp:86] Creating Layer inception_4b/relu_5x5
I0322 17:25:27.420475 29807 net.cpp:408] inception_4b/relu_5x5 <- inception_4b/5x5
I0322 17:25:27.420482 29807 net.cpp:369] inception_4b/relu_5x5 -> inception_4b/5x5 (in-place)
I0322 17:25:27.420493 29807 net.cpp:124] Setting up inception_4b/relu_5x5
I0322 17:25:27.420501 29807 net.cpp:131] Top shape: 128 32 14 14 (802816)
I0322 17:25:27.420507 29807 net.cpp:139] Memory required for data: 2590687744
I0322 17:25:27.420512 29807 layer_factory.hpp:77] Creating layer inception_4b/pool
I0322 17:25:27.420522 29807 net.cpp:86] Creating Layer inception_4b/pool
I0322 17:25:27.420528 29807 net.cpp:408] inception_4b/pool <- inception_4a/output_inception_4a/output_0_split_3
I0322 17:25:27.420537 29807 net.cpp:382] inception_4b/pool -> inception_4b/pool
I0322 17:25:27.420583 29807 net.cpp:124] Setting up inception_4b/pool
I0322 17:25:27.420598 29807 net.cpp:131] Top shape: 128 256 14 14 (6422528)
I0322 17:25:27.420604 29807 net.cpp:139] Memory required for data: 2616377856
I0322 17:25:27.420610 29807 layer_factory.hpp:77] Creating layer inception_4b/pool_proj
I0322 17:25:27.420622 29807 net.cpp:86] Creating Layer inception_4b/pool_proj
I0322 17:25:27.420631 29807 net.cpp:408] inception_4b/pool_proj <- inception_4b/pool
I0322 17:25:27.420642 29807 net.cpp:382] inception_4b/pool_proj -> inception_4b/pool_proj
I0322 17:25:27.420951 29807 net.cpp:124] Setting up inception_4b/pool_proj
I0322 17:25:27.420969 29807 net.cpp:131] Top shape: 128 32 14 14 (802816)
I0322 17:25:27.420974 29807 net.cpp:139] Memory required for data: 2619589120
I0322 17:25:27.420997 29807 layer_factory.hpp:77] Creating layer inception_4b/relu_pool_proj
I0322 17:25:27.421010 29807 net.cpp:86] Creating Layer inception_4b/relu_pool_proj
I0322 17:25:27.421017 29807 net.cpp:408] inception_4b/relu_pool_proj <- inception_4b/pool_proj
I0322 17:25:27.421025 29807 net.cpp:369] inception_4b/relu_pool_proj -> inception_4b/pool_proj (in-place)
I0322 17:25:27.421036 29807 net.cpp:124] Setting up inception_4b/relu_pool_proj
I0322 17:25:27.421046 29807 net.cpp:131] Top shape: 128 32 14 14 (802816)
I0322 17:25:27.421051 29807 net.cpp:139] Memory required for data: 2622800384
I0322 17:25:27.421058 29807 layer_factory.hpp:77] Creating layer inception_4b/output
I0322 17:25:27.421068 29807 net.cpp:86] Creating Layer inception_4b/output
I0322 17:25:27.421074 29807 net.cpp:408] inception_4b/output <- inception_4b/1x1
I0322 17:25:27.421082 29807 net.cpp:408] inception_4b/output <- inception_4b/3x3
I0322 17:25:27.421089 29807 net.cpp:408] inception_4b/output <- inception_4b/5x5
I0322 17:25:27.421097 29807 net.cpp:408] inception_4b/output <- inception_4b/pool_proj
I0322 17:25:27.421104 29807 net.cpp:382] inception_4b/output -> inception_4b/output
I0322 17:25:27.421139 29807 net.cpp:124] Setting up inception_4b/output
I0322 17:25:27.421152 29807 net.cpp:131] Top shape: 128 256 14 14 (6422528)
I0322 17:25:27.421159 29807 net.cpp:139] Memory required for data: 2648490496
I0322 17:25:27.421164 29807 layer_factory.hpp:77] Creating layer inception_4b/output_inception_4b/output_0_split
I0322 17:25:27.421172 29807 net.cpp:86] Creating Layer inception_4b/output_inception_4b/output_0_split
I0322 17:25:27.421180 29807 net.cpp:408] inception_4b/output_inception_4b/output_0_split <- inception_4b/output
I0322 17:25:27.421188 29807 net.cpp:382] inception_4b/output_inception_4b/output_0_split -> inception_4b/output_inception_4b/output_0_split_0
I0322 17:25:27.421200 29807 net.cpp:382] inception_4b/output_inception_4b/output_0_split -> inception_4b/output_inception_4b/output_0_split_1
I0322 17:25:27.421211 29807 net.cpp:382] inception_4b/output_inception_4b/output_0_split -> inception_4b/output_inception_4b/output_0_split_2
I0322 17:25:27.421222 29807 net.cpp:382] inception_4b/output_inception_4b/output_0_split -> inception_4b/output_inception_4b/output_0_split_3
I0322 17:25:27.421288 29807 net.cpp:124] Setting up inception_4b/output_inception_4b/output_0_split
I0322 17:25:27.421300 29807 net.cpp:131] Top shape: 128 256 14 14 (6422528)
I0322 17:25:27.421308 29807 net.cpp:131] Top shape: 128 256 14 14 (6422528)
I0322 17:25:27.421314 29807 net.cpp:131] Top shape: 128 256 14 14 (6422528)
I0322 17:25:27.421321 29807 net.cpp:131] Top shape: 128 256 14 14 (6422528)
I0322 17:25:27.421326 29807 net.cpp:139] Memory required for data: 2751250944
I0322 17:25:27.421332 29807 layer_factory.hpp:77] Creating layer inception_4c/1x1
I0322 17:25:27.421344 29807 net.cpp:86] Creating Layer inception_4c/1x1
I0322 17:25:27.421351 29807 net.cpp:408] inception_4c/1x1 <- inception_4b/output_inception_4b/output_0_split_0
I0322 17:25:27.421361 29807 net.cpp:382] inception_4c/1x1 -> inception_4c/1x1
I0322 17:25:27.421773 29807 net.cpp:124] Setting up inception_4c/1x1
I0322 17:25:27.421792 29807 net.cpp:131] Top shape: 128 64 14 14 (1605632)
I0322 17:25:27.421797 29807 net.cpp:139] Memory required for data: 2757673472
I0322 17:25:27.421807 29807 layer_factory.hpp:77] Creating layer inception_4c/relu_1x1
I0322 17:25:27.421815 29807 net.cpp:86] Creating Layer inception_4c/relu_1x1
I0322 17:25:27.421824 29807 net.cpp:408] inception_4c/relu_1x1 <- inception_4c/1x1
I0322 17:25:27.421833 29807 net.cpp:369] inception_4c/relu_1x1 -> inception_4c/1x1 (in-place)
I0322 17:25:27.421842 29807 net.cpp:124] Setting up inception_4c/relu_1x1
I0322 17:25:27.421852 29807 net.cpp:131] Top shape: 128 64 14 14 (1605632)
I0322 17:25:27.421857 29807 net.cpp:139] Memory required for data: 2764096000
I0322 17:25:27.421864 29807 layer_factory.hpp:77] Creating layer inception_4c/3x3_reduce
I0322 17:25:27.421878 29807 net.cpp:86] Creating Layer inception_4c/3x3_reduce
I0322 17:25:27.421901 29807 net.cpp:408] inception_4c/3x3_reduce <- inception_4b/output_inception_4b/output_0_split_1
I0322 17:25:27.421914 29807 net.cpp:382] inception_4c/3x3_reduce -> inception_4c/3x3_reduce
I0322 17:25:27.422317 29807 net.cpp:124] Setting up inception_4c/3x3_reduce
I0322 17:25:27.422333 29807 net.cpp:131] Top shape: 128 64 14 14 (1605632)
I0322 17:25:27.422339 29807 net.cpp:139] Memory required for data: 2770518528
I0322 17:25:27.422348 29807 layer_factory.hpp:77] Creating layer inception_4c/relu_3x3_reduce
I0322 17:25:27.422360 29807 net.cpp:86] Creating Layer inception_4c/relu_3x3_reduce
I0322 17:25:27.422368 29807 net.cpp:408] inception_4c/relu_3x3_reduce <- inception_4c/3x3_reduce
I0322 17:25:27.422376 29807 net.cpp:369] inception_4c/relu_3x3_reduce -> inception_4c/3x3_reduce (in-place)
I0322 17:25:27.422385 29807 net.cpp:124] Setting up inception_4c/relu_3x3_reduce
I0322 17:25:27.422394 29807 net.cpp:131] Top shape: 128 64 14 14 (1605632)
I0322 17:25:27.422399 29807 net.cpp:139] Memory required for data: 2776941056
I0322 17:25:27.422404 29807 layer_factory.hpp:77] Creating layer inception_4c/3x3
I0322 17:25:27.422415 29807 net.cpp:86] Creating Layer inception_4c/3x3
I0322 17:25:27.422425 29807 net.cpp:408] inception_4c/3x3 <- inception_4c/3x3_reduce
I0322 17:25:27.422435 29807 net.cpp:382] inception_4c/3x3 -> inception_4c/3x3
I0322 17:25:27.424752 29807 net.cpp:124] Setting up inception_4c/3x3
I0322 17:25:27.424775 29807 net.cpp:131] Top shape: 128 128 14 14 (3211264)
I0322 17:25:27.424782 29807 net.cpp:139] Memory required for data: 2789786112
I0322 17:25:27.424793 29807 layer_factory.hpp:77] Creating layer inception_4c/relu_3x3
I0322 17:25:27.424809 29807 net.cpp:86] Creating Layer inception_4c/relu_3x3
I0322 17:25:27.424816 29807 net.cpp:408] inception_4c/relu_3x3 <- inception_4c/3x3
I0322 17:25:27.424825 29807 net.cpp:369] inception_4c/relu_3x3 -> inception_4c/3x3 (in-place)
I0322 17:25:27.424839 29807 net.cpp:124] Setting up inception_4c/relu_3x3
I0322 17:25:27.424850 29807 net.cpp:131] Top shape: 128 128 14 14 (3211264)
I0322 17:25:27.424855 29807 net.cpp:139] Memory required for data: 2802631168
I0322 17:25:27.424861 29807 layer_factory.hpp:77] Creating layer inception_4c/5x5_reduce
I0322 17:25:27.424875 29807 net.cpp:86] Creating Layer inception_4c/5x5_reduce
I0322 17:25:27.424883 29807 net.cpp:408] inception_4c/5x5_reduce <- inception_4b/output_inception_4b/output_0_split_2
I0322 17:25:27.424895 29807 net.cpp:382] inception_4c/5x5_reduce -> inception_4c/5x5_reduce
I0322 17:25:27.425164 29807 net.cpp:124] Setting up inception_4c/5x5_reduce
I0322 17:25:27.425181 29807 net.cpp:131] Top shape: 128 12 14 14 (301056)
I0322 17:25:27.425187 29807 net.cpp:139] Memory required for data: 2803835392
I0322 17:25:27.425196 29807 layer_factory.hpp:77] Creating layer inception_4c/relu_5x5_reduce
I0322 17:25:27.425209 29807 net.cpp:86] Creating Layer inception_4c/relu_5x5_reduce
I0322 17:25:27.425215 29807 net.cpp:408] inception_4c/relu_5x5_reduce <- inception_4c/5x5_reduce
I0322 17:25:27.425226 29807 net.cpp:369] inception_4c/relu_5x5_reduce -> inception_4c/5x5_reduce (in-place)
I0322 17:25:27.425238 29807 net.cpp:124] Setting up inception_4c/relu_5x5_reduce
I0322 17:25:27.425249 29807 net.cpp:131] Top shape: 128 12 14 14 (301056)
I0322 17:25:27.425254 29807 net.cpp:139] Memory required for data: 2805039616
I0322 17:25:27.425261 29807 layer_factory.hpp:77] Creating layer inception_4c/5x5
I0322 17:25:27.425273 29807 net.cpp:86] Creating Layer inception_4c/5x5
I0322 17:25:27.425282 29807 net.cpp:408] inception_4c/5x5 <- inception_4c/5x5_reduce
I0322 17:25:27.425292 29807 net.cpp:382] inception_4c/5x5 -> inception_4c/5x5
I0322 17:25:27.425616 29807 net.cpp:124] Setting up inception_4c/5x5
I0322 17:25:27.425633 29807 net.cpp:131] Top shape: 128 32 14 14 (802816)
I0322 17:25:27.425639 29807 net.cpp:139] Memory required for data: 2808250880
I0322 17:25:27.425649 29807 layer_factory.hpp:77] Creating layer inception_4c/relu_5x5
I0322 17:25:27.425662 29807 net.cpp:86] Creating Layer inception_4c/relu_5x5
I0322 17:25:27.425686 29807 net.cpp:408] inception_4c/relu_5x5 <- inception_4c/5x5
I0322 17:25:27.425706 29807 net.cpp:369] inception_4c/relu_5x5 -> inception_4c/5x5 (in-place)
I0322 17:25:27.425725 29807 net.cpp:124] Setting up inception_4c/relu_5x5
I0322 17:25:27.425745 29807 net.cpp:131] Top shape: 128 32 14 14 (802816)
I0322 17:25:27.425753 29807 net.cpp:139] Memory required for data: 2811462144
I0322 17:25:27.425760 29807 layer_factory.hpp:77] Creating layer inception_4c/pool
I0322 17:25:27.425770 29807 net.cpp:86] Creating Layer inception_4c/pool
I0322 17:25:27.425776 29807 net.cpp:408] inception_4c/pool <- inception_4b/output_inception_4b/output_0_split_3
I0322 17:25:27.425784 29807 net.cpp:382] inception_4c/pool -> inception_4c/pool
I0322 17:25:27.425834 29807 net.cpp:124] Setting up inception_4c/pool
I0322 17:25:27.425849 29807 net.cpp:131] Top shape: 128 256 14 14 (6422528)
I0322 17:25:27.425855 29807 net.cpp:139] Memory required for data: 2837152256
I0322 17:25:27.425861 29807 layer_factory.hpp:77] Creating layer inception_4c/pool_proj
I0322 17:25:27.425876 29807 net.cpp:86] Creating Layer inception_4c/pool_proj
I0322 17:25:27.425886 29807 net.cpp:408] inception_4c/pool_proj <- inception_4c/pool
I0322 17:25:27.425896 29807 net.cpp:382] inception_4c/pool_proj -> inception_4c/pool_proj
I0322 17:25:27.426218 29807 net.cpp:124] Setting up inception_4c/pool_proj
I0322 17:25:27.426234 29807 net.cpp:131] Top shape: 128 32 14 14 (802816)
I0322 17:25:27.426240 29807 net.cpp:139] Memory required for data: 2840363520
I0322 17:25:27.426259 29807 layer_factory.hpp:77] Creating layer inception_4c/relu_pool_proj
I0322 17:25:27.426271 29807 net.cpp:86] Creating Layer inception_4c/relu_pool_proj
I0322 17:25:27.426278 29807 net.cpp:408] inception_4c/relu_pool_proj <- inception_4c/pool_proj
I0322 17:25:27.426287 29807 net.cpp:369] inception_4c/relu_pool_proj -> inception_4c/pool_proj (in-place)
I0322 17:25:27.426300 29807 net.cpp:124] Setting up inception_4c/relu_pool_proj
I0322 17:25:27.426309 29807 net.cpp:131] Top shape: 128 32 14 14 (802816)
I0322 17:25:27.426316 29807 net.cpp:139] Memory required for data: 2843574784
I0322 17:25:27.426323 29807 layer_factory.hpp:77] Creating layer inception_4c/output
I0322 17:25:27.426332 29807 net.cpp:86] Creating Layer inception_4c/output
I0322 17:25:27.426338 29807 net.cpp:408] inception_4c/output <- inception_4c/1x1
I0322 17:25:27.426345 29807 net.cpp:408] inception_4c/output <- inception_4c/3x3
I0322 17:25:27.426352 29807 net.cpp:408] inception_4c/output <- inception_4c/5x5
I0322 17:25:27.426359 29807 net.cpp:408] inception_4c/output <- inception_4c/pool_proj
I0322 17:25:27.426367 29807 net.cpp:382] inception_4c/output -> inception_4c/output
I0322 17:25:27.426400 29807 net.cpp:124] Setting up inception_4c/output
I0322 17:25:27.426414 29807 net.cpp:131] Top shape: 128 256 14 14 (6422528)
I0322 17:25:27.426420 29807 net.cpp:139] Memory required for data: 2869264896
I0322 17:25:27.426426 29807 layer_factory.hpp:77] Creating layer inception_4c/output_inception_4c/output_0_split
I0322 17:25:27.426435 29807 net.cpp:86] Creating Layer inception_4c/output_inception_4c/output_0_split
I0322 17:25:27.426441 29807 net.cpp:408] inception_4c/output_inception_4c/output_0_split <- inception_4c/output
I0322 17:25:27.426451 29807 net.cpp:382] inception_4c/output_inception_4c/output_0_split -> inception_4c/output_inception_4c/output_0_split_0
I0322 17:25:27.426461 29807 net.cpp:382] inception_4c/output_inception_4c/output_0_split -> inception_4c/output_inception_4c/output_0_split_1
I0322 17:25:27.426475 29807 net.cpp:382] inception_4c/output_inception_4c/output_0_split -> inception_4c/output_inception_4c/output_0_split_2
I0322 17:25:27.426487 29807 net.cpp:382] inception_4c/output_inception_4c/output_0_split -> inception_4c/output_inception_4c/output_0_split_3
I0322 17:25:27.426551 29807 net.cpp:124] Setting up inception_4c/output_inception_4c/output_0_split
I0322 17:25:27.426565 29807 net.cpp:131] Top shape: 128 256 14 14 (6422528)
I0322 17:25:27.426573 29807 net.cpp:131] Top shape: 128 256 14 14 (6422528)
I0322 17:25:27.426597 29807 net.cpp:131] Top shape: 128 256 14 14 (6422528)
I0322 17:25:27.426605 29807 net.cpp:131] Top shape: 128 256 14 14 (6422528)
I0322 17:25:27.426610 29807 net.cpp:139] Memory required for data: 2972025344
I0322 17:25:27.426616 29807 layer_factory.hpp:77] Creating layer inception_4d/1x1
I0322 17:25:27.426631 29807 net.cpp:86] Creating Layer inception_4d/1x1
I0322 17:25:27.426641 29807 net.cpp:408] inception_4d/1x1 <- inception_4c/output_inception_4c/output_0_split_0
I0322 17:25:27.426652 29807 net.cpp:382] inception_4d/1x1 -> inception_4d/1x1
I0322 17:25:27.427023 29807 net.cpp:124] Setting up inception_4d/1x1
I0322 17:25:27.427040 29807 net.cpp:131] Top shape: 128 56 14 14 (1404928)
I0322 17:25:27.427047 29807 net.cpp:139] Memory required for data: 2977645056
I0322 17:25:27.427057 29807 layer_factory.hpp:77] Creating layer inception_4d/relu_1x1
I0322 17:25:27.427069 29807 net.cpp:86] Creating Layer inception_4d/relu_1x1
I0322 17:25:27.427076 29807 net.cpp:408] inception_4d/relu_1x1 <- inception_4d/1x1
I0322 17:25:27.427085 29807 net.cpp:369] inception_4d/relu_1x1 -> inception_4d/1x1 (in-place)
I0322 17:25:27.427098 29807 net.cpp:124] Setting up inception_4d/relu_1x1
I0322 17:25:27.427108 29807 net.cpp:131] Top shape: 128 56 14 14 (1404928)
I0322 17:25:27.427114 29807 net.cpp:139] Memory required for data: 2983264768
I0322 17:25:27.427119 29807 layer_factory.hpp:77] Creating layer inception_4d/3x3_reduce
I0322 17:25:27.427131 29807 net.cpp:86] Creating Layer inception_4d/3x3_reduce
I0322 17:25:27.427137 29807 net.cpp:408] inception_4d/3x3_reduce <- inception_4c/output_inception_4c/output_0_split_1
I0322 17:25:27.427147 29807 net.cpp:382] inception_4d/3x3_reduce -> inception_4d/3x3_reduce
I0322 17:25:27.427551 29807 net.cpp:124] Setting up inception_4d/3x3_reduce
I0322 17:25:27.427568 29807 net.cpp:131] Top shape: 128 72 14 14 (1806336)
I0322 17:25:27.427574 29807 net.cpp:139] Memory required for data: 2990490112
I0322 17:25:27.427584 29807 layer_factory.hpp:77] Creating layer inception_4d/relu_3x3_reduce
I0322 17:25:27.427597 29807 net.cpp:86] Creating Layer inception_4d/relu_3x3_reduce
I0322 17:25:27.427604 29807 net.cpp:408] inception_4d/relu_3x3_reduce <- inception_4d/3x3_reduce
I0322 17:25:27.427613 29807 net.cpp:369] inception_4d/relu_3x3_reduce -> inception_4d/3x3_reduce (in-place)
I0322 17:25:27.427624 29807 net.cpp:124] Setting up inception_4d/relu_3x3_reduce
I0322 17:25:27.427634 29807 net.cpp:131] Top shape: 128 72 14 14 (1806336)
I0322 17:25:27.427640 29807 net.cpp:139] Memory required for data: 2997715456
I0322 17:25:27.427645 29807 layer_factory.hpp:77] Creating layer inception_4d/3x3
I0322 17:25:27.427657 29807 net.cpp:86] Creating Layer inception_4d/3x3
I0322 17:25:27.427664 29807 net.cpp:408] inception_4d/3x3 <- inception_4d/3x3_reduce
I0322 17:25:27.427675 29807 net.cpp:382] inception_4d/3x3 -> inception_4d/3x3
I0322 17:25:27.428710 29807 net.cpp:124] Setting up inception_4d/3x3
I0322 17:25:27.428728 29807 net.cpp:131] Top shape: 128 144 14 14 (3612672)
I0322 17:25:27.428735 29807 net.cpp:139] Memory required for data: 3012166144
I0322 17:25:27.428743 29807 layer_factory.hpp:77] Creating layer inception_4d/relu_3x3
I0322 17:25:27.428758 29807 net.cpp:86] Creating Layer inception_4d/relu_3x3
I0322 17:25:27.428768 29807 net.cpp:408] inception_4d/relu_3x3 <- inception_4d/3x3
I0322 17:25:27.428777 29807 net.cpp:369] inception_4d/relu_3x3 -> inception_4d/3x3 (in-place)
I0322 17:25:27.428787 29807 net.cpp:124] Setting up inception_4d/relu_3x3
I0322 17:25:27.428797 29807 net.cpp:131] Top shape: 128 144 14 14 (3612672)
I0322 17:25:27.428802 29807 net.cpp:139] Memory required for data: 3026616832
I0322 17:25:27.428808 29807 layer_factory.hpp:77] Creating layer inception_4d/5x5_reduce
I0322 17:25:27.428820 29807 net.cpp:86] Creating Layer inception_4d/5x5_reduce
I0322 17:25:27.428827 29807 net.cpp:408] inception_4d/5x5_reduce <- inception_4c/output_inception_4c/output_0_split_2
I0322 17:25:27.428835 29807 net.cpp:382] inception_4d/5x5_reduce -> inception_4d/5x5_reduce
I0322 17:25:27.429134 29807 net.cpp:124] Setting up inception_4d/5x5_reduce
I0322 17:25:27.429152 29807 net.cpp:131] Top shape: 128 16 14 14 (401408)
I0322 17:25:27.429157 29807 net.cpp:139] Memory required for data: 3028222464
I0322 17:25:27.429167 29807 layer_factory.hpp:77] Creating layer inception_4d/relu_5x5_reduce
I0322 17:25:27.429175 29807 net.cpp:86] Creating Layer inception_4d/relu_5x5_reduce
I0322 17:25:27.429184 29807 net.cpp:408] inception_4d/relu_5x5_reduce <- inception_4d/5x5_reduce
I0322 17:25:27.429193 29807 net.cpp:369] inception_4d/relu_5x5_reduce -> inception_4d/5x5_reduce (in-place)
I0322 17:25:27.429203 29807 net.cpp:124] Setting up inception_4d/relu_5x5_reduce
I0322 17:25:27.429213 29807 net.cpp:131] Top shape: 128 16 14 14 (401408)
I0322 17:25:27.429219 29807 net.cpp:139] Memory required for data: 3029828096
I0322 17:25:27.429224 29807 layer_factory.hpp:77] Creating layer inception_4d/5x5
I0322 17:25:27.429237 29807 net.cpp:86] Creating Layer inception_4d/5x5
I0322 17:25:27.429246 29807 net.cpp:408] inception_4d/5x5 <- inception_4d/5x5_reduce
I0322 17:25:27.429256 29807 net.cpp:382] inception_4d/5x5 -> inception_4d/5x5
I0322 17:25:27.429613 29807 net.cpp:124] Setting up inception_4d/5x5
I0322 17:25:27.429630 29807 net.cpp:131] Top shape: 128 32 14 14 (802816)
I0322 17:25:27.429636 29807 net.cpp:139] Memory required for data: 3033039360
I0322 17:25:27.429647 29807 layer_factory.hpp:77] Creating layer inception_4d/relu_5x5
I0322 17:25:27.429658 29807 net.cpp:86] Creating Layer inception_4d/relu_5x5
I0322 17:25:27.429666 29807 net.cpp:408] inception_4d/relu_5x5 <- inception_4d/5x5
I0322 17:25:27.429674 29807 net.cpp:369] inception_4d/relu_5x5 -> inception_4d/5x5 (in-place)
I0322 17:25:27.429687 29807 net.cpp:124] Setting up inception_4d/relu_5x5
I0322 17:25:27.429702 29807 net.cpp:131] Top shape: 128 32 14 14 (802816)
I0322 17:25:27.429716 29807 net.cpp:139] Memory required for data: 3036250624
I0322 17:25:27.429730 29807 layer_factory.hpp:77] Creating layer inception_4d/pool
I0322 17:25:27.429747 29807 net.cpp:86] Creating Layer inception_4d/pool
I0322 17:25:27.429757 29807 net.cpp:408] inception_4d/pool <- inception_4c/output_inception_4c/output_0_split_3
I0322 17:25:27.429767 29807 net.cpp:382] inception_4d/pool -> inception_4d/pool
I0322 17:25:27.429816 29807 net.cpp:124] Setting up inception_4d/pool
I0322 17:25:27.429831 29807 net.cpp:131] Top shape: 128 256 14 14 (6422528)
I0322 17:25:27.429836 29807 net.cpp:139] Memory required for data: 3061940736
I0322 17:25:27.429842 29807 layer_factory.hpp:77] Creating layer inception_4d/pool_proj
I0322 17:25:27.429857 29807 net.cpp:86] Creating Layer inception_4d/pool_proj
I0322 17:25:27.429867 29807 net.cpp:408] inception_4d/pool_proj <- inception_4d/pool
I0322 17:25:27.429877 29807 net.cpp:382] inception_4d/pool_proj -> inception_4d/pool_proj
I0322 17:25:27.430202 29807 net.cpp:124] Setting up inception_4d/pool_proj
I0322 17:25:27.430218 29807 net.cpp:131] Top shape: 128 32 14 14 (802816)
I0322 17:25:27.430224 29807 net.cpp:139] Memory required for data: 3065152000
I0322 17:25:27.430234 29807 layer_factory.hpp:77] Creating layer inception_4d/relu_pool_proj
I0322 17:25:27.430243 29807 net.cpp:86] Creating Layer inception_4d/relu_pool_proj
I0322 17:25:27.430253 29807 net.cpp:408] inception_4d/relu_pool_proj <- inception_4d/pool_proj
I0322 17:25:27.430261 29807 net.cpp:369] inception_4d/relu_pool_proj -> inception_4d/pool_proj (in-place)
I0322 17:25:27.430270 29807 net.cpp:124] Setting up inception_4d/relu_pool_proj
I0322 17:25:27.430280 29807 net.cpp:131] Top shape: 128 32 14 14 (802816)
I0322 17:25:27.430286 29807 net.cpp:139] Memory required for data: 3068363264
I0322 17:25:27.430294 29807 layer_factory.hpp:77] Creating layer inception_4d/output
I0322 17:25:27.430302 29807 net.cpp:86] Creating Layer inception_4d/output
I0322 17:25:27.430308 29807 net.cpp:408] inception_4d/output <- inception_4d/1x1
I0322 17:25:27.430315 29807 net.cpp:408] inception_4d/output <- inception_4d/3x3
I0322 17:25:27.430322 29807 net.cpp:408] inception_4d/output <- inception_4d/5x5
I0322 17:25:27.430347 29807 net.cpp:408] inception_4d/output <- inception_4d/pool_proj
I0322 17:25:27.430357 29807 net.cpp:382] inception_4d/output -> inception_4d/output
I0322 17:25:27.430392 29807 net.cpp:124] Setting up inception_4d/output
I0322 17:25:27.430407 29807 net.cpp:131] Top shape: 128 264 14 14 (6623232)
I0322 17:25:27.430413 29807 net.cpp:139] Memory required for data: 3094856192
I0322 17:25:27.430418 29807 layer_factory.hpp:77] Creating layer inception_4d/output_inception_4d/output_0_split
I0322 17:25:27.430428 29807 net.cpp:86] Creating Layer inception_4d/output_inception_4d/output_0_split
I0322 17:25:27.430434 29807 net.cpp:408] inception_4d/output_inception_4d/output_0_split <- inception_4d/output
I0322 17:25:27.430444 29807 net.cpp:382] inception_4d/output_inception_4d/output_0_split -> inception_4d/output_inception_4d/output_0_split_0
I0322 17:25:27.430454 29807 net.cpp:382] inception_4d/output_inception_4d/output_0_split -> inception_4d/output_inception_4d/output_0_split_1
I0322 17:25:27.430467 29807 net.cpp:382] inception_4d/output_inception_4d/output_0_split -> inception_4d/output_inception_4d/output_0_split_2
I0322 17:25:27.430480 29807 net.cpp:382] inception_4d/output_inception_4d/output_0_split -> inception_4d/output_inception_4d/output_0_split_3
I0322 17:25:27.430544 29807 net.cpp:124] Setting up inception_4d/output_inception_4d/output_0_split
I0322 17:25:27.430558 29807 net.cpp:131] Top shape: 128 264 14 14 (6623232)
I0322 17:25:27.430565 29807 net.cpp:131] Top shape: 128 264 14 14 (6623232)
I0322 17:25:27.430572 29807 net.cpp:131] Top shape: 128 264 14 14 (6623232)
I0322 17:25:27.430579 29807 net.cpp:131] Top shape: 128 264 14 14 (6623232)
I0322 17:25:27.430584 29807 net.cpp:139] Memory required for data: 3200827904
I0322 17:25:27.430589 29807 layer_factory.hpp:77] Creating layer inception_4e/1x1
I0322 17:25:27.430604 29807 net.cpp:86] Creating Layer inception_4e/1x1
I0322 17:25:27.430614 29807 net.cpp:408] inception_4e/1x1 <- inception_4d/output_inception_4d/output_0_split_0
I0322 17:25:27.430625 29807 net.cpp:382] inception_4e/1x1 -> inception_4e/1x1
I0322 17:25:27.431155 29807 net.cpp:124] Setting up inception_4e/1x1
I0322 17:25:27.431172 29807 net.cpp:131] Top shape: 128 128 14 14 (3211264)
I0322 17:25:27.431179 29807 net.cpp:139] Memory required for data: 3213672960
I0322 17:25:27.431187 29807 layer_factory.hpp:77] Creating layer inception_4e/relu_1x1
I0322 17:25:27.431200 29807 net.cpp:86] Creating Layer inception_4e/relu_1x1
I0322 17:25:27.431208 29807 net.cpp:408] inception_4e/relu_1x1 <- inception_4e/1x1
I0322 17:25:27.431217 29807 net.cpp:369] inception_4e/relu_1x1 -> inception_4e/1x1 (in-place)
I0322 17:25:27.431227 29807 net.cpp:124] Setting up inception_4e/relu_1x1
I0322 17:25:27.431236 29807 net.cpp:131] Top shape: 128 128 14 14 (3211264)
I0322 17:25:27.431242 29807 net.cpp:139] Memory required for data: 3226518016
I0322 17:25:27.431247 29807 layer_factory.hpp:77] Creating layer inception_4e/3x3_reduce
I0322 17:25:27.431259 29807 net.cpp:86] Creating Layer inception_4e/3x3_reduce
I0322 17:25:27.431267 29807 net.cpp:408] inception_4e/3x3_reduce <- inception_4d/output_inception_4d/output_0_split_1
I0322 17:25:27.431275 29807 net.cpp:382] inception_4e/3x3_reduce -> inception_4e/3x3_reduce
I0322 17:25:27.431704 29807 net.cpp:124] Setting up inception_4e/3x3_reduce
I0322 17:25:27.431721 29807 net.cpp:131] Top shape: 128 80 14 14 (2007040)
I0322 17:25:27.431727 29807 net.cpp:139] Memory required for data: 3234546176
I0322 17:25:27.431736 29807 layer_factory.hpp:77] Creating layer inception_4e/relu_3x3_reduce
I0322 17:25:27.431751 29807 net.cpp:86] Creating Layer inception_4e/relu_3x3_reduce
I0322 17:25:27.431758 29807 net.cpp:408] inception_4e/relu_3x3_reduce <- inception_4e/3x3_reduce
I0322 17:25:27.431766 29807 net.cpp:369] inception_4e/relu_3x3_reduce -> inception_4e/3x3_reduce (in-place)
I0322 17:25:27.431778 29807 net.cpp:124] Setting up inception_4e/relu_3x3_reduce
I0322 17:25:27.431788 29807 net.cpp:131] Top shape: 128 80 14 14 (2007040)
I0322 17:25:27.431794 29807 net.cpp:139] Memory required for data: 3242574336
I0322 17:25:27.431815 29807 layer_factory.hpp:77] Creating layer inception_4e/3x3
I0322 17:25:27.431829 29807 net.cpp:86] Creating Layer inception_4e/3x3
I0322 17:25:27.431838 29807 net.cpp:408] inception_4e/3x3 <- inception_4e/3x3_reduce
I0322 17:25:27.431849 29807 net.cpp:382] inception_4e/3x3 -> inception_4e/3x3
I0322 17:25:27.433070 29807 net.cpp:124] Setting up inception_4e/3x3
I0322 17:25:27.433089 29807 net.cpp:131] Top shape: 128 160 14 14 (4014080)
I0322 17:25:27.433094 29807 net.cpp:139] Memory required for data: 3258630656
I0322 17:25:27.433105 29807 layer_factory.hpp:77] Creating layer inception_4e/relu_3x3
I0322 17:25:27.433115 29807 net.cpp:86] Creating Layer inception_4e/relu_3x3
I0322 17:25:27.433125 29807 net.cpp:408] inception_4e/relu_3x3 <- inception_4e/3x3
I0322 17:25:27.433135 29807 net.cpp:369] inception_4e/relu_3x3 -> inception_4e/3x3 (in-place)
I0322 17:25:27.433147 29807 net.cpp:124] Setting up inception_4e/relu_3x3
I0322 17:25:27.433157 29807 net.cpp:131] Top shape: 128 160 14 14 (4014080)
I0322 17:25:27.433163 29807 net.cpp:139] Memory required for data: 3274686976
I0322 17:25:27.433168 29807 layer_factory.hpp:77] Creating layer inception_4e/5x5_reduce
I0322 17:25:27.433182 29807 net.cpp:86] Creating Layer inception_4e/5x5_reduce
I0322 17:25:27.433192 29807 net.cpp:408] inception_4e/5x5_reduce <- inception_4d/output_inception_4d/output_0_split_2
I0322 17:25:27.433202 29807 net.cpp:382] inception_4e/5x5_reduce -> inception_4e/5x5_reduce
I0322 17:25:27.433490 29807 net.cpp:124] Setting up inception_4e/5x5_reduce
I0322 17:25:27.433506 29807 net.cpp:131] Top shape: 128 16 14 14 (401408)
I0322 17:25:27.433513 29807 net.cpp:139] Memory required for data: 3276292608
I0322 17:25:27.433522 29807 layer_factory.hpp:77] Creating layer inception_4e/relu_5x5_reduce
I0322 17:25:27.433534 29807 net.cpp:86] Creating Layer inception_4e/relu_5x5_reduce
I0322 17:25:27.433544 29807 net.cpp:408] inception_4e/relu_5x5_reduce <- inception_4e/5x5_reduce
I0322 17:25:27.433552 29807 net.cpp:369] inception_4e/relu_5x5_reduce -> inception_4e/5x5_reduce (in-place)
I0322 17:25:27.433562 29807 net.cpp:124] Setting up inception_4e/relu_5x5_reduce
I0322 17:25:27.433573 29807 net.cpp:131] Top shape: 128 16 14 14 (401408)
I0322 17:25:27.433578 29807 net.cpp:139] Memory required for data: 3277898240
I0322 17:25:27.433583 29807 layer_factory.hpp:77] Creating layer inception_4e/5x5
I0322 17:25:27.433595 29807 net.cpp:86] Creating Layer inception_4e/5x5
I0322 17:25:27.433601 29807 net.cpp:408] inception_4e/5x5 <- inception_4e/5x5_reduce
I0322 17:25:27.433610 29807 net.cpp:382] inception_4e/5x5 -> inception_4e/5x5
I0322 17:25:27.434130 29807 net.cpp:124] Setting up inception_4e/5x5
I0322 17:25:27.434149 29807 net.cpp:131] Top shape: 128 64 14 14 (1605632)
I0322 17:25:27.434155 29807 net.cpp:139] Memory required for data: 3284320768
I0322 17:25:27.434165 29807 layer_factory.hpp:77] Creating layer inception_4e/relu_5x5
I0322 17:25:27.434178 29807 net.cpp:86] Creating Layer inception_4e/relu_5x5
I0322 17:25:27.434185 29807 net.cpp:408] inception_4e/relu_5x5 <- inception_4e/5x5
I0322 17:25:27.434193 29807 net.cpp:369] inception_4e/relu_5x5 -> inception_4e/5x5 (in-place)
I0322 17:25:27.434206 29807 net.cpp:124] Setting up inception_4e/relu_5x5
I0322 17:25:27.434213 29807 net.cpp:131] Top shape: 128 64 14 14 (1605632)
I0322 17:25:27.434218 29807 net.cpp:139] Memory required for data: 3290743296
I0322 17:25:27.434223 29807 layer_factory.hpp:77] Creating layer inception_4e/pool
I0322 17:25:27.434231 29807 net.cpp:86] Creating Layer inception_4e/pool
I0322 17:25:27.434238 29807 net.cpp:408] inception_4e/pool <- inception_4d/output_inception_4d/output_0_split_3
I0322 17:25:27.434247 29807 net.cpp:382] inception_4e/pool -> inception_4e/pool
I0322 17:25:27.434294 29807 net.cpp:124] Setting up inception_4e/pool
I0322 17:25:27.434309 29807 net.cpp:131] Top shape: 128 264 14 14 (6623232)
I0322 17:25:27.434314 29807 net.cpp:139] Memory required for data: 3317236224
I0322 17:25:27.434320 29807 layer_factory.hpp:77] Creating layer inception_4e/pool_proj
I0322 17:25:27.434350 29807 net.cpp:86] Creating Layer inception_4e/pool_proj
I0322 17:25:27.434360 29807 net.cpp:408] inception_4e/pool_proj <- inception_4e/pool
I0322 17:25:27.434371 29807 net.cpp:382] inception_4e/pool_proj -> inception_4e/pool_proj
I0322 17:25:27.434789 29807 net.cpp:124] Setting up inception_4e/pool_proj
I0322 17:25:27.434808 29807 net.cpp:131] Top shape: 128 64 14 14 (1605632)
I0322 17:25:27.434813 29807 net.cpp:139] Memory required for data: 3323658752
I0322 17:25:27.434823 29807 layer_factory.hpp:77] Creating layer inception_4e/relu_pool_proj
I0322 17:25:27.434835 29807 net.cpp:86] Creating Layer inception_4e/relu_pool_proj
I0322 17:25:27.434842 29807 net.cpp:408] inception_4e/relu_pool_proj <- inception_4e/pool_proj
I0322 17:25:27.434854 29807 net.cpp:369] inception_4e/relu_pool_proj -> inception_4e/pool_proj (in-place)
I0322 17:25:27.434866 29807 net.cpp:124] Setting up inception_4e/relu_pool_proj
I0322 17:25:27.434876 29807 net.cpp:131] Top shape: 128 64 14 14 (1605632)
I0322 17:25:27.434882 29807 net.cpp:139] Memory required for data: 3330081280
I0322 17:25:27.434887 29807 layer_factory.hpp:77] Creating layer inception_4e/output
I0322 17:25:27.434896 29807 net.cpp:86] Creating Layer inception_4e/output
I0322 17:25:27.434902 29807 net.cpp:408] inception_4e/output <- inception_4e/1x1
I0322 17:25:27.434909 29807 net.cpp:408] inception_4e/output <- inception_4e/3x3
I0322 17:25:27.434916 29807 net.cpp:408] inception_4e/output <- inception_4e/5x5
I0322 17:25:27.434922 29807 net.cpp:408] inception_4e/output <- inception_4e/pool_proj
I0322 17:25:27.434931 29807 net.cpp:382] inception_4e/output -> inception_4e/output
I0322 17:25:27.434965 29807 net.cpp:124] Setting up inception_4e/output
I0322 17:25:27.434980 29807 net.cpp:131] Top shape: 128 416 14 14 (10436608)
I0322 17:25:27.434986 29807 net.cpp:139] Memory required for data: 3371827712
I0322 17:25:27.434991 29807 layer_factory.hpp:77] Creating layer conv_16
I0322 17:25:27.435008 29807 net.cpp:86] Creating Layer conv_16
I0322 17:25:27.435017 29807 net.cpp:408] conv_16 <- inception_4e/output
I0322 17:25:27.435027 29807 net.cpp:382] conv_16 -> conv_16
I0322 17:25:27.437849 29807 net.cpp:124] Setting up conv_16
I0322 17:25:27.437875 29807 net.cpp:131] Top shape: 128 128 14 14 (3211264)
I0322 17:25:27.437888 29807 net.cpp:139] Memory required for data: 3384672768
I0322 17:25:27.437906 29807 layer_factory.hpp:77] Creating layer relu_16
I0322 17:25:27.437924 29807 net.cpp:86] Creating Layer relu_16
I0322 17:25:27.437939 29807 net.cpp:408] relu_16 <- conv_16
I0322 17:25:27.437961 29807 net.cpp:369] relu_16 -> conv_16 (in-place)
I0322 17:25:27.437976 29807 net.cpp:124] Setting up relu_16
I0322 17:25:27.437988 29807 net.cpp:131] Top shape: 128 128 14 14 (3211264)
I0322 17:25:27.437994 29807 net.cpp:139] Memory required for data: 3397517824
I0322 17:25:27.437999 29807 layer_factory.hpp:77] Creating layer conv_face_predict
I0322 17:25:27.438014 29807 net.cpp:86] Creating Layer conv_face_predict
I0322 17:25:27.438022 29807 net.cpp:408] conv_face_predict <- conv_16
I0322 17:25:27.438032 29807 net.cpp:382] conv_face_predict -> conv_face_predict
I0322 17:25:27.438393 29807 net.cpp:124] Setting up conv_face_predict
I0322 17:25:27.438410 29807 net.cpp:131] Top shape: 128 20 14 14 (501760)
I0322 17:25:27.438416 29807 net.cpp:139] Memory required for data: 3399524864
I0322 17:25:27.438426 29807 layer_factory.hpp:77] Creating layer pool5/7x7_s1
I0322 17:25:27.438438 29807 net.cpp:86] Creating Layer pool5/7x7_s1
I0322 17:25:27.438447 29807 net.cpp:408] pool5/7x7_s1 <- conv_face_predict
I0322 17:25:27.438457 29807 net.cpp:382] pool5/7x7_s1 -> pool5/7x7_s1
I0322 17:25:27.438491 29807 net.cpp:124] Setting up pool5/7x7_s1
I0322 17:25:27.438505 29807 net.cpp:131] Top shape: 128 20 11 11 (309760)
I0322 17:25:27.438511 29807 net.cpp:139] Memory required for data: 3400763904
I0322 17:25:27.438518 29807 layer_factory.hpp:77] Creating layer pool5/drop_7x7_s1
I0322 17:25:27.438534 29807 net.cpp:86] Creating Layer pool5/drop_7x7_s1
I0322 17:25:27.438557 29807 net.cpp:408] pool5/drop_7x7_s1 <- pool5/7x7_s1
I0322 17:25:27.438570 29807 net.cpp:369] pool5/drop_7x7_s1 -> pool5/7x7_s1 (in-place)
I0322 17:25:27.438609 29807 net.cpp:124] Setting up pool5/drop_7x7_s1
I0322 17:25:27.438623 29807 net.cpp:131] Top shape: 128 20 11 11 (309760)
I0322 17:25:27.438629 29807 net.cpp:139] Memory required for data: 3402002944
I0322 17:25:27.438635 29807 layer_factory.hpp:77] Creating layer loss3_my/predict
I0322 17:25:27.438650 29807 net.cpp:86] Creating Layer loss3_my/predict
I0322 17:25:27.438659 29807 net.cpp:408] loss3_my/predict <- pool5/7x7_s1
I0322 17:25:27.438671 29807 net.cpp:382] loss3_my/predict -> loss3_my/predict
I0322 17:25:27.438817 29807 net.cpp:124] Setting up loss3_my/predict
I0322 17:25:27.438832 29807 net.cpp:131] Top shape: 128 1 (128)
I0322 17:25:27.438838 29807 net.cpp:139] Memory required for data: 3402003456
I0322 17:25:27.438848 29807 layer_factory.hpp:77] Creating layer loss3_my/loss3_my
I0322 17:25:27.439424 29807 net.cpp:86] Creating Layer loss3_my/loss3_my
I0322 17:25:27.439443 29807 net.cpp:408] loss3_my/loss3_my <- loss3_my/predict
I0322 17:25:27.439451 29807 net.cpp:408] loss3_my/loss3_my <- label
I0322 17:25:27.439463 29807 net.cpp:382] loss3_my/loss3_my -> loss3_my/loss3_my
I0322 17:25:27.439638 29807 net.cpp:124] Setting up loss3_my/loss3_my
I0322 17:25:27.439658 29807 net.cpp:131] Top shape: 1 (1)
I0322 17:25:27.439664 29807 net.cpp:134]     with loss weight 1
I0322 17:25:27.439716 29807 net.cpp:139] Memory required for data: 3402003460
I0322 17:25:27.439724 29807 net.cpp:200] loss3_my/loss3_my needs backward computation.
I0322 17:25:27.439731 29807 net.cpp:200] loss3_my/predict needs backward computation.
I0322 17:25:27.439738 29807 net.cpp:200] pool5/drop_7x7_s1 needs backward computation.
…
I0322 17:25:27.443780 29807 solver.cpp:173] Creating test net (#0) specified by net file: models/age_google_half_ft/train_val.prototxt
I0322 17:25:27.443938 29807 net.cpp:296] The NetState phase (1) differed from the phase (0) specified by a rule in layer data
I0322 17:25:27.444883 29807 net.cpp:53] Initializing net from parameters: 
name: "GoogleNet-half"
state {
  phase: TEST
}
layer {
  name: "data"
  type: "Python"
  top: "data"
  top: "label"
  include {
    phase: TEST
  }
  python_param {
    module: "data_generator"
    layer: "DataLayer"
    param_str: "/home/zhongzhen/dataset/attribute/age/test.txt"
  }
}
layer {
  name: "conv1/7x7_s2"
  type: "Convolution"
  bottom: "data"
  top: "conv1/7x7_s2"
  param {
    lr_mult: 1
    decay_mult: 1
  }
  param {
    lr_mult: 2
    decay_mult: 0
  }
  convolution_param {
    num_output: 32
    pad: 3
    kernel_size: 7
    stride: 2
    weight_filler {
      type: "xavier"
      std: 0.1
    }
    bias_filler {
      type: "constant"
      value: 0.2
    }
  }
}
layer {
  name: "conv1/relu_7x7"
  type: "ReLU"
  bottom: "conv1/7x7_s2"
  top: "conv1/7x7_s2"
}
layer {
  name: "pool1/3x3_s2"
  type: "Pooling"
  bottom: "conv1/7x7_s2"
  top: "pool1/3x3_s2"
  pooling_param {
    pool: MAX
    kernel_size: 3
    stride: 2
  }
}
layer {
  name: "pool1/norm1"
  type: "LRN"
  bottom: "pool1/3x3_s2"
  top: "pool1/norm1"
  lrn_param {
    local_size: 5
    alpha: 0.0001
    beta: 0.75
  }
}
layer {
  name: "conv2/3x3_reduce"
  type: "Convolution"
  bottom: "pool1/norm1"
  top: "conv2/3x3_reduce"
  param {
    lr_mult: 1
    decay_mult: 1
  }
  param {
    lr_mult: 2
    decay_mult: 0
  }
  convolution_param {
    num_output: 32
    kernel_size: 1
    weight_filler {
      type: "xavier"
      std: 0.1
    }
    bias_filler {
      type: "constant"
      value: 0.2
    }
  }
}
layer {
  name: "conv2/relu_3x3_reduce"
  type: "ReLU"
  bottom: "conv2/3x3_reduce"
  top: "conv2/3x3_reduce"
}
layer {
  name: "conv2/3x3"
  type: "Convolution"
  bottom: "conv2/3x3_reduce"
  top: "conv2/3x3"
  param {
    lr_mult: 1
    decay_mult: 1
  }
  param {
    lr_mult: 2
    decay_mult: 0
  }
  convolution_param {
    num_output: 96
    pad: 1
    kernel_size: 3
    weight_filler {
      type: "xavier"
      std: 0.03
    }
    bias_filler {
      type: "constant"
      value: 0.2
    }
  }
}
layer {
  name: "conv2/relu_3x3"
  type: "ReLU"
  bottom: "conv2/3x3"
  top: "conv2/3x3"
}
layer {
  name: "conv2/norm2"
  type: "LRN"
  bottom: "conv2/3x3"
  top: "conv2/norm2"
  lrn_param {
    local_size: 5
    alpha: 0.0001
    beta: 0.75
  }
}
layer {
  name: "pool2/3x3_s2"
  type: "Pooling"
  bottom: "conv2/norm2"
  top: "pool2/3x3_s2"
  pooling_param {
    pool: MAX
    kernel_size: 3
    stride: 2
  }
}
layer {
  name: "inception_3a/1x1"
  type: "Convolution"
  bottom: "pool2/3x3_s2"
  top: "inception_3a/1x1"
  param {
    lr_mult: 1
    decay_mult: 1
  }
  param {
    lr_mult: 2
    decay_mult: 0
  }
  convolution_param {
    num_output: 32
    kernel_size: 1
    weight_filler {
      type: "xavier"
      std: 0.03
    }
    bias_filler {
      type: "constant"
      value: 0.2
    }
  }
}
layer {
  name: "inception_3a/relu_1x1"
  type: "ReLU"
  bottom: "inception_3a/1x1"
  top: "inception_3a/1x1"
}
layer {
  name: "inception_3a/3x3_reduce"
  type: "Convolution"
  bottom: "pool2/3x3_s2"
  top: "inception_3a/3x3_reduce"
  param {
    lr_mult: 1
    decay_mult: 1
  }
  param {
    lr_mult: 2
    decay_mult: 0
  }
  convolution_param {
    num_output: 48
    kernel_size: 1
    weight_filler {
      type: "xavier"
      std: 0.09
    }
    bias_filler {
      type: "constant"
      value: 0.2
    }
  }
}
layer {
  name: "inception_3a/relu_3x3_reduce"
  type: "ReLU"
  bottom: "inception_3a/3x3_reduce"
  top: "inception_3a/3x3_reduce"
}
layer {
  name: "inception_3a/3x3"
  type: "Convolution"
  bottom: "inception_3a/3x3_reduce"
  top: "inception_3a/3x3"
  param {
    lr_mult: 1
    decay_mult: 1
  }
  param {
    lr_mult: 2
    decay_mult: 0
  }
  convolution_param {
    num_output: 64
    pad: 1
    kernel_size: 3
    weight_filler {
      type: "xavier"
      std: 0.03
    }
    bias_filler {
      type: "constant"
      value: 0.2
    }
  }
}
layer {
  name: "inception_3a/relu_3x3"
  type: "ReLU"
  bottom: "inception_3a/3x3"
  top: "inception_3a/3x3"
}
layer {
  name: "inception_3a/5x5_reduce"
  type: "Convolution"
  bottom: "pool2/3x3_s2"
  top: "inception_3a/5x5_reduce"
  param {
    lr_mult: 1
    decay_mult: 1
  }
  param {
    lr_mult: 2
    decay_mult: 0
  }
  convolution_param {
    num_output: 8
    kernel_size: 1
    weight_filler {
      type: "xavier"
      std: 0.2
    }
    bias_filler {
      type: "constant"
      value: 0.2
    }
  }
}
layer {
  name: "inception_3a/relu_5x5_reduce"
  type: "ReLU"
  bottom: "inception_3a/5x5_reduce"
  top: "inception_3a/5x5_reduce"
}
layer {
  name: "inception_3a/5x5"
  type: "Convolution"
  bottom: "inception_3a/5x5_reduce"
  top: "inception_3a/5x5"
  param {
    lr_mult: 1
    decay_mult: 1
  }
  param {
    lr_mult: 2
    decay_mult: 0
  }
  convolution_param {
    num_output: 16
    pad: 2
    kernel_size: 5
    weight_filler {
      type: "xavier"
      std: 0.03
    }
    bias_filler {
      type: "constant"
      value: 0.2
    }
  }
}
layer {
  name: "inception_3a/relu_5x5"
  type: "ReLU"
  bottom: "inception_3a/5x5"
  top: "inception_3a/5x5"
}
layer {
  name: "inception_3a/pool"
  type: "Pooling"
  bottom: "pool2/3x3_s2"
  top: "inception_3a/pool"
  pooling_param {
    pool: MAX
    kernel_size: 3
    stride: 1
    pad: 1
  }
}
layer {
  name: "inception_3a/pool_proj"
  type: "Convolution"
  bottom: "inception_3a/pool"
  top: "inception_3a/pool_proj"
  param {
    lr_mult: 1
    decay_mult: 1
  }
  param {
    lr_mult: 2
    decay_mult: 0
  }
  convolution_param {
    num_output: 16
    kernel_size: 1
    weight_filler {
      type: "xavier"
      std: 0.1
    }
    bias_filler {
      type: "constant"
      value: 0.2
    }
  }
}
layer {
  name: "inception_3a/relu_pool_proj"
  type: "ReLU"
  bottom: "inception_3a/pool_proj"
  top: "inception_3a/pool_proj"
}
layer {
  name: "inception_3a/output"
  type: "Concat"
  bottom: "inception_3a/1x1"
  bottom: "inception_3a/3x3"
  bottom: "inception_3a/5x5"
  bottom: "inception_3a/pool_proj"
  top: "inception_3a/output"
}
layer {
  name: "inception_3b/1x1"
  type: "Convolution"
  bottom: "inception_3a/output"
  top: "inception_3b/1x1"
  param {
    lr_mult: 1
    decay_mult: 1
  }
  param {
    lr_mult: 2
    decay_mult: 0
  }
  convolution_param {
    num_output: 64
    kernel_size: 1
    weight_filler {
      type: "xavier"
      std: 0.03
    }
    bias_filler {
      type: "constant"
      value: 0.2
    }
  }
}
layer {
  name: "inception_3b/relu_1x1"
  type: "ReLU"
  bottom: "inception_3b/1x1"
  top: "inception_3b/1x1"
}
layer {
  name: "inception_3b/3x3_reduce"
  type: "Convolution"
  bottom: "inception_3a/output"
  top: "inception_3b/3x3_reduce"
  param {
    lr_mult: 1
    decay_mult: 1
  }
  param {
    lr_mult: 2
    decay_mult: 0
  }
  convolution_param {
    num_output: 64
    kernel_size: 1
    weight_filler {
      type: "xavier"
      std: 0.09
    }
    bias_filler {
      type: "constant"
      value: 0.2
    }
  }
}
layer {
  name: "inception_3b/relu_3x3_reduce"
  type: "ReLU"
  bottom: "inception_3b/3x3_reduce"
  top: "inception_3b/3x3_reduce"
}
layer {
  name: "inception_3b/3x3"
  type: "Convolution"
  bottom: "inception_3b/3x3_reduce"
  top: "inception_3b/3x3"
  param {
    lr_mult: 1
    decay_mult: 1
  }
  param {
    lr_mult: 2
    decay_mult: 0
  }
  convolution_param {
    num_output: 96
    pad: 1
    kernel_size: 3
    weight_filler {
      type: "xavier"
      std: 0.03
    }
    bias_filler {
      type: "constant"
      value: 0.2
    }
  }
}
layer {
  name: "inception_3b/relu_3x3"
  type: "ReLU"
  bottom: "inception_3b/3x3"
  top: "inception_3b/3x3"
}
layer {
  name: "inception_3b/5x5_reduce"
  type: "Convolution"
  bottom: "inception_3a/output"
  top: "inception_3b/5x5_reduce"
  param {
    lr_mult: 1
    decay_mult: 1
  }
  param {
    lr_mult: 2
    decay_mult: 0
  }
  convolution_param {
    num_output: 16
    kernel_size: 1
    weight_filler {
      type: "xavier"
      std: 0.2
    }
    bias_filler {
      type: "constant"
      value: 0.2
    }
  }
}
layer {
  name: "inception_3b/relu_5x5_reduce"
  type: "ReLU"
  bottom: "inception_3b/5x5_reduce"
  top: "inception_3b/5x5_reduce"
}
layer {
  name: "inception_3b/5x5"
  type: "Convolution"
  bottom: "inception_3b/5x5_reduce"
  top: "inception_3b/5x5"
  param {
    lr_mult: 1
    decay_mult: 1
  }
  param {
    lr_mult: 2
    decay_mult: 0
  }
  convolution_param {
    num_output: 48
    pad: 2
    kernel_size: 5
    weight_filler {
      type: "xavier"
      std: 0.03
    }
    bias_filler {
      type: "constant"
      value: 0.2
    }
  }
}
layer {
  name: "inception_3b/relu_5x5"
  type: "ReLU"
  bottom: "inception_3b/5x5"
  top: "inception_3b/5x5"
}
layer {
  name: "inception_3b/pool"
  type: "Pooling"
  bottom: "inception_3a/output"
  top: "inception_3b/pool"
  pooling_param {
    pool: MAX
    kernel_size: 3
    stride: 1
    pad: 1
  }
}
layer {
  name: "inception_3b/pool_proj"
  type: "Convolution"
  bottom: "inception_3b/pool"
  top: "inception_3b/pool_proj"
  param {
    lr_mult: 1
    decay_mult: 1
  }
  param {
    lr_mult: 2
    decay_mult: 0
  }
  convolution_param {
    num_output: 32
    kernel_size: 1
    weight_filler {
      type: "xavier"
      std: 0.1
    }
    bias_filler {
      type: "constant"
      value: 0.2
    }
  }
}
layer {
  name: "inception_3b/relu_pool_proj"
  type: "ReLU"
  bottom: "inception_3b/pool_proj"
  top: "inception_3b/pool_proj"
}
layer {
  name: "inception_3b/output"
  type: "Concat"
  bottom: "inception_3b/1x1"
  bottom: "inception_3b/3x3"
  bottom: "inception_3b/5x5"
  bottom: "inception_3b/pool_proj"
  top: "inception_3b/output"
}
layer {
  name: "pool3/3x3_s2"
  type: "Pooling"
  bottom: "inception_3b/output"
  top: "pool3/3x3_s2"
  pooling_param {
    pool: MAX
    kernel_size: 3
    stride: 2
  }
}
layer {
  name: "inception_4a/1x1"
  type: "Convolution"
  bottom: "pool3/3x3_s2"
  top: "inception_4a/1x1"
  param {
    lr_mult: 1
    decay_mult: 1
  }
  param {
    lr_mult: 2
    decay_mult: 0
  }
  convolution_param {
    num_output: 96
    kernel_size: 1
    weight_filler {
      type: "xavier"
      std: 0.03
    }
    bias_filler {
      type: "constant"
      value: 0.2
    }
  }
}
layer {
  name: "inception_4a/relu_1x1"
  type: "ReLU"
  bottom: "inception_4a/1x1"
  top: "inception_4a/1x1"
}
layer {
  name: "inception_4a/3x3_reduce"
  type: "Convolution"
  bottom: "pool3/3x3_s2"
  top: "inception_4a/3x3_reduce"
  param {
    lr_mult: 1
    decay_mult: 1
  }
  param {
    lr_mult: 2
    decay_mult: 0
  }
  convolution_param {
    num_output: 48
    kernel_size: 1
    weight_filler {
      type: "xavier"
      std: 0.09
    }
    bias_filler {
      type: "constant"
      value: 0.2
    }
  }
}
layer {
  name: "inception_4a/relu_3x3_reduce"
  type: "ReLU"
  bottom: "inception_4a/3x3_reduce"
  top: "inception_4a/3x3_reduce"
}
layer {
  name: "inception_4a/3x3"
  type: "Convolution"
  bottom: "inception_4a/3x3_reduce"
  top: "inception_4a/3x3"
  param {
    lr_mult: 1
    decay_mult: 1
  }
  param {
    lr_mult: 2
    decay_mult: 0
  }
  convolution_param {
    num_output: 104
    pad: 1
    kernel_size: 3
    weight_filler {
      type: "xavier"
      std: 0.03
    }
    bias_filler {
      type: "constant"
      value: 0.2
    }
  }
}
layer {
  name: "inception_4a/relu_3x3"
  type: "ReLU"
  bottom: "inception_4a/3x3"
  top: "inception_4a/3x3"
}
layer {
  name: "inception_4a/5x5_reduce"
  type: "Convolution"
  bottom: "pool3/3x3_s2"
  top: "inception_4a/5x5_reduce"
  param {
    lr_mult: 1
    decay_mult: 1
  }
  param {
    lr_mult: 2
    decay_mult: 0
  }
  convolution_param {
    num_output: 8
    kernel_size: 1
    weight_filler {
      type: "xavier"
      std: 0.2
    }
    bias_filler {
      type: "constant"
      value: 0.2
    }
  }
}
layer {
  name: "inception_4a/relu_5x5_reduce"
  type: "ReLU"
  bottom: "inception_4a/5x5_reduce"
  top: "inception_4a/5x5_reduce"
}
layer {
  name: "inception_4a/5x5"
  type: "Convolution"
  bottom: "inception_4a/5x5_reduce"
  top: "inception_4a/5x5"
  param {
    lr_mult: 1
    decay_mult: 1
  }
  param {
    lr_mult: 2
    decay_mult: 0
  }
  convolution_param {
    num_output: 24
    pad: 2
    kernel_size: 5
    weight_filler {
      type: "xavier"
      std: 0.03
    }
    bias_filler {
      type: "constant"
      value: 0.2
    }
  }
}
layer {
  name: "inception_4a/relu_5x5"
  type: "ReLU"
  bottom: "inception_4a/5x5"
  top: "inception_4a/5x5"
}
layer {
  name: "inception_4a/pool"
  type: "Pooling"
  bottom: "pool3/3x3_s2"
  top: "inception_4a/pool"
  pooling_param {
    pool: MAX
    kernel_size: 3
    stride: 1
    pad: 1
  }
}
layer {
  name: "inception_4a/pool_proj"
  type: "Convolution"
  bottom: "inception_4a/pool"
  top: "inception_4a/pool_proj"
  param {
    lr_mult: 1
    decay_mult: 1
  }
  param {
    lr_mult: 2
    decay_mult: 0
  }
  convolution_param {
    num_output: 32
    kernel_size: 1
    weight_filler {
      type: "xavier"
      std: 0.1
    }
    bias_filler {
      type: "constant"
      value: 0.2
    }
  }
}
layer {
  name: "inception_4a/relu_pool_proj"
  type: "ReLU"
  bottom: "inception_4a/pool_proj"
  top: "inception_4a/pool_proj"
}
layer {
  name: "inception_4a/output"
  type: "Concat"
  bottom: "inception_4a/1x1"
  bottom: "inception_4a/3x3"
  bottom: "inception_4a/5x5"
  bottom: "inception_4a/pool_proj"
  top: "inception_4a/output"
}
layer {
  name: "inception_4b/1x1"
  type: "Convolution"
  bottom: "inception_4a/output"
  top: "inception_4b/1x1"
  param {
    lr_mult: 1
    decay_mult: 1
  }
  param {
    lr_mult: 2
    decay_mult: 0
  }
  convolution_param {
    num_output: 80
    kernel_size: 1
    weight_filler {
      type: "xavier"
      std: 0.03
    }
    bias_filler {
      type: "constant"
      value: 0.2
    }
  }
}
layer {
  name: "inception_4b/relu_1x1"
  type: "ReLU"
  bottom: "inception_4b/1x1"
  top: "inception_4b/1x1"
}
layer {
  name: "inception_4b/3x3_reduce"
  type: "Convolution"
  bottom: "inception_4a/output"
  top: "inception_4b/3x3_reduce"
  param {
    lr_mult: 1
    decay_mult: 1
  }
  param {
    lr_mult: 2
    decay_mult: 0
  }
  convolution_param {
    num_output: 56
    kernel_size: 1
    weight_filler {
      type: "xavier"
      std: 0.09
    }
    bias_filler {
      type: "constant"
      value: 0.2
    }
  }
}
layer {
  name: "inception_4b/relu_3x3_reduce"
  type: "ReLU"
  bottom: "inception_4b/3x3_reduce"
  top: "inception_4b/3x3_reduce"
}
layer {
  name: "inception_4b/3x3"
  type: "Convolution"
  bottom: "inception_4b/3x3_reduce"
  top: "inception_4b/3x3"
  param {
    lr_mult: 1
    decay_mult: 1
  }
  param {
    lr_mult: 2
    decay_mult: 0
  }
  convolution_param {
    num_output: 112
    pad: 1
    kernel_size: 3
    weight_filler {
      type: "xavier"
      std: 0.03
    }
    bias_filler {
      type: "constant"
      value: 0.2
    }
  }
}
layer {
  name: "inception_4b/relu_3x3"
  type: "ReLU"
  bottom: "inception_4b/3x3"
  top: "inception_4b/3x3"
}
layer {
  name: "inception_4b/5x5_reduce"
  type: "Convolution"
  bottom: "inception_4a/output"
  top: "inception_4b/5x5_reduce"
  param {
    lr_mult: 1
    decay_mult: 1
  }
  param {
    lr_mult: 2
    decay_mult: 0
  }
  convolution_param {
    num_output: 12
    kernel_size: 1
    weight_filler {
      type: "xavier"
      std: 0.2
    }
    bias_filler {
      type: "constant"
      value: 0.2
    }
  }
}
layer {
  name: "inception_4b/relu_5x5_reduce"
  type: "ReLU"
  bottom: "inception_4b/5x5_reduce"
  top: "inception_4b/5x5_reduce"
}
layer {
  name: "inception_4b/5x5"
  type: "Convolution"
  bottom: "inception_4b/5x5_reduce"
  top: "inception_4b/5x5"
  param {
    lr_mult: 1
    decay_mult: 1
  }
  param {
    lr_mult: 2
    decay_mult: 0
  }
  convolution_param {
    num_output: 32
    pad: 2
    kernel_size: 5
    weight_filler {
      type: "xavier"
      std: 0.03
    }
    bias_filler {
      type: "constant"
      value: 0.2
    }
  }
}
layer {
  name: "inception_4b/relu_5x5"
  type: "ReLU"
  bottom: "inception_4b/5x5"
  top: "inception_4b/5x5"
}
layer {
  name: "inception_4b/pool"
  type: "Pooling"
  bottom: "inception_4a/output"
  top: "inception_4b/pool"
  pooling_param {
    pool: MAX
    kernel_size: 3
    stride: 1
    pad: 1
  }
}
layer {
  name: "inception_4b/pool_proj"
  type: "Convolution"
  bottom: "inception_4b/pool"
  top: "inception_4b/pool_proj"
  param {
    lr_mult: 1
    decay_mult: 1
  }
  param {
    lr_mult: 2
    decay_mult: 0
  }
  convolution_param {
    num_output: 32
    kernel_size: 1
    weight_filler {
      type: "xavier"
      std: 0.1
    }
    bias_filler {
      type: "constant"
      value: 0.2
    }
  }
}
layer {
  name: "inception_4b/relu_pool_proj"
  type: "ReLU"
  bottom: "inception_4b/pool_proj"
  top: "inception_4b/pool_proj"
}
layer {
  name: "inception_4b/output"
  type: "Concat"
  bottom: "inception_4b/1x1"
  bottom: "inception_4b/3x3"
  bottom: "inception_4b/5x5"
  bottom: "inception_4b/pool_proj"
  top: "inception_4b/output"
}
layer {
  name: "inception_4c/1x1"
  type: "Convolution"
  bottom: "inception_4b/output"
  top: "inception_4c/1x1"
  param {
    lr_mult: 1
    decay_mult: 1
  }
  param {
    lr_mult: 2
    decay_mult: 0
  }
  convolution_param {
    num_output: 64
    kernel_size: 1
    weight_filler {
      type: "xavier"
      std: 0.03
    }
    bias_filler {
      type: "constant"
      value: 0.2
    }
  }
}
layer {
  name: "inception_4c/relu_1x1"
  type: "ReLU"
  bottom: "inception_4c/1x1"
  top: "inception_4c/1x1"
}
layer {
  name: "inception_4c/3x3_reduce"
  type: "Convolution"
  bottom: "inception_4b/output"
  top: "inception_4c/3x3_reduce"
  param {
    lr_mult: 1
    decay_mult: 1
  }
  param {
    lr_mult: 2
    decay_mult: 0
  }
  convolution_param {
    num_output: 64
    kernel_size: 1
    weight_filler {
      type: "xavier"
      std: 0.09
    }
    bias_filler {
      type: "constant"
      value: 0.2
    }
  }
}
layer {
  name: "inception_4c/relu_3x3_reduce"
  type: "ReLU"
  bottom: "inception_4c/3x3_reduce"
  top: "inception_4c/3x3_reduce"
}
layer {
  name: "inception_4c/3x3"
  type: "Convolution"
  bottom: "inception_4c/3x3_reduce"
  top: "inception_4c/3x3"
  param {
    lr_mult: 1
    decay_mult: 1
  }
  param {
    lr_mult: 2
    decay_mult: 0
  }
  convolution_param {
    num_output: 128
    pad: 1
    kernel_size: 3
    weight_filler {
      type: "xavier"
      std: 0.03
    }
    bias_filler {
      type: "constant"
      value: 0.2
    }
  }
}
layer {
  name: "inception_4c/relu_3x3"
  type: "ReLU"
  bottom: "inception_4c/3x3"
  top: "inception_4c/3x3"
}
layer {
  name: "inception_4c/5x5_reduce"
  type: "Convolution"
  bottom: "inception_4b/output"
  top: "inception_4c/5x5_reduce"
  param {
    lr_mult: 1
    decay_mult: 1
  }
  param {
    lr_mult: 2
    decay_mult: 0
  }
  convolution_param {
    num_output: 12
    kernel_size: 1
    weight_filler {
      type: "xavier"
      std: 0.2
    }
    bias_filler {
      type: "constant"
      value: 0.2
    }
  }
}
layer {
  name: "inception_4c/relu_5x5_reduce"
  type: "ReLU"
  bottom: "inception_4c/5x5_reduce"
  top: "inception_4c/5x5_reduce"
}
layer {
  name: "inception_4c/5x5"
  type: "Convolution"
  bottom: "inception_4c/5x5_reduce"
  top: "inception_4c/5x5"
  param {
    lr_mult: 1
    decay_mult: 1
  }
  param {
    lr_mult: 2
    decay_mult: 0
  }
  convolution_param {
    num_output: 32
    pad: 2
    kernel_size: 5
    weight_filler {
      type: "xavier"
      std: 0.03
    }
    bias_filler {
      type: "constant"
      value: 0.2
    }
  }
}
layer {
  name: "inception_4c/relu_5x5"
  type: "ReLU"
  bottom: "inception_4c/5x5"
  top: "inception_4c/5x5"
}
layer {
  name: "inception_4c/pool"
  type: "Pooling"
  bottom: "inception_4b/output"
  top: "inception_4c/pool"
  pooling_param {
    pool: MAX
    kernel_size: 3
    stride: 1
    pad: 1
  }
}
layer {
  name: "inception_4c/pool_proj"
  type: "Convolution"
  bottom: "inception_4c/pool"
  top: "inception_4c/pool_proj"
  param {
    lr_mult: 1
    decay_mult: 1
  }
  param {
    lr_mult: 2
    decay_mult: 0
  }
  convolution_param {
    num_output: 32
    kernel_size: 1
    weight_filler {
      type: "xavier"
      std: 0.1
    }
    bias_filler {
      type: "constant"
      value: 0.2
    }
  }
}
layer {
  name: "inception_4c/relu_pool_proj"
  type: "ReLU"
  bottom: "inception_4c/pool_proj"
  top: "inception_4c/pool_proj"
}
layer {
  name: "inception_4c/output"
  type: "Concat"
  bottom: "inception_4c/1x1"
  bottom: "inception_4c/3x3"
  bottom: "inception_4c/5x5"
  bottom: "inception_4c/pool_proj"
  top: "inception_4c/output"
}
layer {
  name: "inception_4d/1x1"
  type: "Convolution"
  bottom: "inception_4c/output"
  top: "inception_4d/1x1"
  param {
    lr_mult: 1
    decay_mult: 1
  }
  param {
    lr_mult: 2
    decay_mult: 0
  }
  convolution_param {
    num_output: 56
    kernel_size: 1
    weight_filler {
      type: "xavier"
      std: 0.03
    }
    bias_filler {
      type: "constant"
      value: 0.2
    }
  }
}
layer {
  name: "inception_4d/relu_1x1"
  type: "ReLU"
  bottom: "inception_4d/1x1"
  top: "inception_4d/1x1"
}
layer {
  name: "inception_4d/3x3_reduce"
  type: "Convolution"
  bottom: "inception_4c/output"
  top: "inception_4d/3x3_reduce"
  param {
    lr_mult: 1
    decay_mult: 1
  }
  param {
    lr_mult: 2
    decay_mult: 0
  }
  convolution_param {
    num_output: 72
    kernel_size: 1
    weight_filler {
      type: "xavier"
      std: 0.09
    }
    bias_filler {
      type: "constant"
      value: 0.2
    }
  }
}
layer {
  name: "inception_4d/relu_3x3_reduce"
  type: "ReLU"
  bottom: "inception_4d/3x3_reduce"
  top: "inception_4d/3x3_reduce"
}
layer {
  name: "inception_4d/3x3"
  type: "Convolution"
  bottom: "inception_4d/3x3_reduce"
  top: "inception_4d/3x3"
  param {
    lr_mult: 1
    decay_mult: 1
  }
  param {
    lr_mult: 2
    decay_mult: 0
  }
  convolution_param {
    num_output: 144
    pad: 1
    kernel_size: 3
    weight_filler {
      type: "xavier"
      std: 0.03
    }
    bias_filler {
      type: "constant"
      value: 0.2
    }
  }
}
layer {
  name: "inception_4d/relu_3x3"
  type: "ReLU"
  bottom: "inception_4d/3x3"
  top: "inception_4d/3x3"
}
layer {
  name: "inception_4d/5x5_reduce"
  type: "Convolution"
  bottom: "inception_4c/output"
  top: "inception_4d/5x5_reduce"
  param {
    lr_mult: 1
    decay_mult: 1
  }
  param {
    lr_mult: 2
    decay_mult: 0
  }
  convolution_param {
    num_output: 16
    kernel_size: 1
    weight_filler {
      type: "xavier"
      std: 0.2
    }
    bias_filler {
      type: "constant"
      value: 0.2
    }
  }
}
layer {
  name: "inception_4d/relu_5x5_reduce"
  type: "ReLU"
  bottom: "inception_4d/5x5_reduce"
  top: "inception_4d/5x5_reduce"
}
layer {
  name: "inception_4d/5x5"
  type: "Convolution"
  bottom: "inception_4d/5x5_reduce"
  top: "inception_4d/5x5"
  param {
    lr_mult: 1
    decay_mult: 1
  }
  param {
    lr_mult: 2
    decay_mult: 0
  }
  convolution_param {
    num_output: 32
    pad: 2
    kernel_size: 5
    weight_filler {
      type: "xavier"
      std: 0.03
    }
    bias_filler {
      type: "constant"
      value: 0.2
    }
  }
}
layer {
  name: "inception_4d/relu_5x5"
  type: "ReLU"
  bottom: "inception_4d/5x5"
  top: "inception_4d/5x5"
}
layer {
  name: "inception_4d/pool"
  type: "Pooling"
  bottom: "inception_4c/output"
  top: "inception_4d/pool"
  pooling_param {
    pool: MAX
    kernel_size: 3
    stride: 1
    pad: 1
  }
}
layer {
  name: "inception_4d/pool_proj"
  type: "Convolution"
  bottom: "inception_4d/pool"
  top: "inception_4d/pool_proj"
  param {
    lr_mult: 1
    decay_mult: 1
  }
  param {
    lr_mult: 2
    decay_mult: 0
  }
  convolution_param {
    num_output: 32
    kernel_size: 1
    weight_filler {
      type: "xavier"
      std: 0.1
    }
    bias_filler {
      type: "constant"
      value: 0.2
    }
  }
}
layer {
  name: "inception_4d/relu_pool_proj"
  type: "ReLU"
  bottom: "inception_4d/pool_proj"
  top: "inception_4d/pool_proj"
}
layer {
  name: "inception_4d/output"
  type: "Concat"
  bottom: "inception_4d/1x1"
  bottom: "inception_4d/3x3"
  bottom: "inception_4d/5x5"
  bottom: "inception_4d/pool_proj"
  top: "inception_4d/output"
}
layer {
  name: "inception_4e/1x1"
  type: "Convolution"
  bottom: "inception_4d/output"
  top: "inception_4e/1x1"
  param {
    lr_mult: 1
    decay_mult: 1
  }
  param {
    lr_mult: 2
    decay_mult: 0
  }
  convolution_param {
    num_output: 128
    kernel_size: 1
    weight_filler {
      type: "xavier"
      std: 0.03
    }
    bias_filler {
      type: "constant"
      value: 0.2
    }
  }
}
layer {
  name: "inception_4e/relu_1x1"
  type: "ReLU"
  bottom: "inception_4e/1x1"
  top: "inception_4e/1x1"
}
layer {
  name: "inception_4e/3x3_reduce"
  type: "Convolution"
  bottom: "inception_4d/output"
  top: "inception_4e/3x3_reduce"
  param {
    lr_mult: 1
    decay_mult: 1
  }
  param {
    lr_mult: 2
    decay_mult: 0
  }
  convolution_param {
    num_output: 80
    kernel_size: 1
    weight_filler {
      type: "xavier"
      std: 0.09
    }
    bias_filler {
      type: "constant"
      value: 0.2
    }
  }
}
layer {
  name: "inception_4e/relu_3x3_reduce"
  type: "ReLU"
  bottom: "inception_4e/3x3_reduce"
  top: "inception_4e/3x3_reduce"
}
layer {
  name: "inception_4e/3x3"
  type: "Convolution"
  bottom: "inception_4e/3x3_reduce"
  top: "inception_4e/3x3"
  param {
    lr_mult: 1
    decay_mult: 1
  }
  param {
    lr_mult: 2
    decay_mult: 0
  }
  convolution_param {
    num_output: 160
    pad: 1
    kernel_size: 3
    weight_filler {
      type: "xavier"
      std: 0.03
    }
    bias_filler {
      type: "constant"
      value: 0.2
    }
  }
}
layer {
  name: "inception_4e/relu_3x3"
  type: "ReLU"
  bottom: "inception_4e/3x3"
  top: "inception_4e/3x3"
}
layer {
  name: "inception_4e/5x5_reduce"
  type: "Convolution"
  bottom: "inception_4d/output"
  top: "inception_4e/5x5_reduce"
  param {
    lr_mult: 1
    decay_mult: 1
  }
  param {
    lr_mult: 2
    decay_mult: 0
  }
  convolution_param {
    num_output: 16
    kernel_size: 1
    weight_filler {
      type: "xavier"
      std: 0.2
    }
    bias_filler {
      type: "constant"
      value: 0.2
    }
  }
}
layer {
  name: "inception_4e/relu_5x5_reduce"
  type: "ReLU"
  bottom: "inception_4e/5x5_reduce"
  top: "inception_4e/5x5_reduce"
}
layer {
  name: "inception_4e/5x5"
  type: "Convolution"
  bottom: "inception_4e/5x5_reduce"
  top: "inception_4e/5x5"
  param {
    lr_mult: 1
    decay_mult: 1
  }
  param {
    lr_mult: 2
    decay_mult: 0
  }
  convolution_param {
    num_output: 64
    pad: 2
    kernel_size: 5
    weight_filler {
      type: "xavier"
      std: 0.03
    }
    bias_filler {
      type: "constant"
      value: 0.2
    }
  }
}
layer {
  name: "inception_4e/relu_5x5"
  type: "ReLU"
  bottom: "inception_4e/5x5"
  top: "inception_4e/5x5"
}
layer {
  name: "inception_4e/pool"
  type: "Pooling"
  bottom: "inception_4d/output"
  top: "inception_4e/pool"
  pooling_param {
    pool: MAX
    kernel_size: 3
    stride: 1
    pad: 1
  }
}
layer {
  name: "inception_4e/pool_proj"
  type: "Convolution"
  bottom: "inception_4e/pool"
  top: "inception_4e/pool_proj"
  param {
    lr_mult: 1
    decay_mult: 1
  }
  param {
    lr_mult: 2
    decay_mult: 0
  }
  convolution_param {
    num_output: 64
    kernel_size: 1
    weight_filler {
      type: "xavier"
      std: 0.1
    }
    bias_filler {
      type: "constant"
      value: 0.2
    }
  }
}
layer {
  name: "inception_4e/relu_pool_proj"
  type: "ReLU"
  bottom: "inception_4e/pool_proj"
  top: "inception_4e/pool_proj"
}
layer {
  name: "inception_4e/output"
  type: "Concat"
  bottom: "inception_4e/1x1"
  bottom: "inception_4e/3x3"
  bottom: "inception_4e/5x5"
  bottom: "inception_4e/pool_proj"
  top: "inception_4e/output"
}
layer {
  name: "conv_16"
  type: "Convolution"
  bottom: "inception_4e/output"
  top: "conv_16"
  param {
    lr_mult: 1
    decay_mult: 1
  }
  param {
    lr_mult: 2
    decay_mult: 0
  }
  convolution_param {
    num_output: 128
    kernel_size: 1
    weight_filler {
      type: "gaussian"
      std: 0.01
    }
    bias_filler {
      type: "constant"
      value: 0
    }
  }
}
layer {
  name: "relu_16"
  type: "ReLU"
  bottom: "conv_16"
  top: "conv_16"
}
layer {
  name: "conv_face_predict"
  type: "Convolution"
  bottom: "conv_16"
  top: "conv_face_predict"
  param {
    lr_mult: 1
    decay_mult: 1
  }
  param {
    lr_mult: 2
    decay_mult: 0
  }
  convolution_param {
    num_output: 20
    kernel_size: 1
    weight_filler {
      type: "gaussian"
      std: 0.01
    }
    bias_filler {
      type: "constant"
      value: 0
    }
  }
}
layer {
  name: "pool5/7x7_s1"
  type: "Pooling"
  bottom: "conv_face_predict"
  top: "pool5/7x7_s1"
  pooling_param {
    pool: AVE
    kernel_size: 4
    stride: 1
  }
}
layer {
  name: "pool5/drop_7x7_s1"
  type: "Dropout"
  bottom: "pool5/7x7_s1"
  top: "pool5/7x7_s1"
  dropout_param {
    dropout_ratio: 0.4
  }
}
layer {
  name: "loss3_my/predict"
  type: "InnerProduct"
  bottom: "pool5/7x7_s1"
  top: "loss3_my/predict"
  param {
    lr_mult: 1
    decay_mult: 1
  }
  param {
    lr_mult: 2
    decay_mult: 0
  }
  inner_product_param {
    num_output: 1
    weight_filler {
      type: "xavier"
    }
    bias_filler {
      type: "constant"
      value: 0
    }
  }
}
layer {
  name: "loss3_my/loss3_my"
  type: "Python"
  bottom: "loss3_my/predict"
  bottom: "label"
  top: "loss3_my/loss3_my"
  loss_weight: 1
  python_param {
    module: "robust_loss"
    layer: "RobustLossLayer"
  }
}
layer {
  name: "loss3_my/loss3_test"
  type: "Python"
  bottom: "loss3_my/predict"
  bottom: "label"
  top: "loss3_my/loss3_test"
  loss_weight: 1
  include {
    phase: TEST
  }
  python_param {
    module: "robust_loss"
    layer: "RobustLossLayer"
  }
}
I0322 17:25:27.445525 29807 layer_factory.hpp:77] Creating layer data
I0322 17:25:27.445571 29807 net.cpp:86] Creating Layer data
I0322 17:25:27.445583 29807 net.cpp:382] data -> data
I0322 17:25:27.445595 29807 net.cpp:382] data -> label
I0322 17:25:27.475272 29807 net.cpp:124] Setting up data
I0322 17:25:27.475299 29807 net.cpp:131] Top shape: 128 3 224 224 (19267584)
I0322 17:25:27.475308 29807 net.cpp:131] Top shape: 128 1 (128)
I0322 17:25:27.475314 29807 net.cpp:139] Memory required for data: 77070848
I0322 17:25:27.475322 29807 layer_factory.hpp:77] Creating layer label_data_1_split
I0322 17:25:27.475332 29807 net.cpp:86] Creating Layer label_data_1_split
I0322 17:25:27.475339 29807 net.cpp:408] label_data_1_split <- label
I0322 17:25:27.475348 29807 net.cpp:382] label_data_1_split -> label_data_1_split_0
I0322 17:25:27.475359 29807 net.cpp:382] label_data_1_split -> label_data_1_split_1
I0322 17:25:27.475405 29807 net.cpp:124] Setting up label_data_1_split
I0322 17:25:27.475419 29807 net.cpp:131] Top shape: 128 1 (128)
I0322 17:25:27.475427 29807 net.cpp:131] Top shape: 128 1 (128)
I0322 17:25:27.475432 29807 net.cpp:139] Memory required for data: 77071872
I0322 17:25:27.475438 29807 layer_factory.hpp:77] Creating layer conv1/7x7_s2
I0322 17:25:27.475452 29807 net.cpp:86] Creating Layer conv1/7x7_s2
I0322 17:25:27.475466 29807 net.cpp:408] conv1/7x7_s2 <- data
I0322 17:25:27.475476 29807 net.cpp:382] conv1/7x7_s2 -> conv1/7x7_s2
I0322 17:25:27.475790 29807 net.cpp:124] Setting up conv1/7x7_s2
I0322 17:25:27.475807 29807 net.cpp:131] Top shape: 128 32 112 112 (51380224)
I0322 17:25:27.475814 29807 net.cpp:139] Memory required for data: 282592768
I0322 17:25:27.475828 29807 layer_factory.hpp:77] Creating layer conv1/relu_7x7
I0322 17:25:27.475837 29807 net.cpp:86] Creating Layer conv1/relu_7x7
I0322 17:25:27.475862 29807 net.cpp:408] conv1/relu_7x7 <- conv1/7x7_s2
I0322 17:25:27.475872 29807 net.cpp:369] conv1/relu_7x7 -> conv1/7x7_s2 (in-place)
I0322 17:25:27.475883 29807 net.cpp:124] Setting up conv1/relu_7x7
I0322 17:25:27.475890 29807 net.cpp:131] Top shape: 128 32 112 112 (51380224)
I0322 17:25:27.475895 29807 net.cpp:139] Memory required for data: 488113664
I0322 17:25:27.475901 29807 layer_factory.hpp:77] Creating layer pool1/3x3_s2
I0322 17:25:27.475910 29807 net.cpp:86] Creating Layer pool1/3x3_s2
I0322 17:25:27.475916 29807 net.cpp:408] pool1/3x3_s2 <- conv1/7x7_s2
I0322 17:25:27.475924 29807 net.cpp:382] pool1/3x3_s2 -> pool1/3x3_s2
I0322 17:25:27.475971 29807 net.cpp:124] Setting up pool1/3x3_s2
I0322 17:25:27.475986 29807 net.cpp:131] Top shape: 128 32 56 56 (12845056)
I0322 17:25:27.475992 29807 net.cpp:139] Memory required for data: 539493888
I0322 17:25:27.475998 29807 layer_factory.hpp:77] Creating layer pool1/norm1
I0322 17:25:27.476007 29807 net.cpp:86] Creating Layer pool1/norm1
I0322 17:25:27.476013 29807 net.cpp:408] pool1/norm1 <- pool1/3x3_s2
I0322 17:25:27.476022 29807 net.cpp:382] pool1/norm1 -> pool1/norm1
I0322 17:25:27.476063 29807 net.cpp:124] Setting up pool1/norm1
I0322 17:25:27.476076 29807 net.cpp:131] Top shape: 128 32 56 56 (12845056)
I0322 17:25:27.476083 29807 net.cpp:139] Memory required for data: 590874112
I0322 17:25:27.476089 29807 layer_factory.hpp:77] Creating layer conv2/3x3_reduce
I0322 17:25:27.476099 29807 net.cpp:86] Creating Layer conv2/3x3_reduce
I0322 17:25:27.476106 29807 net.cpp:408] conv2/3x3_reduce <- pool1/norm1
I0322 17:25:27.476115 29807 net.cpp:382] conv2/3x3_reduce -> conv2/3x3_reduce
I0322 17:25:27.476378 29807 net.cpp:124] Setting up conv2/3x3_reduce
I0322 17:25:27.476395 29807 net.cpp:131] Top shape: 128 32 56 56 (12845056)
I0322 17:25:27.476402 29807 net.cpp:139] Memory required for data: 642254336
I0322 17:25:27.476413 29807 layer_factory.hpp:77] Creating layer conv2/relu_3x3_reduce
I0322 17:25:27.476423 29807 net.cpp:86] Creating Layer conv2/relu_3x3_reduce
I0322 17:25:27.476430 29807 net.cpp:408] conv2/relu_3x3_reduce <- conv2/3x3_reduce
I0322 17:25:27.476438 29807 net.cpp:369] conv2/relu_3x3_reduce -> conv2/3x3_reduce (in-place)
I0322 17:25:27.476446 29807 net.cpp:124] Setting up conv2/relu_3x3_reduce
I0322 17:25:27.476454 29807 net.cpp:131] Top shape: 128 32 56 56 (12845056)
I0322 17:25:27.476460 29807 net.cpp:139] Memory required for data: 693634560
I0322 17:25:27.476465 29807 layer_factory.hpp:77] Creating layer conv2/3x3
I0322 17:25:27.476476 29807 net.cpp:86] Creating Layer conv2/3x3
I0322 17:25:27.476483 29807 net.cpp:408] conv2/3x3 <- conv2/3x3_reduce
I0322 17:25:27.476491 29807 net.cpp:382] conv2/3x3 -> conv2/3x3
I0322 17:25:27.477181 29807 net.cpp:124] Setting up conv2/3x3
I0322 17:25:27.477207 29807 net.cpp:131] Top shape: 128 96 56 56 (38535168)
I0322 17:25:27.477217 29807 net.cpp:139] Memory required for data: 847775232
I0322 17:25:27.477237 29807 layer_factory.hpp:77] Creating layer conv2/relu_3x3
I0322 17:25:27.477252 29807 net.cpp:86] Creating Layer conv2/relu_3x3
I0322 17:25:27.477262 29807 net.cpp:408] conv2/relu_3x3 <- conv2/3x3
I0322 17:25:27.477275 29807 net.cpp:369] conv2/relu_3x3 -> conv2/3x3 (in-place)
I0322 17:25:27.477291 29807 net.cpp:124] Setting up conv2/relu_3x3
I0322 17:25:27.477311 29807 net.cpp:131] Top shape: 128 96 56 56 (38535168)
I0322 17:25:27.477324 29807 net.cpp:139] Memory required for data: 1001915904
I0322 17:25:27.477334 29807 layer_factory.hpp:77] Creating layer conv2/norm2
I0322 17:25:27.477350 29807 net.cpp:86] Creating Layer conv2/norm2
I0322 17:25:27.477363 29807 net.cpp:408] conv2/norm2 <- conv2/3x3
I0322 17:25:27.477381 29807 net.cpp:382] conv2/norm2 -> conv2/norm2
I0322 17:25:27.477448 29807 net.cpp:124] Setting up conv2/norm2
I0322 17:25:27.477469 29807 net.cpp:131] Top shape: 128 96 56 56 (38535168)
I0322 17:25:27.477483 29807 net.cpp:139] Memory required for data: 1156056576
I0322 17:25:27.477495 29807 layer_factory.hpp:77] Creating layer pool2/3x3_s2
I0322 17:25:27.477512 29807 net.cpp:86] Creating Layer pool2/3x3_s2
I0322 17:25:27.477543 29807 net.cpp:408] pool2/3x3_s2 <- conv2/norm2
I0322 17:25:27.477562 29807 net.cpp:382] pool2/3x3_s2 -> pool2/3x3_s2
I0322 17:25:27.477632 29807 net.cpp:124] Setting up pool2/3x3_s2
I0322 17:25:27.477653 29807 net.cpp:131] Top shape: 128 96 28 28 (9633792)
I0322 17:25:27.477666 29807 net.cpp:139] Memory required for data: 1194591744
I0322 17:25:27.477676 29807 layer_factory.hpp:77] Creating layer pool2/3x3_s2_pool2/3x3_s2_0_split
I0322 17:25:27.477692 29807 net.cpp:86] Creating Layer pool2/3x3_s2_pool2/3x3_s2_0_split
I0322 17:25:27.477715 29807 net.cpp:408] pool2/3x3_s2_pool2/3x3_s2_0_split <- pool2/3x3_s2
I0322 17:25:27.477733 29807 net.cpp:382] pool2/3x3_s2_pool2/3x3_s2_0_split -> pool2/3x3_s2_pool2/3x3_s2_0_split_0
I0322 17:25:27.477753 29807 net.cpp:382] pool2/3x3_s2_pool2/3x3_s2_0_split -> pool2/3x3_s2_pool2/3x3_s2_0_split_1
I0322 17:25:27.477773 29807 net.cpp:382] pool2/3x3_s2_pool2/3x3_s2_0_split -> pool2/3x3_s2_pool2/3x3_s2_0_split_2
I0322 17:25:27.477792 29807 net.cpp:382] pool2/3x3_s2_pool2/3x3_s2_0_split -> pool2/3x3_s2_pool2/3x3_s2_0_split_3
I0322 17:25:27.477892 29807 net.cpp:124] Setting up pool2/3x3_s2_pool2/3x3_s2_0_split
I0322 17:25:27.477917 29807 net.cpp:131] Top shape: 128 96 28 28 (9633792)
I0322 17:25:27.477933 29807 net.cpp:131] Top shape: 128 96 28 28 (9633792)
I0322 17:25:27.477949 29807 net.cpp:131] Top shape: 128 96 28 28 (9633792)
I0322 17:25:27.477964 29807 net.cpp:131] Top shape: 128 96 28 28 (9633792)
I0322 17:25:27.477973 29807 net.cpp:139] Memory required for data: 1348732416
I0322 17:25:27.477987 29807 layer_factory.hpp:77] Creating layer inception_3a/1x1
I0322 17:25:27.478008 29807 net.cpp:86] Creating Layer inception_3a/1x1
I0322 17:25:27.478021 29807 net.cpp:408] inception_3a/1x1 <- pool2/3x3_s2_pool2/3x3_s2_0_split_0
I0322 17:25:27.478040 29807 net.cpp:382] inception_3a/1x1 -> inception_3a/1x1
I0322 17:25:27.478363 29807 net.cpp:124] Setting up inception_3a/1x1
I0322 17:25:27.478382 29807 net.cpp:131] Top shape: 128 32 28 28 (3211264)
I0322 17:25:27.478389 29807 net.cpp:139] Memory required for data: 1361577472
I0322 17:25:27.478399 29807 layer_factory.hpp:77] Creating layer inception_3a/relu_1x1
I0322 17:25:27.478410 29807 net.cpp:86] Creating Layer inception_3a/relu_1x1
I0322 17:25:27.478415 29807 net.cpp:408] inception_3a/relu_1x1 <- inception_3a/1x1
I0322 17:25:27.478423 29807 net.cpp:369] inception_3a/relu_1x1 -> inception_3a/1x1 (in-place)
I0322 17:25:27.478433 29807 net.cpp:124] Setting up inception_3a/relu_1x1
I0322 17:25:27.478443 29807 net.cpp:131] Top shape: 128 32 28 28 (3211264)
I0322 17:25:27.478449 29807 net.cpp:139] Memory required for data: 1374422528
I0322 17:25:27.478454 29807 layer_factory.hpp:77] Creating layer inception_3a/3x3_reduce
I0322 17:25:27.478467 29807 net.cpp:86] Creating Layer inception_3a/3x3_reduce
I0322 17:25:27.478477 29807 net.cpp:408] inception_3a/3x3_reduce <- pool2/3x3_s2_pool2/3x3_s2_0_split_1
I0322 17:25:27.478488 29807 net.cpp:382] inception_3a/3x3_reduce -> inception_3a/3x3_reduce
I0322 17:25:27.478792 29807 net.cpp:124] Setting up inception_3a/3x3_reduce
I0322 17:25:27.478809 29807 net.cpp:131] Top shape: 128 48 28 28 (4816896)
I0322 17:25:27.478816 29807 net.cpp:139] Memory required for data: 1393690112
I0322 17:25:27.478830 29807 layer_factory.hpp:77] Creating layer inception_3a/relu_3x3_reduce
I0322 17:25:27.478843 29807 net.cpp:86] Creating Layer inception_3a/relu_3x3_reduce
I0322 17:25:27.478850 29807 net.cpp:408] inception_3a/relu_3x3_reduce <- inception_3a/3x3_reduce
I0322 17:25:27.478858 29807 net.cpp:369] inception_3a/relu_3x3_reduce -> inception_3a/3x3_reduce (in-place)
I0322 17:25:27.478868 29807 net.cpp:124] Setting up inception_3a/relu_3x3_reduce
I0322 17:25:27.478878 29807 net.cpp:131] Top shape: 128 48 28 28 (4816896)
I0322 17:25:27.478883 29807 net.cpp:139] Memory required for data: 1412957696
I0322 17:25:27.478888 29807 layer_factory.hpp:77] Creating layer inception_3a/3x3
I0322 17:25:27.478901 29807 net.cpp:86] Creating Layer inception_3a/3x3
I0322 17:25:27.478909 29807 net.cpp:408] inception_3a/3x3 <- inception_3a/3x3_reduce
I0322 17:25:27.478937 29807 net.cpp:382] inception_3a/3x3 -> inception_3a/3x3
I0322 17:25:27.479451 29807 net.cpp:124] Setting up inception_3a/3x3
I0322 17:25:27.479470 29807 net.cpp:131] Top shape: 128 64 28 28 (6422528)
I0322 17:25:27.479475 29807 net.cpp:139] Memory required for data: 1438647808
I0322 17:25:27.479485 29807 layer_factory.hpp:77] Creating layer inception_3a/relu_3x3
I0322 17:25:27.479495 29807 net.cpp:86] Creating Layer inception_3a/relu_3x3
I0322 17:25:27.479504 29807 net.cpp:408] inception_3a/relu_3x3 <- inception_3a/3x3
I0322 17:25:27.479512 29807 net.cpp:369] inception_3a/relu_3x3 -> inception_3a/3x3 (in-place)
I0322 17:25:27.479522 29807 net.cpp:124] Setting up inception_3a/relu_3x3
I0322 17:25:27.479532 29807 net.cpp:131] Top shape: 128 64 28 28 (6422528)
I0322 17:25:27.479538 29807 net.cpp:139] Memory required for data: 1464337920
I0322 17:25:27.479543 29807 layer_factory.hpp:77] Creating layer inception_3a/5x5_reduce
I0322 17:25:27.479557 29807 net.cpp:86] Creating Layer inception_3a/5x5_reduce
I0322 17:25:27.479565 29807 net.cpp:408] inception_3a/5x5_reduce <- pool2/3x3_s2_pool2/3x3_s2_0_split_2
I0322 17:25:27.479575 29807 net.cpp:382] inception_3a/5x5_reduce -> inception_3a/5x5_reduce
I0322 17:25:27.479837 29807 net.cpp:124] Setting up inception_3a/5x5_reduce
I0322 17:25:27.479854 29807 net.cpp:131] Top shape: 128 8 28 28 (802816)
I0322 17:25:27.479861 29807 net.cpp:139] Memory required for data: 1467549184
I0322 17:25:27.479869 29807 layer_factory.hpp:77] Creating layer inception_3a/relu_5x5_reduce
I0322 17:25:27.479879 29807 net.cpp:86] Creating Layer inception_3a/relu_5x5_reduce
I0322 17:25:27.479888 29807 net.cpp:408] inception_3a/relu_5x5_reduce <- inception_3a/5x5_reduce
I0322 17:25:27.479897 29807 net.cpp:369] inception_3a/relu_5x5_reduce -> inception_3a/5x5_reduce (in-place)
I0322 17:25:27.479907 29807 net.cpp:124] Setting up inception_3a/relu_5x5_reduce
I0322 17:25:27.479913 29807 net.cpp:131] Top shape: 128 8 28 28 (802816)
…
I0322 17:25:27.488138 29807 net.cpp:131] Top shape: 128 104 14 14 (2609152)
I0322 17:25:27.488143 29807 net.cpp:139] Memory required for data: 2356266496
I0322 17:25:27.488152 29807 layer_factory.hpp:77] Creating layer inception_4a/relu_3x3
I0322 17:25:27.488160 29807 net.cpp:86] Creating Layer inception_4a/relu_3x3
I0322 17:25:27.488169 29807 net.cpp:408] inception_4a/relu_3x3 <- inception_4a/3x3
I0322 17:25:27.488178 29807 net.cpp:369] inception_4a/relu_3x3 -> inception_4a/3x3 (in-place)
I0322 17:25:27.488193 29807 net.cpp:124] Setting up inception_4a/relu_3x3
I0322 17:25:27.488217 29807 net.cpp:131] Top shape: 128 104 14 14 (2609152)
I0322 17:25:27.488224 29807 net.cpp:139] Memory required for data: 2366703104
I0322 17:25:27.488229 29807 layer_factory.hpp:77] Creating layer inception_4a/5x5_reduce
I0322 17:25:27.488241 29807 net.cpp:86] Creating Layer inception_4a/5x5_reduce
I0322 17:25:27.488247 29807 net.cpp:408] inception_4a/5x5_reduce <- pool3/3x3_s2_pool3/3x3_s2_0_split_2
I0322 17:25:27.488260 29807 net.cpp:382] inception_4a/5x5_reduce -> inception_4a/5x5_reduce
I0322 17:25:27.488541 29807 net.cpp:124] Setting up inception_4a/5x5_reduce
I0322 17:25:27.488559 29807 net.cpp:131] Top shape: 128 8 14 14 (200704)
I0322 17:25:27.488564 29807 net.cpp:139] Memory required for data: 2367505920
I0322 17:25:27.488574 29807 layer_factory.hpp:77] Creating layer inception_4a/relu_5x5_reduce
I0322 17:25:27.488581 29807 net.cpp:86] Creating Layer inception_4a/relu_5x5_reduce
I0322 17:25:27.488589 29807 net.cpp:408] inception_4a/relu_5x5_reduce <- inception_4a/5x5_reduce
I0322 17:25:27.488596 29807 net.cpp:369] inception_4a/relu_5x5_reduce -> inception_4a/5x5_reduce (in-place)
I0322 17:25:27.488605 29807 net.cpp:124] Setting up inception_4a/relu_5x5_reduce
I0322 17:25:27.488615 29807 net.cpp:131] Top shape: 128 8 14 14 (200704)
I0322 17:25:27.488621 29807 net.cpp:139] Memory required for data: 2368308736
I0322 17:25:27.488626 29807 layer_factory.hpp:77] Creating layer inception_4a/5x5
I0322 17:25:27.488641 29807 net.cpp:86] Creating Layer inception_4a/5x5
I0322 17:25:27.488649 29807 net.cpp:408] inception_4a/5x5 <- inception_4a/5x5_reduce
I0322 17:25:27.488662 29807 net.cpp:382] inception_4a/5x5 -> inception_4a/5x5
I0322 17:25:27.488968 29807 net.cpp:124] Setting up inception_4a/5x5
I0322 17:25:27.488984 29807 net.cpp:131] Top shape: 128 24 14 14 (602112)
I0322 17:25:27.488991 29807 net.cpp:139] Memory required for data: 2370717184
I0322 17:25:27.488999 29807 layer_factory.hpp:77] Creating layer inception_4a/relu_5x5
I0322 17:25:27.489011 29807 net.cpp:86] Creating Layer inception_4a/relu_5x5
I0322 17:25:27.489019 29807 net.cpp:408] inception_4a/relu_5x5 <- inception_4a/5x5
I0322 17:25:27.489028 29807 net.cpp:369] inception_4a/relu_5x5 -> inception_4a/5x5 (in-place)
I0322 17:25:27.489037 29807 net.cpp:124] Setting up inception_4a/relu_5x5
I0322 17:25:27.489048 29807 net.cpp:131] Top shape: 128 24 14 14 (602112)
I0322 17:25:27.489053 29807 net.cpp:139] Memory required for data: 2373125632
I0322 17:25:27.489059 29807 layer_factory.hpp:77] Creating layer inception_4a/pool
I0322 17:25:27.489070 29807 net.cpp:86] Creating Layer inception_4a/pool
I0322 17:25:27.489076 29807 net.cpp:408] inception_4a/pool <- pool3/3x3_s2_pool3/3x3_s2_0_split_3
I0322 17:25:27.489085 29807 net.cpp:382] inception_4a/pool -> inception_4a/pool
I0322 17:25:27.489136 29807 net.cpp:124] Setting up inception_4a/pool
I0322 17:25:27.489151 29807 net.cpp:131] Top shape: 128 240 14 14 (6021120)
I0322 17:25:27.489156 29807 net.cpp:139] Memory required for data: 2397210112
I0322 17:25:27.489162 29807 layer_factory.hpp:77] Creating layer inception_4a/pool_proj
I0322 17:25:27.489176 29807 net.cpp:86] Creating Layer inception_4a/pool_proj
I0322 17:25:27.489186 29807 net.cpp:408] inception_4a/pool_proj <- inception_4a/pool
I0322 17:25:27.489195 29807 net.cpp:382] inception_4a/pool_proj -> inception_4a/pool_proj
I0322 17:25:27.489522 29807 net.cpp:124] Setting up inception_4a/pool_proj
I0322 17:25:27.489539 29807 net.cpp:131] Top shape: 128 32 14 14 (802816)
I0322 17:25:27.489544 29807 net.cpp:139] Memory required for data: 2400421376
I0322 17:25:27.489553 29807 layer_factory.hpp:77] Creating layer inception_4a/relu_pool_proj
I0322 17:25:27.489565 29807 net.cpp:86] Creating Layer inception_4a/relu_pool_proj
I0322 17:25:27.489575 29807 net.cpp:408] inception_4a/relu_pool_proj <- inception_4a/pool_proj
I0322 17:25:27.489583 29807 net.cpp:369] inception_4a/relu_pool_proj -> inception_4a/pool_proj (in-place)
I0322 17:25:27.489593 29807 net.cpp:124] Setting up inception_4a/relu_pool_proj
I0322 17:25:27.489603 29807 net.cpp:131] Top shape: 128 32 14 14 (802816)
I0322 17:25:27.489624 29807 net.cpp:139] Memory required for data: 2403632640
I0322 17:25:27.489632 29807 layer_factory.hpp:77] Creating layer inception_4a/output
I0322 17:25:27.489640 29807 net.cpp:86] Creating Layer inception_4a/output
I0322 17:25:27.489646 29807 net.cpp:408] inception_4a/output <- inception_4a/1x1
I0322 17:25:27.489655 29807 net.cpp:408] inception_4a/output <- inception_4a/3x3
I0322 17:25:27.489661 29807 net.cpp:408] inception_4a/output <- inception_4a/5x5
I0322 17:25:27.489668 29807 net.cpp:408] inception_4a/output <- inception_4a/pool_proj
I0322 17:25:27.489683 29807 net.cpp:382] inception_4a/output -> inception_4a/output
I0322 17:25:27.489737 29807 net.cpp:124] Setting up inception_4a/output
I0322 17:25:27.489754 29807 net.cpp:131] Top shape: 128 256 14 14 (6422528)
I0322 17:25:27.489760 29807 net.cpp:139] Memory required for data: 2429322752
I0322 17:25:27.489766 29807 layer_factory.hpp:77] Creating layer inception_4a/output_inception_4a/output_0_split
I0322 17:25:27.489778 29807 net.cpp:86] Creating Layer inception_4a/output_inception_4a/output_0_split
I0322 17:25:27.489789 29807 net.cpp:408] inception_4a/output_inception_4a/output_0_split <- inception_4a/output
I0322 17:25:27.489797 29807 net.cpp:382] inception_4a/output_inception_4a/output_0_split -> inception_4a/output_inception_4a/output_0_split_0
I0322 17:25:27.489807 29807 net.cpp:382] inception_4a/output_inception_4a/output_0_split -> inception_4a/output_inception_4a/output_0_split_1
I0322 17:25:27.489820 29807 net.cpp:382] inception_4a/output_inception_4a/output_0_split -> inception_4a/output_inception_4a/output_0_split_2
I0322 17:25:27.489832 29807 net.cpp:382] inception_4a/output_inception_4a/output_0_split -> inception_4a/output_inception_4a/output_0_split_3
I0322 17:25:27.489907 29807 net.cpp:124] Setting up inception_4a/output_inception_4a/output_0_split
I0322 17:25:27.489920 29807 net.cpp:131] Top shape: 128 256 14 14 (6422528)
I0322 17:25:27.489928 29807 net.cpp:131] Top shape: 128 256 14 14 (6422528)
I0322 17:25:27.489934 29807 net.cpp:131] Top shape: 128 256 14 14 (6422528)
I0322 17:25:27.489941 29807 net.cpp:131] Top shape: 128 256 14 14 (6422528)
I0322 17:25:27.489946 29807 net.cpp:139] Memory required for data: 2532083200
I0322 17:25:27.489951 29807 layer_factory.hpp:77] Creating layer inception_4b/1x1
I0322 17:25:27.489965 29807 net.cpp:86] Creating Layer inception_4b/1x1
I0322 17:25:27.489975 29807 net.cpp:408] inception_4b/1x1 <- inception_4a/output_inception_4a/output_0_split_0
I0322 17:25:27.489987 29807 net.cpp:382] inception_4b/1x1 -> inception_4b/1x1
I0322 17:25:27.490432 29807 net.cpp:124] Setting up inception_4b/1x1
I0322 17:25:27.490449 29807 net.cpp:131] Top shape: 128 80 14 14 (2007040)
I0322 17:25:27.490455 29807 net.cpp:139] Memory required for data: 2540111360
I0322 17:25:27.490464 29807 layer_factory.hpp:77] Creating layer inception_4b/relu_1x1
I0322 17:25:27.490473 29807 net.cpp:86] Creating Layer inception_4b/relu_1x1
I0322 17:25:27.490479 29807 net.cpp:408] inception_4b/relu_1x1 <- inception_4b/1x1
I0322 17:25:27.490487 29807 net.cpp:369] inception_4b/relu_1x1 -> inception_4b/1x1 (in-place)
I0322 17:25:27.490497 29807 net.cpp:124] Setting up inception_4b/relu_1x1
I0322 17:25:27.490507 29807 net.cpp:131] Top shape: 128 80 14 14 (2007040)
I0322 17:25:27.490512 29807 net.cpp:139] Memory required for data: 2548139520
I0322 17:25:27.490517 29807 layer_factory.hpp:77] Creating layer inception_4b/3x3_reduce
I0322 17:25:27.490531 29807 net.cpp:86] Creating Layer inception_4b/3x3_reduce
I0322 17:25:27.490540 29807 net.cpp:408] inception_4b/3x3_reduce <- inception_4a/output_inception_4a/output_0_split_1
I0322 17:25:27.490555 29807 net.cpp:382] inception_4b/3x3_reduce -> inception_4b/3x3_reduce
I0322 17:25:27.490953 29807 net.cpp:124] Setting up inception_4b/3x3_reduce
I0322 17:25:27.490972 29807 net.cpp:131] Top shape: 128 56 14 14 (1404928)
I0322 17:25:27.490978 29807 net.cpp:139] Memory required for data: 2553759232
I0322 17:25:27.490986 29807 layer_factory.hpp:77] Creating layer inception_4b/relu_3x3_reduce
I0322 17:25:27.491014 29807 net.cpp:86] Creating Layer inception_4b/relu_3x3_reduce
I0322 17:25:27.491025 29807 net.cpp:408] inception_4b/relu_3x3_reduce <- inception_4b/3x3_reduce
I0322 17:25:27.491034 29807 net.cpp:369] inception_4b/relu_3x3_reduce -> inception_4b/3x3_reduce (in-place)
I0322 17:25:27.491044 29807 net.cpp:124] Setting up inception_4b/relu_3x3_reduce
I0322 17:25:27.491053 29807 net.cpp:131] Top shape: 128 56 14 14 (1404928)
I0322 17:25:27.491060 29807 net.cpp:139] Memory required for data: 2559378944
I0322 17:25:27.491065 29807 layer_factory.hpp:77] Creating layer inception_4b/3x3
I0322 17:25:27.491078 29807 net.cpp:86] Creating Layer inception_4b/3x3
I0322 17:25:27.491087 29807 net.cpp:408] inception_4b/3x3 <- inception_4b/3x3_reduce
I0322 17:25:27.491096 29807 net.cpp:382] inception_4b/3x3 -> inception_4b/3x3
I0322 17:25:27.491839 29807 net.cpp:124] Setting up inception_4b/3x3
I0322 17:25:27.491858 29807 net.cpp:131] Top shape: 128 112 14 14 (2809856)
I0322 17:25:27.491863 29807 net.cpp:139] Memory required for data: 2570618368
I0322 17:25:27.491871 29807 layer_factory.hpp:77] Creating layer inception_4b/relu_3x3
I0322 17:25:27.491888 29807 net.cpp:86] Creating Layer inception_4b/relu_3x3
I0322 17:25:27.491897 29807 net.cpp:408] inception_4b/relu_3x3 <- inception_4b/3x3
I0322 17:25:27.491909 29807 net.cpp:369] inception_4b/relu_3x3 -> inception_4b/3x3 (in-place)
I0322 17:25:27.491920 29807 net.cpp:124] Setting up inception_4b/relu_3x3
I0322 17:25:27.491931 29807 net.cpp:131] Top shape: 128 112 14 14 (2809856)
I0322 17:25:27.491937 29807 net.cpp:139] Memory required for data: 2581857792
I0322 17:25:27.491942 29807 layer_factory.hpp:77] Creating layer inception_4b/5x5_reduce
I0322 17:25:27.491956 29807 net.cpp:86] Creating Layer inception_4b/5x5_reduce
I0322 17:25:27.491966 29807 net.cpp:408] inception_4b/5x5_reduce <- inception_4a/output_inception_4a/output_0_split_2
I0322 17:25:27.491974 29807 net.cpp:382] inception_4b/5x5_reduce -> inception_4b/5x5_reduce
I0322 17:25:27.492264 29807 net.cpp:124] Setting up inception_4b/5x5_reduce
I0322 17:25:27.492280 29807 net.cpp:131] Top shape: 128 12 14 14 (301056)
I0322 17:25:27.492286 29807 net.cpp:139] Memory required for data: 2583062016
I0322 17:25:27.492295 29807 layer_factory.hpp:77] Creating layer inception_4b/relu_5x5_reduce
I0322 17:25:27.492303 29807 net.cpp:86] Creating Layer inception_4b/relu_5x5_reduce
I0322 17:25:27.492312 29807 net.cpp:408] inception_4b/relu_5x5_reduce <- inception_4b/5x5_reduce
I0322 17:25:27.492323 29807 net.cpp:369] inception_4b/relu_5x5_reduce -> inception_4b/5x5_reduce (in-place)
I0322 17:25:27.492336 29807 net.cpp:124] Setting up inception_4b/relu_5x5_reduce
I0322 17:25:27.492347 29807 net.cpp:131] Top shape: 128 12 14 14 (301056)
I0322 17:25:27.492352 29807 net.cpp:139] Memory required for data: 2584266240
I0322 17:25:27.492357 29807 layer_factory.hpp:77] Creating layer inception_4b/5x5
I0322 17:25:27.492367 29807 net.cpp:86] Creating Layer inception_4b/5x5
I0322 17:25:27.492373 29807 net.cpp:408] inception_4b/5x5 <- inception_4b/5x5_reduce
I0322 17:25:27.492385 29807 net.cpp:382] inception_4b/5x5 -> inception_4b/5x5
I0322 17:25:27.492738 29807 net.cpp:124] Setting up inception_4b/5x5
I0322 17:25:27.492755 29807 net.cpp:131] Top shape: 128 32 14 14 (802816)
I0322 17:25:27.492761 29807 net.cpp:139] Memory required for data: 2587477504
I0322 17:25:27.492770 29807 layer_factory.hpp:77] Creating layer inception_4b/relu_5x5
I0322 17:25:27.492779 29807 net.cpp:86] Creating Layer inception_4b/relu_5x5
I0322 17:25:27.492787 29807 net.cpp:408] inception_4b/relu_5x5 <- inception_4b/5x5
I0322 17:25:27.492795 29807 net.cpp:369] inception_4b/relu_5x5 -> inception_4b/5x5 (in-place)
I0322 17:25:27.492805 29807 net.cpp:124] Setting up inception_4b/relu_5x5
I0322 17:25:27.492811 29807 net.cpp:131] Top shape: 128 32 14 14 (802816)
I0322 17:25:27.492817 29807 net.cpp:139] Memory required for data: 2590688768
I0322 17:25:27.492822 29807 layer_factory.hpp:77] Creating layer inception_4b/pool
I0322 17:25:27.492833 29807 net.cpp:86] Creating Layer inception_4b/pool
I0322 17:25:27.492856 29807 net.cpp:408] inception_4b/pool <- inception_4a/output_inception_4a/output_0_split_3
I0322 17:25:27.492866 29807 net.cpp:382] inception_4b/pool -> inception_4b/pool
I0322 17:25:27.492923 29807 net.cpp:124] Setting up inception_4b/pool
I0322 17:25:27.492936 29807 net.cpp:131] Top shape: 128 256 14 14 (6422528)
I0322 17:25:27.492943 29807 net.cpp:139] Memory required for data: 2616378880
I0322 17:25:27.492949 29807 layer_factory.hpp:77] Creating layer inception_4b/pool_proj
I0322 17:25:27.492961 29807 net.cpp:86] Creating Layer inception_4b/pool_proj
I0322 17:25:27.492971 29807 net.cpp:408] inception_4b/pool_proj <- inception_4b/pool
I0322 17:25:27.492983 29807 net.cpp:382] inception_4b/pool_proj -> inception_4b/pool_proj
I0322 17:25:27.493319 29807 net.cpp:124] Setting up inception_4b/pool_proj
I0322 17:25:27.493336 29807 net.cpp:131] Top shape: 128 32 14 14 (802816)
I0322 17:25:27.493341 29807 net.cpp:139] Memory required for data: 2619590144
I0322 17:25:27.493350 29807 layer_factory.hpp:77] Creating layer inception_4b/relu_pool_proj
I0322 17:25:27.493360 29807 net.cpp:86] Creating Layer inception_4b/relu_pool_proj
I0322 17:25:27.493368 29807 net.cpp:408] inception_4b/relu_pool_proj <- inception_4b/pool_proj
I0322 17:25:27.493377 29807 net.cpp:369] inception_4b/relu_pool_proj -> inception_4b/pool_proj (in-place)
I0322 17:25:27.493386 29807 net.cpp:124] Setting up inception_4b/relu_pool_proj
I0322 17:25:27.493394 29807 net.cpp:131] Top shape: 128 32 14 14 (802816)
I0322 17:25:27.493399 29807 net.cpp:139] Memory required for data: 2622801408
I0322 17:25:27.493404 29807 layer_factory.hpp:77] Creating layer inception_4b/output
I0322 17:25:27.493412 29807 net.cpp:86] Creating Layer inception_4b/output
I0322 17:25:27.493418 29807 net.cpp:408] inception_4b/output <- inception_4b/1x1
I0322 17:25:27.493425 29807 net.cpp:408] inception_4b/output <- inception_4b/3x3
I0322 17:25:27.493432 29807 net.cpp:408] inception_4b/output <- inception_4b/5x5
I0322 17:25:27.493439 29807 net.cpp:408] inception_4b/output <- inception_4b/pool_proj
I0322 17:25:27.493450 29807 net.cpp:382] inception_4b/output -> inception_4b/output
I0322 17:25:27.493482 29807 net.cpp:124] Setting up inception_4b/output
I0322 17:25:27.493499 29807 net.cpp:131] Top shape: 128 256 14 14 (6422528)
I0322 17:25:27.493507 29807 net.cpp:139] Memory required for data: 2648491520
I0322 17:25:27.493513 29807 layer_factory.hpp:77] Creating layer inception_4b/output_inception_4b/output_0_split
I0322 17:25:27.493521 29807 net.cpp:86] Creating Layer inception_4b/output_inception_4b/output_0_split
I0322 17:25:27.493527 29807 net.cpp:408] inception_4b/output_inception_4b/output_0_split <- inception_4b/output
I0322 17:25:27.493535 29807 net.cpp:382] inception_4b/output_inception_4b/output_0_split -> inception_4b/output_inception_4b/output_0_split_0
I0322 17:25:27.493546 29807 net.cpp:382] inception_4b/output_inception_4b/output_0_split -> inception_4b/output_inception_4b/output_0_split_1
I0322 17:25:27.493556 29807 net.cpp:382] inception_4b/output_inception_4b/output_0_split -> inception_4b/output_inception_4b/output_0_split_2
I0322 17:25:27.493571 29807 net.cpp:382] inception_4b/output_inception_4b/output_0_split -> inception_4b/output_inception_4b/output_0_split_3
I0322 17:25:27.493649 29807 net.cpp:124] Setting up inception_4b/output_inception_4b/output_0_split
I0322 17:25:27.493664 29807 net.cpp:131] Top shape: 128 256 14 14 (6422528)
I0322 17:25:27.493671 29807 net.cpp:131] Top shape: 128 256 14 14 (6422528)
I0322 17:25:27.493677 29807 net.cpp:131] Top shape: 128 256 14 14 (6422528)
I0322 17:25:27.493685 29807 net.cpp:131] Top shape: 128 256 14 14 (6422528)
I0322 17:25:27.493690 29807 net.cpp:139] Memory required for data: 2751251968
I0322 17:25:27.493705 29807 layer_factory.hpp:77] Creating layer inception_4c/1x1
I0322 17:25:27.493731 29807 net.cpp:86] Creating Layer inception_4c/1x1
I0322 17:25:27.493747 29807 net.cpp:408] inception_4c/1x1 <- inception_4b/output_inception_4b/output_0_split_0
I0322 17:25:27.493779 29807 net.cpp:382] inception_4c/1x1 -> inception_4c/1x1
I0322 17:25:27.494194 29807 net.cpp:124] Setting up inception_4c/1x1
I0322 17:25:27.494213 29807 net.cpp:131] Top shape: 128 64 14 14 (1605632)
I0322 17:25:27.494222 29807 net.cpp:139] Memory required for data: 2757674496
I0322 17:25:27.494231 29807 layer_factory.hpp:77] Creating layer inception_4c/relu_1x1
I0322 17:25:27.494240 29807 net.cpp:86] Creating Layer inception_4c/relu_1x1
I0322 17:25:27.494247 29807 net.cpp:408] inception_4c/relu_1x1 <- inception_4c/1x1
I0322 17:25:27.494256 29807 net.cpp:369] inception_4c/relu_1x1 -> inception_4c/1x1 (in-place)
I0322 17:25:27.494266 29807 net.cpp:124] Setting up inception_4c/relu_1x1
I0322 17:25:27.494276 29807 net.cpp:131] Top shape: 128 64 14 14 (1605632)
I0322 17:25:27.494280 29807 net.cpp:139] Memory required for data: 2764097024
I0322 17:25:27.494287 29807 layer_factory.hpp:77] Creating layer inception_4c/3x3_reduce
I0322 17:25:27.494299 29807 net.cpp:86] Creating Layer inception_4c/3x3_reduce
I0322 17:25:27.494309 29807 net.cpp:408] inception_4c/3x3_reduce <- inception_4b/output_inception_4b/output_0_split_1
I0322 17:25:27.494321 29807 net.cpp:382] inception_4c/3x3_reduce -> inception_4c/3x3_reduce
I0322 17:25:27.494730 29807 net.cpp:124] Setting up inception_4c/3x3_reduce
I0322 17:25:27.494746 29807 net.cpp:131] Top shape: 128 64 14 14 (1605632)
I0322 17:25:27.494752 29807 net.cpp:139] Memory required for data: 2770519552
I0322 17:25:27.494761 29807 layer_factory.hpp:77] Creating layer inception_4c/relu_3x3_reduce
I0322 17:25:27.494770 29807 net.cpp:86] Creating Layer inception_4c/relu_3x3_reduce
I0322 17:25:27.494779 29807 net.cpp:408] inception_4c/relu_3x3_reduce <- inception_4c/3x3_reduce
I0322 17:25:27.494791 29807 net.cpp:369] inception_4c/relu_3x3_reduce -> inception_4c/3x3_reduce (in-place)
I0322 17:25:27.494802 29807 net.cpp:124] Setting up inception_4c/relu_3x3_reduce
I0322 17:25:27.494810 29807 net.cpp:131] Top shape: 128 64 14 14 (1605632)
I0322 17:25:27.494815 29807 net.cpp:139] Memory required for data: 2776942080
I0322 17:25:27.494822 29807 layer_factory.hpp:77] Creating layer inception_4c/3x3
I0322 17:25:27.494834 29807 net.cpp:86] Creating Layer inception_4c/3x3
I0322 17:25:27.494843 29807 net.cpp:408] inception_4c/3x3 <- inception_4c/3x3_reduce
I0322 17:25:27.494853 29807 net.cpp:382] inception_4c/3x3 -> inception_4c/3x3
I0322 17:25:27.495774 29807 net.cpp:124] Setting up inception_4c/3x3
I0322 17:25:27.495791 29807 net.cpp:131] Top shape: 128 128 14 14 (3211264)
I0322 17:25:27.495797 29807 net.cpp:139] Memory required for data: 2789787136
I0322 17:25:27.495806 29807 layer_factory.hpp:77] Creating layer inception_4c/relu_3x3
I0322 17:25:27.495815 29807 net.cpp:86] Creating Layer inception_4c/relu_3x3
I0322 17:25:27.495821 29807 net.cpp:408] inception_4c/relu_3x3 <- inception_4c/3x3
I0322 17:25:27.495832 29807 net.cpp:369] inception_4c/relu_3x3 -> inception_4c/3x3 (in-place)
I0322 17:25:27.495843 29807 net.cpp:124] Setting up inception_4c/relu_3x3
I0322 17:25:27.495852 29807 net.cpp:131] Top shape: 128 128 14 14 (3211264)
I0322 17:25:27.495857 29807 net.cpp:139] Memory required for data: 2802632192
I0322 17:25:27.495863 29807 layer_factory.hpp:77] Creating layer inception_4c/5x5_reduce
I0322 17:25:27.495873 29807 net.cpp:86] Creating Layer inception_4c/5x5_reduce
I0322 17:25:27.495879 29807 net.cpp:408] inception_4c/5x5_reduce <- inception_4b/output_inception_4b/output_0_split_2
I0322 17:25:27.495892 29807 net.cpp:382] inception_4c/5x5_reduce -> inception_4c/5x5_reduce
I0322 17:25:27.496193 29807 net.cpp:124] Setting up inception_4c/5x5_reduce
I0322 17:25:27.496210 29807 net.cpp:131] Top shape: 128 12 14 14 (301056)
I0322 17:25:27.496222 29807 net.cpp:139] Memory required for data: 2803836416
I0322 17:25:27.496243 29807 layer_factory.hpp:77] Creating layer inception_4c/relu_5x5_reduce
I0322 17:25:27.496259 29807 net.cpp:86] Creating Layer inception_4c/relu_5x5_reduce
I0322 17:25:27.496273 29807 net.cpp:408] inception_4c/relu_5x5_reduce <- inception_4c/5x5_reduce
I0322 17:25:27.496290 29807 net.cpp:369] inception_4c/relu_5x5_reduce -> inception_4c/5x5_reduce (in-place)
I0322 17:25:27.496330 29807 net.cpp:124] Setting up inception_4c/relu_5x5_reduce
I0322 17:25:27.496350 29807 net.cpp:131] Top shape: 128 12 14 14 (301056)
I0322 17:25:27.496362 29807 net.cpp:139] Memory required for data: 2805040640
I0322 17:25:27.496376 29807 layer_factory.hpp:77] Creating layer inception_4c/5x5
I0322 17:25:27.496402 29807 net.cpp:86] Creating Layer inception_4c/5x5
I0322 17:25:27.496418 29807 net.cpp:408] inception_4c/5x5 <- inception_4c/5x5_reduce
I0322 17:25:27.496441 29807 net.cpp:382] inception_4c/5x5 -> inception_4c/5x5
I0322 17:25:27.496961 29807 net.cpp:124] Setting up inception_4c/5x5
I0322 17:25:27.496985 29807 net.cpp:131] Top shape: 128 32 14 14 (802816)
I0322 17:25:27.497009 29807 net.cpp:139] Memory required for data: 2808251904
I0322 17:25:27.497030 29807 layer_factory.hpp:77] Creating layer inception_4c/relu_5x5
I0322 17:25:27.497045 29807 net.cpp:86] Creating Layer inception_4c/relu_5x5
I0322 17:25:27.497061 29807 net.cpp:408] inception_4c/relu_5x5 <- inception_4c/5x5
I0322 17:25:27.497083 29807 net.cpp:369] inception_4c/relu_5x5 -> inception_4c/5x5 (in-place)
I0322 17:25:27.497102 29807 net.cpp:124] Setting up inception_4c/relu_5x5
I0322 17:25:27.497118 29807 net.cpp:131] Top shape: 128 32 14 14 (802816)
I0322 17:25:27.497130 29807 net.cpp:139] Memory required for data: 2811463168
I0322 17:25:27.497141 29807 layer_factory.hpp:77] Creating layer inception_4c/pool
I0322 17:25:27.497158 29807 net.cpp:86] Creating Layer inception_4c/pool
I0322 17:25:27.497171 29807 net.cpp:408] inception_4c/pool <- inception_4b/output_inception_4b/output_0_split_3
I0322 17:25:27.497189 29807 net.cpp:382] inception_4c/pool -> inception_4c/pool
I0322 17:25:27.497267 29807 net.cpp:124] Setting up inception_4c/pool
I0322 17:25:27.497288 29807 net.cpp:131] Top shape: 128 256 14 14 (6422528)
I0322 17:25:27.497300 29807 net.cpp:139] Memory required for data: 2837153280
I0322 17:25:27.497310 29807 layer_factory.hpp:77] Creating layer inception_4c/pool_proj
I0322 17:25:27.497334 29807 net.cpp:86] Creating Layer inception_4c/pool_proj
I0322 17:25:27.497349 29807 net.cpp:408] inception_4c/pool_proj <- inception_4c/pool
I0322 17:25:27.497370 29807 net.cpp:382] inception_4c/pool_proj -> inception_4c/pool_proj
I0322 17:25:27.497872 29807 net.cpp:124] Setting up inception_4c/pool_proj
I0322 17:25:27.497891 29807 net.cpp:131] Top shape: 128 32 14 14 (802816)
I0322 17:25:27.497897 29807 net.cpp:139] Memory required for data: 2840364544
I0322 17:25:27.497920 29807 layer_factory.hpp:77] Creating layer inception_4c/relu_pool_proj
I0322 17:25:27.497934 29807 net.cpp:86] Creating Layer inception_4c/relu_pool_proj
I0322 17:25:27.497944 29807 net.cpp:408] inception_4c/relu_pool_proj <- inception_4c/pool_proj
I0322 17:25:27.497953 29807 net.cpp:369] inception_4c/relu_pool_proj -> inception_4c/pool_proj (in-place)
I0322 17:25:27.497963 29807 net.cpp:124] Setting up inception_4c/relu_pool_proj
I0322 17:25:27.497973 29807 net.cpp:131] Top shape: 128 32 14 14 (802816)
I0322 17:25:27.497979 29807 net.cpp:139] Memory required for data: 2843575808
I0322 17:25:27.497984 29807 layer_factory.hpp:77] Creating layer inception_4c/output
I0322 17:25:27.497992 29807 net.cpp:86] Creating Layer inception_4c/output
I0322 17:25:27.497998 29807 net.cpp:408] inception_4c/output <- inception_4c/1x1
I0322 17:25:27.498005 29807 net.cpp:408] inception_4c/output <- inception_4c/3x3
I0322 17:25:27.498013 29807 net.cpp:408] inception_4c/output <- inception_4c/5x5
I0322 17:25:27.498019 29807 net.cpp:408] inception_4c/output <- inception_4c/pool_proj
I0322 17:25:27.498030 29807 net.cpp:382] inception_4c/output -> inception_4c/output
I0322 17:25:27.498065 29807 net.cpp:124] Setting up inception_4c/output
I0322 17:25:27.498078 29807 net.cpp:131] Top shape: 128 256 14 14 (6422528)
I0322 17:25:27.498085 29807 net.cpp:139] Memory required for data: 2869265920
I0322 17:25:27.498090 29807 layer_factory.hpp:77] Creating layer inception_4c/output_inception_4c/output_0_split
I0322 17:25:27.498116 29807 net.cpp:86] Creating Layer inception_4c/output_inception_4c/output_0_split
I0322 17:25:27.498124 29807 net.cpp:408] inception_4c/output_inception_4c/output_0_split <- inception_4c/output
I0322 17:25:27.498136 29807 net.cpp:382] inception_4c/output_inception_4c/output_0_split -> inception_4c/output_inception_4c/output_0_split_0
I0322 17:25:27.498147 29807 net.cpp:382] inception_4c/output_inception_4c/output_0_split -> inception_4c/output_inception_4c/output_0_split_1
I0322 17:25:27.498160 29807 net.cpp:382] inception_4c/output_inception_4c/output_0_split -> inception_4c/output_inception_4c/output_0_split_2
I0322 17:25:27.498172 29807 net.cpp:382] inception_4c/output_inception_4c/output_0_split -> inception_4c/output_inception_4c/output_0_split_3
I0322 17:25:27.498247 29807 net.cpp:124] Setting up inception_4c/output_inception_4c/output_0_split
I0322 17:25:27.498261 29807 net.cpp:131] Top shape: 128 256 14 14 (6422528)
I0322 17:25:27.498270 29807 net.cpp:131] Top shape: 128 256 14 14 (6422528)
I0322 17:25:27.498276 29807 net.cpp:131] Top shape: 128 256 14 14 (6422528)
I0322 17:25:27.498282 29807 net.cpp:131] Top shape: 128 256 14 14 (6422528)
I0322 17:25:27.498288 29807 net.cpp:139] Memory required for data: 2972026368
I0322 17:25:27.498293 29807 layer_factory.hpp:77] Creating layer inception_4d/1x1
I0322 17:25:27.498311 29807 net.cpp:86] Creating Layer inception_4d/1x1
I0322 17:25:27.498322 29807 net.cpp:408] inception_4d/1x1 <- inception_4c/output_inception_4c/output_0_split_0
I0322 17:25:27.498332 29807 net.cpp:382] inception_4d/1x1 -> inception_4d/1x1
I0322 17:25:27.498718 29807 net.cpp:124] Setting up inception_4d/1x1
I0322 17:25:27.498735 29807 net.cpp:131] Top shape: 128 56 14 14 (1404928)
I0322 17:25:27.498741 29807 net.cpp:139] Memory required for data: 2977646080
I0322 17:25:27.498750 29807 layer_factory.hpp:77] Creating layer inception_4d/relu_1x1
I0322 17:25:27.498762 29807 net.cpp:86] Creating Layer inception_4d/relu_1x1
I0322 17:25:27.498775 29807 net.cpp:408] inception_4d/relu_1x1 <- inception_4d/1x1
I0322 17:25:27.498782 29807 net.cpp:369] inception_4d/relu_1x1 -> inception_4d/1x1 (in-place)
I0322 17:25:27.498792 29807 net.cpp:124] Setting up inception_4d/relu_1x1
I0322 17:25:27.498802 29807 net.cpp:131] Top shape: 128 56 14 14 (1404928)
I0322 17:25:27.498808 29807 net.cpp:139] Memory required for data: 2983265792
I0322 17:25:27.498813 29807 layer_factory.hpp:77] Creating layer inception_4d/3x3_reduce
I0322 17:25:27.498827 29807 net.cpp:86] Creating Layer inception_4d/3x3_reduce
I0322 17:25:27.498836 29807 net.cpp:408] inception_4d/3x3_reduce <- inception_4c/output_inception_4c/output_0_split_1
I0322 17:25:27.498847 29807 net.cpp:382] inception_4d/3x3_reduce -> inception_4d/3x3_reduce
I0322 17:25:27.499274 29807 net.cpp:124] Setting up inception_4d/3x3_reduce
I0322 17:25:27.499290 29807 net.cpp:131] Top shape: 128 72 14 14 (1806336)
I0322 17:25:27.499296 29807 net.cpp:139] Memory required for data: 2990491136
I0322 17:25:27.499306 29807 layer_factory.hpp:77] Creating layer inception_4d/relu_3x3_reduce
I0322 17:25:27.499316 29807 net.cpp:86] Creating Layer inception_4d/relu_3x3_reduce
I0322 17:25:27.499323 29807 net.cpp:408] inception_4d/relu_3x3_reduce <- inception_4d/3x3_reduce
I0322 17:25:27.499338 29807 net.cpp:369] inception_4d/relu_3x3_reduce -> inception_4d/3x3_reduce (in-place)
I0322 17:25:27.499351 29807 net.cpp:124] Setting up inception_4d/relu_3x3_reduce
I0322 17:25:27.499361 29807 net.cpp:131] Top shape: 128 72 14 14 (1806336)
I0322 17:25:27.499366 29807 net.cpp:139] Memory required for data: 2997716480
I0322 17:25:27.499372 29807 layer_factory.hpp:77] Creating layer inception_4d/3x3
I0322 17:25:27.499385 29807 net.cpp:86] Creating Layer inception_4d/3x3
I0322 17:25:27.499394 29807 net.cpp:408] inception_4d/3x3 <- inception_4d/3x3_reduce
I0322 17:25:27.499404 29807 net.cpp:382] inception_4d/3x3 -> inception_4d/3x3
I0322 17:25:27.500512 29807 net.cpp:124] Setting up inception_4d/3x3
I0322 17:25:27.500530 29807 net.cpp:131] Top shape: 128 144 14 14 (3612672)
I0322 17:25:27.500535 29807 net.cpp:139] Memory required for data: 3012167168
I0322 17:25:27.500561 29807 layer_factory.hpp:77] Creating layer inception_4d/relu_3x3
I0322 17:25:27.500573 29807 net.cpp:86] Creating Layer inception_4d/relu_3x3
I0322 17:25:27.500581 29807 net.cpp:408] inception_4d/relu_3x3 <- inception_4d/3x3
I0322 17:25:27.500591 29807 net.cpp:369] inception_4d/relu_3x3 -> inception_4d/3x3 (in-place)
I0322 17:25:27.500603 29807 net.cpp:124] Setting up inception_4d/relu_3x3
I0322 17:25:27.500614 29807 net.cpp:131] Top shape: 128 144 14 14 (3612672)
I0322 17:25:27.500620 29807 net.cpp:139] Memory required for data: 3026617856
I0322 17:25:27.500625 29807 layer_factory.hpp:77] Creating layer inception_4d/5x5_reduce
I0322 17:25:27.500636 29807 net.cpp:86] Creating Layer inception_4d/5x5_reduce
I0322 17:25:27.500643 29807 net.cpp:408] inception_4d/5x5_reduce <- inception_4c/output_inception_4c/output_0_split_2
I0322 17:25:27.500655 29807 net.cpp:382] inception_4d/5x5_reduce -> inception_4d/5x5_reduce
I0322 17:25:27.500963 29807 net.cpp:124] Setting up inception_4d/5x5_reduce
I0322 17:25:27.500979 29807 net.cpp:131] Top shape: 128 16 14 14 (401408)
I0322 17:25:27.500985 29807 net.cpp:139] Memory required for data: 3028223488
I0322 17:25:27.500994 29807 layer_factory.hpp:77] Creating layer inception_4d/relu_5x5_reduce
I0322 17:25:27.501003 29807 net.cpp:86] Creating Layer inception_4d/relu_5x5_reduce
I0322 17:25:27.501013 29807 net.cpp:408] inception_4d/relu_5x5_reduce <- inception_4d/5x5_reduce
I0322 17:25:27.501021 29807 net.cpp:369] inception_4d/relu_5x5_reduce -> inception_4d/5x5_reduce (in-place)
I0322 17:25:27.501030 29807 net.cpp:124] Setting up inception_4d/relu_5x5_reduce
I0322 17:25:27.501040 29807 net.cpp:131] Top shape: 128 16 14 14 (401408)
I0322 17:25:27.501046 29807 net.cpp:139] Memory required for data: 3029829120
I0322 17:25:27.501051 29807 layer_factory.hpp:77] Creating layer inception_4d/5x5
I0322 17:25:27.501066 29807 net.cpp:86] Creating Layer inception_4d/5x5
I0322 17:25:27.501075 29807 net.cpp:408] inception_4d/5x5 <- inception_4d/5x5_reduce
I0322 17:25:27.501085 29807 net.cpp:382] inception_4d/5x5 -> inception_4d/5x5
I0322 17:25:27.501469 29807 net.cpp:124] Setting up inception_4d/5x5
I0322 17:25:27.501487 29807 net.cpp:131] Top shape: 128 32 14 14 (802816)
I0322 17:25:27.501492 29807 net.cpp:139] Memory required for data: 3033040384
I0322 17:25:27.501502 29807 layer_factory.hpp:77] Creating layer inception_4d/relu_5x5
I0322 17:25:27.501509 29807 net.cpp:86] Creating Layer inception_4d/relu_5x5
I0322 17:25:27.501518 29807 net.cpp:408] inception_4d/relu_5x5 <- inception_4d/5x5
I0322 17:25:27.501529 29807 net.cpp:369] inception_4d/relu_5x5 -> inception_4d/5x5 (in-place)
I0322 17:25:27.501539 29807 net.cpp:124] Setting up inception_4d/relu_5x5
I0322 17:25:27.501549 29807 net.cpp:131] Top shape: 128 32 14 14 (802816)
I0322 17:25:27.501555 29807 net.cpp:139] Memory required for data: 3036251648
I0322 17:25:27.501561 29807 layer_factory.hpp:77] Creating layer inception_4d/pool
I0322 17:25:27.501569 29807 net.cpp:86] Creating Layer inception_4d/pool
I0322 17:25:27.501575 29807 net.cpp:408] inception_4d/pool <- inception_4c/output_inception_4c/output_0_split_3
I0322 17:25:27.501583 29807 net.cpp:382] inception_4d/pool -> inception_4d/pool
I0322 17:25:27.501636 29807 net.cpp:124] Setting up inception_4d/pool
I0322 17:25:27.501651 29807 net.cpp:131] Top shape: 128 256 14 14 (6422528)
I0322 17:25:27.501657 29807 net.cpp:139] Memory required for data: 3061941760
I0322 17:25:27.501662 29807 layer_factory.hpp:77] Creating layer inception_4d/pool_proj
I0322 17:25:27.501677 29807 net.cpp:86] Creating Layer inception_4d/pool_proj
I0322 17:25:27.501687 29807 net.cpp:408] inception_4d/pool_proj <- inception_4d/pool
I0322 17:25:27.501713 29807 net.cpp:382] inception_4d/pool_proj -> inception_4d/pool_proj
I0322 17:25:27.502071 29807 net.cpp:124] Setting up inception_4d/pool_proj
I0322 17:25:27.502089 29807 net.cpp:131] Top shape: 128 32 14 14 (802816)
I0322 17:25:27.502094 29807 net.cpp:139] Memory required for data: 3065153024
I0322 17:25:27.502121 29807 layer_factory.hpp:77] Creating layer inception_4d/relu_pool_proj
I0322 17:25:27.502135 29807 net.cpp:86] Creating Layer inception_4d/relu_pool_proj
I0322 17:25:27.502144 29807 net.cpp:408] inception_4d/relu_pool_proj <- inception_4d/pool_proj
I0322 17:25:27.502152 29807 net.cpp:369] inception_4d/relu_pool_proj -> inception_4d/pool_proj (in-place)
I0322 17:25:27.502162 29807 net.cpp:124] Setting up inception_4d/relu_pool_proj
I0322 17:25:27.502172 29807 net.cpp:131] Top shape: 128 32 14 14 (802816)
I0322 17:25:27.502178 29807 net.cpp:139] Memory required for data: 3068364288
I0322 17:25:27.502183 29807 layer_factory.hpp:77] Creating layer inception_4d/output
I0322 17:25:27.502192 29807 net.cpp:86] Creating Layer inception_4d/output
I0322 17:25:27.502197 29807 net.cpp:408] inception_4d/output <- inception_4d/1x1
I0322 17:25:27.502204 29807 net.cpp:408] inception_4d/output <- inception_4d/3x3
I0322 17:25:27.502212 29807 net.cpp:408] inception_4d/output <- inception_4d/5x5
I0322 17:25:27.502218 29807 net.cpp:408] inception_4d/output <- inception_4d/pool_proj
I0322 17:25:27.502229 29807 net.cpp:382] inception_4d/output -> inception_4d/output
I0322 17:25:27.502264 29807 net.cpp:124] Setting up inception_4d/output
I0322 17:25:27.502277 29807 net.cpp:131] Top shape: 128 264 14 14 (6623232)
I0322 17:25:27.502284 29807 net.cpp:139] Memory required for data: 3094857216
I0322 17:25:27.502290 29807 layer_factory.hpp:77] Creating layer inception_4d/output_inception_4d/output_0_split
I0322 17:25:27.502300 29807 net.cpp:86] Creating Layer inception_4d/output_inception_4d/output_0_split
I0322 17:25:27.502307 29807 net.cpp:408] inception_4d/output_inception_4d/output_0_split <- inception_4d/output
I0322 17:25:27.502316 29807 net.cpp:382] inception_4d/output_inception_4d/output_0_split -> inception_4d/output_inception_4d/output_0_split_0
I0322 17:25:27.502328 29807 net.cpp:382] inception_4d/output_inception_4d/output_0_split -> inception_4d/output_inception_4d/output_0_split_1
I0322 17:25:27.502341 29807 net.cpp:382] inception_4d/output_inception_4d/output_0_split -> inception_4d/output_inception_4d/output_0_split_2
I0322 17:25:27.502357 29807 net.cpp:382] inception_4d/output_inception_4d/output_0_split -> inception_4d/output_inception_4d/output_0_split_3
I0322 17:25:27.502429 29807 net.cpp:124] Setting up inception_4d/output_inception_4d/output_0_split
I0322 17:25:27.502444 29807 net.cpp:131] Top shape: 128 264 14 14 (6623232)
I0322 17:25:27.502450 29807 net.cpp:131] Top shape: 128 264 14 14 (6623232)
I0322 17:25:27.502457 29807 net.cpp:131] Top shape: 128 264 14 14 (6623232)
I0322 17:25:27.502465 29807 net.cpp:131] Top shape: 128 264 14 14 (6623232)
I0322 17:25:27.502470 29807 net.cpp:139] Memory required for data: 3200828928
I0322 17:25:27.502475 29807 layer_factory.hpp:77] Creating layer inception_4e/1x1
I0322 17:25:27.502490 29807 net.cpp:86] Creating Layer inception_4e/1x1
I0322 17:25:27.502498 29807 net.cpp:408] inception_4e/1x1 <- inception_4d/output_inception_4d/output_0_split_0
I0322 17:25:27.502512 29807 net.cpp:382] inception_4e/1x1 -> inception_4e/1x1
I0322 17:25:27.503057 29807 net.cpp:124] Setting up inception_4e/1x1
I0322 17:25:27.503073 29807 net.cpp:131] Top shape: 128 128 14 14 (3211264)
I0322 17:25:27.503079 29807 net.cpp:139] Memory required for data: 3213673984
I0322 17:25:27.503088 29807 layer_factory.hpp:77] Creating layer inception_4e/relu_1x1
I0322 17:25:27.503096 29807 net.cpp:86] Creating Layer inception_4e/relu_1x1
I0322 17:25:27.503103 29807 net.cpp:408] inception_4e/relu_1x1 <- inception_4e/1x1
I0322 17:25:27.503110 29807 net.cpp:369] inception_4e/relu_1x1 -> inception_4e/1x1 (in-place)
I0322 17:25:27.503120 29807 net.cpp:124] Setting up inception_4e/relu_1x1
I0322 17:25:27.503130 29807 net.cpp:131] Top shape: 128 128 14 14 (3211264)
I0322 17:25:27.503136 29807 net.cpp:139] Memory required for data: 3226519040
I0322 17:25:27.503141 29807 layer_factory.hpp:77] Creating layer inception_4e/3x3_reduce
I0322 17:25:27.503154 29807 net.cpp:86] Creating Layer inception_4e/3x3_reduce
I0322 17:25:27.503177 29807 net.cpp:408] inception_4e/3x3_reduce <- inception_4d/output_inception_4d/output_0_split_1
I0322 17:25:27.503190 29807 net.cpp:382] inception_4e/3x3_reduce -> inception_4e/3x3_reduce
I0322 17:25:27.503643 29807 net.cpp:124] Setting up inception_4e/3x3_reduce
I0322 17:25:27.503660 29807 net.cpp:131] Top shape: 128 80 14 14 (2007040)
I0322 17:25:27.503666 29807 net.cpp:139] Memory required for data: 3234547200
I0322 17:25:27.503675 29807 layer_factory.hpp:77] Creating layer inception_4e/relu_3x3_reduce
I0322 17:25:27.503684 29807 net.cpp:86] Creating Layer inception_4e/relu_3x3_reduce
I0322 17:25:27.503691 29807 net.cpp:408] inception_4e/relu_3x3_reduce <- inception_4e/3x3_reduce
I0322 17:25:27.503702 29807 net.cpp:369] inception_4e/relu_3x3_reduce -> inception_4e/3x3_reduce (in-place)
I0322 17:25:27.503713 29807 net.cpp:124] Setting up inception_4e/relu_3x3_reduce
I0322 17:25:27.503723 29807 net.cpp:131] Top shape: 128 80 14 14 (2007040)
I0322 17:25:27.503729 29807 net.cpp:139] Memory required for data: 3242575360
I0322 17:25:27.503734 29807 layer_factory.hpp:77] Creating layer inception_4e/3x3
I0322 17:25:27.503748 29807 net.cpp:86] Creating Layer inception_4e/3x3
I0322 17:25:27.503757 29807 net.cpp:408] inception_4e/3x3 <- inception_4e/3x3_reduce
I0322 17:25:27.503767 29807 net.cpp:382] inception_4e/3x3 -> inception_4e/3x3
I0322 17:25:27.506471 29807 net.cpp:124] Setting up inception_4e/3x3
I0322 17:25:27.506494 29807 net.cpp:131] Top shape: 128 160 14 14 (4014080)
I0322 17:25:27.506501 29807 net.cpp:139] Memory required for data: 3258631680
I0322 17:25:27.506510 29807 layer_factory.hpp:77] Creating layer inception_4e/relu_3x3
I0322 17:25:27.506520 29807 net.cpp:86] Creating Layer inception_4e/relu_3x3
I0322 17:25:27.506530 29807 net.cpp:408] inception_4e/relu_3x3 <- inception_4e/3x3
I0322 17:25:27.506541 29807 net.cpp:369] inception_4e/relu_3x3 -> inception_4e/3x3 (in-place)
I0322 17:25:27.506554 29807 net.cpp:124] Setting up inception_4e/relu_3x3
I0322 17:25:27.506564 29807 net.cpp:131] Top shape: 128 160 14 14 (4014080)
I0322 17:25:27.506570 29807 net.cpp:139] Memory required for data: 3274688000
I0322 17:25:27.506577 29807 layer_factory.hpp:77] Creating layer inception_4e/5x5_reduce
I0322 17:25:27.506592 29807 net.cpp:86] Creating Layer inception_4e/5x5_reduce
I0322 17:25:27.506600 29807 net.cpp:408] inception_4e/5x5_reduce <- inception_4d/output_inception_4d/output_0_split_2
I0322 17:25:27.506610 29807 net.cpp:382] inception_4e/5x5_reduce -> inception_4e/5x5_reduce
I0322 17:25:27.506929 29807 net.cpp:124] Setting up inception_4e/5x5_reduce
I0322 17:25:27.506947 29807 net.cpp:131] Top shape: 128 16 14 14 (401408)
I0322 17:25:27.506953 29807 net.cpp:139] Memory required for data: 3276293632
I0322 17:25:27.506961 29807 layer_factory.hpp:77] Creating layer inception_4e/relu_5x5_reduce
I0322 17:25:27.506975 29807 net.cpp:86] Creating Layer inception_4e/relu_5x5_reduce
I0322 17:25:27.506985 29807 net.cpp:408] inception_4e/relu_5x5_reduce <- inception_4e/5x5_reduce
I0322 17:25:27.506994 29807 net.cpp:369] inception_4e/relu_5x5_reduce -> inception_4e/5x5_reduce (in-place)
I0322 17:25:27.507004 29807 net.cpp:124] Setting up inception_4e/relu_5x5_reduce
I0322 17:25:27.507014 29807 net.cpp:131] Top shape: 128 16 14 14 (401408)
I0322 17:25:27.507019 29807 net.cpp:139] Memory required for data: 3277899264
I0322 17:25:27.507025 29807 layer_factory.hpp:77] Creating layer inception_4e/5x5
I0322 17:25:27.507038 29807 net.cpp:86] Creating Layer inception_4e/5x5
I0322 17:25:27.507048 29807 net.cpp:408] inception_4e/5x5 <- inception_4e/5x5_reduce
I0322 17:25:27.507057 29807 net.cpp:382] inception_4e/5x5 -> inception_4e/5x5
I0322 17:25:27.507558 29807 net.cpp:124] Setting up inception_4e/5x5
I0322 17:25:27.507575 29807 net.cpp:131] Top shape: 128 64 14 14 (1605632)
I0322 17:25:27.507580 29807 net.cpp:139] Memory required for data: 3284321792
I0322 17:25:27.507589 29807 layer_factory.hpp:77] Creating layer inception_4e/relu_5x5
I0322 17:25:27.507599 29807 net.cpp:86] Creating Layer inception_4e/relu_5x5
I0322 17:25:27.507608 29807 net.cpp:408] inception_4e/relu_5x5 <- inception_4e/5x5
I0322 17:25:27.507638 29807 net.cpp:369] inception_4e/relu_5x5 -> inception_4e/5x5 (in-place)
I0322 17:25:27.507653 29807 net.cpp:124] Setting up inception_4e/relu_5x5
I0322 17:25:27.507664 29807 net.cpp:131] Top shape: 128 64 14 14 (1605632)
I0322 17:25:27.507669 29807 net.cpp:139] Memory required for data: 3290744320
I0322 17:25:27.507675 29807 layer_factory.hpp:77] Creating layer inception_4e/pool
I0322 17:25:27.507683 29807 net.cpp:86] Creating Layer inception_4e/pool
I0322 17:25:27.507690 29807 net.cpp:408] inception_4e/pool <- inception_4d/output_inception_4d/output_0_split_3
I0322 17:25:27.507701 29807 net.cpp:382] inception_4e/pool -> inception_4e/pool
I0322 17:25:27.507757 29807 net.cpp:124] Setting up inception_4e/pool
I0322 17:25:27.507772 29807 net.cpp:131] Top shape: 128 264 14 14 (6623232)
I0322 17:25:27.507778 29807 net.cpp:139] Memory required for data: 3317237248
I0322 17:25:27.507784 29807 layer_factory.hpp:77] Creating layer inception_4e/pool_proj
I0322 17:25:27.507798 29807 net.cpp:86] Creating Layer inception_4e/pool_proj
I0322 17:25:27.507808 29807 net.cpp:408] inception_4e/pool_proj <- inception_4e/pool
I0322 17:25:27.507820 29807 net.cpp:382] inception_4e/pool_proj -> inception_4e/pool_proj
I0322 17:25:27.508230 29807 net.cpp:124] Setting up inception_4e/pool_proj
I0322 17:25:27.508247 29807 net.cpp:131] Top shape: 128 64 14 14 (1605632)
I0322 17:25:27.508254 29807 net.cpp:139] Memory required for data: 3323659776
I0322 17:25:27.508262 29807 layer_factory.hpp:77] Creating layer inception_4e/relu_pool_proj
I0322 17:25:27.508273 29807 net.cpp:86] Creating Layer inception_4e/relu_pool_proj
I0322 17:25:27.508280 29807 net.cpp:408] inception_4e/relu_pool_proj <- inception_4e/pool_proj
I0322 17:25:27.508288 29807 net.cpp:369] inception_4e/relu_pool_proj -> inception_4e/pool_proj (in-place)
I0322 17:25:27.508298 29807 net.cpp:124] Setting up inception_4e/relu_pool_proj
I0322 17:25:27.508308 29807 net.cpp:131] Top shape: 128 64 14 14 (1605632)
I0322 17:25:27.508313 29807 net.cpp:139] Memory required for data: 3330082304
I0322 17:25:27.508319 29807 layer_factory.hpp:77] Creating layer inception_4e/output
I0322 17:25:27.508327 29807 net.cpp:86] Creating Layer inception_4e/output
I0322 17:25:27.508333 29807 net.cpp:408] inception_4e/output <- inception_4e/1x1
I0322 17:25:27.508340 29807 net.cpp:408] inception_4e/output <- inception_4e/3x3
I0322 17:25:27.508347 29807 net.cpp:408] inception_4e/output <- inception_4e/5x5
I0322 17:25:27.508355 29807 net.cpp:408] inception_4e/output <- inception_4e/pool_proj
I0322 17:25:27.508365 29807 net.cpp:382] inception_4e/output -> inception_4e/output
I0322 17:25:27.508402 29807 net.cpp:124] Setting up inception_4e/output
I0322 17:25:27.508416 29807 net.cpp:131] Top shape: 128 416 14 14 (10436608)
I0322 17:25:27.508422 29807 net.cpp:139] Memory required for data: 3371828736
I0322 17:25:27.508429 29807 layer_factory.hpp:77] Creating layer conv_16
I0322 17:25:27.508442 29807 net.cpp:86] Creating Layer conv_16
I0322 17:25:27.508451 29807 net.cpp:408] conv_16 <- inception_4e/output
I0322 17:25:27.508461 29807 net.cpp:382] conv_16 -> conv_16
I0322 17:25:27.510748 29807 net.cpp:124] Setting up conv_16
I0322 17:25:27.510767 29807 net.cpp:131] Top shape: 128 128 14 14 (3211264)
I0322 17:25:27.510773 29807 net.cpp:139] Memory required for data: 3384673792
I0322 17:25:27.510782 29807 layer_factory.hpp:77] Creating layer relu_16
I0322 17:25:27.510792 29807 net.cpp:86] Creating Layer relu_16
I0322 17:25:27.510798 29807 net.cpp:408] relu_16 <- conv_16
I0322 17:25:27.510807 29807 net.cpp:369] relu_16 -> conv_16 (in-place)
I0322 17:25:27.510815 29807 net.cpp:124] Setting up relu_16
I0322 17:25:27.510823 29807 net.cpp:131] Top shape: 128 128 14 14 (3211264)
I0322 17:25:27.510828 29807 net.cpp:139] Memory required for data: 3397518848
I0322 17:25:27.510833 29807 layer_factory.hpp:77] Creating layer conv_face_predict
I0322 17:25:27.510848 29807 net.cpp:86] Creating Layer conv_face_predict
I0322 17:25:27.510857 29807 net.cpp:408] conv_face_predict <- conv_16
I0322 17:25:27.510887 29807 net.cpp:382] conv_face_predict -> conv_face_predict
I0322 17:25:27.511267 29807 net.cpp:124] Setting up conv_face_predict
I0322 17:25:27.511284 29807 net.cpp:131] Top shape: 128 20 14 14 (501760)
I0322 17:25:27.511291 29807 net.cpp:139] Memory required for data: 3399525888
I0322 17:25:27.511299 29807 layer_factory.hpp:77] Creating layer pool5/7x7_s1
I0322 17:25:27.511309 29807 net.cpp:86] Creating Layer pool5/7x7_s1
I0322 17:25:27.511318 29807 net.cpp:408] pool5/7x7_s1 <- conv_face_predict
I0322 17:25:27.511330 29807 net.cpp:382] pool5/7x7_s1 -> pool5/7x7_s1
I0322 17:25:27.511366 29807 net.cpp:124] Setting up pool5/7x7_s1
I0322 17:25:27.511380 29807 net.cpp:131] Top shape: 128 20 11 11 (309760)
I0322 17:25:27.511386 29807 net.cpp:139] Memory required for data: 3400764928
I0322 17:25:27.511392 29807 layer_factory.hpp:77] Creating layer pool5/drop_7x7_s1
I0322 17:25:27.511405 29807 net.cpp:86] Creating Layer pool5/drop_7x7_s1
I0322 17:25:27.511415 29807 net.cpp:408] pool5/drop_7x7_s1 <- pool5/7x7_s1
I0322 17:25:27.511422 29807 net.cpp:369] pool5/drop_7x7_s1 -> pool5/7x7_s1 (in-place)
I0322 17:25:27.511456 29807 net.cpp:124] Setting up pool5/drop_7x7_s1
I0322 17:25:27.511471 29807 net.cpp:131] Top shape: 128 20 11 11 (309760)
I0322 17:25:27.511476 29807 net.cpp:139] Memory required for data: 3402003968
I0322 17:25:27.511482 29807 layer_factory.hpp:77] Creating layer loss3_my/predict
I0322 17:25:27.511492 29807 net.cpp:86] Creating Layer loss3_my/predict
I0322 17:25:27.511498 29807 net.cpp:408] loss3_my/predict <- pool5/7x7_s1
I0322 17:25:27.511509 29807 net.cpp:382] loss3_my/predict -> loss3_my/predict
I0322 17:25:27.511656 29807 net.cpp:124] Setting up loss3_my/predict
I0322 17:25:27.511672 29807 net.cpp:131] Top shape: 128 1 (128)
I0322 17:25:27.511678 29807 net.cpp:139] Memory required for data: 3402004480
I0322 17:25:27.511687 29807 layer_factory.hpp:77] Creating layer loss3_my/predict_loss3_my/predict_0_split
I0322 17:25:27.511698 29807 net.cpp:86] Creating Layer loss3_my/predict_loss3_my/predict_0_split
I0322 17:25:27.511708 29807 net.cpp:408] loss3_my/predict_loss3_my/predict_0_split <- loss3_my/predict
I0322 17:25:27.511716 29807 net.cpp:382] loss3_my/predict_loss3_my/predict_0_split -> loss3_my/predict_loss3_my/predict_0_split_0
I0322 17:25:27.511726 29807 net.cpp:382] loss3_my/predict_loss3_my/predict_0_split -> loss3_my/predict_loss3_my/predict_0_split_1
I0322 17:25:27.511775 29807 net.cpp:124] Setting up loss3_my/predict_loss3_my/predict_0_split
I0322 17:25:27.511787 29807 net.cpp:131] Top shape: 128 1 (128)
I0322 17:25:27.511795 29807 net.cpp:131] Top shape: 128 1 (128)
I0322 17:25:27.511801 29807 net.cpp:139] Memory required for data: 3402005504
I0322 17:25:27.511806 29807 layer_factory.hpp:77] Creating layer loss3_my/loss3_my
I0322 17:25:27.511868 29807 net.cpp:86] Creating Layer loss3_my/loss3_my
I0322 17:25:27.511880 29807 net.cpp:408] loss3_my/loss3_my <- loss3_my/predict_loss3_my/predict_0_split_0
I0322 17:25:27.511888 29807 net.cpp:408] loss3_my/loss3_my <- label_data_1_split_0
I0322 17:25:27.511898 29807 net.cpp:382] loss3_my/loss3_my -> loss3_my/loss3_my
I0322 17:25:27.512058 29807 net.cpp:124] Setting up loss3_my/loss3_my
I0322 17:25:27.512076 29807 net.cpp:131] Top shape: 1 (1)
I0322 17:25:27.512082 29807 net.cpp:134]     with loss weight 1
I0322 17:25:27.512104 29807 net.cpp:139] Memory required for data: 3402005508
I0322 17:25:27.512110 29807 layer_factory.hpp:77] Creating layer loss3_my/loss3_test
I0322 17:25:27.512147 29807 net.cpp:86] Creating Layer loss3_my/loss3_test
I0322 17:25:27.512161 29807 net.cpp:408] loss3_my/loss3_test <- loss3_my/predict_loss3_my/predict_0_split_1
I0322 17:25:27.512169 29807 net.cpp:408] loss3_my/loss3_test <- label_data_1_split_1
I0322 17:25:27.512179 29807 net.cpp:382] loss3_my/loss3_test -> loss3_my/loss3_test
I0322 17:25:27.512289 29807 net.cpp:124] Setting up loss3_my/loss3_test
I0322 17:25:27.512305 29807 net.cpp:131] Top shape: 1 (1)
I0322 17:25:27.512311 29807 net.cpp:134]     with loss weight 1
I0322 17:25:27.512338 29807 net.cpp:139] Memory required for data: 3402005512
I0322 17:25:27.512346 29807 net.cpp:200] loss3_my/loss3_test needs backward computation.
I0322 17:25:27.512352 29807 net.cpp:200] loss3_my/loss3_my needs backward computation.
I0322 17:25:27.512359 29807 net.cpp:200] loss3_my/predict_loss3_my/predict_0_split needs backward computation.
…
