…
I0322 17:33:01.083423 32639 net.cpp:296] The NetState phase (0) differed from the phase (1) specified by a rule in layer data
I0322 17:33:01.083576 32639 net.cpp:296] The NetState phase (0) differed from the phase (1) specified by a rule in layer loss3_my/loss3_test
I0322 17:33:01.084820 32639 net.cpp:53] Initializing net from parameters: 
name: "GoogleNet-half"
state {
  phase: TRAIN
  level: 0
  stage: ""
}
layer {
  name: "data"
  type: "Python"
  top: "data"
  top: "label"
  include {
    phase: TRAIN
  }
  python_param {
    module: "data_generator"
    layer: "DataLayer"
    param_str: "/home/zhongzhen/dataset/attribute/age/train.txt"
  }
}
layer {
  name: "conv1/7x7_s2"
  type: "Convolution"
  bottom: "data"
  top: "conv1/7x7_s2"
  param {
    lr_mult: 1
    decay_mult: 1
  }
  param {
    lr_mult: 2
    decay_mult: 0
  }
  convolution_param {
    num_output: 32
    pad: 3
    kernel_size: 7
    stride: 2
    weight_filler {
      type: "xavier"
      std: 0.1
    }
    bias_filler {
      type: "constant"
      value: 0.2
    }
  }
}
layer {
  name: "conv1/relu_7x7"
  type: "ReLU"
  bottom: "conv1/7x7_s2"
  top: "conv1/7x7_s2"
}
layer {
  name: "pool1/3x3_s2"
  type: "Pooling"
  bottom: "conv1/7x7_s2"
  top: "pool1/3x3_s2"
  pooling_param {
    pool: MAX
    kernel_size: 3
    stride: 2
  }
}
layer {
  name: "pool1/norm1"
  type: "LRN"
  bottom: "pool1/3x3_s2"
  top: "pool1/norm1"
  lrn_param {
    local_size: 5
    alpha: 0.0001
    beta: 0.75
  }
}
layer {
  name: "conv2/3x3_reduce"
  type: "Convolution"
  bottom: "pool1/norm1"
  top: "conv2/3x3_reduce"
  param {
    lr_mult: 1
    decay_mult: 1
  }
  param {
    lr_mult: 2
    decay_mult: 0
  }
  convolution_param {
    num_output: 32
    kernel_size: 1
    weight_filler {
      type: "xavier"
      std: 0.1
    }
    bias_filler {
      type: "constant"
      value: 0.2
    }
  }
}
layer {
  name: "conv2/relu_3x3_reduce"
  type: "ReLU"
  bottom: "conv2/3x3_reduce"
  top: "conv2/3x3_reduce"
}
layer {
  name: "conv2/3x3"
  type: "Convolution"
  bottom: "conv2/3x3_reduce"
  top: "conv2/3x3"
  param {
    lr_mult: 1
    decay_mult: 1
  }
  param {
    lr_mult: 2
    decay_mult: 0
  }
  convolution_param {
    num_output: 96
    pad: 1
    kernel_size: 3
    weight_filler {
      type: "xavier"
      std: 0.03
    }
    bias_filler {
      type: "constant"
      value: 0.2
    }
  }
}
layer {
  name: "conv2/relu_3x3"
  type: "ReLU"
  bottom: "conv2/3x3"
  top: "conv2/3x3"
}
layer {
  name: "conv2/norm2"
  type: "LRN"
  bottom: "conv2/3x3"
  top: "conv2/norm2"
  lrn_param {
    local_size: 5
    alpha: 0.0001
    beta: 0.75
  }
}
layer {
  name: "pool2/3x3_s2"
  type: "Pooling"
  bottom: "conv2/norm2"
  top: "pool2/3x3_s2"
  pooling_param {
    pool: MAX
    kernel_size: 3
    stride: 2
  }
}
layer {
  name: "inception_3a/1x1"
  type: "Convolution"
  bottom: "pool2/3x3_s2"
  top: "inception_3a/1x1"
  param {
    lr_mult: 1
    decay_mult: 1
  }
  param {
    lr_mult: 2
    decay_mult: 0
  }
  convolution_param {
    num_output: 32
    kernel_size: 1
    weight_filler {
      type: "xavier"
      std: 0.03
    }
    bias_filler {
      type: "constant"
      value: 0.2
    }
  }
}
layer {
  name: "inception_3a/relu_1x1"
  type: "ReLU"
  bottom: "inception_3a/1x1"
  top: "inception_3a/1x1"
}
layer {
  name: "inception_3a/3x3_reduce"
  type: "Convolution"
  bottom: "pool2/3x3_s2"
  top: "inception_3a/3x3_reduce"
  param {
    lr_mult: 1
    decay_mult: 1
  }
  param {
    lr_mult: 2
    decay_mult: 0
  }
  convolution_param {
    num_output: 48
    kernel_size: 1
    weight_filler {
      type: "xavier"
      std: 0.09
    }
    bias_filler {
      type: "constant"
      value: 0.2
    }
  }
}
layer {
  name: "inception_3a/relu_3x3_reduce"
  type: "ReLU"
  bottom: "inception_3a/3x3_reduce"
  top: "inception_3a/3x3_reduce"
}
layer {
  name: "inception_3a/3x3"
  type: "Convolution"
  bottom: "inception_3a/3x3_reduce"
  top: "inception_3a/3x3"
  param {
    lr_mult: 1
    decay_mult: 1
  }
  param {
    lr_mult: 2
    decay_mult: 0
  }
  convolution_param {
    num_output: 64
    pad: 1
    kernel_size: 3
    weight_filler {
      type: "xavier"
      std: 0.03
    }
    bias_filler {
      type: "constant"
      value: 0.2
    }
  }
}
layer {
  name: "inception_3a/relu_3x3"
  type: "ReLU"
  bottom: "inception_3a/3x3"
  top: "inception_3a/3x3"
}
layer {
  name: "inception_3a/5x5_reduce"
  type: "Convolution"
  bottom: "pool2/3x3_s2"
  top: "inception_3a/5x5_reduce"
  param {
    lr_mult: 1
    decay_mult: 1
  }
  param {
    lr_mult: 2
    decay_mult: 0
  }
  convolution_param {
    num_output: 8
    kernel_size: 1
    weight_filler {
      type: "xavier"
      std: 0.2
    }
    bias_filler {
      type: "constant"
      value: 0.2
    }
  }
}
layer {
  name: "inception_3a/relu_5x5_reduce"
  type: "ReLU"
  bottom: "inception_3a/5x5_reduce"
  top: "inception_3a/5x5_reduce"
}
layer {
  name: "inception_3a/5x5"
  type: "Convolution"
  bottom: "inception_3a/5x5_reduce"
  top: "inception_3a/5x5"
  param {
    lr_mult: 1
    decay_mult: 1
  }
  param {
    lr_mult: 2
    decay_mult: 0
  }
  convolution_param {
    num_output: 16
    pad: 2
    kernel_size: 5
    weight_filler {
      type: "xavier"
      std: 0.03
    }
    bias_filler {
      type: "constant"
      value: 0.2
    }
  }
}
layer {
  name: "inception_3a/relu_5x5"
  type: "ReLU"
  bottom: "inception_3a/5x5"
  top: "inception_3a/5x5"
}
layer {
  name: "inception_3a/pool"
  type: "Pooling"
  bottom: "pool2/3x3_s2"
  top: "inception_3a/pool"
  pooling_param {
    pool: MAX
    kernel_size: 3
    stride: 1
    pad: 1
  }
}
layer {
  name: "inception_3a/pool_proj"
  type: "Convolution"
  bottom: "inception_3a/pool"
  top: "inception_3a/pool_proj"
  param {
    lr_mult: 1
    decay_mult: 1
  }
  param {
    lr_mult: 2
    decay_mult: 0
  }
  convolution_param {
    num_output: 16
    kernel_size: 1
    weight_filler {
      type: "xavier"
      std: 0.1
    }
    bias_filler {
      type: "constant"
      value: 0.2
    }
  }
}
layer {
  name: "inception_3a/relu_pool_proj"
  type: "ReLU"
  bottom: "inception_3a/pool_proj"
  top: "inception_3a/pool_proj"
}
layer {
  name: "inception_3a/output"
  type: "Concat"
  bottom: "inception_3a/1x1"
  bottom: "inception_3a/3x3"
  bottom: "inception_3a/5x5"
  bottom: "inception_3a/pool_proj"
  top: "inception_3a/output"
}
layer {
  name: "inception_3b/1x1"
  type: "Convolution"
  bottom: "inception_3a/output"
  top: "inception_3b/1x1"
  param {
    lr_mult: 1
    decay_mult: 1
  }
  param {
    lr_mult: 2
    decay_mult: 0
  }
  convolution_param {
    num_output: 64
    kernel_size: 1
    weight_filler {
      type: "xavier"
      std: 0.03
    }
    bias_filler {
      type: "constant"
      value: 0.2
    }
  }
}
layer {
  name: "inception_3b/relu_1x1"
  type: "ReLU"
  bottom: "inception_3b/1x1"
  top: "inception_3b/1x1"
}
layer {
  name: "inception_3b/3x3_reduce"
  type: "Convolution"
  bottom: "inception_3a/output"
  top: "inception_3b/3x3_reduce"
  param {
    lr_mult: 1
    decay_mult: 1
  }
  param {
    lr_mult: 2
    decay_mult: 0
  }
  convolution_param {
    num_output: 64
    kernel_size: 1
    weight_filler {
      type: "xavier"
      std: 0.09
    }
    bias_filler {
      type: "constant"
      value: 0.2
    }
  }
}
layer {
  name: "inception_3b/relu_3x3_reduce"
  type: "ReLU"
  bottom: "inception_3b/3x3_reduce"
  top: "inception_3b/3x3_reduce"
}
layer {
  name: "inception_3b/3x3"
  type: "Convolution"
  bottom: "inception_3b/3x3_reduce"
  top: "inception_3b/3x3"
  param {
    lr_mult: 1
    decay_mult: 1
  }
  param {
    lr_mult: 2
    decay_mult: 0
  }
  convolution_param {
    num_output: 96
    pad: 1
    kernel_size: 3
    weight_filler {
      type: "xavier"
      std: 0.03
    }
    bias_filler {
      type: "constant"
      value: 0.2
    }
  }
}
layer {
  name: "inception_3b/relu_3x3"
  type: "ReLU"
  bottom: "inception_3b/3x3"
  top: "inception_3b/3x3"
}
layer {
  name: "inception_3b/5x5_reduce"
  type: "Convolution"
  bottom: "inception_3a/output"
  top: "inception_3b/5x5_reduce"
  param {
    lr_mult: 1
    decay_mult: 1
  }
  param {
    lr_mult: 2
    decay_mult: 0
  }
  convolution_param {
    num_output: 16
    kernel_size: 1
    weight_filler {
      type: "xavier"
      std: 0.2
    }
    bias_filler {
      type: "constant"
      value: 0.2
    }
  }
}
layer {
  name: "inception_3b/relu_5x5_reduce"
  type: "ReLU"
  bottom: "inception_3b/5x5_reduce"
  top: "inception_3b/5x5_reduce"
}
layer {
  name: "inception_3b/5x5"
  type: "Convolution"
  bottom: "inception_3b/5x5_reduce"
  top: "inception_3b/5x5"
  param {
    lr_mult: 1
    decay_mult: 1
  }
  param {
    lr_mult: 2
    decay_mult: 0
  }
  convolution_param {
    num_output: 48
    pad: 2
    kernel_size: 5
    weight_filler {
      type: "xavier"
      std: 0.03
    }
    bias_filler {
      type: "constant"
      value: 0.2
    }
  }
}
layer {
  name: "inception_3b/relu_5x5"
  type: "ReLU"
  bottom: "inception_3b/5x5"
  top: "inception_3b/5x5"
}
layer {
  name: "inception_3b/pool"
  type: "Pooling"
  bottom: "inception_3a/output"
  top: "inception_3b/pool"
  pooling_param {
    pool: MAX
    kernel_size: 3
    stride: 1
    pad: 1
  }
}
layer {
  name: "inception_3b/pool_proj"
  type: "Convolution"
  bottom: "inception_3b/pool"
  top: "inception_3b/pool_proj"
  param {
    lr_mult: 1
    decay_mult: 1
  }
  param {
    lr_mult: 2
    decay_mult: 0
  }
  convolution_param {
    num_output: 32
    kernel_size: 1
    weight_filler {
      type: "xavier"
      std: 0.1
    }
    bias_filler {
      type: "constant"
      value: 0.2
    }
  }
}
layer {
  name: "inception_3b/relu_pool_proj"
  type: "ReLU"
  bottom: "inception_3b/pool_proj"
  top: "inception_3b/pool_proj"
}
layer {
  name: "inception_3b/output"
  type: "Concat"
  bottom: "inception_3b/1x1"
  bottom: "inception_3b/3x3"
  bottom: "inception_3b/5x5"
  bottom: "inception_3b/pool_proj"
  top: "inception_3b/output"
}
layer {
  name: "pool3/3x3_s2"
  type: "Pooling"
  bottom: "inception_3b/output"
  top: "pool3/3x3_s2"
  pooling_param {
    pool: MAX
    kernel_size: 3
    stride: 2
  }
}
layer {
  name: "inception_4a/1x1"
  type: "Convolution"
  bottom: "pool3/3x3_s2"
  top: "inception_4a/1x1"
  param {
    lr_mult: 1
    decay_mult: 1
  }
  param {
    lr_mult: 2
    decay_mult: 0
  }
  convolution_param {
    num_output: 96
    kernel_size: 1
    weight_filler {
      type: "xavier"
      std: 0.03
    }
    bias_filler {
      type: "constant"
      value: 0.2
    }
  }
}
layer {
  name: "inception_4a/relu_1x1"
  type: "ReLU"
  bottom: "inception_4a/1x1"
  top: "inception_4a/1x1"
}
layer {
  name: "inception_4a/3x3_reduce"
  type: "Convolution"
  bottom: "pool3/3x3_s2"
  top: "inception_4a/3x3_reduce"
  param {
    lr_mult: 1
    decay_mult: 1
  }
  param {
    lr_mult: 2
    decay_mult: 0
  }
  convolution_param {
    num_output: 48
    kernel_size: 1
    weight_filler {
      type: "xavier"
      std: 0.09
    }
    bias_filler {
      type: "constant"
      value: 0.2
    }
  }
}
layer {
  name: "inception_4a/relu_3x3_reduce"
  type: "ReLU"
  bottom: "inception_4a/3x3_reduce"
  top: "inception_4a/3x3_reduce"
}
layer {
  name: "inception_4a/3x3"
  type: "Convolution"
  bottom: "inception_4a/3x3_reduce"
  top: "inception_4a/3x3"
  param {
    lr_mult: 1
    decay_mult: 1
  }
  param {
    lr_mult: 2
    decay_mult: 0
  }
  convolution_param {
    num_output: 104
    pad: 1
    kernel_size: 3
    weight_filler {
      type: "xavier"
      std: 0.03
    }
    bias_filler {
      type: "constant"
      value: 0.2
    }
  }
}
layer {
  name: "inception_4a/relu_3x3"
  type: "ReLU"
  bottom: "inception_4a/3x3"
  top: "inception_4a/3x3"
}
layer {
  name: "inception_4a/5x5_reduce"
  type: "Convolution"
  bottom: "pool3/3x3_s2"
  top: "inception_4a/5x5_reduce"
  param {
    lr_mult: 1
    decay_mult: 1
  }
  param {
    lr_mult: 2
    decay_mult: 0
  }
  convolution_param {
    num_output: 8
    kernel_size: 1
    weight_filler {
      type: "xavier"
      std: 0.2
    }
    bias_filler {
      type: "constant"
      value: 0.2
    }
  }
}
layer {
  name: "inception_4a/relu_5x5_reduce"
  type: "ReLU"
  bottom: "inception_4a/5x5_reduce"
  top: "inception_4a/5x5_reduce"
}
layer {
  name: "inception_4a/5x5"
  type: "Convolution"
  bottom: "inception_4a/5x5_reduce"
  top: "inception_4a/5x5"
  param {
    lr_mult: 1
    decay_mult: 1
  }
  param {
    lr_mult: 2
    decay_mult: 0
  }
  convolution_param {
    num_output: 24
    pad: 2
    kernel_size: 5
    weight_filler {
      type: "xavier"
      std: 0.03
    }
    bias_filler {
      type: "constant"
      value: 0.2
    }
  }
}
layer {
  name: "inception_4a/relu_5x5"
  type: "ReLU"
  bottom: "inception_4a/5x5"
  top: "inception_4a/5x5"
}
layer {
  name: "inception_4a/pool"
  type: "Pooling"
  bottom: "pool3/3x3_s2"
  top: "inception_4a/pool"
  pooling_param {
    pool: MAX
    kernel_size: 3
    stride: 1
    pad: 1
  }
}
layer {
  name: "inception_4a/pool_proj"
  type: "Convolution"
  bottom: "inception_4a/pool"
  top: "inception_4a/pool_proj"
  param {
    lr_mult: 1
    decay_mult: 1
  }
  param {
    lr_mult: 2
    decay_mult: 0
  }
  convolution_param {
    num_output: 32
    kernel_size: 1
    weight_filler {
      type: "xavier"
      std: 0.1
    }
    bias_filler {
      type: "constant"
      value: 0.2
    }
  }
}
layer {
  name: "inception_4a/relu_pool_proj"
  type: "ReLU"
  bottom: "inception_4a/pool_proj"
  top: "inception_4a/pool_proj"
}
layer {
  name: "inception_4a/output"
  type: "Concat"
  bottom: "inception_4a/1x1"
  bottom: "inception_4a/3x3"
  bottom: "inception_4a/5x5"
  bottom: "inception_4a/pool_proj"
  top: "inception_4a/output"
}
layer {
  name: "inception_4b/1x1"
  type: "Convolution"
  bottom: "inception_4a/output"
  top: "inception_4b/1x1"
  param {
    lr_mult: 1
    decay_mult: 1
  }
  param {
    lr_mult: 2
    decay_mult: 0
  }
  convolution_param {
    num_output: 80
    kernel_size: 1
    weight_filler {
      type: "xavier"
      std: 0.03
    }
    bias_filler {
      type: "constant"
      value: 0.2
    }
  }
}
layer {
  name: "inception_4b/relu_1x1"
  type: "ReLU"
  bottom: "inception_4b/1x1"
  top: "inception_4b/1x1"
}
layer {
  name: "inception_4b/3x3_reduce"
  type: "Convolution"
  bottom: "inception_4a/output"
  top: "inception_4b/3x3_reduce"
  param {
    lr_mult: 1
    decay_mult: 1
  }
  param {
    lr_mult: 2
    decay_mult: 0
  }
  convolution_param {
    num_output: 56
    kernel_size: 1
    weight_filler {
      type: "xavier"
      std: 0.09
    }
    bias_filler {
      type: "constant"
      value: 0.2
    }
  }
}
layer {
  name: "inception_4b/relu_3x3_reduce"
  type: "ReLU"
  bottom: "inception_4b/3x3_reduce"
  top: "inception_4b/3x3_reduce"
}
layer {
  name: "inception_4b/3x3"
  type: "Convolution"
  bottom: "inception_4b/3x3_reduce"
  top: "inception_4b/3x3"
  param {
    lr_mult: 1
    decay_mult: 1
  }
  param {
    lr_mult: 2
    decay_mult: 0
  }
  convolution_param {
    num_output: 112
    pad: 1
    kernel_size: 3
    weight_filler {
      type: "xavier"
      std: 0.03
    }
    bias_filler {
      type: "constant"
      value: 0.2
    }
  }
}
layer {
  name: "inception_4b/relu_3x3"
  type: "ReLU"
  bottom: "inception_4b/3x3"
  top: "inception_4b/3x3"
}
layer {
  name: "inception_4b/5x5_reduce"
  type: "Convolution"
  bottom: "inception_4a/output"
  top: "inception_4b/5x5_reduce"
  param {
    lr_mult: 1
    decay_mult: 1
  }
  param {
    lr_mult: 2
    decay_mult: 0
  }
  convolution_param {
    num_output: 12
    kernel_size: 1
    weight_filler {
      type: "xavier"
      std: 0.2
    }
    bias_filler {
      type: "constant"
      value: 0.2
    }
  }
}
layer {
  name: "inception_4b/relu_5x5_reduce"
  type: "ReLU"
  bottom: "inception_4b/5x5_reduce"
  top: "inception_4b/5x5_reduce"
}
layer {
  name: "inception_4b/5x5"
  type: "Convolution"
  bottom: "inception_4b/5x5_reduce"
  top: "inception_4b/5x5"
  param {
    lr_mult: 1
    decay_mult: 1
  }
  param {
    lr_mult: 2
    decay_mult: 0
  }
  convolution_param {
    num_output: 32
    pad: 2
    kernel_size: 5
    weight_filler {
      type: "xavier"
      std: 0.03
    }
    bias_filler {
      type: "constant"
      value: 0.2
    }
  }
}
layer {
  name: "inception_4b/relu_5x5"
  type: "ReLU"
  bottom: "inception_4b/5x5"
  top: "inception_4b/5x5"
}
layer {
  name: "inception_4b/pool"
  type: "Pooling"
  bottom: "inception_4a/output"
  top: "inception_4b/pool"
  pooling_param {
    pool: MAX
    kernel_size: 3
    stride: 1
    pad: 1
  }
}
layer {
  name: "inception_4b/pool_proj"
  type: "Convolution"
  bottom: "inception_4b/pool"
  top: "inception_4b/pool_proj"
  param {
    lr_mult: 1
    decay_mult: 1
  }
  param {
    lr_mult: 2
    decay_mult: 0
  }
  convolution_param {
    num_output: 32
    kernel_size: 1
    weight_filler {
      type: "xavier"
      std: 0.1
    }
    bias_filler {
      type: "constant"
      value: 0.2
    }
  }
}
layer {
  name: "inception_4b/relu_pool_proj"
  type: "ReLU"
  bottom: "inception_4b/pool_proj"
  top: "inception_4b/pool_proj"
}
layer {
  name: "inception_4b/output"
  type: "Concat"
  bottom: "inception_4b/1x1"
  bottom: "inception_4b/3x3"
  bottom: "inception_4b/5x5"
  bottom: "inception_4b/pool_proj"
  top: "inception_4b/output"
}
layer {
  name: "inception_4c/1x1"
  type: "Convolution"
  bottom: "inception_4b/output"
  top: "inception_4c/1x1"
  param {
    lr_mult: 1
    decay_mult: 1
  }
  param {
    lr_mult: 2
    decay_mult: 0
  }
  convolution_param {
    num_output: 64
    kernel_size: 1
    weight_filler {
      type: "xavier"
      std: 0.03
    }
    bias_filler {
      type: "constant"
      value: 0.2
    }
  }
}
layer {
  name: "inception_4c/relu_1x1"
  type: "ReLU"
  bottom: "inception_4c/1x1"
  top: "inception_4c/1x1"
}
layer {
  name: "inception_4c/3x3_reduce"
  type: "Convolution"
  bottom: "inception_4b/output"
  top: "inception_4c/3x3_reduce"
  param {
    lr_mult: 1
    decay_mult: 1
  }
  param {
    lr_mult: 2
    decay_mult: 0
  }
  convolution_param {
    num_output: 64
    kernel_size: 1
    weight_filler {
      type: "xavier"
      std: 0.09
    }
    bias_filler {
      type: "constant"
      value: 0.2
    }
  }
}
layer {
  name: "inception_4c/relu_3x3_reduce"
  type: "ReLU"
  bottom: "inception_4c/3x3_reduce"
  top: "inception_4c/3x3_reduce"
}
layer {
  name: "inception_4c/3x3"
  type: "Convolution"
  bottom: "inception_4c/3x3_reduce"
  top: "inception_4c/3x3"
  param {
    lr_mult: 1
    decay_mult: 1
  }
  param {
    lr_mult: 2
    decay_mult: 0
  }
  convolution_param {
    num_output: 128
    pad: 1
    kernel_size: 3
    weight_filler {
      type: "xavier"
      std: 0.03
    }
    bias_filler {
      type: "constant"
      value: 0.2
    }
  }
}
layer {
  name: "inception_4c/relu_3x3"
  type: "ReLU"
  bottom: "inception_4c/3x3"
  top: "inception_4c/3x3"
}
layer {
  name: "inception_4c/5x5_reduce"
  type: "Convolution"
  bottom: "inception_4b/output"
  top: "inception_4c/5x5_reduce"
  param {
    lr_mult: 1
    decay_mult: 1
  }
  param {
    lr_mult: 2
    decay_mult: 0
  }
  convolution_param {
    num_output: 12
    kernel_size: 1
    weight_filler {
      type: "xavier"
      std: 0.2
    }
    bias_filler {
      type: "constant"
      value: 0.2
    }
  }
}
layer {
  name: "inception_4c/relu_5x5_reduce"
  type: "ReLU"
  bottom: "inception_4c/5x5_reduce"
  top: "inception_4c/5x5_reduce"
}
layer {
  name: "inception_4c/5x5"
  type: "Convolution"
  bottom: "inception_4c/5x5_reduce"
  top: "inception_4c/5x5"
  param {
    lr_mult: 1
    decay_mult: 1
  }
  param {
    lr_mult: 2
    decay_mult: 0
  }
  convolution_param {
    num_output: 32
    pad: 2
    kernel_size: 5
    weight_filler {
      type: "xavier"
      std: 0.03
    }
    bias_filler {
      type: "constant"
      value: 0.2
    }
  }
}
layer {
  name: "inception_4c/relu_5x5"
  type: "ReLU"
  bottom: "inception_4c/5x5"
  top: "inception_4c/5x5"
}
layer {
  name: "inception_4c/pool"
  type: "Pooling"
  bottom: "inception_4b/output"
  top: "inception_4c/pool"
  pooling_param {
    pool: MAX
    kernel_size: 3
    stride: 1
    pad: 1
  }
}
layer {
  name: "inception_4c/pool_proj"
  type: "Convolution"
  bottom: "inception_4c/pool"
  top: "inception_4c/pool_proj"
  param {
    lr_mult: 1
    decay_mult: 1
  }
  param {
    lr_mult: 2
    decay_mult: 0
  }
  convolution_param {
    num_output: 32
    kernel_size: 1
    weight_filler {
      type: "xavier"
      std: 0.1
    }
    bias_filler {
      type: "constant"
      value: 0.2
    }
  }
}
layer {
  name: "inception_4c/relu_pool_proj"
  type: "ReLU"
  bottom: "inception_4c/pool_proj"
  top: "inception_4c/pool_proj"
}
layer {
  name: "inception_4c/output"
  type: "Concat"
  bottom: "inception_4c/1x1"
  bottom: "inception_4c/3x3"
  bottom: "inception_4c/5x5"
  bottom: "inception_4c/pool_proj"
  top: "inception_4c/output"
}
layer {
  name: "inception_4d/1x1"
  type: "Convolution"
  bottom: "inception_4c/output"
  top: "inception_4d/1x1"
  param {
    lr_mult: 1
    decay_mult: 1
  }
  param {
    lr_mult: 2
    decay_mult: 0
  }
  convolution_param {
    num_output: 56
    kernel_size: 1
    weight_filler {
      type: "xavier"
      std: 0.03
    }
    bias_filler {
      type: "constant"
      value: 0.2
    }
  }
}
layer {
  name: "inception_4d/relu_1x1"
  type: "ReLU"
  bottom: "inception_4d/1x1"
  top: "inception_4d/1x1"
}
layer {
  name: "inception_4d/3x3_reduce"
  type: "Convolution"
  bottom: "inception_4c/output"
  top: "inception_4d/3x3_reduce"
  param {
    lr_mult: 1
    decay_mult: 1
  }
  param {
    lr_mult: 2
    decay_mult: 0
  }
  convolution_param {
    num_output: 72
    kernel_size: 1
    weight_filler {
      type: "xavier"
      std: 0.09
    }
    bias_filler {
      type: "constant"
      value: 0.2
    }
  }
}
layer {
  name: "inception_4d/relu_3x3_reduce"
  type: "ReLU"
  bottom: "inception_4d/3x3_reduce"
  top: "inception_4d/3x3_reduce"
}
layer {
  name: "inception_4d/3x3"
  type: "Convolution"
  bottom: "inception_4d/3x3_reduce"
  top: "inception_4d/3x3"
  param {
    lr_mult: 1
    decay_mult: 1
  }
  param {
    lr_mult: 2
    decay_mult: 0
  }
  convolution_param {
    num_output: 144
    pad: 1
    kernel_size: 3
    weight_filler {
      type: "xavier"
      std: 0.03
    }
    bias_filler {
      type: "constant"
      value: 0.2
    }
  }
}
layer {
  name: "inception_4d/relu_3x3"
  type: "ReLU"
  bottom: "inception_4d/3x3"
  top: "inception_4d/3x3"
}
layer {
  name: "inception_4d/5x5_reduce"
  type: "Convolution"
  bottom: "inception_4c/output"
  top: "inception_4d/5x5_reduce"
  param {
    lr_mult: 1
    decay_mult: 1
  }
  param {
    lr_mult: 2
    decay_mult: 0
  }
  convolution_param {
    num_output: 16
    kernel_size: 1
    weight_filler {
      type: "xavier"
      std: 0.2
    }
    bias_filler {
      type: "constant"
      value: 0.2
    }
  }
}
layer {
  name: "inception_4d/relu_5x5_reduce"
  type: "ReLU"
  bottom: "inception_4d/5x5_reduce"
  top: "inception_4d/5x5_reduce"
}
layer {
  name: "inception_4d/5x5"
  type: "Convolution"
  bottom: "inception_4d/5x5_reduce"
  top: "inception_4d/5x5"
  param {
    lr_mult: 1
    decay_mult: 1
  }
  param {
    lr_mult: 2
    decay_mult: 0
  }
  convolution_param {
    num_output: 32
    pad: 2
    kernel_size: 5
    weight_filler {
      type: "xavier"
      std: 0.03
    }
    bias_filler {
      type: "constant"
      value: 0.2
    }
  }
}
layer {
  name: "inception_4d/relu_5x5"
  type: "ReLU"
  bottom: "inception_4d/5x5"
  top: "inception_4d/5x5"
}
layer {
  name: "inception_4d/pool"
  type: "Pooling"
  bottom: "inception_4c/output"
  top: "inception_4d/pool"
  pooling_param {
    pool: MAX
    kernel_size: 3
    stride: 1
    pad: 1
  }
}
layer {
  name: "inception_4d/pool_proj"
  type: "Convolution"
  bottom: "inception_4d/pool"
  top: "inception_4d/pool_proj"
  param {
    lr_mult: 1
    decay_mult: 1
  }
  param {
    lr_mult: 2
    decay_mult: 0
  }
  convolution_param {
    num_output: 32
    kernel_size: 1
    weight_filler {
      type: "xavier"
      std: 0.1
    }
    bias_filler {
      type: "constant"
      value: 0.2
    }
  }
}
layer {
  name: "inception_4d/relu_pool_proj"
  type: "ReLU"
  bottom: "inception_4d/pool_proj"
  top: "inception_4d/pool_proj"
}
layer {
  name: "inception_4d/output"
  type: "Concat"
  bottom: "inception_4d/1x1"
  bottom: "inception_4d/3x3"
  bottom: "inception_4d/5x5"
  bottom: "inception_4d/pool_proj"
  top: "inception_4d/output"
}
layer {
  name: "inception_4e/1x1"
  type: "Convolution"
  bottom: "inception_4d/output"
  top: "inception_4e/1x1"
  param {
    lr_mult: 1
    decay_mult: 1
  }
  param {
    lr_mult: 2
    decay_mult: 0
  }
  convolution_param {
    num_output: 128
    kernel_size: 1
    weight_filler {
      type: "xavier"
      std: 0.03
    }
    bias_filler {
      type: "constant"
      value: 0.2
    }
  }
}
layer {
  name: "inception_4e/relu_1x1"
  type: "ReLU"
  bottom: "inception_4e/1x1"
  top: "inception_4e/1x1"
}
layer {
  name: "inception_4e/3x3_reduce"
  type: "Convolution"
  bottom: "inception_4d/output"
  top: "inception_4e/3x3_reduce"
  param {
    lr_mult: 1
    decay_mult: 1
  }
  param {
    lr_mult: 2
    decay_mult: 0
  }
  convolution_param {
    num_output: 80
    kernel_size: 1
    weight_filler {
      type: "xavier"
      std: 0.09
    }
    bias_filler {
      type: "constant"
      value: 0.2
    }
  }
}
layer {
  name: "inception_4e/relu_3x3_reduce"
  type: "ReLU"
  bottom: "inception_4e/3x3_reduce"
  top: "inception_4e/3x3_reduce"
}
layer {
  name: "inception_4e/3x3"
  type: "Convolution"
  bottom: "inception_4e/3x3_reduce"
  top: "inception_4e/3x3"
  param {
    lr_mult: 1
    decay_mult: 1
  }
  param {
    lr_mult: 2
    decay_mult: 0
  }
  convolution_param {
    num_output: 160
    pad: 1
    kernel_size: 3
    weight_filler {
      type: "xavier"
      std: 0.03
    }
    bias_filler {
      type: "constant"
      value: 0.2
    }
  }
}
layer {
  name: "inception_4e/relu_3x3"
  type: "ReLU"
  bottom: "inception_4e/3x3"
  top: "inception_4e/3x3"
}
layer {
  name: "inception_4e/5x5_reduce"
  type: "Convolution"
  bottom: "inception_4d/output"
  top: "inception_4e/5x5_reduce"
  param {
    lr_mult: 1
    decay_mult: 1
  }
  param {
    lr_mult: 2
    decay_mult: 0
  }
  convolution_param {
    num_output: 16
    kernel_size: 1
    weight_filler {
      type: "xavier"
      std: 0.2
    }
    bias_filler {
      type: "constant"
      value: 0.2
    }
  }
}
layer {
  name: "inception_4e/relu_5x5_reduce"
  type: "ReLU"
  bottom: "inception_4e/5x5_reduce"
  top: "inception_4e/5x5_reduce"
}
layer {
  name: "inception_4e/5x5"
  type: "Convolution"
  bottom: "inception_4e/5x5_reduce"
  top: "inception_4e/5x5"
  param {
    lr_mult: 1
    decay_mult: 1
  }
  param {
    lr_mult: 2
    decay_mult: 0
  }
  convolution_param {
    num_output: 64
    pad: 2
    kernel_size: 5
    weight_filler {
      type: "xavier"
      std: 0.03
    }
    bias_filler {
      type: "constant"
      value: 0.2
    }
  }
}
layer {
  name: "inception_4e/relu_5x5"
  type: "ReLU"
  bottom: "inception_4e/5x5"
  top: "inception_4e/5x5"
}
layer {
  name: "inception_4e/pool"
  type: "Pooling"
  bottom: "inception_4d/output"
  top: "inception_4e/pool"
  pooling_param {
    pool: MAX
    kernel_size: 3
    stride: 1
    pad: 1
  }
}
layer {
  name: "inception_4e/pool_proj"
  type: "Convolution"
  bottom: "inception_4e/pool"
  top: "inception_4e/pool_proj"
  param {
    lr_mult: 1
    decay_mult: 1
  }
  param {
    lr_mult: 2
    decay_mult: 0
  }
  convolution_param {
    num_output: 64
    kernel_size: 1
    weight_filler {
      type: "xavier"
      std: 0.1
    }
    bias_filler {
      type: "constant"
      value: 0.2
    }
  }
}
layer {
  name: "inception_4e/relu_pool_proj"
  type: "ReLU"
  bottom: "inception_4e/pool_proj"
  top: "inception_4e/pool_proj"
}
layer {
  name: "inception_4e/output"
  type: "Concat"
  bottom: "inception_4e/1x1"
  bottom: "inception_4e/3x3"
  bottom: "inception_4e/5x5"
  bottom: "inception_4e/pool_proj"
  top: "inception_4e/output"
}
layer {
  name: "conv_16"
  type: "Convolution"
  bottom: "inception_4e/output"
  top: "conv_16"
  param {
    lr_mult: 1
    decay_mult: 1
  }
  param {
    lr_mult: 2
    decay_mult: 0
  }
  convolution_param {
    num_output: 128
    kernel_size: 1
    weight_filler {
      type: "gaussian"
      std: 0.01
    }
    bias_filler {
      type: "constant"
      value: 0
    }
  }
}
layer {
  name: "relu_16"
  type: "ReLU"
  bottom: "conv_16"
  top: "conv_16"
}
layer {
  name: "conv_face_predict"
  type: "Convolution"
  bottom: "conv_16"
  top: "conv_face_predict"
  param {
    lr_mult: 1
    decay_mult: 1
  }
  param {
    lr_mult: 2
    decay_mult: 0
  }
  convolution_param {
    num_output: 20
    kernel_size: 1
    weight_filler {
      type: "gaussian"
      std: 0.01
    }
    bias_filler {
      type: "constant"
      value: 0
    }
  }
}
layer {
  name: "pool5/7x7_s1"
  type: "Pooling"
  bottom: "conv_face_predict"
  top: "pool5/7x7_s1"
  pooling_param {
    pool: AVE
    kernel_size: 4
    stride: 1
  }
}
layer {
  name: "pool5/drop_7x7_s1"
  type: "Dropout"
  bottom: "pool5/7x7_s1"
  top: "pool5/7x7_s1"
  dropout_param {
    dropout_ratio: 0.4
  }
}
layer {
  name: "loss3_my/predict"
  type: "InnerProduct"
  bottom: "pool5/7x7_s1"
  top: "loss3_my/predict"
  param {
    lr_mult: 1
    decay_mult: 1
  }
  param {
    lr_mult: 2
    decay_mult: 0
  }
  inner_product_param {
    num_output: 1
    weight_filler {
      type: "xavier"
    }
    bias_filler {
      type: "constant"
      value: 0
    }
  }
}
layer {
  name: "loss3_my/loss3_my"
  type: "Python"
  bottom: "loss3_my/predict"
  bottom: "label"
  top: "loss3_my/loss3_my"
  loss_weight: 1
  python_param {
    module: "robust_loss"
    layer: "RobustLossLayer"
  }
}
I0322 17:33:01.085830 32639 layer_factory.hpp:77] Creating layer data
I0322 17:33:02.041532 32639 net.cpp:86] Creating Layer data
I0322 17:33:02.041621 32639 net.cpp:382] data -> data
I0322 17:33:02.041654 32639 net.cpp:382] data -> label
I0322 17:33:02.371564 32639 net.cpp:124] Setting up data
I0322 17:33:02.371641 32639 net.cpp:131] Top shape: 128 3 224 224 (19267584)
I0322 17:33:02.371656 32639 net.cpp:131] Top shape: 128 1 (128)
I0322 17:33:02.371665 32639 net.cpp:139] Memory required for data: 77070848
I0322 17:33:02.371683 32639 layer_factory.hpp:77] Creating layer conv1/7x7_s2
I0322 17:33:02.371752 32639 net.cpp:86] Creating Layer conv1/7x7_s2
I0322 17:33:02.371767 32639 net.cpp:408] conv1/7x7_s2 <- data
I0322 17:33:02.371795 32639 net.cpp:382] conv1/7x7_s2 -> conv1/7x7_s2
I0322 17:33:02.374451 32639 net.cpp:124] Setting up conv1/7x7_s2
I0322 17:33:02.374524 32639 net.cpp:131] Top shape: 128 32 112 112 (51380224)
I0322 17:33:02.374533 32639 net.cpp:139] Memory required for data: 282591744
I0322 17:33:02.374562 32639 layer_factory.hpp:77] Creating layer conv1/relu_7x7
I0322 17:33:02.374590 32639 net.cpp:86] Creating Layer conv1/relu_7x7
I0322 17:33:02.374600 32639 net.cpp:408] conv1/relu_7x7 <- conv1/7x7_s2
I0322 17:33:02.374613 32639 net.cpp:369] conv1/relu_7x7 -> conv1/7x7_s2 (in-place)
I0322 17:33:02.374635 32639 net.cpp:124] Setting up conv1/relu_7x7
I0322 17:33:02.374647 32639 net.cpp:131] Top shape: 128 32 112 112 (51380224)
I0322 17:33:02.374655 32639 net.cpp:139] Memory required for data: 488112640
I0322 17:33:02.374660 32639 layer_factory.hpp:77] Creating layer pool1/3x3_s2
I0322 17:33:02.374680 32639 net.cpp:86] Creating Layer pool1/3x3_s2
I0322 17:33:02.374688 32639 net.cpp:408] pool1/3x3_s2 <- conv1/7x7_s2
I0322 17:33:02.374698 32639 net.cpp:382] pool1/3x3_s2 -> pool1/3x3_s2
I0322 17:33:02.374773 32639 net.cpp:124] Setting up pool1/3x3_s2
I0322 17:33:02.374788 32639 net.cpp:131] Top shape: 128 32 56 56 (12845056)
I0322 17:33:02.374794 32639 net.cpp:139] Memory required for data: 539492864
I0322 17:33:02.374800 32639 layer_factory.hpp:77] Creating layer pool1/norm1
I0322 17:33:02.374814 32639 net.cpp:86] Creating Layer pool1/norm1
I0322 17:33:02.374851 32639 net.cpp:408] pool1/norm1 <- pool1/3x3_s2
I0322 17:33:02.374864 32639 net.cpp:382] pool1/norm1 -> pool1/norm1
I0322 17:33:02.374923 32639 net.cpp:124] Setting up pool1/norm1
I0322 17:33:02.374939 32639 net.cpp:131] Top shape: 128 32 56 56 (12845056)
I0322 17:33:02.374945 32639 net.cpp:139] Memory required for data: 590873088
I0322 17:33:02.374953 32639 layer_factory.hpp:77] Creating layer conv2/3x3_reduce
I0322 17:33:02.374971 32639 net.cpp:86] Creating Layer conv2/3x3_reduce
I0322 17:33:02.374979 32639 net.cpp:408] conv2/3x3_reduce <- pool1/norm1
I0322 17:33:02.374990 32639 net.cpp:382] conv2/3x3_reduce -> conv2/3x3_reduce
I0322 17:33:02.378509 32639 net.cpp:124] Setting up conv2/3x3_reduce
I0322 17:33:02.378584 32639 net.cpp:131] Top shape: 128 32 56 56 (12845056)
I0322 17:33:02.378592 32639 net.cpp:139] Memory required for data: 642253312
I0322 17:33:02.378617 32639 layer_factory.hpp:77] Creating layer conv2/relu_3x3_reduce
I0322 17:33:02.378643 32639 net.cpp:86] Creating Layer conv2/relu_3x3_reduce
I0322 17:33:02.378654 32639 net.cpp:408] conv2/relu_3x3_reduce <- conv2/3x3_reduce
I0322 17:33:02.378665 32639 net.cpp:369] conv2/relu_3x3_reduce -> conv2/3x3_reduce (in-place)
I0322 17:33:02.378682 32639 net.cpp:124] Setting up conv2/relu_3x3_reduce
I0322 17:33:02.378691 32639 net.cpp:131] Top shape: 128 32 56 56 (12845056)
I0322 17:33:02.378697 32639 net.cpp:139] Memory required for data: 693633536
I0322 17:33:02.378702 32639 layer_factory.hpp:77] Creating layer conv2/3x3
I0322 17:33:02.378722 32639 net.cpp:86] Creating Layer conv2/3x3
I0322 17:33:02.378732 32639 net.cpp:408] conv2/3x3 <- conv2/3x3_reduce
I0322 17:33:02.378743 32639 net.cpp:382] conv2/3x3 -> conv2/3x3
I0322 17:33:02.380982 32639 net.cpp:124] Setting up conv2/3x3
I0322 17:33:02.381058 32639 net.cpp:131] Top shape: 128 96 56 56 (38535168)
I0322 17:33:02.381067 32639 net.cpp:139] Memory required for data: 847774208
I0322 17:33:02.381089 32639 layer_factory.hpp:77] Creating layer conv2/relu_3x3
I0322 17:33:02.381119 32639 net.cpp:86] Creating Layer conv2/relu_3x3
I0322 17:33:02.381126 32639 net.cpp:408] conv2/relu_3x3 <- conv2/3x3
I0322 17:33:02.381139 32639 net.cpp:369] conv2/relu_3x3 -> conv2/3x3 (in-place)
I0322 17:33:02.381153 32639 net.cpp:124] Setting up conv2/relu_3x3
I0322 17:33:02.381161 32639 net.cpp:131] Top shape: 128 96 56 56 (38535168)
I0322 17:33:02.381167 32639 net.cpp:139] Memory required for data: 1001914880
I0322 17:33:02.381172 32639 layer_factory.hpp:77] Creating layer conv2/norm2
I0322 17:33:02.381186 32639 net.cpp:86] Creating Layer conv2/norm2
I0322 17:33:02.381203 32639 net.cpp:408] conv2/norm2 <- conv2/3x3
I0322 17:33:02.381212 32639 net.cpp:382] conv2/norm2 -> conv2/norm2
I0322 17:33:02.381261 32639 net.cpp:124] Setting up conv2/norm2
I0322 17:33:02.381275 32639 net.cpp:131] Top shape: 128 96 56 56 (38535168)
I0322 17:33:02.381283 32639 net.cpp:139] Memory required for data: 1156055552
I0322 17:33:02.381289 32639 layer_factory.hpp:77] Creating layer pool2/3x3_s2
I0322 17:33:02.381300 32639 net.cpp:86] Creating Layer pool2/3x3_s2
I0322 17:33:02.381309 32639 net.cpp:408] pool2/3x3_s2 <- conv2/norm2
I0322 17:33:02.381320 32639 net.cpp:382] pool2/3x3_s2 -> pool2/3x3_s2
I0322 17:33:02.381368 32639 net.cpp:124] Setting up pool2/3x3_s2
I0322 17:33:02.381382 32639 net.cpp:131] Top shape: 128 96 28 28 (9633792)
I0322 17:33:02.381388 32639 net.cpp:139] Memory required for data: 1194590720
I0322 17:33:02.381394 32639 layer_factory.hpp:77] Creating layer pool2/3x3_s2_pool2/3x3_s2_0_split
I0322 17:33:02.381407 32639 net.cpp:86] Creating Layer pool2/3x3_s2_pool2/3x3_s2_0_split
I0322 17:33:02.381415 32639 net.cpp:408] pool2/3x3_s2_pool2/3x3_s2_0_split <- pool2/3x3_s2
I0322 17:33:02.381424 32639 net.cpp:382] pool2/3x3_s2_pool2/3x3_s2_0_split -> pool2/3x3_s2_pool2/3x3_s2_0_split_0
I0322 17:33:02.381435 32639 net.cpp:382] pool2/3x3_s2_pool2/3x3_s2_0_split -> pool2/3x3_s2_pool2/3x3_s2_0_split_1
I0322 17:33:02.381448 32639 net.cpp:382] pool2/3x3_s2_pool2/3x3_s2_0_split -> pool2/3x3_s2_pool2/3x3_s2_0_split_2
I0322 17:33:02.381492 32639 net.cpp:382] pool2/3x3_s2_pool2/3x3_s2_0_split -> pool2/3x3_s2_pool2/3x3_s2_0_split_3
I0322 17:33:02.381558 32639 net.cpp:124] Setting up pool2/3x3_s2_pool2/3x3_s2_0_split
I0322 17:33:02.381572 32639 net.cpp:131] Top shape: 128 96 28 28 (9633792)
I0322 17:33:02.381579 32639 net.cpp:131] Top shape: 128 96 28 28 (9633792)
I0322 17:33:02.381585 32639 net.cpp:131] Top shape: 128 96 28 28 (9633792)
I0322 17:33:02.381592 32639 net.cpp:131] Top shape: 128 96 28 28 (9633792)
I0322 17:33:02.381598 32639 net.cpp:139] Memory required for data: 1348731392
I0322 17:33:02.381605 32639 layer_factory.hpp:77] Creating layer inception_3a/1x1
I0322 17:33:02.381623 32639 net.cpp:86] Creating Layer inception_3a/1x1
I0322 17:33:02.381633 32639 net.cpp:408] inception_3a/1x1 <- pool2/3x3_s2_pool2/3x3_s2_0_split_0
I0322 17:33:02.381644 32639 net.cpp:382] inception_3a/1x1 -> inception_3a/1x1
I0322 17:33:02.381942 32639 net.cpp:124] Setting up inception_3a/1x1
I0322 17:33:02.381960 32639 net.cpp:131] Top shape: 128 32 28 28 (3211264)
I0322 17:33:02.381966 32639 net.cpp:139] Memory required for data: 1361576448
I0322 17:33:02.381976 32639 layer_factory.hpp:77] Creating layer inception_3a/relu_1x1
I0322 17:33:02.381989 32639 net.cpp:86] Creating Layer inception_3a/relu_1x1
I0322 17:33:02.381997 32639 net.cpp:408] inception_3a/relu_1x1 <- inception_3a/1x1
I0322 17:33:02.382006 32639 net.cpp:369] inception_3a/relu_1x1 -> inception_3a/1x1 (in-place)
I0322 17:33:02.382015 32639 net.cpp:124] Setting up inception_3a/relu_1x1
I0322 17:33:02.382025 32639 net.cpp:131] Top shape: 128 32 28 28 (3211264)
I0322 17:33:02.382031 32639 net.cpp:139] Memory required for data: 1374421504
I0322 17:33:02.382036 32639 layer_factory.hpp:77] Creating layer inception_3a/3x3_reduce
I0322 17:33:02.382050 32639 net.cpp:86] Creating Layer inception_3a/3x3_reduce
I0322 17:33:02.382057 32639 net.cpp:408] inception_3a/3x3_reduce <- pool2/3x3_s2_pool2/3x3_s2_0_split_1
I0322 17:33:02.382067 32639 net.cpp:382] inception_3a/3x3_reduce -> inception_3a/3x3_reduce
I0322 17:33:02.382380 32639 net.cpp:124] Setting up inception_3a/3x3_reduce
I0322 17:33:02.382396 32639 net.cpp:131] Top shape: 128 48 28 28 (4816896)
I0322 17:33:02.382403 32639 net.cpp:139] Memory required for data: 1393689088
I0322 17:33:02.382416 32639 layer_factory.hpp:77] Creating layer inception_3a/relu_3x3_reduce
I0322 17:33:02.382429 32639 net.cpp:86] Creating Layer inception_3a/relu_3x3_reduce
I0322 17:33:02.382436 32639 net.cpp:408] inception_3a/relu_3x3_reduce <- inception_3a/3x3_reduce
I0322 17:33:02.382444 32639 net.cpp:369] inception_3a/relu_3x3_reduce -> inception_3a/3x3_reduce (in-place)
I0322 17:33:02.382457 32639 net.cpp:124] Setting up inception_3a/relu_3x3_reduce
I0322 17:33:02.382465 32639 net.cpp:131] Top shape: 128 48 28 28 (4816896)
I0322 17:33:02.382473 32639 net.cpp:139] Memory required for data: 1412956672
I0322 17:33:02.382479 32639 layer_factory.hpp:77] Creating layer inception_3a/3x3
I0322 17:33:02.382496 32639 net.cpp:86] Creating Layer inception_3a/3x3
I0322 17:33:02.382504 32639 net.cpp:408] inception_3a/3x3 <- inception_3a/3x3_reduce
I0322 17:33:02.382515 32639 net.cpp:382] inception_3a/3x3 -> inception_3a/3x3
I0322 17:33:02.383002 32639 net.cpp:124] Setting up inception_3a/3x3
I0322 17:33:02.383021 32639 net.cpp:131] Top shape: 128 64 28 28 (6422528)
I0322 17:33:02.383028 32639 net.cpp:139] Memory required for data: 1438646784
I0322 17:33:02.383036 32639 layer_factory.hpp:77] Creating layer inception_3a/relu_3x3
I0322 17:33:02.383046 32639 net.cpp:86] Creating Layer inception_3a/relu_3x3
I0322 17:33:02.383052 32639 net.cpp:408] inception_3a/relu_3x3 <- inception_3a/3x3
I0322 17:33:02.383061 32639 net.cpp:369] inception_3a/relu_3x3 -> inception_3a/3x3 (in-place)
I0322 17:33:02.383070 32639 net.cpp:124] Setting up inception_3a/relu_3x3
I0322 17:33:02.383078 32639 net.cpp:131] Top shape: 128 64 28 28 (6422528)
I0322 17:33:02.383083 32639 net.cpp:139] Memory required for data: 1464336896
I0322 17:33:02.383090 32639 layer_factory.hpp:77] Creating layer inception_3a/5x5_reduce
I0322 17:33:02.383121 32639 net.cpp:86] Creating Layer inception_3a/5x5_reduce
I0322 17:33:02.383129 32639 net.cpp:408] inception_3a/5x5_reduce <- pool2/3x3_s2_pool2/3x3_s2_0_split_2
I0322 17:33:02.383139 32639 net.cpp:382] inception_3a/5x5_reduce -> inception_3a/5x5_reduce
I0322 17:33:02.383399 32639 net.cpp:124] Setting up inception_3a/5x5_reduce
I0322 17:33:02.383416 32639 net.cpp:131] Top shape: 128 8 28 28 (802816)
I0322 17:33:02.383422 32639 net.cpp:139] Memory required for data: 1467548160
I0322 17:33:02.383431 32639 layer_factory.hpp:77] Creating layer inception_3a/relu_5x5_reduce
I0322 17:33:02.383442 32639 net.cpp:86] Creating Layer inception_3a/relu_5x5_reduce
I0322 17:33:02.383455 32639 net.cpp:408] inception_3a/relu_5x5_reduce <- inception_3a/5x5_reduce
I0322 17:33:02.383465 32639 net.cpp:369] inception_3a/relu_5x5_reduce -> inception_3a/5x5_reduce (in-place)
I0322 17:33:02.383473 32639 net.cpp:124] Setting up inception_3a/relu_5x5_reduce
I0322 17:33:02.383487 32639 net.cpp:131] Top shape: 128 8 28 28 (802816)
I0322 17:33:02.383493 32639 net.cpp:139] Memory required for data: 1470759424
I0322 17:33:02.383498 32639 layer_factory.hpp:77] Creating layer inception_3a/5x5
I0322 17:33:02.383512 32639 net.cpp:86] Creating Layer inception_3a/5x5
I0322 17:33:02.383522 32639 net.cpp:408] inception_3a/5x5 <- inception_3a/5x5_reduce
I0322 17:33:02.383532 32639 net.cpp:382] inception_3a/5x5 -> inception_3a/5x5
I0322 17:33:02.383802 32639 net.cpp:124] Setting up inception_3a/5x5
I0322 17:33:02.383818 32639 net.cpp:131] Top shape: 128 16 28 28 (1605632)
I0322 17:33:02.383824 32639 net.cpp:139] Memory required for data: 1477181952
I0322 17:33:02.383833 32639 layer_factory.hpp:77] Creating layer inception_3a/relu_5x5
I0322 17:33:02.383842 32639 net.cpp:86] Creating Layer inception_3a/relu_5x5
I0322 17:33:02.383849 32639 net.cpp:408] inception_3a/relu_5x5 <- inception_3a/5x5
I0322 17:33:02.383857 32639 net.cpp:369] inception_3a/relu_5x5 -> inception_3a/5x5 (in-place)
I0322 17:33:02.383865 32639 net.cpp:124] Setting up inception_3a/relu_5x5
I0322 17:33:02.383873 32639 net.cpp:131] Top shape: 128 16 28 28 (1605632)
I0322 17:33:02.383878 32639 net.cpp:139] Memory required for data: 1483604480
I0322 17:33:02.383883 32639 layer_factory.hpp:77] Creating layer inception_3a/pool
I0322 17:33:02.383895 32639 net.cpp:86] Creating Layer inception_3a/pool
I0322 17:33:02.383903 32639 net.cpp:408] inception_3a/pool <- pool2/3x3_s2_pool2/3x3_s2_0_split_3
I0322 17:33:02.383910 32639 net.cpp:382] inception_3a/pool -> inception_3a/pool
I0322 17:33:02.383956 32639 net.cpp:124] Setting up inception_3a/pool
I0322 17:33:02.383970 32639 net.cpp:131] Top shape: 128 96 28 28 (9633792)
I0322 17:33:02.383976 32639 net.cpp:139] Memory required for data: 1522139648
I0322 17:33:02.383982 32639 layer_factory.hpp:77] Creating layer inception_3a/pool_proj
I0322 17:33:02.383996 32639 net.cpp:86] Creating Layer inception_3a/pool_proj
I0322 17:33:02.384008 32639 net.cpp:408] inception_3a/pool_proj <- inception_3a/pool
I0322 17:33:02.384018 32639 net.cpp:382] inception_3a/pool_proj -> inception_3a/pool_proj
I0322 17:33:02.384261 32639 net.cpp:124] Setting up inception_3a/pool_proj
I0322 17:33:02.384277 32639 net.cpp:131] Top shape: 128 16 28 28 (1605632)
I0322 17:33:02.384284 32639 net.cpp:139] Memory required for data: 1528562176
I0322 17:33:02.384297 32639 layer_factory.hpp:77] Creating layer inception_3a/relu_pool_proj
I0322 17:33:02.384310 32639 net.cpp:86] Creating Layer inception_3a/relu_pool_proj
I0322 17:33:02.384316 32639 net.cpp:408] inception_3a/relu_pool_proj <- inception_3a/pool_proj
I0322 17:33:02.384325 32639 net.cpp:369] inception_3a/relu_pool_proj -> inception_3a/pool_proj (in-place)
I0322 17:33:02.384335 32639 net.cpp:124] Setting up inception_3a/relu_pool_proj
I0322 17:33:02.384343 32639 net.cpp:131] Top shape: 128 16 28 28 (1605632)
I0322 17:33:02.384349 32639 net.cpp:139] Memory required for data: 1534984704
I0322 17:33:02.384356 32639 layer_factory.hpp:77] Creating layer inception_3a/output
I0322 17:33:02.384395 32639 net.cpp:86] Creating Layer inception_3a/output
I0322 17:33:02.384420 32639 net.cpp:408] inception_3a/output <- inception_3a/1x1
I0322 17:33:02.384429 32639 net.cpp:408] inception_3a/output <- inception_3a/3x3
I0322 17:33:02.384436 32639 net.cpp:408] inception_3a/output <- inception_3a/5x5
I0322 17:33:02.384443 32639 net.cpp:408] inception_3a/output <- inception_3a/pool_proj
I0322 17:33:02.384452 32639 net.cpp:382] inception_3a/output -> inception_3a/output
I0322 17:33:02.384490 32639 net.cpp:124] Setting up inception_3a/output
I0322 17:33:02.384505 32639 net.cpp:131] Top shape: 128 128 28 28 (12845056)
I0322 17:33:02.384510 32639 net.cpp:139] Memory required for data: 1586364928
I0322 17:33:02.384516 32639 layer_factory.hpp:77] Creating layer inception_3a/output_inception_3a/output_0_split
I0322 17:33:02.384526 32639 net.cpp:86] Creating Layer inception_3a/output_inception_3a/output_0_split
I0322 17:33:02.384532 32639 net.cpp:408] inception_3a/output_inception_3a/output_0_split <- inception_3a/output
I0322 17:33:02.384541 32639 net.cpp:382] inception_3a/output_inception_3a/output_0_split -> inception_3a/output_inception_3a/output_0_split_0
I0322 17:33:02.384552 32639 net.cpp:382] inception_3a/output_inception_3a/output_0_split -> inception_3a/output_inception_3a/output_0_split_1
I0322 17:33:02.384564 32639 net.cpp:382] inception_3a/output_inception_3a/output_0_split -> inception_3a/output_inception_3a/output_0_split_2
I0322 17:33:02.384574 32639 net.cpp:382] inception_3a/output_inception_3a/output_0_split -> inception_3a/output_inception_3a/output_0_split_3
I0322 17:33:02.384639 32639 net.cpp:124] Setting up inception_3a/output_inception_3a/output_0_split
I0322 17:33:02.384651 32639 net.cpp:131] Top shape: 128 128 28 28 (12845056)
I0322 17:33:02.384658 32639 net.cpp:131] Top shape: 128 128 28 28 (12845056)
I0322 17:33:02.384665 32639 net.cpp:131] Top shape: 128 128 28 28 (12845056)
I0322 17:33:02.384672 32639 net.cpp:131] Top shape: 128 128 28 28 (12845056)
I0322 17:33:02.384677 32639 net.cpp:139] Memory required for data: 1791885824
I0322 17:33:02.384683 32639 layer_factory.hpp:77] Creating layer inception_3b/1x1
I0322 17:33:02.384696 32639 net.cpp:86] Creating Layer inception_3b/1x1
I0322 17:33:02.384706 32639 net.cpp:408] inception_3b/1x1 <- inception_3a/output_inception_3a/output_0_split_0
I0322 17:33:02.384716 32639 net.cpp:382] inception_3b/1x1 -> inception_3b/1x1
I0322 17:33:02.385031 32639 net.cpp:124] Setting up inception_3b/1x1
I0322 17:33:02.385048 32639 net.cpp:131] Top shape: 128 64 28 28 (6422528)
I0322 17:33:02.385054 32639 net.cpp:139] Memory required for data: 1817575936
I0322 17:33:02.385063 32639 layer_factory.hpp:77] Creating layer inception_3b/relu_1x1
I0322 17:33:02.385076 32639 net.cpp:86] Creating Layer inception_3b/relu_1x1
I0322 17:33:02.385082 32639 net.cpp:408] inception_3b/relu_1x1 <- inception_3b/1x1
I0322 17:33:02.385090 32639 net.cpp:369] inception_3b/relu_1x1 -> inception_3b/1x1 (in-place)
I0322 17:33:02.385099 32639 net.cpp:124] Setting up inception_3b/relu_1x1
I0322 17:33:02.385109 32639 net.cpp:131] Top shape: 128 64 28 28 (6422528)
I0322 17:33:02.385115 32639 net.cpp:139] Memory required for data: 1843266048
I0322 17:33:02.385120 32639 layer_factory.hpp:77] Creating layer inception_3b/3x3_reduce
I0322 17:33:02.385135 32639 net.cpp:86] Creating Layer inception_3b/3x3_reduce
I0322 17:33:02.385144 32639 net.cpp:408] inception_3b/3x3_reduce <- inception_3a/output_inception_3a/output_0_split_1
I0322 17:33:02.385154 32639 net.cpp:382] inception_3b/3x3_reduce -> inception_3b/3x3_reduce
I0322 17:33:02.385470 32639 net.cpp:124] Setting up inception_3b/3x3_reduce
I0322 17:33:02.385488 32639 net.cpp:131] Top shape: 128 64 28 28 (6422528)
I0322 17:33:02.385493 32639 net.cpp:139] Memory required for data: 1868956160
I0322 17:33:02.385502 32639 layer_factory.hpp:77] Creating layer inception_3b/relu_3x3_reduce
I0322 17:33:02.385511 32639 net.cpp:86] Creating Layer inception_3b/relu_3x3_reduce
I0322 17:33:02.385519 32639 net.cpp:408] inception_3b/relu_3x3_reduce <- inception_3b/3x3_reduce
I0322 17:33:02.385526 32639 net.cpp:369] inception_3b/relu_3x3_reduce -> inception_3b/3x3_reduce (in-place)
I0322 17:33:02.385555 32639 net.cpp:124] Setting up inception_3b/relu_3x3_reduce
I0322 17:33:02.385565 32639 net.cpp:131] Top shape: 128 64 28 28 (6422528)
I0322 17:33:02.385571 32639 net.cpp:139] Memory required for data: 1894646272
I0322 17:33:02.385576 32639 layer_factory.hpp:77] Creating layer inception_3b/3x3
I0322 17:33:02.385591 32639 net.cpp:86] Creating Layer inception_3b/3x3
I0322 17:33:02.385599 32639 net.cpp:408] inception_3b/3x3 <- inception_3b/3x3_reduce
I0322 17:33:02.385609 32639 net.cpp:382] inception_3b/3x3 -> inception_3b/3x3
I0322 17:33:02.386353 32639 net.cpp:124] Setting up inception_3b/3x3
I0322 17:33:02.386374 32639 net.cpp:131] Top shape: 128 96 28 28 (9633792)
I0322 17:33:02.386380 32639 net.cpp:139] Memory required for data: 1933181440
I0322 17:33:02.386394 32639 layer_factory.hpp:77] Creating layer inception_3b/relu_3x3
I0322 17:33:02.386410 32639 net.cpp:86] Creating Layer inception_3b/relu_3x3
I0322 17:33:02.386420 32639 net.cpp:408] inception_3b/relu_3x3 <- inception_3b/3x3
I0322 17:33:02.386428 32639 net.cpp:369] inception_3b/relu_3x3 -> inception_3b/3x3 (in-place)
I0322 17:33:02.386438 32639 net.cpp:124] Setting up inception_3b/relu_3x3
I0322 17:33:02.386449 32639 net.cpp:131] Top shape: 128 96 28 28 (9633792)
I0322 17:33:02.386454 32639 net.cpp:139] Memory required for data: 1971716608
I0322 17:33:02.386461 32639 layer_factory.hpp:77] Creating layer inception_3b/5x5_reduce
I0322 17:33:02.386472 32639 net.cpp:86] Creating Layer inception_3b/5x5_reduce
I0322 17:33:02.386478 32639 net.cpp:408] inception_3b/5x5_reduce <- inception_3a/output_inception_3a/output_0_split_2
I0322 17:33:02.386489 32639 net.cpp:382] inception_3b/5x5_reduce -> inception_3b/5x5_reduce
I0322 17:33:02.386750 32639 net.cpp:124] Setting up inception_3b/5x5_reduce
I0322 17:33:02.386767 32639 net.cpp:131] Top shape: 128 16 28 28 (1605632)
I0322 17:33:02.386773 32639 net.cpp:139] Memory required for data: 1978139136
I0322 17:33:02.386782 32639 layer_factory.hpp:77] Creating layer inception_3b/relu_5x5_reduce
I0322 17:33:02.386793 32639 net.cpp:86] Creating Layer inception_3b/relu_5x5_reduce
I0322 17:33:02.386802 32639 net.cpp:408] inception_3b/relu_5x5_reduce <- inception_3b/5x5_reduce
I0322 17:33:02.386811 32639 net.cpp:369] inception_3b/relu_5x5_reduce -> inception_3b/5x5_reduce (in-place)
I0322 17:33:02.386821 32639 net.cpp:124] Setting up inception_3b/relu_5x5_reduce
I0322 17:33:02.386831 32639 net.cpp:131] Top shape: 128 16 28 28 (1605632)
I0322 17:33:02.386837 32639 net.cpp:139] Memory required for data: 1984561664
I0322 17:33:02.386842 32639 layer_factory.hpp:77] Creating layer inception_3b/5x5
I0322 17:33:02.386855 32639 net.cpp:86] Creating Layer inception_3b/5x5
I0322 17:33:02.386863 32639 net.cpp:408] inception_3b/5x5 <- inception_3b/5x5_reduce
I0322 17:33:02.386873 32639 net.cpp:382] inception_3b/5x5 -> inception_3b/5x5
I0322 17:33:02.387287 32639 net.cpp:124] Setting up inception_3b/5x5
I0322 17:33:02.387305 32639 net.cpp:131] Top shape: 128 48 28 28 (4816896)
I0322 17:33:02.387310 32639 net.cpp:139] Memory required for data: 2003829248
I0322 17:33:02.387320 32639 layer_factory.hpp:77] Creating layer inception_3b/relu_5x5
I0322 17:33:02.387329 32639 net.cpp:86] Creating Layer inception_3b/relu_5x5
I0322 17:33:02.387336 32639 net.cpp:408] inception_3b/relu_5x5 <- inception_3b/5x5
I0322 17:33:02.387343 32639 net.cpp:369] inception_3b/relu_5x5 -> inception_3b/5x5 (in-place)
I0322 17:33:02.387353 32639 net.cpp:124] Setting up inception_3b/relu_5x5
I0322 17:33:02.387363 32639 net.cpp:131] Top shape: 128 48 28 28 (4816896)
I0322 17:33:02.387368 32639 net.cpp:139] Memory required for data: 2023096832
I0322 17:33:02.387374 32639 layer_factory.hpp:77] Creating layer inception_3b/pool
I0322 17:33:02.387384 32639 net.cpp:86] Creating Layer inception_3b/pool
I0322 17:33:02.387390 32639 net.cpp:408] inception_3b/pool <- inception_3a/output_inception_3a/output_0_split_3
I0322 17:33:02.387399 32639 net.cpp:382] inception_3b/pool -> inception_3b/pool
I0322 17:33:02.387480 32639 net.cpp:124] Setting up inception_3b/pool
I0322 17:33:02.387495 32639 net.cpp:131] Top shape: 128 128 28 28 (12845056)
I0322 17:33:02.387501 32639 net.cpp:139] Memory required for data: 2074477056
I0322 17:33:02.387509 32639 layer_factory.hpp:77] Creating layer inception_3b/pool_proj
I0322 17:33:02.387524 32639 net.cpp:86] Creating Layer inception_3b/pool_proj
I0322 17:33:02.387533 32639 net.cpp:408] inception_3b/pool_proj <- inception_3b/pool
I0322 17:33:02.387544 32639 net.cpp:382] inception_3b/pool_proj -> inception_3b/pool_proj
I0322 17:33:02.387822 32639 net.cpp:124] Setting up inception_3b/pool_proj
I0322 17:33:02.387838 32639 net.cpp:131] Top shape: 128 32 28 28 (3211264)
I0322 17:33:02.387845 32639 net.cpp:139] Memory required for data: 2087322112
I0322 17:33:02.387853 32639 layer_factory.hpp:77] Creating layer inception_3b/relu_pool_proj
I0322 17:33:02.387862 32639 net.cpp:86] Creating Layer inception_3b/relu_pool_proj
I0322 17:33:02.387869 32639 net.cpp:408] inception_3b/relu_pool_proj <- inception_3b/pool_proj
I0322 17:33:02.387877 32639 net.cpp:369] inception_3b/relu_pool_proj -> inception_3b/pool_proj (in-place)
I0322 17:33:02.387889 32639 net.cpp:124] Setting up inception_3b/relu_pool_proj
I0322 17:33:02.387897 32639 net.cpp:131] Top shape: 128 32 28 28 (3211264)
I0322 17:33:02.387902 32639 net.cpp:139] Memory required for data: 2100167168
I0322 17:33:02.387908 32639 layer_factory.hpp:77] Creating layer inception_3b/output
I0322 17:33:02.387919 32639 net.cpp:86] Creating Layer inception_3b/output
I0322 17:33:02.387928 32639 net.cpp:408] inception_3b/output <- inception_3b/1x1
I0322 17:33:02.387935 32639 net.cpp:408] inception_3b/output <- inception_3b/3x3
I0322 17:33:02.387943 32639 net.cpp:408] inception_3b/output <- inception_3b/5x5
I0322 17:33:02.387950 32639 net.cpp:408] inception_3b/output <- inception_3b/pool_proj
I0322 17:33:02.387959 32639 net.cpp:382] inception_3b/output -> inception_3b/output
I0322 17:33:02.387998 32639 net.cpp:124] Setting up inception_3b/output
I0322 17:33:02.388012 32639 net.cpp:131] Top shape: 128 240 28 28 (24084480)
I0322 17:33:02.388018 32639 net.cpp:139] Memory required for data: 2196505088
I0322 17:33:02.388025 32639 layer_factory.hpp:77] Creating layer pool3/3x3_s2
I0322 17:33:02.388034 32639 net.cpp:86] Creating Layer pool3/3x3_s2
I0322 17:33:02.388041 32639 net.cpp:408] pool3/3x3_s2 <- inception_3b/output
I0322 17:33:02.388049 32639 net.cpp:382] pool3/3x3_s2 -> pool3/3x3_s2
I0322 17:33:02.388093 32639 net.cpp:124] Setting up pool3/3x3_s2
I0322 17:33:02.388108 32639 net.cpp:131] Top shape: 128 240 14 14 (6021120)
I0322 17:33:02.388113 32639 net.cpp:139] Memory required for data: 2220589568
I0322 17:33:02.388118 32639 layer_factory.hpp:77] Creating layer pool3/3x3_s2_pool3/3x3_s2_0_split
I0322 17:33:02.388131 32639 net.cpp:86] Creating Layer pool3/3x3_s2_pool3/3x3_s2_0_split
I0322 17:33:02.388139 32639 net.cpp:408] pool3/3x3_s2_pool3/3x3_s2_0_split <- pool3/3x3_s2
I0322 17:33:02.388149 32639 net.cpp:382] pool3/3x3_s2_pool3/3x3_s2_0_split -> pool3/3x3_s2_pool3/3x3_s2_0_split_0
I0322 17:33:02.388159 32639 net.cpp:382] pool3/3x3_s2_pool3/3x3_s2_0_split -> pool3/3x3_s2_pool3/3x3_s2_0_split_1
I0322 17:33:02.388172 32639 net.cpp:382] pool3/3x3_s2_pool3/3x3_s2_0_split -> pool3/3x3_s2_pool3/3x3_s2_0_split_2
I0322 17:33:02.388185 32639 net.cpp:382] pool3/3x3_s2_pool3/3x3_s2_0_split -> pool3/3x3_s2_pool3/3x3_s2_0_split_3
I0322 17:33:02.388248 32639 net.cpp:124] Setting up pool3/3x3_s2_pool3/3x3_s2_0_split
I0322 17:33:02.388262 32639 net.cpp:131] Top shape: 128 240 14 14 (6021120)
I0322 17:33:02.388268 32639 net.cpp:131] Top shape: 128 240 14 14 (6021120)
I0322 17:33:02.388275 32639 net.cpp:131] Top shape: 128 240 14 14 (6021120)
I0322 17:33:02.388283 32639 net.cpp:131] Top shape: 128 240 14 14 (6021120)
I0322 17:33:02.388288 32639 net.cpp:139] Memory required for data: 2316927488
I0322 17:33:02.388293 32639 layer_factory.hpp:77] Creating layer inception_4a/1x1
I0322 17:33:02.388305 32639 net.cpp:86] Creating Layer inception_4a/1x1
I0322 17:33:02.388312 32639 net.cpp:408] inception_4a/1x1 <- pool3/3x3_s2_pool3/3x3_s2_0_split_0
I0322 17:33:02.388339 32639 net.cpp:382] inception_4a/1x1 -> inception_4a/1x1
I0322 17:33:02.388782 32639 net.cpp:124] Setting up inception_4a/1x1
I0322 17:33:02.388800 32639 net.cpp:131] Top shape: 128 96 14 14 (2408448)
I0322 17:33:02.388806 32639 net.cpp:139] Memory required for data: 2326561280
I0322 17:33:02.388815 32639 layer_factory.hpp:77] Creating layer inception_4a/relu_1x1
I0322 17:33:02.388826 32639 net.cpp:86] Creating Layer inception_4a/relu_1x1
I0322 17:33:02.388835 32639 net.cpp:408] inception_4a/relu_1x1 <- inception_4a/1x1
I0322 17:33:02.388844 32639 net.cpp:369] inception_4a/relu_1x1 -> inception_4a/1x1 (in-place)
I0322 17:33:02.388854 32639 net.cpp:124] Setting up inception_4a/relu_1x1
I0322 17:33:02.388864 32639 net.cpp:131] Top shape: 128 96 14 14 (2408448)
I0322 17:33:02.388870 32639 net.cpp:139] Memory required for data: 2336195072
I0322 17:33:02.388875 32639 layer_factory.hpp:77] Creating layer inception_4a/3x3_reduce
I0322 17:33:02.388887 32639 net.cpp:86] Creating Layer inception_4a/3x3_reduce
I0322 17:33:02.388893 32639 net.cpp:408] inception_4a/3x3_reduce <- pool3/3x3_s2_pool3/3x3_s2_0_split_1
I0322 17:33:02.388903 32639 net.cpp:382] inception_4a/3x3_reduce -> inception_4a/3x3_reduce
I0322 17:33:02.389273 32639 net.cpp:124] Setting up inception_4a/3x3_reduce
I0322 17:33:02.389291 32639 net.cpp:131] Top shape: 128 48 14 14 (1204224)
I0322 17:33:02.389297 32639 net.cpp:139] Memory required for data: 2341011968
I0322 17:33:02.389317 32639 layer_factory.hpp:77] Creating layer inception_4a/relu_3x3_reduce
I0322 17:33:02.389329 32639 net.cpp:86] Creating Layer inception_4a/relu_3x3_reduce
I0322 17:33:02.389336 32639 net.cpp:408] inception_4a/relu_3x3_reduce <- inception_4a/3x3_reduce
I0322 17:33:02.389344 32639 net.cpp:369] inception_4a/relu_3x3_reduce -> inception_4a/3x3_reduce (in-place)
I0322 17:33:02.389358 32639 net.cpp:124] Setting up inception_4a/relu_3x3_reduce
I0322 17:33:02.389367 32639 net.cpp:131] Top shape: 128 48 14 14 (1204224)
I0322 17:33:02.389372 32639 net.cpp:139] Memory required for data: 2345828864
I0322 17:33:02.389379 32639 layer_factory.hpp:77] Creating layer inception_4a/3x3
I0322 17:33:02.389390 32639 net.cpp:86] Creating Layer inception_4a/3x3
I0322 17:33:02.389400 32639 net.cpp:408] inception_4a/3x3 <- inception_4a/3x3_reduce
I0322 17:33:02.389410 32639 net.cpp:382] inception_4a/3x3 -> inception_4a/3x3
I0322 17:33:02.390058 32639 net.cpp:124] Setting up inception_4a/3x3
I0322 17:33:02.390077 32639 net.cpp:131] Top shape: 128 104 14 14 (2609152)
I0322 17:33:02.390084 32639 net.cpp:139] Memory required for data: 2356265472
I0322 17:33:02.390092 32639 layer_factory.hpp:77] Creating layer inception_4a/relu_3x3
I0322 17:33:02.390105 32639 net.cpp:86] Creating Layer inception_4a/relu_3x3
I0322 17:33:02.390110 32639 net.cpp:408] inception_4a/relu_3x3 <- inception_4a/3x3
I0322 17:33:02.390120 32639 net.cpp:369] inception_4a/relu_3x3 -> inception_4a/3x3 (in-place)
I0322 17:33:02.390131 32639 net.cpp:124] Setting up inception_4a/relu_3x3
I0322 17:33:02.390142 32639 net.cpp:131] Top shape: 128 104 14 14 (2609152)
I0322 17:33:02.390147 32639 net.cpp:139] Memory required for data: 2366702080
I0322 17:33:02.390153 32639 layer_factory.hpp:77] Creating layer inception_4a/5x5_reduce
I0322 17:33:02.390167 32639 net.cpp:86] Creating Layer inception_4a/5x5_reduce
I0322 17:33:02.390175 32639 net.cpp:408] inception_4a/5x5_reduce <- pool3/3x3_s2_pool3/3x3_s2_0_split_2
I0322 17:33:02.390187 32639 net.cpp:382] inception_4a/5x5_reduce -> inception_4a/5x5_reduce
I0322 17:33:02.390447 32639 net.cpp:124] Setting up inception_4a/5x5_reduce
I0322 17:33:02.390465 32639 net.cpp:131] Top shape: 128 8 14 14 (200704)
I0322 17:33:02.390470 32639 net.cpp:139] Memory required for data: 2367504896
I0322 17:33:02.390480 32639 layer_factory.hpp:77] Creating layer inception_4a/relu_5x5_reduce
I0322 17:33:02.390493 32639 net.cpp:86] Creating Layer inception_4a/relu_5x5_reduce
I0322 17:33:02.390503 32639 net.cpp:408] inception_4a/relu_5x5_reduce <- inception_4a/5x5_reduce
I0322 17:33:02.390533 32639 net.cpp:369] inception_4a/relu_5x5_reduce -> inception_4a/5x5_reduce (in-place)
I0322 17:33:02.390547 32639 net.cpp:124] Setting up inception_4a/relu_5x5_reduce
I0322 17:33:02.390558 32639 net.cpp:131] Top shape: 128 8 14 14 (200704)
I0322 17:33:02.390563 32639 net.cpp:139] Memory required for data: 2368307712
I0322 17:33:02.390568 32639 layer_factory.hpp:77] Creating layer inception_4a/5x5
I0322 17:33:02.390580 32639 net.cpp:86] Creating Layer inception_4a/5x5
I0322 17:33:02.390588 32639 net.cpp:408] inception_4a/5x5 <- inception_4a/5x5_reduce
I0322 17:33:02.390597 32639 net.cpp:382] inception_4a/5x5 -> inception_4a/5x5
I0322 17:33:02.390882 32639 net.cpp:124] Setting up inception_4a/5x5
I0322 17:33:02.390899 32639 net.cpp:131] Top shape: 128 24 14 14 (602112)
I0322 17:33:02.390905 32639 net.cpp:139] Memory required for data: 2370716160
I0322 17:33:02.390914 32639 layer_factory.hpp:77] Creating layer inception_4a/relu_5x5
I0322 17:33:02.390923 32639 net.cpp:86] Creating Layer inception_4a/relu_5x5
I0322 17:33:02.390930 32639 net.cpp:408] inception_4a/relu_5x5 <- inception_4a/5x5
I0322 17:33:02.390938 32639 net.cpp:369] inception_4a/relu_5x5 -> inception_4a/5x5 (in-place)
I0322 17:33:02.390949 32639 net.cpp:124] Setting up inception_4a/relu_5x5
I0322 17:33:02.390959 32639 net.cpp:131] Top shape: 128 24 14 14 (602112)
I0322 17:33:02.390964 32639 net.cpp:139] Memory required for data: 2373124608
I0322 17:33:02.390969 32639 layer_factory.hpp:77] Creating layer inception_4a/pool
I0322 17:33:02.390982 32639 net.cpp:86] Creating Layer inception_4a/pool
I0322 17:33:02.390991 32639 net.cpp:408] inception_4a/pool <- pool3/3x3_s2_pool3/3x3_s2_0_split_3
I0322 17:33:02.391001 32639 net.cpp:382] inception_4a/pool -> inception_4a/pool
I0322 17:33:02.391050 32639 net.cpp:124] Setting up inception_4a/pool
I0322 17:33:02.391064 32639 net.cpp:131] Top shape: 128 240 14 14 (6021120)
I0322 17:33:02.391070 32639 net.cpp:139] Memory required for data: 2397209088
I0322 17:33:02.391077 32639 layer_factory.hpp:77] Creating layer inception_4a/pool_proj
I0322 17:33:02.391091 32639 net.cpp:86] Creating Layer inception_4a/pool_proj
I0322 17:33:02.391100 32639 net.cpp:408] inception_4a/pool_proj <- inception_4a/pool
I0322 17:33:02.391111 32639 net.cpp:382] inception_4a/pool_proj -> inception_4a/pool_proj
I0322 17:33:02.391434 32639 net.cpp:124] Setting up inception_4a/pool_proj
I0322 17:33:02.391451 32639 net.cpp:131] Top shape: 128 32 14 14 (802816)
I0322 17:33:02.391458 32639 net.cpp:139] Memory required for data: 2400420352
I0322 17:33:02.391466 32639 layer_factory.hpp:77] Creating layer inception_4a/relu_pool_proj
I0322 17:33:02.391475 32639 net.cpp:86] Creating Layer inception_4a/relu_pool_proj
I0322 17:33:02.391482 32639 net.cpp:408] inception_4a/relu_pool_proj <- inception_4a/pool_proj
I0322 17:33:02.391490 32639 net.cpp:369] inception_4a/relu_pool_proj -> inception_4a/pool_proj (in-place)
I0322 17:33:02.391499 32639 net.cpp:124] Setting up inception_4a/relu_pool_proj
I0322 17:33:02.391510 32639 net.cpp:131] Top shape: 128 32 14 14 (802816)
I0322 17:33:02.391515 32639 net.cpp:139] Memory required for data: 2403631616
I0322 17:33:02.391520 32639 layer_factory.hpp:77] Creating layer inception_4a/output
I0322 17:33:02.391532 32639 net.cpp:86] Creating Layer inception_4a/output
I0322 17:33:02.391538 32639 net.cpp:408] inception_4a/output <- inception_4a/1x1
I0322 17:33:02.391546 32639 net.cpp:408] inception_4a/output <- inception_4a/3x3
I0322 17:33:02.391553 32639 net.cpp:408] inception_4a/output <- inception_4a/5x5
I0322 17:33:02.391561 32639 net.cpp:408] inception_4a/output <- inception_4a/pool_proj
I0322 17:33:02.391568 32639 net.cpp:382] inception_4a/output -> inception_4a/output
I0322 17:33:02.391603 32639 net.cpp:124] Setting up inception_4a/output
I0322 17:33:02.391618 32639 net.cpp:131] Top shape: 128 256 14 14 (6422528)
I0322 17:33:02.391623 32639 net.cpp:139] Memory required for data: 2429321728
I0322 17:33:02.391630 32639 layer_factory.hpp:77] Creating layer inception_4a/output_inception_4a/output_0_split
I0322 17:33:02.391657 32639 net.cpp:86] Creating Layer inception_4a/output_inception_4a/output_0_split
I0322 17:33:02.391665 32639 net.cpp:408] inception_4a/output_inception_4a/output_0_split <- inception_4a/output
I0322 17:33:02.391675 32639 net.cpp:382] inception_4a/output_inception_4a/output_0_split -> inception_4a/output_inception_4a/output_0_split_0
I0322 17:33:02.391686 32639 net.cpp:382] inception_4a/output_inception_4a/output_0_split -> inception_4a/output_inception_4a/output_0_split_1
I0322 17:33:02.391700 32639 net.cpp:382] inception_4a/output_inception_4a/output_0_split -> inception_4a/output_inception_4a/output_0_split_2
I0322 17:33:02.391712 32639 net.cpp:382] inception_4a/output_inception_4a/output_0_split -> inception_4a/output_inception_4a/output_0_split_3
I0322 17:33:02.391780 32639 net.cpp:124] Setting up inception_4a/output_inception_4a/output_0_split
I0322 17:33:02.391793 32639 net.cpp:131] Top shape: 128 256 14 14 (6422528)
I0322 17:33:02.391801 32639 net.cpp:131] Top shape: 128 256 14 14 (6422528)
I0322 17:33:02.391808 32639 net.cpp:131] Top shape: 128 256 14 14 (6422528)
I0322 17:33:02.391814 32639 net.cpp:131] Top shape: 128 256 14 14 (6422528)
I0322 17:33:02.391819 32639 net.cpp:139] Memory required for data: 2532082176
I0322 17:33:02.391825 32639 layer_factory.hpp:77] Creating layer inception_4b/1x1
I0322 17:33:02.391839 32639 net.cpp:86] Creating Layer inception_4b/1x1
I0322 17:33:02.391847 32639 net.cpp:408] inception_4b/1x1 <- inception_4a/output_inception_4a/output_0_split_0
I0322 17:33:02.391858 32639 net.cpp:382] inception_4b/1x1 -> inception_4b/1x1
I0322 17:33:02.392289 32639 net.cpp:124] Setting up inception_4b/1x1
I0322 17:33:02.392307 32639 net.cpp:131] Top shape: 128 80 14 14 (2007040)
I0322 17:33:02.392313 32639 net.cpp:139] Memory required for data: 2540110336
I0322 17:33:02.392323 32639 layer_factory.hpp:77] Creating layer inception_4b/relu_1x1
I0322 17:33:02.392331 32639 net.cpp:86] Creating Layer inception_4b/relu_1x1
I0322 17:33:02.392338 32639 net.cpp:408] inception_4b/relu_1x1 <- inception_4b/1x1
I0322 17:33:02.392346 32639 net.cpp:369] inception_4b/relu_1x1 -> inception_4b/1x1 (in-place)
I0322 17:33:02.392356 32639 net.cpp:124] Setting up inception_4b/relu_1x1
I0322 17:33:02.392367 32639 net.cpp:131] Top shape: 128 80 14 14 (2007040)
I0322 17:33:02.392372 32639 net.cpp:139] Memory required for data: 2548138496
I0322 17:33:02.392379 32639 layer_factory.hpp:77] Creating layer inception_4b/3x3_reduce
I0322 17:33:02.392393 32639 net.cpp:86] Creating Layer inception_4b/3x3_reduce
I0322 17:33:02.392402 32639 net.cpp:408] inception_4b/3x3_reduce <- inception_4a/output_inception_4a/output_0_split_1
I0322 17:33:02.392411 32639 net.cpp:382] inception_4b/3x3_reduce -> inception_4b/3x3_reduce
I0322 17:33:02.392799 32639 net.cpp:124] Setting up inception_4b/3x3_reduce
I0322 17:33:02.392817 32639 net.cpp:131] Top shape: 128 56 14 14 (1404928)
I0322 17:33:02.392822 32639 net.cpp:139] Memory required for data: 2553758208
I0322 17:33:02.392832 32639 layer_factory.hpp:77] Creating layer inception_4b/relu_3x3_reduce
I0322 17:33:02.392840 32639 net.cpp:86] Creating Layer inception_4b/relu_3x3_reduce
I0322 17:33:02.392850 32639 net.cpp:408] inception_4b/relu_3x3_reduce <- inception_4b/3x3_reduce
I0322 17:33:02.392858 32639 net.cpp:369] inception_4b/relu_3x3_reduce -> inception_4b/3x3_reduce (in-place)
I0322 17:33:02.392868 32639 net.cpp:124] Setting up inception_4b/relu_3x3_reduce
I0322 17:33:02.392879 32639 net.cpp:131] Top shape: 128 56 14 14 (1404928)
I0322 17:33:02.392884 32639 net.cpp:139] Memory required for data: 2559377920
I0322 17:33:02.392889 32639 layer_factory.hpp:77] Creating layer inception_4b/3x3
I0322 17:33:02.392902 32639 net.cpp:86] Creating Layer inception_4b/3x3
I0322 17:33:02.392909 32639 net.cpp:408] inception_4b/3x3 <- inception_4b/3x3_reduce
I0322 17:33:02.392920 32639 net.cpp:382] inception_4b/3x3 -> inception_4b/3x3
I0322 17:33:02.393671 32639 net.cpp:124] Setting up inception_4b/3x3
I0322 17:33:02.393689 32639 net.cpp:131] Top shape: 128 112 14 14 (2809856)
I0322 17:33:02.393733 32639 net.cpp:139] Memory required for data: 2570617344
I0322 17:33:02.393744 32639 layer_factory.hpp:77] Creating layer inception_4b/relu_3x3
I0322 17:33:02.393755 32639 net.cpp:86] Creating Layer inception_4b/relu_3x3
I0322 17:33:02.393762 32639 net.cpp:408] inception_4b/relu_3x3 <- inception_4b/3x3
I0322 17:33:02.393771 32639 net.cpp:369] inception_4b/relu_3x3 -> inception_4b/3x3 (in-place)
I0322 17:33:02.393781 32639 net.cpp:124] Setting up inception_4b/relu_3x3
I0322 17:33:02.393788 32639 net.cpp:131] Top shape: 128 112 14 14 (2809856)
I0322 17:33:02.393795 32639 net.cpp:139] Memory required for data: 2581856768
I0322 17:33:02.393800 32639 layer_factory.hpp:77] Creating layer inception_4b/5x5_reduce
I0322 17:33:02.393824 32639 net.cpp:86] Creating Layer inception_4b/5x5_reduce
I0322 17:33:02.393834 32639 net.cpp:408] inception_4b/5x5_reduce <- inception_4a/output_inception_4a/output_0_split_2
I0322 17:33:02.393846 32639 net.cpp:382] inception_4b/5x5_reduce -> inception_4b/5x5_reduce
I0322 17:33:02.394134 32639 net.cpp:124] Setting up inception_4b/5x5_reduce
I0322 17:33:02.394150 32639 net.cpp:131] Top shape: 128 12 14 14 (301056)
I0322 17:33:02.394156 32639 net.cpp:139] Memory required for data: 2583060992
I0322 17:33:02.394166 32639 layer_factory.hpp:77] Creating layer inception_4b/relu_5x5_reduce
I0322 17:33:02.394176 32639 net.cpp:86] Creating Layer inception_4b/relu_5x5_reduce
I0322 17:33:02.394182 32639 net.cpp:408] inception_4b/relu_5x5_reduce <- inception_4b/5x5_reduce
I0322 17:33:02.394191 32639 net.cpp:369] inception_4b/relu_5x5_reduce -> inception_4b/5x5_reduce (in-place)
I0322 17:33:02.394199 32639 net.cpp:124] Setting up inception_4b/relu_5x5_reduce
I0322 17:33:02.394207 32639 net.cpp:131] Top shape: 128 12 14 14 (301056)
I0322 17:33:02.394212 32639 net.cpp:139] Memory required for data: 2584265216
I0322 17:33:02.394217 32639 layer_factory.hpp:77] Creating layer inception_4b/5x5
I0322 17:33:02.394232 32639 net.cpp:86] Creating Layer inception_4b/5x5
I0322 17:33:02.394238 32639 net.cpp:408] inception_4b/5x5 <- inception_4b/5x5_reduce
I0322 17:33:02.394248 32639 net.cpp:382] inception_4b/5x5 -> inception_4b/5x5
I0322 17:33:02.394578 32639 net.cpp:124] Setting up inception_4b/5x5
I0322 17:33:02.394594 32639 net.cpp:131] Top shape: 128 32 14 14 (802816)
I0322 17:33:02.394600 32639 net.cpp:139] Memory required for data: 2587476480
I0322 17:33:02.394610 32639 layer_factory.hpp:77] Creating layer inception_4b/relu_5x5
I0322 17:33:02.394619 32639 net.cpp:86] Creating Layer inception_4b/relu_5x5
I0322 17:33:02.394626 32639 net.cpp:408] inception_4b/relu_5x5 <- inception_4b/5x5
I0322 17:33:02.394634 32639 net.cpp:369] inception_4b/relu_5x5 -> inception_4b/5x5 (in-place)
I0322 17:33:02.394644 32639 net.cpp:124] Setting up inception_4b/relu_5x5
I0322 17:33:02.394651 32639 net.cpp:131] Top shape: 128 32 14 14 (802816)
I0322 17:33:02.394656 32639 net.cpp:139] Memory required for data: 2590687744
I0322 17:33:02.394661 32639 layer_factory.hpp:77] Creating layer inception_4b/pool
I0322 17:33:02.394673 32639 net.cpp:86] Creating Layer inception_4b/pool
I0322 17:33:02.394680 32639 net.cpp:408] inception_4b/pool <- inception_4a/output_inception_4a/output_0_split_3
I0322 17:33:02.394688 32639 net.cpp:382] inception_4b/pool -> inception_4b/pool
I0322 17:33:02.394737 32639 net.cpp:124] Setting up inception_4b/pool
I0322 17:33:02.394752 32639 net.cpp:131] Top shape: 128 256 14 14 (6422528)
I0322 17:33:02.394757 32639 net.cpp:139] Memory required for data: 2616377856
I0322 17:33:02.394763 32639 layer_factory.hpp:77] Creating layer inception_4b/pool_proj
I0322 17:33:02.394778 32639 net.cpp:86] Creating Layer inception_4b/pool_proj
I0322 17:33:02.394788 32639 net.cpp:408] inception_4b/pool_proj <- inception_4b/pool
I0322 17:33:02.394798 32639 net.cpp:382] inception_4b/pool_proj -> inception_4b/pool_proj
I0322 17:33:02.395105 32639 net.cpp:124] Setting up inception_4b/pool_proj
I0322 17:33:02.395122 32639 net.cpp:131] Top shape: 128 32 14 14 (802816)
I0322 17:33:02.395128 32639 net.cpp:139] Memory required for data: 2619589120
I0322 17:33:02.395151 32639 layer_factory.hpp:77] Creating layer inception_4b/relu_pool_proj
I0322 17:33:02.395161 32639 net.cpp:86] Creating Layer inception_4b/relu_pool_proj
I0322 17:33:02.395169 32639 net.cpp:408] inception_4b/relu_pool_proj <- inception_4b/pool_proj
I0322 17:33:02.395176 32639 net.cpp:369] inception_4b/relu_pool_proj -> inception_4b/pool_proj (in-place)
I0322 17:33:02.395186 32639 net.cpp:124] Setting up inception_4b/relu_pool_proj
I0322 17:33:02.395195 32639 net.cpp:131] Top shape: 128 32 14 14 (802816)
I0322 17:33:02.395200 32639 net.cpp:139] Memory required for data: 2622800384
I0322 17:33:02.395205 32639 layer_factory.hpp:77] Creating layer inception_4b/output
I0322 17:33:02.395215 32639 net.cpp:86] Creating Layer inception_4b/output
I0322 17:33:02.395220 32639 net.cpp:408] inception_4b/output <- inception_4b/1x1
I0322 17:33:02.395228 32639 net.cpp:408] inception_4b/output <- inception_4b/3x3
I0322 17:33:02.395236 32639 net.cpp:408] inception_4b/output <- inception_4b/5x5
I0322 17:33:02.395242 32639 net.cpp:408] inception_4b/output <- inception_4b/pool_proj
I0322 17:33:02.395251 32639 net.cpp:382] inception_4b/output -> inception_4b/output
I0322 17:33:02.395285 32639 net.cpp:124] Setting up inception_4b/output
I0322 17:33:02.395299 32639 net.cpp:131] Top shape: 128 256 14 14 (6422528)
I0322 17:33:02.395305 32639 net.cpp:139] Memory required for data: 2648490496
I0322 17:33:02.395313 32639 layer_factory.hpp:77] Creating layer inception_4b/output_inception_4b/output_0_split
I0322 17:33:02.395323 32639 net.cpp:86] Creating Layer inception_4b/output_inception_4b/output_0_split
I0322 17:33:02.395330 32639 net.cpp:408] inception_4b/output_inception_4b/output_0_split <- inception_4b/output
I0322 17:33:02.395339 32639 net.cpp:382] inception_4b/output_inception_4b/output_0_split -> inception_4b/output_inception_4b/output_0_split_0
I0322 17:33:02.395352 32639 net.cpp:382] inception_4b/output_inception_4b/output_0_split -> inception_4b/output_inception_4b/output_0_split_1
I0322 17:33:02.395365 32639 net.cpp:382] inception_4b/output_inception_4b/output_0_split -> inception_4b/output_inception_4b/output_0_split_2
I0322 17:33:02.395375 32639 net.cpp:382] inception_4b/output_inception_4b/output_0_split -> inception_4b/output_inception_4b/output_0_split_3
I0322 17:33:02.395442 32639 net.cpp:124] Setting up inception_4b/output_inception_4b/output_0_split
I0322 17:33:02.395454 32639 net.cpp:131] Top shape: 128 256 14 14 (6422528)
I0322 17:33:02.395462 32639 net.cpp:131] Top shape: 128 256 14 14 (6422528)
I0322 17:33:02.395469 32639 net.cpp:131] Top shape: 128 256 14 14 (6422528)
I0322 17:33:02.395475 32639 net.cpp:131] Top shape: 128 256 14 14 (6422528)
I0322 17:33:02.395481 32639 net.cpp:139] Memory required for data: 2751250944
I0322 17:33:02.395486 32639 layer_factory.hpp:77] Creating layer inception_4c/1x1
I0322 17:33:02.395501 32639 net.cpp:86] Creating Layer inception_4c/1x1
I0322 17:33:02.395510 32639 net.cpp:408] inception_4c/1x1 <- inception_4b/output_inception_4b/output_0_split_0
I0322 17:33:02.395521 32639 net.cpp:382] inception_4c/1x1 -> inception_4c/1x1
I0322 17:33:02.395907 32639 net.cpp:124] Setting up inception_4c/1x1
I0322 17:33:02.395925 32639 net.cpp:131] Top shape: 128 64 14 14 (1605632)
I0322 17:33:02.395931 32639 net.cpp:139] Memory required for data: 2757673472
I0322 17:33:02.395939 32639 layer_factory.hpp:77] Creating layer inception_4c/relu_1x1
I0322 17:33:02.395948 32639 net.cpp:86] Creating Layer inception_4c/relu_1x1
I0322 17:33:02.395957 32639 net.cpp:408] inception_4c/relu_1x1 <- inception_4c/1x1
I0322 17:33:02.395965 32639 net.cpp:369] inception_4c/relu_1x1 -> inception_4c/1x1 (in-place)
I0322 17:33:02.395975 32639 net.cpp:124] Setting up inception_4c/relu_1x1
I0322 17:33:02.395984 32639 net.cpp:131] Top shape: 128 64 14 14 (1605632)
I0322 17:33:02.395990 32639 net.cpp:139] Memory required for data: 2764096000
I0322 17:33:02.395995 32639 layer_factory.hpp:77] Creating layer inception_4c/3x3_reduce
I0322 17:33:02.396010 32639 net.cpp:86] Creating Layer inception_4c/3x3_reduce
I0322 17:33:02.396036 32639 net.cpp:408] inception_4c/3x3_reduce <- inception_4b/output_inception_4b/output_0_split_1
I0322 17:33:02.396049 32639 net.cpp:382] inception_4c/3x3_reduce -> inception_4c/3x3_reduce
I0322 17:33:02.396456 32639 net.cpp:124] Setting up inception_4c/3x3_reduce
I0322 17:33:02.396473 32639 net.cpp:131] Top shape: 128 64 14 14 (1605632)
I0322 17:33:02.396479 32639 net.cpp:139] Memory required for data: 2770518528
I0322 17:33:02.396488 32639 layer_factory.hpp:77] Creating layer inception_4c/relu_3x3_reduce
I0322 17:33:02.396502 32639 net.cpp:86] Creating Layer inception_4c/relu_3x3_reduce
I0322 17:33:02.396509 32639 net.cpp:408] inception_4c/relu_3x3_reduce <- inception_4c/3x3_reduce
I0322 17:33:02.396517 32639 net.cpp:369] inception_4c/relu_3x3_reduce -> inception_4c/3x3_reduce (in-place)
I0322 17:33:02.396530 32639 net.cpp:124] Setting up inception_4c/relu_3x3_reduce
I0322 17:33:02.396538 32639 net.cpp:131] Top shape: 128 64 14 14 (1605632)
I0322 17:33:02.396544 32639 net.cpp:139] Memory required for data: 2776941056
I0322 17:33:02.396549 32639 layer_factory.hpp:77] Creating layer inception_4c/3x3
I0322 17:33:02.396562 32639 net.cpp:86] Creating Layer inception_4c/3x3
I0322 17:33:02.396570 32639 net.cpp:408] inception_4c/3x3 <- inception_4c/3x3_reduce
I0322 17:33:02.396580 32639 net.cpp:382] inception_4c/3x3 -> inception_4c/3x3
I0322 17:33:02.399180 32639 net.cpp:124] Setting up inception_4c/3x3
I0322 17:33:02.399240 32639 net.cpp:131] Top shape: 128 128 14 14 (3211264)
I0322 17:33:02.399247 32639 net.cpp:139] Memory required for data: 2789786112
I0322 17:33:02.399260 32639 layer_factory.hpp:77] Creating layer inception_4c/relu_3x3
I0322 17:33:02.399281 32639 net.cpp:86] Creating Layer inception_4c/relu_3x3
I0322 17:33:02.399293 32639 net.cpp:408] inception_4c/relu_3x3 <- inception_4c/3x3
I0322 17:33:02.399304 32639 net.cpp:369] inception_4c/relu_3x3 -> inception_4c/3x3 (in-place)
I0322 17:33:02.399317 32639 net.cpp:124] Setting up inception_4c/relu_3x3
I0322 17:33:02.399327 32639 net.cpp:131] Top shape: 128 128 14 14 (3211264)
I0322 17:33:02.399333 32639 net.cpp:139] Memory required for data: 2802631168
I0322 17:33:02.399338 32639 layer_factory.hpp:77] Creating layer inception_4c/5x5_reduce
I0322 17:33:02.399355 32639 net.cpp:86] Creating Layer inception_4c/5x5_reduce
I0322 17:33:02.399365 32639 net.cpp:408] inception_4c/5x5_reduce <- inception_4b/output_inception_4b/output_0_split_2
I0322 17:33:02.399375 32639 net.cpp:382] inception_4c/5x5_reduce -> inception_4c/5x5_reduce
I0322 17:33:02.399673 32639 net.cpp:124] Setting up inception_4c/5x5_reduce
I0322 17:33:02.399689 32639 net.cpp:131] Top shape: 128 12 14 14 (301056)
I0322 17:33:02.399695 32639 net.cpp:139] Memory required for data: 2803835392
I0322 17:33:02.399705 32639 layer_factory.hpp:77] Creating layer inception_4c/relu_5x5_reduce
I0322 17:33:02.399715 32639 net.cpp:86] Creating Layer inception_4c/relu_5x5_reduce
I0322 17:33:02.399724 32639 net.cpp:408] inception_4c/relu_5x5_reduce <- inception_4c/5x5_reduce
I0322 17:33:02.399734 32639 net.cpp:369] inception_4c/relu_5x5_reduce -> inception_4c/5x5_reduce (in-place)
I0322 17:33:02.399744 32639 net.cpp:124] Setting up inception_4c/relu_5x5_reduce
I0322 17:33:02.399755 32639 net.cpp:131] Top shape: 128 12 14 14 (301056)
I0322 17:33:02.399760 32639 net.cpp:139] Memory required for data: 2805039616
I0322 17:33:02.399765 32639 layer_factory.hpp:77] Creating layer inception_4c/5x5
I0322 17:33:02.399785 32639 net.cpp:86] Creating Layer inception_4c/5x5
I0322 17:33:02.399794 32639 net.cpp:408] inception_4c/5x5 <- inception_4c/5x5_reduce
I0322 17:33:02.399806 32639 net.cpp:382] inception_4c/5x5 -> inception_4c/5x5
I0322 17:33:02.400146 32639 net.cpp:124] Setting up inception_4c/5x5
I0322 17:33:02.400162 32639 net.cpp:131] Top shape: 128 32 14 14 (802816)
I0322 17:33:02.400168 32639 net.cpp:139] Memory required for data: 2808250880
I0322 17:33:02.400177 32639 layer_factory.hpp:77] Creating layer inception_4c/relu_5x5
I0322 17:33:02.400187 32639 net.cpp:86] Creating Layer inception_4c/relu_5x5
I0322 17:33:02.400221 32639 net.cpp:408] inception_4c/relu_5x5 <- inception_4c/5x5
I0322 17:33:02.400233 32639 net.cpp:369] inception_4c/relu_5x5 -> inception_4c/5x5 (in-place)
I0322 17:33:02.400244 32639 net.cpp:124] Setting up inception_4c/relu_5x5
I0322 17:33:02.400255 32639 net.cpp:131] Top shape: 128 32 14 14 (802816)
I0322 17:33:02.400260 32639 net.cpp:139] Memory required for data: 2811462144
I0322 17:33:02.400269 32639 layer_factory.hpp:77] Creating layer inception_4c/pool
I0322 17:33:02.400279 32639 net.cpp:86] Creating Layer inception_4c/pool
I0322 17:33:02.400285 32639 net.cpp:408] inception_4c/pool <- inception_4b/output_inception_4b/output_0_split_3
I0322 17:33:02.400295 32639 net.cpp:382] inception_4c/pool -> inception_4c/pool
I0322 17:33:02.400348 32639 net.cpp:124] Setting up inception_4c/pool
I0322 17:33:02.400362 32639 net.cpp:131] Top shape: 128 256 14 14 (6422528)
I0322 17:33:02.400368 32639 net.cpp:139] Memory required for data: 2837152256
I0322 17:33:02.400374 32639 layer_factory.hpp:77] Creating layer inception_4c/pool_proj
I0322 17:33:02.400389 32639 net.cpp:86] Creating Layer inception_4c/pool_proj
I0322 17:33:02.400398 32639 net.cpp:408] inception_4c/pool_proj <- inception_4c/pool
I0322 17:33:02.400409 32639 net.cpp:382] inception_4c/pool_proj -> inception_4c/pool_proj
I0322 17:33:02.400724 32639 net.cpp:124] Setting up inception_4c/pool_proj
I0322 17:33:02.400740 32639 net.cpp:131] Top shape: 128 32 14 14 (802816)
I0322 17:33:02.400746 32639 net.cpp:139] Memory required for data: 2840363520
I0322 17:33:02.400771 32639 layer_factory.hpp:77] Creating layer inception_4c/relu_pool_proj
I0322 17:33:02.400784 32639 net.cpp:86] Creating Layer inception_4c/relu_pool_proj
I0322 17:33:02.400791 32639 net.cpp:408] inception_4c/relu_pool_proj <- inception_4c/pool_proj
I0322 17:33:02.400799 32639 net.cpp:369] inception_4c/relu_pool_proj -> inception_4c/pool_proj (in-place)
I0322 17:33:02.400812 32639 net.cpp:124] Setting up inception_4c/relu_pool_proj
I0322 17:33:02.400822 32639 net.cpp:131] Top shape: 128 32 14 14 (802816)
I0322 17:33:02.400827 32639 net.cpp:139] Memory required for data: 2843574784
I0322 17:33:02.400833 32639 layer_factory.hpp:77] Creating layer inception_4c/output
I0322 17:33:02.400843 32639 net.cpp:86] Creating Layer inception_4c/output
I0322 17:33:02.400849 32639 net.cpp:408] inception_4c/output <- inception_4c/1x1
I0322 17:33:02.400856 32639 net.cpp:408] inception_4c/output <- inception_4c/3x3
I0322 17:33:02.400864 32639 net.cpp:408] inception_4c/output <- inception_4c/5x5
I0322 17:33:02.400871 32639 net.cpp:408] inception_4c/output <- inception_4c/pool_proj
I0322 17:33:02.400879 32639 net.cpp:382] inception_4c/output -> inception_4c/output
I0322 17:33:02.400915 32639 net.cpp:124] Setting up inception_4c/output
I0322 17:33:02.400929 32639 net.cpp:131] Top shape: 128 256 14 14 (6422528)
I0322 17:33:02.400935 32639 net.cpp:139] Memory required for data: 2869264896
I0322 17:33:02.400943 32639 layer_factory.hpp:77] Creating layer inception_4c/output_inception_4c/output_0_split
I0322 17:33:02.400954 32639 net.cpp:86] Creating Layer inception_4c/output_inception_4c/output_0_split
I0322 17:33:02.400964 32639 net.cpp:408] inception_4c/output_inception_4c/output_0_split <- inception_4c/output
I0322 17:33:02.400974 32639 net.cpp:382] inception_4c/output_inception_4c/output_0_split -> inception_4c/output_inception_4c/output_0_split_0
I0322 17:33:02.400985 32639 net.cpp:382] inception_4c/output_inception_4c/output_0_split -> inception_4c/output_inception_4c/output_0_split_1
I0322 17:33:02.400997 32639 net.cpp:382] inception_4c/output_inception_4c/output_0_split -> inception_4c/output_inception_4c/output_0_split_2
I0322 17:33:02.401011 32639 net.cpp:382] inception_4c/output_inception_4c/output_0_split -> inception_4c/output_inception_4c/output_0_split_3
I0322 17:33:02.401078 32639 net.cpp:124] Setting up inception_4c/output_inception_4c/output_0_split
I0322 17:33:02.401093 32639 net.cpp:131] Top shape: 128 256 14 14 (6422528)
I0322 17:33:02.401100 32639 net.cpp:131] Top shape: 128 256 14 14 (6422528)
I0322 17:33:02.401124 32639 net.cpp:131] Top shape: 128 256 14 14 (6422528)
I0322 17:33:02.401132 32639 net.cpp:131] Top shape: 128 256 14 14 (6422528)
I0322 17:33:02.401139 32639 net.cpp:139] Memory required for data: 2972025344
I0322 17:33:02.401144 32639 layer_factory.hpp:77] Creating layer inception_4d/1x1
I0322 17:33:02.401160 32639 net.cpp:86] Creating Layer inception_4d/1x1
I0322 17:33:02.401168 32639 net.cpp:408] inception_4d/1x1 <- inception_4c/output_inception_4c/output_0_split_0
I0322 17:33:02.401180 32639 net.cpp:382] inception_4d/1x1 -> inception_4d/1x1
I0322 17:33:02.401561 32639 net.cpp:124] Setting up inception_4d/1x1
I0322 17:33:02.401578 32639 net.cpp:131] Top shape: 128 56 14 14 (1404928)
I0322 17:33:02.401584 32639 net.cpp:139] Memory required for data: 2977645056
I0322 17:33:02.401593 32639 layer_factory.hpp:77] Creating layer inception_4d/relu_1x1
I0322 17:33:02.401602 32639 net.cpp:86] Creating Layer inception_4d/relu_1x1
I0322 17:33:02.401612 32639 net.cpp:408] inception_4d/relu_1x1 <- inception_4d/1x1
I0322 17:33:02.401619 32639 net.cpp:369] inception_4d/relu_1x1 -> inception_4d/1x1 (in-place)
I0322 17:33:02.401629 32639 net.cpp:124] Setting up inception_4d/relu_1x1
I0322 17:33:02.401639 32639 net.cpp:131] Top shape: 128 56 14 14 (1404928)
I0322 17:33:02.401645 32639 net.cpp:139] Memory required for data: 2983264768
I0322 17:33:02.401650 32639 layer_factory.hpp:77] Creating layer inception_4d/3x3_reduce
I0322 17:33:02.401665 32639 net.cpp:86] Creating Layer inception_4d/3x3_reduce
I0322 17:33:02.401674 32639 net.cpp:408] inception_4d/3x3_reduce <- inception_4c/output_inception_4c/output_0_split_1
I0322 17:33:02.401684 32639 net.cpp:382] inception_4d/3x3_reduce -> inception_4d/3x3_reduce
I0322 17:33:02.402113 32639 net.cpp:124] Setting up inception_4d/3x3_reduce
I0322 17:33:02.402132 32639 net.cpp:131] Top shape: 128 72 14 14 (1806336)
I0322 17:33:02.402137 32639 net.cpp:139] Memory required for data: 2990490112
I0322 17:33:02.402146 32639 layer_factory.hpp:77] Creating layer inception_4d/relu_3x3_reduce
I0322 17:33:02.402158 32639 net.cpp:86] Creating Layer inception_4d/relu_3x3_reduce
I0322 17:33:02.402168 32639 net.cpp:408] inception_4d/relu_3x3_reduce <- inception_4d/3x3_reduce
I0322 17:33:02.402175 32639 net.cpp:369] inception_4d/relu_3x3_reduce -> inception_4d/3x3_reduce (in-place)
I0322 17:33:02.402185 32639 net.cpp:124] Setting up inception_4d/relu_3x3_reduce
I0322 17:33:02.402195 32639 net.cpp:131] Top shape: 128 72 14 14 (1806336)
I0322 17:33:02.402200 32639 net.cpp:139] Memory required for data: 2997715456
I0322 17:33:02.402206 32639 layer_factory.hpp:77] Creating layer inception_4d/3x3
I0322 17:33:02.402218 32639 net.cpp:86] Creating Layer inception_4d/3x3
I0322 17:33:02.402225 32639 net.cpp:408] inception_4d/3x3 <- inception_4d/3x3_reduce
I0322 17:33:02.402235 32639 net.cpp:382] inception_4d/3x3 -> inception_4d/3x3
I0322 17:33:02.403321 32639 net.cpp:124] Setting up inception_4d/3x3
I0322 17:33:02.403344 32639 net.cpp:131] Top shape: 128 144 14 14 (3612672)
I0322 17:33:02.403350 32639 net.cpp:139] Memory required for data: 3012166144
I0322 17:33:02.403359 32639 layer_factory.hpp:77] Creating layer inception_4d/relu_3x3
I0322 17:33:02.403369 32639 net.cpp:86] Creating Layer inception_4d/relu_3x3
I0322 17:33:02.403376 32639 net.cpp:408] inception_4d/relu_3x3 <- inception_4d/3x3
I0322 17:33:02.403384 32639 net.cpp:369] inception_4d/relu_3x3 -> inception_4d/3x3 (in-place)
I0322 17:33:02.403394 32639 net.cpp:124] Setting up inception_4d/relu_3x3
I0322 17:33:02.403405 32639 net.cpp:131] Top shape: 128 144 14 14 (3612672)
I0322 17:33:02.403411 32639 net.cpp:139] Memory required for data: 3026616832
I0322 17:33:02.403419 32639 layer_factory.hpp:77] Creating layer inception_4d/5x5_reduce
I0322 17:33:02.403434 32639 net.cpp:86] Creating Layer inception_4d/5x5_reduce
I0322 17:33:02.403442 32639 net.cpp:408] inception_4d/5x5_reduce <- inception_4c/output_inception_4c/output_0_split_2
I0322 17:33:02.403453 32639 net.cpp:382] inception_4d/5x5_reduce -> inception_4d/5x5_reduce
I0322 17:33:02.403774 32639 net.cpp:124] Setting up inception_4d/5x5_reduce
I0322 17:33:02.403791 32639 net.cpp:131] Top shape: 128 16 14 14 (401408)
I0322 17:33:02.403797 32639 net.cpp:139] Memory required for data: 3028222464
I0322 17:33:02.403807 32639 layer_factory.hpp:77] Creating layer inception_4d/relu_5x5_reduce
I0322 17:33:02.403816 32639 net.cpp:86] Creating Layer inception_4d/relu_5x5_reduce
I0322 17:33:02.403822 32639 net.cpp:408] inception_4d/relu_5x5_reduce <- inception_4d/5x5_reduce
I0322 17:33:02.403831 32639 net.cpp:369] inception_4d/relu_5x5_reduce -> inception_4d/5x5_reduce (in-place)
I0322 17:33:02.403841 32639 net.cpp:124] Setting up inception_4d/relu_5x5_reduce
I0322 17:33:02.403851 32639 net.cpp:131] Top shape: 128 16 14 14 (401408)
I0322 17:33:02.403856 32639 net.cpp:139] Memory required for data: 3029828096
I0322 17:33:02.403861 32639 layer_factory.hpp:77] Creating layer inception_4d/5x5
I0322 17:33:02.403874 32639 net.cpp:86] Creating Layer inception_4d/5x5
I0322 17:33:02.403880 32639 net.cpp:408] inception_4d/5x5 <- inception_4d/5x5_reduce
I0322 17:33:02.403890 32639 net.cpp:382] inception_4d/5x5 -> inception_4d/5x5
I0322 17:33:02.404259 32639 net.cpp:124] Setting up inception_4d/5x5
I0322 17:33:02.404276 32639 net.cpp:131] Top shape: 128 32 14 14 (802816)
I0322 17:33:02.404283 32639 net.cpp:139] Memory required for data: 3033039360
I0322 17:33:02.404291 32639 layer_factory.hpp:77] Creating layer inception_4d/relu_5x5
I0322 17:33:02.404304 32639 net.cpp:86] Creating Layer inception_4d/relu_5x5
I0322 17:33:02.404311 32639 net.cpp:408] inception_4d/relu_5x5 <- inception_4d/5x5
I0322 17:33:02.404320 32639 net.cpp:369] inception_4d/relu_5x5 -> inception_4d/5x5 (in-place)
I0322 17:33:02.404330 32639 net.cpp:124] Setting up inception_4d/relu_5x5
I0322 17:33:02.404340 32639 net.cpp:131] Top shape: 128 32 14 14 (802816)
I0322 17:33:02.404345 32639 net.cpp:139] Memory required for data: 3036250624
I0322 17:33:02.404352 32639 layer_factory.hpp:77] Creating layer inception_4d/pool
I0322 17:33:02.404362 32639 net.cpp:86] Creating Layer inception_4d/pool
I0322 17:33:02.404369 32639 net.cpp:408] inception_4d/pool <- inception_4c/output_inception_4c/output_0_split_3
I0322 17:33:02.404378 32639 net.cpp:382] inception_4d/pool -> inception_4d/pool
I0322 17:33:02.404433 32639 net.cpp:124] Setting up inception_4d/pool
I0322 17:33:02.404446 32639 net.cpp:131] Top shape: 128 256 14 14 (6422528)
I0322 17:33:02.404453 32639 net.cpp:139] Memory required for data: 3061940736
I0322 17:33:02.404458 32639 layer_factory.hpp:77] Creating layer inception_4d/pool_proj
I0322 17:33:02.404471 32639 net.cpp:86] Creating Layer inception_4d/pool_proj
I0322 17:33:02.404480 32639 net.cpp:408] inception_4d/pool_proj <- inception_4d/pool
I0322 17:33:02.404490 32639 net.cpp:382] inception_4d/pool_proj -> inception_4d/pool_proj
I0322 17:33:02.404805 32639 net.cpp:124] Setting up inception_4d/pool_proj
I0322 17:33:02.404822 32639 net.cpp:131] Top shape: 128 32 14 14 (802816)
I0322 17:33:02.404829 32639 net.cpp:139] Memory required for data: 3065152000
I0322 17:33:02.404837 32639 layer_factory.hpp:77] Creating layer inception_4d/relu_pool_proj
I0322 17:33:02.404850 32639 net.cpp:86] Creating Layer inception_4d/relu_pool_proj
I0322 17:33:02.404857 32639 net.cpp:408] inception_4d/relu_pool_proj <- inception_4d/pool_proj
I0322 17:33:02.404865 32639 net.cpp:369] inception_4d/relu_pool_proj -> inception_4d/pool_proj (in-place)
I0322 17:33:02.404877 32639 net.cpp:124] Setting up inception_4d/relu_pool_proj
I0322 17:33:02.404886 32639 net.cpp:131] Top shape: 128 32 14 14 (802816)
I0322 17:33:02.404891 32639 net.cpp:139] Memory required for data: 3068363264
I0322 17:33:02.404896 32639 layer_factory.hpp:77] Creating layer inception_4d/output
I0322 17:33:02.404907 32639 net.cpp:86] Creating Layer inception_4d/output
I0322 17:33:02.404917 32639 net.cpp:408] inception_4d/output <- inception_4d/1x1
I0322 17:33:02.404925 32639 net.cpp:408] inception_4d/output <- inception_4d/3x3
I0322 17:33:02.404932 32639 net.cpp:408] inception_4d/output <- inception_4d/5x5
I0322 17:33:02.404961 32639 net.cpp:408] inception_4d/output <- inception_4d/pool_proj
I0322 17:33:02.404973 32639 net.cpp:382] inception_4d/output -> inception_4d/output
I0322 17:33:02.405012 32639 net.cpp:124] Setting up inception_4d/output
I0322 17:33:02.405027 32639 net.cpp:131] Top shape: 128 264 14 14 (6623232)
I0322 17:33:02.405033 32639 net.cpp:139] Memory required for data: 3094856192
I0322 17:33:02.405040 32639 layer_factory.hpp:77] Creating layer inception_4d/output_inception_4d/output_0_split
I0322 17:33:02.405051 32639 net.cpp:86] Creating Layer inception_4d/output_inception_4d/output_0_split
I0322 17:33:02.405061 32639 net.cpp:408] inception_4d/output_inception_4d/output_0_split <- inception_4d/output
I0322 17:33:02.405071 32639 net.cpp:382] inception_4d/output_inception_4d/output_0_split -> inception_4d/output_inception_4d/output_0_split_0
I0322 17:33:02.405081 32639 net.cpp:382] inception_4d/output_inception_4d/output_0_split -> inception_4d/output_inception_4d/output_0_split_1
I0322 17:33:02.405093 32639 net.cpp:382] inception_4d/output_inception_4d/output_0_split -> inception_4d/output_inception_4d/output_0_split_2
I0322 17:33:02.405103 32639 net.cpp:382] inception_4d/output_inception_4d/output_0_split -> inception_4d/output_inception_4d/output_0_split_3
I0322 17:33:02.405171 32639 net.cpp:124] Setting up inception_4d/output_inception_4d/output_0_split
I0322 17:33:02.405185 32639 net.cpp:131] Top shape: 128 264 14 14 (6623232)
I0322 17:33:02.405194 32639 net.cpp:131] Top shape: 128 264 14 14 (6623232)
I0322 17:33:02.405200 32639 net.cpp:131] Top shape: 128 264 14 14 (6623232)
I0322 17:33:02.405206 32639 net.cpp:131] Top shape: 128 264 14 14 (6623232)
I0322 17:33:02.405212 32639 net.cpp:139] Memory required for data: 3200827904
I0322 17:33:02.405217 32639 layer_factory.hpp:77] Creating layer inception_4e/1x1
I0322 17:33:02.405231 32639 net.cpp:86] Creating Layer inception_4e/1x1
I0322 17:33:02.405239 32639 net.cpp:408] inception_4e/1x1 <- inception_4d/output_inception_4d/output_0_split_0
I0322 17:33:02.405251 32639 net.cpp:382] inception_4e/1x1 -> inception_4e/1x1
I0322 17:33:02.405804 32639 net.cpp:124] Setting up inception_4e/1x1
I0322 17:33:02.405823 32639 net.cpp:131] Top shape: 128 128 14 14 (3211264)
I0322 17:33:02.405830 32639 net.cpp:139] Memory required for data: 3213672960
I0322 17:33:02.405839 32639 layer_factory.hpp:77] Creating layer inception_4e/relu_1x1
I0322 17:33:02.405851 32639 net.cpp:86] Creating Layer inception_4e/relu_1x1
I0322 17:33:02.405860 32639 net.cpp:408] inception_4e/relu_1x1 <- inception_4e/1x1
I0322 17:33:02.405869 32639 net.cpp:369] inception_4e/relu_1x1 -> inception_4e/1x1 (in-place)
I0322 17:33:02.405879 32639 net.cpp:124] Setting up inception_4e/relu_1x1
I0322 17:33:02.405889 32639 net.cpp:131] Top shape: 128 128 14 14 (3211264)
I0322 17:33:02.405894 32639 net.cpp:139] Memory required for data: 3226518016
I0322 17:33:02.405901 32639 layer_factory.hpp:77] Creating layer inception_4e/3x3_reduce
I0322 17:33:02.405915 32639 net.cpp:86] Creating Layer inception_4e/3x3_reduce
I0322 17:33:02.405923 32639 net.cpp:408] inception_4e/3x3_reduce <- inception_4d/output_inception_4d/output_0_split_1
I0322 17:33:02.405933 32639 net.cpp:382] inception_4e/3x3_reduce -> inception_4e/3x3_reduce
I0322 17:33:02.406384 32639 net.cpp:124] Setting up inception_4e/3x3_reduce
I0322 17:33:02.406402 32639 net.cpp:131] Top shape: 128 80 14 14 (2007040)
I0322 17:33:02.406409 32639 net.cpp:139] Memory required for data: 3234546176
I0322 17:33:02.406417 32639 layer_factory.hpp:77] Creating layer inception_4e/relu_3x3_reduce
I0322 17:33:02.406427 32639 net.cpp:86] Creating Layer inception_4e/relu_3x3_reduce
I0322 17:33:02.406433 32639 net.cpp:408] inception_4e/relu_3x3_reduce <- inception_4e/3x3_reduce
I0322 17:33:02.406442 32639 net.cpp:369] inception_4e/relu_3x3_reduce -> inception_4e/3x3_reduce (in-place)
I0322 17:33:02.406451 32639 net.cpp:124] Setting up inception_4e/relu_3x3_reduce
I0322 17:33:02.406460 32639 net.cpp:131] Top shape: 128 80 14 14 (2007040)
I0322 17:33:02.406466 32639 net.cpp:139] Memory required for data: 3242574336
I0322 17:33:02.406492 32639 layer_factory.hpp:77] Creating layer inception_4e/3x3
I0322 17:33:02.406508 32639 net.cpp:86] Creating Layer inception_4e/3x3
I0322 17:33:02.406517 32639 net.cpp:408] inception_4e/3x3 <- inception_4e/3x3_reduce
I0322 17:33:02.406528 32639 net.cpp:382] inception_4e/3x3 -> inception_4e/3x3
I0322 17:33:02.407814 32639 net.cpp:124] Setting up inception_4e/3x3
I0322 17:33:02.407840 32639 net.cpp:131] Top shape: 128 160 14 14 (4014080)
I0322 17:33:02.407846 32639 net.cpp:139] Memory required for data: 3258630656
I0322 17:33:02.407856 32639 layer_factory.hpp:77] Creating layer inception_4e/relu_3x3
I0322 17:33:02.407866 32639 net.cpp:86] Creating Layer inception_4e/relu_3x3
I0322 17:33:02.407872 32639 net.cpp:408] inception_4e/relu_3x3 <- inception_4e/3x3
I0322 17:33:02.407881 32639 net.cpp:369] inception_4e/relu_3x3 -> inception_4e/3x3 (in-place)
I0322 17:33:02.407892 32639 net.cpp:124] Setting up inception_4e/relu_3x3
I0322 17:33:02.407899 32639 net.cpp:131] Top shape: 128 160 14 14 (4014080)
I0322 17:33:02.407905 32639 net.cpp:139] Memory required for data: 3274686976
I0322 17:33:02.407912 32639 layer_factory.hpp:77] Creating layer inception_4e/5x5_reduce
I0322 17:33:02.407927 32639 net.cpp:86] Creating Layer inception_4e/5x5_reduce
I0322 17:33:02.407935 32639 net.cpp:408] inception_4e/5x5_reduce <- inception_4d/output_inception_4d/output_0_split_2
I0322 17:33:02.407945 32639 net.cpp:382] inception_4e/5x5_reduce -> inception_4e/5x5_reduce
I0322 17:33:02.408246 32639 net.cpp:124] Setting up inception_4e/5x5_reduce
I0322 17:33:02.408264 32639 net.cpp:131] Top shape: 128 16 14 14 (401408)
I0322 17:33:02.408270 32639 net.cpp:139] Memory required for data: 3276292608
I0322 17:33:02.408279 32639 layer_factory.hpp:77] Creating layer inception_4e/relu_5x5_reduce
I0322 17:33:02.408298 32639 net.cpp:86] Creating Layer inception_4e/relu_5x5_reduce
I0322 17:33:02.408308 32639 net.cpp:408] inception_4e/relu_5x5_reduce <- inception_4e/5x5_reduce
I0322 17:33:02.408316 32639 net.cpp:369] inception_4e/relu_5x5_reduce -> inception_4e/5x5_reduce (in-place)
I0322 17:33:02.408325 32639 net.cpp:124] Setting up inception_4e/relu_5x5_reduce
I0322 17:33:02.408334 32639 net.cpp:131] Top shape: 128 16 14 14 (401408)
I0322 17:33:02.408342 32639 net.cpp:139] Memory required for data: 3277898240
I0322 17:33:02.408347 32639 layer_factory.hpp:77] Creating layer inception_4e/5x5
I0322 17:33:02.408360 32639 net.cpp:86] Creating Layer inception_4e/5x5
I0322 17:33:02.408366 32639 net.cpp:408] inception_4e/5x5 <- inception_4e/5x5_reduce
I0322 17:33:02.408375 32639 net.cpp:382] inception_4e/5x5 -> inception_4e/5x5
I0322 17:33:02.408870 32639 net.cpp:124] Setting up inception_4e/5x5
I0322 17:33:02.408887 32639 net.cpp:131] Top shape: 128 64 14 14 (1605632)
I0322 17:33:02.408895 32639 net.cpp:139] Memory required for data: 3284320768
I0322 17:33:02.408903 32639 layer_factory.hpp:77] Creating layer inception_4e/relu_5x5
I0322 17:33:02.408911 32639 net.cpp:86] Creating Layer inception_4e/relu_5x5
I0322 17:33:02.408921 32639 net.cpp:408] inception_4e/relu_5x5 <- inception_4e/5x5
I0322 17:33:02.408929 32639 net.cpp:369] inception_4e/relu_5x5 -> inception_4e/5x5 (in-place)
I0322 17:33:02.408939 32639 net.cpp:124] Setting up inception_4e/relu_5x5
I0322 17:33:02.408947 32639 net.cpp:131] Top shape: 128 64 14 14 (1605632)
I0322 17:33:02.408956 32639 net.cpp:139] Memory required for data: 3290743296
I0322 17:33:02.408962 32639 layer_factory.hpp:77] Creating layer inception_4e/pool
I0322 17:33:02.408974 32639 net.cpp:86] Creating Layer inception_4e/pool
I0322 17:33:02.408982 32639 net.cpp:408] inception_4e/pool <- inception_4d/output_inception_4d/output_0_split_3
I0322 17:33:02.408989 32639 net.cpp:382] inception_4e/pool -> inception_4e/pool
I0322 17:33:02.409044 32639 net.cpp:124] Setting up inception_4e/pool
I0322 17:33:02.409059 32639 net.cpp:131] Top shape: 128 264 14 14 (6623232)
I0322 17:33:02.409065 32639 net.cpp:139] Memory required for data: 3317236224
I0322 17:33:02.409070 32639 layer_factory.hpp:77] Creating layer inception_4e/pool_proj
I0322 17:33:02.409109 32639 net.cpp:86] Creating Layer inception_4e/pool_proj
I0322 17:33:02.409121 32639 net.cpp:408] inception_4e/pool_proj <- inception_4e/pool
I0322 17:33:02.409131 32639 net.cpp:382] inception_4e/pool_proj -> inception_4e/pool_proj
I0322 17:33:02.409565 32639 net.cpp:124] Setting up inception_4e/pool_proj
I0322 17:33:02.409582 32639 net.cpp:131] Top shape: 128 64 14 14 (1605632)
I0322 17:33:02.409588 32639 net.cpp:139] Memory required for data: 3323658752
I0322 17:33:02.409598 32639 layer_factory.hpp:77] Creating layer inception_4e/relu_pool_proj
I0322 17:33:02.409606 32639 net.cpp:86] Creating Layer inception_4e/relu_pool_proj
I0322 17:33:02.409613 32639 net.cpp:408] inception_4e/relu_pool_proj <- inception_4e/pool_proj
I0322 17:33:02.409621 32639 net.cpp:369] inception_4e/relu_pool_proj -> inception_4e/pool_proj (in-place)
I0322 17:33:02.409631 32639 net.cpp:124] Setting up inception_4e/relu_pool_proj
I0322 17:33:02.409641 32639 net.cpp:131] Top shape: 128 64 14 14 (1605632)
I0322 17:33:02.409647 32639 net.cpp:139] Memory required for data: 3330081280
I0322 17:33:02.409652 32639 layer_factory.hpp:77] Creating layer inception_4e/output
I0322 17:33:02.409667 32639 net.cpp:86] Creating Layer inception_4e/output
I0322 17:33:02.409675 32639 net.cpp:408] inception_4e/output <- inception_4e/1x1
I0322 17:33:02.409682 32639 net.cpp:408] inception_4e/output <- inception_4e/3x3
I0322 17:33:02.409689 32639 net.cpp:408] inception_4e/output <- inception_4e/5x5
I0322 17:33:02.409709 32639 net.cpp:408] inception_4e/output <- inception_4e/pool_proj
I0322 17:33:02.409723 32639 net.cpp:382] inception_4e/output -> inception_4e/output
I0322 17:33:02.409767 32639 net.cpp:124] Setting up inception_4e/output
I0322 17:33:02.409781 32639 net.cpp:131] Top shape: 128 416 14 14 (10436608)
I0322 17:33:02.409787 32639 net.cpp:139] Memory required for data: 3371827712
I0322 17:33:02.409792 32639 layer_factory.hpp:77] Creating layer conv_16
I0322 17:33:02.409808 32639 net.cpp:86] Creating Layer conv_16
I0322 17:33:02.409817 32639 net.cpp:408] conv_16 <- inception_4e/output
I0322 17:33:02.409827 32639 net.cpp:382] conv_16 -> conv_16
I0322 17:33:02.412206 32639 net.cpp:124] Setting up conv_16
I0322 17:33:02.412256 32639 net.cpp:131] Top shape: 128 128 14 14 (3211264)
I0322 17:33:02.412261 32639 net.cpp:139] Memory required for data: 3384672768
I0322 17:33:02.412272 32639 layer_factory.hpp:77] Creating layer relu_16
I0322 17:33:02.412283 32639 net.cpp:86] Creating Layer relu_16
I0322 17:33:02.412291 32639 net.cpp:408] relu_16 <- conv_16
I0322 17:33:02.412300 32639 net.cpp:369] relu_16 -> conv_16 (in-place)
I0322 17:33:02.412312 32639 net.cpp:124] Setting up relu_16
I0322 17:33:02.412322 32639 net.cpp:131] Top shape: 128 128 14 14 (3211264)
I0322 17:33:02.412328 32639 net.cpp:139] Memory required for data: 3397517824
I0322 17:33:02.412333 32639 layer_factory.hpp:77] Creating layer conv_face_predict
I0322 17:33:02.412351 32639 net.cpp:86] Creating Layer conv_face_predict
I0322 17:33:02.412360 32639 net.cpp:408] conv_face_predict <- conv_16
I0322 17:33:02.412372 32639 net.cpp:382] conv_face_predict -> conv_face_predict
I0322 17:33:02.412755 32639 net.cpp:124] Setting up conv_face_predict
I0322 17:33:02.412772 32639 net.cpp:131] Top shape: 128 20 14 14 (501760)
I0322 17:33:02.412778 32639 net.cpp:139] Memory required for data: 3399524864
I0322 17:33:02.412788 32639 layer_factory.hpp:77] Creating layer pool5/7x7_s1
I0322 17:33:02.412799 32639 net.cpp:86] Creating Layer pool5/7x7_s1
I0322 17:33:02.412808 32639 net.cpp:408] pool5/7x7_s1 <- conv_face_predict
I0322 17:33:02.412820 32639 net.cpp:382] pool5/7x7_s1 -> pool5/7x7_s1
I0322 17:33:02.412858 32639 net.cpp:124] Setting up pool5/7x7_s1
I0322 17:33:02.412873 32639 net.cpp:131] Top shape: 128 20 11 11 (309760)
I0322 17:33:02.412878 32639 net.cpp:139] Memory required for data: 3400763904
I0322 17:33:02.412884 32639 layer_factory.hpp:77] Creating layer pool5/drop_7x7_s1
I0322 17:33:02.412916 32639 net.cpp:86] Creating Layer pool5/drop_7x7_s1
I0322 17:33:02.412950 32639 net.cpp:408] pool5/drop_7x7_s1 <- pool5/7x7_s1
I0322 17:33:02.412959 32639 net.cpp:369] pool5/drop_7x7_s1 -> pool5/7x7_s1 (in-place)
I0322 17:33:02.413005 32639 net.cpp:124] Setting up pool5/drop_7x7_s1
I0322 17:33:02.413019 32639 net.cpp:131] Top shape: 128 20 11 11 (309760)
I0322 17:33:02.413025 32639 net.cpp:139] Memory required for data: 3402002944
I0322 17:33:02.413031 32639 layer_factory.hpp:77] Creating layer loss3_my/predict
I0322 17:33:02.413043 32639 net.cpp:86] Creating Layer loss3_my/predict
I0322 17:33:02.413049 32639 net.cpp:408] loss3_my/predict <- pool5/7x7_s1
I0322 17:33:02.413061 32639 net.cpp:382] loss3_my/predict -> loss3_my/predict
I0322 17:33:02.413216 32639 net.cpp:124] Setting up loss3_my/predict
I0322 17:33:02.413233 32639 net.cpp:131] Top shape: 128 1 (128)
I0322 17:33:02.413239 32639 net.cpp:139] Memory required for data: 3402003456
I0322 17:33:02.413247 32639 layer_factory.hpp:77] Creating layer loss3_my/loss3_my
I0322 17:33:02.413682 32639 net.cpp:86] Creating Layer loss3_my/loss3_my
I0322 17:33:02.413712 32639 net.cpp:408] loss3_my/loss3_my <- loss3_my/predict
I0322 17:33:02.413723 32639 net.cpp:408] loss3_my/loss3_my <- label
I0322 17:33:02.413735 32639 net.cpp:382] loss3_my/loss3_my -> loss3_my/loss3_my
I0322 17:33:02.413902 32639 net.cpp:124] Setting up loss3_my/loss3_my
I0322 17:33:02.413920 32639 net.cpp:131] Top shape: 1 (1)
I0322 17:33:02.413928 32639 net.cpp:134]     with loss weight 1
I0322 17:33:02.413975 32639 net.cpp:139] Memory required for data: 3402003460
I0322 17:33:02.413982 32639 net.cpp:200] loss3_my/loss3_my needs backward computation.
I0322 17:33:02.413990 32639 net.cpp:200] loss3_my/predict needs backward computation.
I0322 17:33:02.413995 32639 net.cpp:200] pool5/drop_7x7_s1 needs backward computation.
…
I0322 17:33:02.418190 32639 solver.cpp:173] Creating test net (#0) specified by net file: models/age_google_half_ft/train_val.prototxt
I0322 17:33:02.418426 32639 net.cpp:296] The NetState phase (1) differed from the phase (0) specified by a rule in layer data
I0322 17:33:02.419391 32639 net.cpp:53] Initializing net from parameters: 
name: "GoogleNet-half"
state {
  phase: TEST
}
layer {
  name: "data"
  type: "Python"
  top: "data"
  top: "label"
  include {
    phase: TEST
  }
  python_param {
    module: "data_generator"
    layer: "DataLayer"
    param_str: "/home/zhongzhen/dataset/attribute/age/test.txt"
  }
}
layer {
  name: "conv1/7x7_s2"
  type: "Convolution"
  bottom: "data"
  top: "conv1/7x7_s2"
  param {
    lr_mult: 1
    decay_mult: 1
  }
  param {
    lr_mult: 2
    decay_mult: 0
  }
  convolution_param {
    num_output: 32
    pad: 3
    kernel_size: 7
    stride: 2
    weight_filler {
      type: "xavier"
      std: 0.1
    }
    bias_filler {
      type: "constant"
      value: 0.2
    }
  }
}
layer {
  name: "conv1/relu_7x7"
  type: "ReLU"
  bottom: "conv1/7x7_s2"
  top: "conv1/7x7_s2"
}
layer {
  name: "pool1/3x3_s2"
  type: "Pooling"
  bottom: "conv1/7x7_s2"
  top: "pool1/3x3_s2"
  pooling_param {
    pool: MAX
    kernel_size: 3
    stride: 2
  }
}
layer {
  name: "pool1/norm1"
  type: "LRN"
  bottom: "pool1/3x3_s2"
  top: "pool1/norm1"
  lrn_param {
    local_size: 5
    alpha: 0.0001
    beta: 0.75
  }
}
layer {
  name: "conv2/3x3_reduce"
  type: "Convolution"
  bottom: "pool1/norm1"
  top: "conv2/3x3_reduce"
  param {
    lr_mult: 1
    decay_mult: 1
  }
  param {
    lr_mult: 2
    decay_mult: 0
  }
  convolution_param {
    num_output: 32
    kernel_size: 1
    weight_filler {
      type: "xavier"
      std: 0.1
    }
    bias_filler {
      type: "constant"
      value: 0.2
    }
  }
}
layer {
  name: "conv2/relu_3x3_reduce"
  type: "ReLU"
  bottom: "conv2/3x3_reduce"
  top: "conv2/3x3_reduce"
}
layer {
  name: "conv2/3x3"
  type: "Convolution"
  bottom: "conv2/3x3_reduce"
  top: "conv2/3x3"
  param {
    lr_mult: 1
    decay_mult: 1
  }
  param {
    lr_mult: 2
    decay_mult: 0
  }
  convolution_param {
    num_output: 96
    pad: 1
    kernel_size: 3
    weight_filler {
      type: "xavier"
      std: 0.03
    }
    bias_filler {
      type: "constant"
      value: 0.2
    }
  }
}
layer {
  name: "conv2/relu_3x3"
  type: "ReLU"
  bottom: "conv2/3x3"
  top: "conv2/3x3"
}
layer {
  name: "conv2/norm2"
  type: "LRN"
  bottom: "conv2/3x3"
  top: "conv2/norm2"
  lrn_param {
    local_size: 5
    alpha: 0.0001
    beta: 0.75
  }
}
layer {
  name: "pool2/3x3_s2"
  type: "Pooling"
  bottom: "conv2/norm2"
  top: "pool2/3x3_s2"
  pooling_param {
    pool: MAX
    kernel_size: 3
    stride: 2
  }
}
layer {
  name: "inception_3a/1x1"
  type: "Convolution"
  bottom: "pool2/3x3_s2"
  top: "inception_3a/1x1"
  param {
    lr_mult: 1
    decay_mult: 1
  }
  param {
    lr_mult: 2
    decay_mult: 0
  }
  convolution_param {
    num_output: 32
    kernel_size: 1
    weight_filler {
      type: "xavier"
      std: 0.03
    }
    bias_filler {
      type: "constant"
      value: 0.2
    }
  }
}
layer {
  name: "inception_3a/relu_1x1"
  type: "ReLU"
  bottom: "inception_3a/1x1"
  top: "inception_3a/1x1"
}
layer {
  name: "inception_3a/3x3_reduce"
  type: "Convolution"
  bottom: "pool2/3x3_s2"
  top: "inception_3a/3x3_reduce"
  param {
    lr_mult: 1
    decay_mult: 1
  }
  param {
    lr_mult: 2
    decay_mult: 0
  }
  convolution_param {
    num_output: 48
    kernel_size: 1
    weight_filler {
      type: "xavier"
      std: 0.09
    }
    bias_filler {
      type: "constant"
      value: 0.2
    }
  }
}
layer {
  name: "inception_3a/relu_3x3_reduce"
  type: "ReLU"
  bottom: "inception_3a/3x3_reduce"
  top: "inception_3a/3x3_reduce"
}
layer {
  name: "inception_3a/3x3"
  type: "Convolution"
  bottom: "inception_3a/3x3_reduce"
  top: "inception_3a/3x3"
  param {
    lr_mult: 1
    decay_mult: 1
  }
  param {
    lr_mult: 2
    decay_mult: 0
  }
  convolution_param {
    num_output: 64
    pad: 1
    kernel_size: 3
    weight_filler {
      type: "xavier"
      std: 0.03
    }
    bias_filler {
      type: "constant"
      value: 0.2
    }
  }
}
layer {
  name: "inception_3a/relu_3x3"
  type: "ReLU"
  bottom: "inception_3a/3x3"
  top: "inception_3a/3x3"
}
layer {
  name: "inception_3a/5x5_reduce"
  type: "Convolution"
  bottom: "pool2/3x3_s2"
  top: "inception_3a/5x5_reduce"
  param {
    lr_mult: 1
    decay_mult: 1
  }
  param {
    lr_mult: 2
    decay_mult: 0
  }
  convolution_param {
    num_output: 8
    kernel_size: 1
    weight_filler {
      type: "xavier"
      std: 0.2
    }
    bias_filler {
      type: "constant"
      value: 0.2
    }
  }
}
layer {
  name: "inception_3a/relu_5x5_reduce"
  type: "ReLU"
  bottom: "inception_3a/5x5_reduce"
  top: "inception_3a/5x5_reduce"
}
layer {
  name: "inception_3a/5x5"
  type: "Convolution"
  bottom: "inception_3a/5x5_reduce"
  top: "inception_3a/5x5"
  param {
    lr_mult: 1
    decay_mult: 1
  }
  param {
    lr_mult: 2
    decay_mult: 0
  }
  convolution_param {
    num_output: 16
    pad: 2
    kernel_size: 5
    weight_filler {
      type: "xavier"
      std: 0.03
    }
    bias_filler {
      type: "constant"
      value: 0.2
    }
  }
}
layer {
  name: "inception_3a/relu_5x5"
  type: "ReLU"
  bottom: "inception_3a/5x5"
  top: "inception_3a/5x5"
}
layer {
  name: "inception_3a/pool"
  type: "Pooling"
  bottom: "pool2/3x3_s2"
  top: "inception_3a/pool"
  pooling_param {
    pool: MAX
    kernel_size: 3
    stride: 1
    pad: 1
  }
}
layer {
  name: "inception_3a/pool_proj"
  type: "Convolution"
  bottom: "inception_3a/pool"
  top: "inception_3a/pool_proj"
  param {
    lr_mult: 1
    decay_mult: 1
  }
  param {
    lr_mult: 2
    decay_mult: 0
  }
  convolution_param {
    num_output: 16
    kernel_size: 1
    weight_filler {
      type: "xavier"
      std: 0.1
    }
    bias_filler {
      type: "constant"
      value: 0.2
    }
  }
}
layer {
  name: "inception_3a/relu_pool_proj"
  type: "ReLU"
  bottom: "inception_3a/pool_proj"
  top: "inception_3a/pool_proj"
}
layer {
  name: "inception_3a/output"
  type: "Concat"
  bottom: "inception_3a/1x1"
  bottom: "inception_3a/3x3"
  bottom: "inception_3a/5x5"
  bottom: "inception_3a/pool_proj"
  top: "inception_3a/output"
}
layer {
  name: "inception_3b/1x1"
  type: "Convolution"
  bottom: "inception_3a/output"
  top: "inception_3b/1x1"
  param {
    lr_mult: 1
    decay_mult: 1
  }
  param {
    lr_mult: 2
    decay_mult: 0
  }
  convolution_param {
    num_output: 64
    kernel_size: 1
    weight_filler {
      type: "xavier"
      std: 0.03
    }
    bias_filler {
      type: "constant"
      value: 0.2
    }
  }
}
layer {
  name: "inception_3b/relu_1x1"
  type: "ReLU"
  bottom: "inception_3b/1x1"
  top: "inception_3b/1x1"
}
layer {
  name: "inception_3b/3x3_reduce"
  type: "Convolution"
  bottom: "inception_3a/output"
  top: "inception_3b/3x3_reduce"
  param {
    lr_mult: 1
    decay_mult: 1
  }
  param {
    lr_mult: 2
    decay_mult: 0
  }
  convolution_param {
    num_output: 64
    kernel_size: 1
    weight_filler {
      type: "xavier"
      std: 0.09
    }
    bias_filler {
      type: "constant"
      value: 0.2
    }
  }
}
layer {
  name: "inception_3b/relu_3x3_reduce"
  type: "ReLU"
  bottom: "inception_3b/3x3_reduce"
  top: "inception_3b/3x3_reduce"
}
layer {
  name: "inception_3b/3x3"
  type: "Convolution"
  bottom: "inception_3b/3x3_reduce"
  top: "inception_3b/3x3"
  param {
    lr_mult: 1
    decay_mult: 1
  }
  param {
    lr_mult: 2
    decay_mult: 0
  }
  convolution_param {
    num_output: 96
    pad: 1
    kernel_size: 3
    weight_filler {
      type: "xavier"
      std: 0.03
    }
    bias_filler {
      type: "constant"
      value: 0.2
    }
  }
}
layer {
  name: "inception_3b/relu_3x3"
  type: "ReLU"
  bottom: "inception_3b/3x3"
  top: "inception_3b/3x3"
}
layer {
  name: "inception_3b/5x5_reduce"
  type: "Convolution"
  bottom: "inception_3a/output"
  top: "inception_3b/5x5_reduce"
  param {
    lr_mult: 1
    decay_mult: 1
  }
  param {
    lr_mult: 2
    decay_mult: 0
  }
  convolution_param {
    num_output: 16
    kernel_size: 1
    weight_filler {
      type: "xavier"
      std: 0.2
    }
    bias_filler {
      type: "constant"
      value: 0.2
    }
  }
}
layer {
  name: "inception_3b/relu_5x5_reduce"
  type: "ReLU"
  bottom: "inception_3b/5x5_reduce"
  top: "inception_3b/5x5_reduce"
}
layer {
  name: "inception_3b/5x5"
  type: "Convolution"
  bottom: "inception_3b/5x5_reduce"
  top: "inception_3b/5x5"
  param {
    lr_mult: 1
    decay_mult: 1
  }
  param {
    lr_mult: 2
    decay_mult: 0
  }
  convolution_param {
    num_output: 48
    pad: 2
    kernel_size: 5
    weight_filler {
      type: "xavier"
      std: 0.03
    }
    bias_filler {
      type: "constant"
      value: 0.2
    }
  }
}
layer {
  name: "inception_3b/relu_5x5"
  type: "ReLU"
  bottom: "inception_3b/5x5"
  top: "inception_3b/5x5"
}
layer {
  name: "inception_3b/pool"
  type: "Pooling"
  bottom: "inception_3a/output"
  top: "inception_3b/pool"
  pooling_param {
    pool: MAX
    kernel_size: 3
    stride: 1
    pad: 1
  }
}
layer {
  name: "inception_3b/pool_proj"
  type: "Convolution"
  bottom: "inception_3b/pool"
  top: "inception_3b/pool_proj"
  param {
    lr_mult: 1
    decay_mult: 1
  }
  param {
    lr_mult: 2
    decay_mult: 0
  }
  convolution_param {
    num_output: 32
    kernel_size: 1
    weight_filler {
      type: "xavier"
      std: 0.1
    }
    bias_filler {
      type: "constant"
      value: 0.2
    }
  }
}
layer {
  name: "inception_3b/relu_pool_proj"
  type: "ReLU"
  bottom: "inception_3b/pool_proj"
  top: "inception_3b/pool_proj"
}
layer {
  name: "inception_3b/output"
  type: "Concat"
  bottom: "inception_3b/1x1"
  bottom: "inception_3b/3x3"
  bottom: "inception_3b/5x5"
  bottom: "inception_3b/pool_proj"
  top: "inception_3b/output"
}
layer {
  name: "pool3/3x3_s2"
  type: "Pooling"
  bottom: "inception_3b/output"
  top: "pool3/3x3_s2"
  pooling_param {
    pool: MAX
    kernel_size: 3
    stride: 2
  }
}
layer {
  name: "inception_4a/1x1"
  type: "Convolution"
  bottom: "pool3/3x3_s2"
  top: "inception_4a/1x1"
  param {
    lr_mult: 1
    decay_mult: 1
  }
  param {
    lr_mult: 2
    decay_mult: 0
  }
  convolution_param {
    num_output: 96
    kernel_size: 1
    weight_filler {
      type: "xavier"
      std: 0.03
    }
    bias_filler {
      type: "constant"
      value: 0.2
    }
  }
}
layer {
  name: "inception_4a/relu_1x1"
  type: "ReLU"
  bottom: "inception_4a/1x1"
  top: "inception_4a/1x1"
}
layer {
  name: "inception_4a/3x3_reduce"
  type: "Convolution"
  bottom: "pool3/3x3_s2"
  top: "inception_4a/3x3_reduce"
  param {
    lr_mult: 1
    decay_mult: 1
  }
  param {
    lr_mult: 2
    decay_mult: 0
  }
  convolution_param {
    num_output: 48
    kernel_size: 1
    weight_filler {
      type: "xavier"
      std: 0.09
    }
    bias_filler {
      type: "constant"
      value: 0.2
    }
  }
}
layer {
  name: "inception_4a/relu_3x3_reduce"
  type: "ReLU"
  bottom: "inception_4a/3x3_reduce"
  top: "inception_4a/3x3_reduce"
}
layer {
  name: "inception_4a/3x3"
  type: "Convolution"
  bottom: "inception_4a/3x3_reduce"
  top: "inception_4a/3x3"
  param {
    lr_mult: 1
    decay_mult: 1
  }
  param {
    lr_mult: 2
    decay_mult: 0
  }
  convolution_param {
    num_output: 104
    pad: 1
    kernel_size: 3
    weight_filler {
      type: "xavier"
      std: 0.03
    }
    bias_filler {
      type: "constant"
      value: 0.2
    }
  }
}
layer {
  name: "inception_4a/relu_3x3"
  type: "ReLU"
  bottom: "inception_4a/3x3"
  top: "inception_4a/3x3"
}
layer {
  name: "inception_4a/5x5_reduce"
  type: "Convolution"
  bottom: "pool3/3x3_s2"
  top: "inception_4a/5x5_reduce"
  param {
    lr_mult: 1
    decay_mult: 1
  }
  param {
    lr_mult: 2
    decay_mult: 0
  }
  convolution_param {
    num_output: 8
    kernel_size: 1
    weight_filler {
      type: "xavier"
      std: 0.2
    }
    bias_filler {
      type: "constant"
      value: 0.2
    }
  }
}
layer {
  name: "inception_4a/relu_5x5_reduce"
  type: "ReLU"
  bottom: "inception_4a/5x5_reduce"
  top: "inception_4a/5x5_reduce"
}
layer {
  name: "inception_4a/5x5"
  type: "Convolution"
  bottom: "inception_4a/5x5_reduce"
  top: "inception_4a/5x5"
  param {
    lr_mult: 1
    decay_mult: 1
  }
  param {
    lr_mult: 2
    decay_mult: 0
  }
  convolution_param {
    num_output: 24
    pad: 2
    kernel_size: 5
    weight_filler {
      type: "xavier"
      std: 0.03
    }
    bias_filler {
      type: "constant"
      value: 0.2
    }
  }
}
layer {
  name: "inception_4a/relu_5x5"
  type: "ReLU"
  bottom: "inception_4a/5x5"
  top: "inception_4a/5x5"
}
layer {
  name: "inception_4a/pool"
  type: "Pooling"
  bottom: "pool3/3x3_s2"
  top: "inception_4a/pool"
  pooling_param {
    pool: MAX
    kernel_size: 3
    stride: 1
    pad: 1
  }
}
layer {
  name: "inception_4a/pool_proj"
  type: "Convolution"
  bottom: "inception_4a/pool"
  top: "inception_4a/pool_proj"
  param {
    lr_mult: 1
    decay_mult: 1
  }
  param {
    lr_mult: 2
    decay_mult: 0
  }
  convolution_param {
    num_output: 32
    kernel_size: 1
    weight_filler {
      type: "xavier"
      std: 0.1
    }
    bias_filler {
      type: "constant"
      value: 0.2
    }
  }
}
layer {
  name: "inception_4a/relu_pool_proj"
  type: "ReLU"
  bottom: "inception_4a/pool_proj"
  top: "inception_4a/pool_proj"
}
layer {
  name: "inception_4a/output"
  type: "Concat"
  bottom: "inception_4a/1x1"
  bottom: "inception_4a/3x3"
  bottom: "inception_4a/5x5"
  bottom: "inception_4a/pool_proj"
  top: "inception_4a/output"
}
layer {
  name: "inception_4b/1x1"
  type: "Convolution"
  bottom: "inception_4a/output"
  top: "inception_4b/1x1"
  param {
    lr_mult: 1
    decay_mult: 1
  }
  param {
    lr_mult: 2
    decay_mult: 0
  }
  convolution_param {
    num_output: 80
    kernel_size: 1
    weight_filler {
      type: "xavier"
      std: 0.03
    }
    bias_filler {
      type: "constant"
      value: 0.2
    }
  }
}
layer {
  name: "inception_4b/relu_1x1"
  type: "ReLU"
  bottom: "inception_4b/1x1"
  top: "inception_4b/1x1"
}
layer {
  name: "inception_4b/3x3_reduce"
  type: "Convolution"
  bottom: "inception_4a/output"
  top: "inception_4b/3x3_reduce"
  param {
    lr_mult: 1
    decay_mult: 1
  }
  param {
    lr_mult: 2
    decay_mult: 0
  }
  convolution_param {
    num_output: 56
    kernel_size: 1
    weight_filler {
      type: "xavier"
      std: 0.09
    }
    bias_filler {
      type: "constant"
      value: 0.2
    }
  }
}
layer {
  name: "inception_4b/relu_3x3_reduce"
  type: "ReLU"
  bottom: "inception_4b/3x3_reduce"
  top: "inception_4b/3x3_reduce"
}
layer {
  name: "inception_4b/3x3"
  type: "Convolution"
  bottom: "inception_4b/3x3_reduce"
  top: "inception_4b/3x3"
  param {
    lr_mult: 1
    decay_mult: 1
  }
  param {
    lr_mult: 2
    decay_mult: 0
  }
  convolution_param {
    num_output: 112
    pad: 1
    kernel_size: 3
    weight_filler {
      type: "xavier"
      std: 0.03
    }
    bias_filler {
      type: "constant"
      value: 0.2
    }
  }
}
layer {
  name: "inception_4b/relu_3x3"
  type: "ReLU"
  bottom: "inception_4b/3x3"
  top: "inception_4b/3x3"
}
layer {
  name: "inception_4b/5x5_reduce"
  type: "Convolution"
  bottom: "inception_4a/output"
  top: "inception_4b/5x5_reduce"
  param {
    lr_mult: 1
    decay_mult: 1
  }
  param {
    lr_mult: 2
    decay_mult: 0
  }
  convolution_param {
    num_output: 12
    kernel_size: 1
    weight_filler {
      type: "xavier"
      std: 0.2
    }
    bias_filler {
      type: "constant"
      value: 0.2
    }
  }
}
layer {
  name: "inception_4b/relu_5x5_reduce"
  type: "ReLU"
  bottom: "inception_4b/5x5_reduce"
  top: "inception_4b/5x5_reduce"
}
layer {
  name: "inception_4b/5x5"
  type: "Convolution"
  bottom: "inception_4b/5x5_reduce"
  top: "inception_4b/5x5"
  param {
    lr_mult: 1
    decay_mult: 1
  }
  param {
    lr_mult: 2
    decay_mult: 0
  }
  convolution_param {
    num_output: 32
    pad: 2
    kernel_size: 5
    weight_filler {
      type: "xavier"
      std: 0.03
    }
    bias_filler {
      type: "constant"
      value: 0.2
    }
  }
}
layer {
  name: "inception_4b/relu_5x5"
  type: "ReLU"
  bottom: "inception_4b/5x5"
  top: "inception_4b/5x5"
}
layer {
  name: "inception_4b/pool"
  type: "Pooling"
  bottom: "inception_4a/output"
  top: "inception_4b/pool"
  pooling_param {
    pool: MAX
    kernel_size: 3
    stride: 1
    pad: 1
  }
}
layer {
  name: "inception_4b/pool_proj"
  type: "Convolution"
  bottom: "inception_4b/pool"
  top: "inception_4b/pool_proj"
  param {
    lr_mult: 1
    decay_mult: 1
  }
  param {
    lr_mult: 2
    decay_mult: 0
  }
  convolution_param {
    num_output: 32
    kernel_size: 1
    weight_filler {
      type: "xavier"
      std: 0.1
    }
    bias_filler {
      type: "constant"
      value: 0.2
    }
  }
}
layer {
  name: "inception_4b/relu_pool_proj"
  type: "ReLU"
  bottom: "inception_4b/pool_proj"
  top: "inception_4b/pool_proj"
}
layer {
  name: "inception_4b/output"
  type: "Concat"
  bottom: "inception_4b/1x1"
  bottom: "inception_4b/3x3"
  bottom: "inception_4b/5x5"
  bottom: "inception_4b/pool_proj"
  top: "inception_4b/output"
}
layer {
  name: "inception_4c/1x1"
  type: "Convolution"
  bottom: "inception_4b/output"
  top: "inception_4c/1x1"
  param {
    lr_mult: 1
    decay_mult: 1
  }
  param {
    lr_mult: 2
    decay_mult: 0
  }
  convolution_param {
    num_output: 64
    kernel_size: 1
    weight_filler {
      type: "xavier"
      std: 0.03
    }
    bias_filler {
      type: "constant"
      value: 0.2
    }
  }
}
layer {
  name: "inception_4c/relu_1x1"
  type: "ReLU"
  bottom: "inception_4c/1x1"
  top: "inception_4c/1x1"
}
layer {
  name: "inception_4c/3x3_reduce"
  type: "Convolution"
  bottom: "inception_4b/output"
  top: "inception_4c/3x3_reduce"
  param {
    lr_mult: 1
    decay_mult: 1
  }
  param {
    lr_mult: 2
    decay_mult: 0
  }
  convolution_param {
    num_output: 64
    kernel_size: 1
    weight_filler {
      type: "xavier"
      std: 0.09
    }
    bias_filler {
      type: "constant"
      value: 0.2
    }
  }
}
layer {
  name: "inception_4c/relu_3x3_reduce"
  type: "ReLU"
  bottom: "inception_4c/3x3_reduce"
  top: "inception_4c/3x3_reduce"
}
layer {
  name: "inception_4c/3x3"
  type: "Convolution"
  bottom: "inception_4c/3x3_reduce"
  top: "inception_4c/3x3"
  param {
    lr_mult: 1
    decay_mult: 1
  }
  param {
    lr_mult: 2
    decay_mult: 0
  }
  convolution_param {
    num_output: 128
    pad: 1
    kernel_size: 3
    weight_filler {
      type: "xavier"
      std: 0.03
    }
    bias_filler {
      type: "constant"
      value: 0.2
    }
  }
}
layer {
  name: "inception_4c/relu_3x3"
  type: "ReLU"
  bottom: "inception_4c/3x3"
  top: "inception_4c/3x3"
}
layer {
  name: "inception_4c/5x5_reduce"
  type: "Convolution"
  bottom: "inception_4b/output"
  top: "inception_4c/5x5_reduce"
  param {
    lr_mult: 1
    decay_mult: 1
  }
  param {
    lr_mult: 2
    decay_mult: 0
  }
  convolution_param {
    num_output: 12
    kernel_size: 1
    weight_filler {
      type: "xavier"
      std: 0.2
    }
    bias_filler {
      type: "constant"
      value: 0.2
    }
  }
}
layer {
  name: "inception_4c/relu_5x5_reduce"
  type: "ReLU"
  bottom: "inception_4c/5x5_reduce"
  top: "inception_4c/5x5_reduce"
}
layer {
  name: "inception_4c/5x5"
  type: "Convolution"
  bottom: "inception_4c/5x5_reduce"
  top: "inception_4c/5x5"
  param {
    lr_mult: 1
    decay_mult: 1
  }
  param {
    lr_mult: 2
    decay_mult: 0
  }
  convolution_param {
    num_output: 32
    pad: 2
    kernel_size: 5
    weight_filler {
      type: "xavier"
      std: 0.03
    }
    bias_filler {
      type: "constant"
      value: 0.2
    }
  }
}
layer {
  name: "inception_4c/relu_5x5"
  type: "ReLU"
  bottom: "inception_4c/5x5"
  top: "inception_4c/5x5"
}
layer {
  name: "inception_4c/pool"
  type: "Pooling"
  bottom: "inception_4b/output"
  top: "inception_4c/pool"
  pooling_param {
    pool: MAX
    kernel_size: 3
    stride: 1
    pad: 1
  }
}
layer {
  name: "inception_4c/pool_proj"
  type: "Convolution"
  bottom: "inception_4c/pool"
  top: "inception_4c/pool_proj"
  param {
    lr_mult: 1
    decay_mult: 1
  }
  param {
    lr_mult: 2
    decay_mult: 0
  }
  convolution_param {
    num_output: 32
    kernel_size: 1
    weight_filler {
      type: "xavier"
      std: 0.1
    }
    bias_filler {
      type: "constant"
      value: 0.2
    }
  }
}
layer {
  name: "inception_4c/relu_pool_proj"
  type: "ReLU"
  bottom: "inception_4c/pool_proj"
  top: "inception_4c/pool_proj"
}
layer {
  name: "inception_4c/output"
  type: "Concat"
  bottom: "inception_4c/1x1"
  bottom: "inception_4c/3x3"
  bottom: "inception_4c/5x5"
  bottom: "inception_4c/pool_proj"
  top: "inception_4c/output"
}
layer {
  name: "inception_4d/1x1"
  type: "Convolution"
  bottom: "inception_4c/output"
  top: "inception_4d/1x1"
  param {
    lr_mult: 1
    decay_mult: 1
  }
  param {
    lr_mult: 2
    decay_mult: 0
  }
  convolution_param {
    num_output: 56
    kernel_size: 1
    weight_filler {
      type: "xavier"
      std: 0.03
    }
    bias_filler {
      type: "constant"
      value: 0.2
    }
  }
}
layer {
  name: "inception_4d/relu_1x1"
  type: "ReLU"
  bottom: "inception_4d/1x1"
  top: "inception_4d/1x1"
}
layer {
  name: "inception_4d/3x3_reduce"
  type: "Convolution"
  bottom: "inception_4c/output"
  top: "inception_4d/3x3_reduce"
  param {
    lr_mult: 1
    decay_mult: 1
  }
  param {
    lr_mult: 2
    decay_mult: 0
  }
  convolution_param {
    num_output: 72
    kernel_size: 1
    weight_filler {
      type: "xavier"
      std: 0.09
    }
    bias_filler {
      type: "constant"
      value: 0.2
    }
  }
}
layer {
  name: "inception_4d/relu_3x3_reduce"
  type: "ReLU"
  bottom: "inception_4d/3x3_reduce"
  top: "inception_4d/3x3_reduce"
}
layer {
  name: "inception_4d/3x3"
  type: "Convolution"
  bottom: "inception_4d/3x3_reduce"
  top: "inception_4d/3x3"
  param {
    lr_mult: 1
    decay_mult: 1
  }
  param {
    lr_mult: 2
    decay_mult: 0
  }
  convolution_param {
    num_output: 144
    pad: 1
    kernel_size: 3
    weight_filler {
      type: "xavier"
      std: 0.03
    }
    bias_filler {
      type: "constant"
      value: 0.2
    }
  }
}
layer {
  name: "inception_4d/relu_3x3"
  type: "ReLU"
  bottom: "inception_4d/3x3"
  top: "inception_4d/3x3"
}
layer {
  name: "inception_4d/5x5_reduce"
  type: "Convolution"
  bottom: "inception_4c/output"
  top: "inception_4d/5x5_reduce"
  param {
    lr_mult: 1
    decay_mult: 1
  }
  param {
    lr_mult: 2
    decay_mult: 0
  }
  convolution_param {
    num_output: 16
    kernel_size: 1
    weight_filler {
      type: "xavier"
      std: 0.2
    }
    bias_filler {
      type: "constant"
      value: 0.2
    }
  }
}
layer {
  name: "inception_4d/relu_5x5_reduce"
  type: "ReLU"
  bottom: "inception_4d/5x5_reduce"
  top: "inception_4d/5x5_reduce"
}
layer {
  name: "inception_4d/5x5"
  type: "Convolution"
  bottom: "inception_4d/5x5_reduce"
  top: "inception_4d/5x5"
  param {
    lr_mult: 1
    decay_mult: 1
  }
  param {
    lr_mult: 2
    decay_mult: 0
  }
  convolution_param {
    num_output: 32
    pad: 2
    kernel_size: 5
    weight_filler {
      type: "xavier"
      std: 0.03
    }
    bias_filler {
      type: "constant"
      value: 0.2
    }
  }
}
layer {
  name: "inception_4d/relu_5x5"
  type: "ReLU"
  bottom: "inception_4d/5x5"
  top: "inception_4d/5x5"
}
layer {
  name: "inception_4d/pool"
  type: "Pooling"
  bottom: "inception_4c/output"
  top: "inception_4d/pool"
  pooling_param {
    pool: MAX
    kernel_size: 3
    stride: 1
    pad: 1
  }
}
layer {
  name: "inception_4d/pool_proj"
  type: "Convolution"
  bottom: "inception_4d/pool"
  top: "inception_4d/pool_proj"
  param {
    lr_mult: 1
    decay_mult: 1
  }
  param {
    lr_mult: 2
    decay_mult: 0
  }
  convolution_param {
    num_output: 32
    kernel_size: 1
    weight_filler {
      type: "xavier"
      std: 0.1
    }
    bias_filler {
      type: "constant"
      value: 0.2
    }
  }
}
layer {
  name: "inception_4d/relu_pool_proj"
  type: "ReLU"
  bottom: "inception_4d/pool_proj"
  top: "inception_4d/pool_proj"
}
layer {
  name: "inception_4d/output"
  type: "Concat"
  bottom: "inception_4d/1x1"
  bottom: "inception_4d/3x3"
  bottom: "inception_4d/5x5"
  bottom: "inception_4d/pool_proj"
  top: "inception_4d/output"
}
layer {
  name: "inception_4e/1x1"
  type: "Convolution"
  bottom: "inception_4d/output"
  top: "inception_4e/1x1"
  param {
    lr_mult: 1
    decay_mult: 1
  }
  param {
    lr_mult: 2
    decay_mult: 0
  }
  convolution_param {
    num_output: 128
    kernel_size: 1
    weight_filler {
      type: "xavier"
      std: 0.03
    }
    bias_filler {
      type: "constant"
      value: 0.2
    }
  }
}
layer {
  name: "inception_4e/relu_1x1"
  type: "ReLU"
  bottom: "inception_4e/1x1"
  top: "inception_4e/1x1"
}
layer {
  name: "inception_4e/3x3_reduce"
  type: "Convolution"
  bottom: "inception_4d/output"
  top: "inception_4e/3x3_reduce"
  param {
    lr_mult: 1
    decay_mult: 1
  }
  param {
    lr_mult: 2
    decay_mult: 0
  }
  convolution_param {
    num_output: 80
    kernel_size: 1
    weight_filler {
      type: "xavier"
      std: 0.09
    }
    bias_filler {
      type: "constant"
      value: 0.2
    }
  }
}
layer {
  name: "inception_4e/relu_3x3_reduce"
  type: "ReLU"
  bottom: "inception_4e/3x3_reduce"
  top: "inception_4e/3x3_reduce"
}
layer {
  name: "inception_4e/3x3"
  type: "Convolution"
  bottom: "inception_4e/3x3_reduce"
  top: "inception_4e/3x3"
  param {
    lr_mult: 1
    decay_mult: 1
  }
  param {
    lr_mult: 2
    decay_mult: 0
  }
  convolution_param {
    num_output: 160
    pad: 1
    kernel_size: 3
    weight_filler {
      type: "xavier"
      std: 0.03
    }
    bias_filler {
      type: "constant"
      value: 0.2
    }
  }
}
layer {
  name: "inception_4e/relu_3x3"
  type: "ReLU"
  bottom: "inception_4e/3x3"
  top: "inception_4e/3x3"
}
layer {
  name: "inception_4e/5x5_reduce"
  type: "Convolution"
  bottom: "inception_4d/output"
  top: "inception_4e/5x5_reduce"
  param {
    lr_mult: 1
    decay_mult: 1
  }
  param {
    lr_mult: 2
    decay_mult: 0
  }
  convolution_param {
    num_output: 16
    kernel_size: 1
    weight_filler {
      type: "xavier"
      std: 0.2
    }
    bias_filler {
      type: "constant"
      value: 0.2
    }
  }
}
layer {
  name: "inception_4e/relu_5x5_reduce"
  type: "ReLU"
  bottom: "inception_4e/5x5_reduce"
  top: "inception_4e/5x5_reduce"
}
layer {
  name: "inception_4e/5x5"
  type: "Convolution"
  bottom: "inception_4e/5x5_reduce"
  top: "inception_4e/5x5"
  param {
    lr_mult: 1
    decay_mult: 1
  }
  param {
    lr_mult: 2
    decay_mult: 0
  }
  convolution_param {
    num_output: 64
    pad: 2
    kernel_size: 5
    weight_filler {
      type: "xavier"
      std: 0.03
    }
    bias_filler {
      type: "constant"
      value: 0.2
    }
  }
}
layer {
  name: "inception_4e/relu_5x5"
  type: "ReLU"
  bottom: "inception_4e/5x5"
  top: "inception_4e/5x5"
}
layer {
  name: "inception_4e/pool"
  type: "Pooling"
  bottom: "inception_4d/output"
  top: "inception_4e/pool"
  pooling_param {
    pool: MAX
    kernel_size: 3
    stride: 1
    pad: 1
  }
}
layer {
  name: "inception_4e/pool_proj"
  type: "Convolution"
  bottom: "inception_4e/pool"
  top: "inception_4e/pool_proj"
  param {
    lr_mult: 1
    decay_mult: 1
  }
  param {
    lr_mult: 2
    decay_mult: 0
  }
  convolution_param {
    num_output: 64
    kernel_size: 1
    weight_filler {
      type: "xavier"
      std: 0.1
    }
    bias_filler {
      type: "constant"
      value: 0.2
    }
  }
}
layer {
  name: "inception_4e/relu_pool_proj"
  type: "ReLU"
  bottom: "inception_4e/pool_proj"
  top: "inception_4e/pool_proj"
}
layer {
  name: "inception_4e/output"
  type: "Concat"
  bottom: "inception_4e/1x1"
  bottom: "inception_4e/3x3"
  bottom: "inception_4e/5x5"
  bottom: "inception_4e/pool_proj"
  top: "inception_4e/output"
}
layer {
  name: "conv_16"
  type: "Convolution"
  bottom: "inception_4e/output"
  top: "conv_16"
  param {
    lr_mult: 1
    decay_mult: 1
  }
  param {
    lr_mult: 2
    decay_mult: 0
  }
  convolution_param {
    num_output: 128
    kernel_size: 1
    weight_filler {
      type: "gaussian"
      std: 0.01
    }
    bias_filler {
      type: "constant"
      value: 0
    }
  }
}
layer {
  name: "relu_16"
  type: "ReLU"
  bottom: "conv_16"
  top: "conv_16"
}
layer {
  name: "conv_face_predict"
  type: "Convolution"
  bottom: "conv_16"
  top: "conv_face_predict"
  param {
    lr_mult: 1
    decay_mult: 1
  }
  param {
    lr_mult: 2
    decay_mult: 0
  }
  convolution_param {
    num_output: 20
    kernel_size: 1
    weight_filler {
      type: "gaussian"
      std: 0.01
    }
    bias_filler {
      type: "constant"
      value: 0
    }
  }
}
layer {
  name: "pool5/7x7_s1"
  type: "Pooling"
  bottom: "conv_face_predict"
  top: "pool5/7x7_s1"
  pooling_param {
    pool: AVE
    kernel_size: 4
    stride: 1
  }
}
layer {
  name: "pool5/drop_7x7_s1"
  type: "Dropout"
  bottom: "pool5/7x7_s1"
  top: "pool5/7x7_s1"
  dropout_param {
    dropout_ratio: 0.4
  }
}
layer {
  name: "loss3_my/predict"
  type: "InnerProduct"
  bottom: "pool5/7x7_s1"
  top: "loss3_my/predict"
  param {
    lr_mult: 1
    decay_mult: 1
  }
  param {
    lr_mult: 2
    decay_mult: 0
  }
  inner_product_param {
    num_output: 1
    weight_filler {
      type: "xavier"
    }
    bias_filler {
      type: "constant"
      value: 0
    }
  }
}
layer {
  name: "loss3_my/loss3_my"
  type: "Python"
  bottom: "loss3_my/predict"
  bottom: "label"
  top: "loss3_my/loss3_my"
  loss_weight: 1
  python_param {
    module: "robust_loss"
    layer: "RobustLossLayer"
  }
}
layer {
  name: "loss3_my/loss3_test"
  type: "Python"
  bottom: "loss3_my/predict"
  bottom: "label"
  top: "loss3_my/loss3_test"
  loss_weight: 1
  include {
    phase: TEST
  }
  python_param {
    module: "robust_loss"
    layer: "RobustLossLayer"
  }
}
I0322 17:33:02.420084 32639 layer_factory.hpp:77] Creating layer data
I0322 17:33:02.420184 32639 net.cpp:86] Creating Layer data
I0322 17:33:02.420197 32639 net.cpp:382] data -> data
I0322 17:33:02.420213 32639 net.cpp:382] data -> label
I0322 17:33:02.451606 32639 net.cpp:124] Setting up data
I0322 17:33:02.451696 32639 net.cpp:131] Top shape: 128 3 224 224 (19267584)
I0322 17:33:02.451709 32639 net.cpp:131] Top shape: 128 1 (128)
I0322 17:33:02.451714 32639 net.cpp:139] Memory required for data: 77070848
I0322 17:33:02.451726 32639 layer_factory.hpp:77] Creating layer label_data_1_split
I0322 17:33:02.451750 32639 net.cpp:86] Creating Layer label_data_1_split
I0322 17:33:02.451758 32639 net.cpp:408] label_data_1_split <- label
I0322 17:33:02.451771 32639 net.cpp:382] label_data_1_split -> label_data_1_split_0
I0322 17:33:02.451791 32639 net.cpp:382] label_data_1_split -> label_data_1_split_1
I0322 17:33:02.451848 32639 net.cpp:124] Setting up label_data_1_split
I0322 17:33:02.451864 32639 net.cpp:131] Top shape: 128 1 (128)
I0322 17:33:02.451871 32639 net.cpp:131] Top shape: 128 1 (128)
I0322 17:33:02.451877 32639 net.cpp:139] Memory required for data: 77071872
I0322 17:33:02.451884 32639 layer_factory.hpp:77] Creating layer conv1/7x7_s2
I0322 17:33:02.451912 32639 net.cpp:86] Creating Layer conv1/7x7_s2
I0322 17:33:02.451921 32639 net.cpp:408] conv1/7x7_s2 <- data
I0322 17:33:02.451932 32639 net.cpp:382] conv1/7x7_s2 -> conv1/7x7_s2
I0322 17:33:02.452287 32639 net.cpp:124] Setting up conv1/7x7_s2
I0322 17:33:02.452304 32639 net.cpp:131] Top shape: 128 32 112 112 (51380224)
I0322 17:33:02.452311 32639 net.cpp:139] Memory required for data: 282592768
I0322 17:33:02.452328 32639 layer_factory.hpp:77] Creating layer conv1/relu_7x7
I0322 17:33:02.452339 32639 net.cpp:86] Creating Layer conv1/relu_7x7
I0322 17:33:02.452380 32639 net.cpp:408] conv1/relu_7x7 <- conv1/7x7_s2
I0322 17:33:02.452391 32639 net.cpp:369] conv1/relu_7x7 -> conv1/7x7_s2 (in-place)
I0322 17:33:02.452402 32639 net.cpp:124] Setting up conv1/relu_7x7
I0322 17:33:02.452411 32639 net.cpp:131] Top shape: 128 32 112 112 (51380224)
I0322 17:33:02.452416 32639 net.cpp:139] Memory required for data: 488113664
I0322 17:33:02.452422 32639 layer_factory.hpp:77] Creating layer pool1/3x3_s2
I0322 17:33:02.452435 32639 net.cpp:86] Creating Layer pool1/3x3_s2
I0322 17:33:02.452440 32639 net.cpp:408] pool1/3x3_s2 <- conv1/7x7_s2
I0322 17:33:02.452450 32639 net.cpp:382] pool1/3x3_s2 -> pool1/3x3_s2
I0322 17:33:02.452500 32639 net.cpp:124] Setting up pool1/3x3_s2
I0322 17:33:02.452514 32639 net.cpp:131] Top shape: 128 32 56 56 (12845056)
I0322 17:33:02.452520 32639 net.cpp:139] Memory required for data: 539493888
I0322 17:33:02.452527 32639 layer_factory.hpp:77] Creating layer pool1/norm1
I0322 17:33:02.452538 32639 net.cpp:86] Creating Layer pool1/norm1
I0322 17:33:02.452545 32639 net.cpp:408] pool1/norm1 <- pool1/3x3_s2
I0322 17:33:02.452554 32639 net.cpp:382] pool1/norm1 -> pool1/norm1
I0322 17:33:02.452605 32639 net.cpp:124] Setting up pool1/norm1
I0322 17:33:02.452617 32639 net.cpp:131] Top shape: 128 32 56 56 (12845056)
I0322 17:33:02.452623 32639 net.cpp:139] Memory required for data: 590874112
I0322 17:33:02.452630 32639 layer_factory.hpp:77] Creating layer conv2/3x3_reduce
I0322 17:33:02.452642 32639 net.cpp:86] Creating Layer conv2/3x3_reduce
I0322 17:33:02.452648 32639 net.cpp:408] conv2/3x3_reduce <- pool1/norm1
I0322 17:33:02.452658 32639 net.cpp:382] conv2/3x3_reduce -> conv2/3x3_reduce
I0322 17:33:02.452941 32639 net.cpp:124] Setting up conv2/3x3_reduce
I0322 17:33:02.452960 32639 net.cpp:131] Top shape: 128 32 56 56 (12845056)
I0322 17:33:02.452966 32639 net.cpp:139] Memory required for data: 642254336
I0322 17:33:02.452978 32639 layer_factory.hpp:77] Creating layer conv2/relu_3x3_reduce
I0322 17:33:02.452991 32639 net.cpp:86] Creating Layer conv2/relu_3x3_reduce
I0322 17:33:02.452997 32639 net.cpp:408] conv2/relu_3x3_reduce <- conv2/3x3_reduce
I0322 17:33:02.453006 32639 net.cpp:369] conv2/relu_3x3_reduce -> conv2/3x3_reduce (in-place)
I0322 17:33:02.453017 32639 net.cpp:124] Setting up conv2/relu_3x3_reduce
I0322 17:33:02.453027 32639 net.cpp:131] Top shape: 128 32 56 56 (12845056)
I0322 17:33:02.453033 32639 net.cpp:139] Memory required for data: 693634560
I0322 17:33:02.453039 32639 layer_factory.hpp:77] Creating layer conv2/3x3
I0322 17:33:02.453053 32639 net.cpp:86] Creating Layer conv2/3x3
I0322 17:33:02.453063 32639 net.cpp:408] conv2/3x3 <- conv2/3x3_reduce
I0322 17:33:02.453073 32639 net.cpp:382] conv2/3x3 -> conv2/3x3
I0322 17:33:02.453583 32639 net.cpp:124] Setting up conv2/3x3
I0322 17:33:02.453599 32639 net.cpp:131] Top shape: 128 96 56 56 (38535168)
I0322 17:33:02.453606 32639 net.cpp:139] Memory required for data: 847775232
I0322 17:33:02.453619 32639 layer_factory.hpp:77] Creating layer conv2/relu_3x3
I0322 17:33:02.453630 32639 net.cpp:86] Creating Layer conv2/relu_3x3
I0322 17:33:02.453636 32639 net.cpp:408] conv2/relu_3x3 <- conv2/3x3
I0322 17:33:02.453644 32639 net.cpp:369] conv2/relu_3x3 -> conv2/3x3 (in-place)
I0322 17:33:02.453655 32639 net.cpp:124] Setting up conv2/relu_3x3
I0322 17:33:02.453665 32639 net.cpp:131] Top shape: 128 96 56 56 (38535168)
I0322 17:33:02.453670 32639 net.cpp:139] Memory required for data: 1001915904
I0322 17:33:02.453675 32639 layer_factory.hpp:77] Creating layer conv2/norm2
I0322 17:33:02.453685 32639 net.cpp:86] Creating Layer conv2/norm2
I0322 17:33:02.453689 32639 net.cpp:408] conv2/norm2 <- conv2/3x3
I0322 17:33:02.453712 32639 net.cpp:382] conv2/norm2 -> conv2/norm2
I0322 17:33:02.453761 32639 net.cpp:124] Setting up conv2/norm2
I0322 17:33:02.453775 32639 net.cpp:131] Top shape: 128 96 56 56 (38535168)
I0322 17:33:02.453781 32639 net.cpp:139] Memory required for data: 1156056576
I0322 17:33:02.453788 32639 layer_factory.hpp:77] Creating layer pool2/3x3_s2
I0322 17:33:02.453797 32639 net.cpp:86] Creating Layer pool2/3x3_s2
I0322 17:33:02.453824 32639 net.cpp:408] pool2/3x3_s2 <- conv2/norm2
I0322 17:33:02.453836 32639 net.cpp:382] pool2/3x3_s2 -> pool2/3x3_s2
I0322 17:33:02.453886 32639 net.cpp:124] Setting up pool2/3x3_s2
I0322 17:33:02.453899 32639 net.cpp:131] Top shape: 128 96 28 28 (9633792)
I0322 17:33:02.453905 32639 net.cpp:139] Memory required for data: 1194591744
I0322 17:33:02.453912 32639 layer_factory.hpp:77] Creating layer pool2/3x3_s2_pool2/3x3_s2_0_split
I0322 17:33:02.453930 32639 net.cpp:86] Creating Layer pool2/3x3_s2_pool2/3x3_s2_0_split
I0322 17:33:02.453939 32639 net.cpp:408] pool2/3x3_s2_pool2/3x3_s2_0_split <- pool2/3x3_s2
I0322 17:33:02.453948 32639 net.cpp:382] pool2/3x3_s2_pool2/3x3_s2_0_split -> pool2/3x3_s2_pool2/3x3_s2_0_split_0
I0322 17:33:02.453958 32639 net.cpp:382] pool2/3x3_s2_pool2/3x3_s2_0_split -> pool2/3x3_s2_pool2/3x3_s2_0_split_1
I0322 17:33:02.453970 32639 net.cpp:382] pool2/3x3_s2_pool2/3x3_s2_0_split -> pool2/3x3_s2_pool2/3x3_s2_0_split_2
I0322 17:33:02.453982 32639 net.cpp:382] pool2/3x3_s2_pool2/3x3_s2_0_split -> pool2/3x3_s2_pool2/3x3_s2_0_split_3
I0322 17:33:02.454051 32639 net.cpp:124] Setting up pool2/3x3_s2_pool2/3x3_s2_0_split
I0322 17:33:02.454064 32639 net.cpp:131] Top shape: 128 96 28 28 (9633792)
I0322 17:33:02.454072 32639 net.cpp:131] Top shape: 128 96 28 28 (9633792)
I0322 17:33:02.454078 32639 net.cpp:131] Top shape: 128 96 28 28 (9633792)
I0322 17:33:02.454085 32639 net.cpp:131] Top shape: 128 96 28 28 (9633792)
I0322 17:33:02.454092 32639 net.cpp:139] Memory required for data: 1348732416
I0322 17:33:02.454097 32639 layer_factory.hpp:77] Creating layer inception_3a/1x1
I0322 17:33:02.454109 32639 net.cpp:86] Creating Layer inception_3a/1x1
I0322 17:33:02.454118 32639 net.cpp:408] inception_3a/1x1 <- pool2/3x3_s2_pool2/3x3_s2_0_split_0
I0322 17:33:02.454128 32639 net.cpp:382] inception_3a/1x1 -> inception_3a/1x1
I0322 17:33:02.454412 32639 net.cpp:124] Setting up inception_3a/1x1
I0322 17:33:02.454432 32639 net.cpp:131] Top shape: 128 32 28 28 (3211264)
I0322 17:33:02.454440 32639 net.cpp:139] Memory required for data: 1361577472
I0322 17:33:02.454450 32639 layer_factory.hpp:77] Creating layer inception_3a/relu_1x1
I0322 17:33:02.454459 32639 net.cpp:86] Creating Layer inception_3a/relu_1x1
I0322 17:33:02.454468 32639 net.cpp:408] inception_3a/relu_1x1 <- inception_3a/1x1
I0322 17:33:02.454475 32639 net.cpp:369] inception_3a/relu_1x1 -> inception_3a/1x1 (in-place)
I0322 17:33:02.454485 32639 net.cpp:124] Setting up inception_3a/relu_1x1
I0322 17:33:02.454493 32639 net.cpp:131] Top shape: 128 32 28 28 (3211264)
I0322 17:33:02.454499 32639 net.cpp:139] Memory required for data: 1374422528
I0322 17:33:02.454504 32639 layer_factory.hpp:77] Creating layer inception_3a/3x3_reduce
I0322 17:33:02.454517 32639 net.cpp:86] Creating Layer inception_3a/3x3_reduce
I0322 17:33:02.454526 32639 net.cpp:408] inception_3a/3x3_reduce <- pool2/3x3_s2_pool2/3x3_s2_0_split_1
I0322 17:33:02.454538 32639 net.cpp:382] inception_3a/3x3_reduce -> inception_3a/3x3_reduce
I0322 17:33:02.454854 32639 net.cpp:124] Setting up inception_3a/3x3_reduce
I0322 17:33:02.454871 32639 net.cpp:131] Top shape: 128 48 28 28 (4816896)
I0322 17:33:02.454876 32639 net.cpp:139] Memory required for data: 1393690112
I0322 17:33:02.454893 32639 layer_factory.hpp:77] Creating layer inception_3a/relu_3x3_reduce
I0322 17:33:02.454910 32639 net.cpp:86] Creating Layer inception_3a/relu_3x3_reduce
I0322 17:33:02.454919 32639 net.cpp:408] inception_3a/relu_3x3_reduce <- inception_3a/3x3_reduce
I0322 17:33:02.454928 32639 net.cpp:369] inception_3a/relu_3x3_reduce -> inception_3a/3x3_reduce (in-place)
I0322 17:33:02.454938 32639 net.cpp:124] Setting up inception_3a/relu_3x3_reduce
I0322 17:33:02.454947 32639 net.cpp:131] Top shape: 128 48 28 28 (4816896)
I0322 17:33:02.454953 32639 net.cpp:139] Memory required for data: 1412957696
I0322 17:33:02.454958 32639 layer_factory.hpp:77] Creating layer inception_3a/3x3
I0322 17:33:02.454970 32639 net.cpp:86] Creating Layer inception_3a/3x3
I0322 17:33:02.454977 32639 net.cpp:408] inception_3a/3x3 <- inception_3a/3x3_reduce
I0322 17:33:02.455008 32639 net.cpp:382] inception_3a/3x3 -> inception_3a/3x3
I0322 17:33:02.455523 32639 net.cpp:124] Setting up inception_3a/3x3
I0322 17:33:02.455539 32639 net.cpp:131] Top shape: 128 64 28 28 (6422528)
I0322 17:33:02.455545 32639 net.cpp:139] Memory required for data: 1438647808
I0322 17:33:02.455554 32639 layer_factory.hpp:77] Creating layer inception_3a/relu_3x3
I0322 17:33:02.455564 32639 net.cpp:86] Creating Layer inception_3a/relu_3x3
I0322 17:33:02.455569 32639 net.cpp:408] inception_3a/relu_3x3 <- inception_3a/3x3
I0322 17:33:02.455577 32639 net.cpp:369] inception_3a/relu_3x3 -> inception_3a/3x3 (in-place)
I0322 17:33:02.455586 32639 net.cpp:124] Setting up inception_3a/relu_3x3
I0322 17:33:02.455596 32639 net.cpp:131] Top shape: 128 64 28 28 (6422528)
I0322 17:33:02.455602 32639 net.cpp:139] Memory required for data: 1464337920
I0322 17:33:02.455607 32639 layer_factory.hpp:77] Creating layer inception_3a/5x5_reduce
I0322 17:33:02.455621 32639 net.cpp:86] Creating Layer inception_3a/5x5_reduce
I0322 17:33:02.455631 32639 net.cpp:408] inception_3a/5x5_reduce <- pool2/3x3_s2_pool2/3x3_s2_0_split_2
I0322 17:33:02.455643 32639 net.cpp:382] inception_3a/5x5_reduce -> inception_3a/5x5_reduce
I0322 17:33:02.455927 32639 net.cpp:124] Setting up inception_3a/5x5_reduce
I0322 17:33:02.455943 32639 net.cpp:131] Top shape: 128 8 28 28 (802816)
I0322 17:33:02.455950 32639 net.cpp:139] Memory required for data: 1467549184
I0322 17:33:02.455958 32639 layer_factory.hpp:77] Creating layer inception_3a/relu_5x5_reduce
I0322 17:33:02.455967 32639 net.cpp:86] Creating Layer inception_3a/relu_5x5_reduce
I0322 17:33:02.455976 32639 net.cpp:408] inception_3a/relu_5x5_reduce <- inception_3a/5x5_reduce
I0322 17:33:02.455984 32639 net.cpp:369] inception_3a/relu_5x5_reduce -> inception_3a/5x5_reduce (in-place)
I0322 17:33:02.455998 32639 net.cpp:124] Setting up inception_3a/relu_5x5_reduce
I0322 17:33:02.456007 32639 net.cpp:131] Top shape: 128 8 28 28 (802816)
…
I0322 17:33:02.464486 32639 net.cpp:131] Top shape: 128 104 14 14 (2609152)
I0322 17:33:02.464493 32639 net.cpp:139] Memory required for data: 2356266496
I0322 17:33:02.464501 32639 layer_factory.hpp:77] Creating layer inception_4a/relu_3x3
I0322 17:33:02.464514 32639 net.cpp:86] Creating Layer inception_4a/relu_3x3
I0322 17:33:02.464524 32639 net.cpp:408] inception_4a/relu_3x3 <- inception_4a/3x3
I0322 17:33:02.464531 32639 net.cpp:369] inception_4a/relu_3x3 -> inception_4a/3x3 (in-place)
I0322 17:33:02.464541 32639 net.cpp:124] Setting up inception_4a/relu_3x3
I0322 17:33:02.464565 32639 net.cpp:131] Top shape: 128 104 14 14 (2609152)
I0322 17:33:02.464571 32639 net.cpp:139] Memory required for data: 2366703104
I0322 17:33:02.464577 32639 layer_factory.hpp:77] Creating layer inception_4a/5x5_reduce
I0322 17:33:02.464592 32639 net.cpp:86] Creating Layer inception_4a/5x5_reduce
I0322 17:33:02.464601 32639 net.cpp:408] inception_4a/5x5_reduce <- pool3/3x3_s2_pool3/3x3_s2_0_split_2
I0322 17:33:02.464612 32639 net.cpp:382] inception_4a/5x5_reduce -> inception_4a/5x5_reduce
I0322 17:33:02.464900 32639 net.cpp:124] Setting up inception_4a/5x5_reduce
I0322 17:33:02.464917 32639 net.cpp:131] Top shape: 128 8 14 14 (200704)
I0322 17:33:02.464923 32639 net.cpp:139] Memory required for data: 2367505920
I0322 17:33:02.464932 32639 layer_factory.hpp:77] Creating layer inception_4a/relu_5x5_reduce
I0322 17:33:02.464943 32639 net.cpp:86] Creating Layer inception_4a/relu_5x5_reduce
I0322 17:33:02.464952 32639 net.cpp:408] inception_4a/relu_5x5_reduce <- inception_4a/5x5_reduce
I0322 17:33:02.464960 32639 net.cpp:369] inception_4a/relu_5x5_reduce -> inception_4a/5x5_reduce (in-place)
I0322 17:33:02.464970 32639 net.cpp:124] Setting up inception_4a/relu_5x5_reduce
I0322 17:33:02.464980 32639 net.cpp:131] Top shape: 128 8 14 14 (200704)
I0322 17:33:02.464987 32639 net.cpp:139] Memory required for data: 2368308736
I0322 17:33:02.464992 32639 layer_factory.hpp:77] Creating layer inception_4a/5x5
I0322 17:33:02.465005 32639 net.cpp:86] Creating Layer inception_4a/5x5
I0322 17:33:02.465014 32639 net.cpp:408] inception_4a/5x5 <- inception_4a/5x5_reduce
I0322 17:33:02.465023 32639 net.cpp:382] inception_4a/5x5 -> inception_4a/5x5
I0322 17:33:02.465333 32639 net.cpp:124] Setting up inception_4a/5x5
I0322 17:33:02.465349 32639 net.cpp:131] Top shape: 128 24 14 14 (602112)
I0322 17:33:02.465355 32639 net.cpp:139] Memory required for data: 2370717184
I0322 17:33:02.465364 32639 layer_factory.hpp:77] Creating layer inception_4a/relu_5x5
I0322 17:33:02.465373 32639 net.cpp:86] Creating Layer inception_4a/relu_5x5
I0322 17:33:02.465379 32639 net.cpp:408] inception_4a/relu_5x5 <- inception_4a/5x5
I0322 17:33:02.465390 32639 net.cpp:369] inception_4a/relu_5x5 -> inception_4a/5x5 (in-place)
I0322 17:33:02.465404 32639 net.cpp:124] Setting up inception_4a/relu_5x5
I0322 17:33:02.465411 32639 net.cpp:131] Top shape: 128 24 14 14 (602112)
I0322 17:33:02.465416 32639 net.cpp:139] Memory required for data: 2373125632
I0322 17:33:02.465422 32639 layer_factory.hpp:77] Creating layer inception_4a/pool
I0322 17:33:02.465431 32639 net.cpp:86] Creating Layer inception_4a/pool
I0322 17:33:02.465437 32639 net.cpp:408] inception_4a/pool <- pool3/3x3_s2_pool3/3x3_s2_0_split_3
I0322 17:33:02.465448 32639 net.cpp:382] inception_4a/pool -> inception_4a/pool
I0322 17:33:02.465502 32639 net.cpp:124] Setting up inception_4a/pool
I0322 17:33:02.465515 32639 net.cpp:131] Top shape: 128 240 14 14 (6021120)
I0322 17:33:02.465520 32639 net.cpp:139] Memory required for data: 2397210112
I0322 17:33:02.465526 32639 layer_factory.hpp:77] Creating layer inception_4a/pool_proj
I0322 17:33:02.465541 32639 net.cpp:86] Creating Layer inception_4a/pool_proj
I0322 17:33:02.465550 32639 net.cpp:408] inception_4a/pool_proj <- inception_4a/pool
I0322 17:33:02.465562 32639 net.cpp:382] inception_4a/pool_proj -> inception_4a/pool_proj
I0322 17:33:02.465911 32639 net.cpp:124] Setting up inception_4a/pool_proj
I0322 17:33:02.465929 32639 net.cpp:131] Top shape: 128 32 14 14 (802816)
I0322 17:33:02.465934 32639 net.cpp:139] Memory required for data: 2400421376
I0322 17:33:02.465944 32639 layer_factory.hpp:77] Creating layer inception_4a/relu_pool_proj
I0322 17:33:02.465951 32639 net.cpp:86] Creating Layer inception_4a/relu_pool_proj
I0322 17:33:02.465958 32639 net.cpp:408] inception_4a/relu_pool_proj <- inception_4a/pool_proj
I0322 17:33:02.465970 32639 net.cpp:369] inception_4a/relu_pool_proj -> inception_4a/pool_proj (in-place)
I0322 17:33:02.465982 32639 net.cpp:124] Setting up inception_4a/relu_pool_proj
I0322 17:33:02.465991 32639 net.cpp:131] Top shape: 128 32 14 14 (802816)
I0322 17:33:02.466012 32639 net.cpp:139] Memory required for data: 2403632640
I0322 17:33:02.466019 32639 layer_factory.hpp:77] Creating layer inception_4a/output
I0322 17:33:02.466029 32639 net.cpp:86] Creating Layer inception_4a/output
I0322 17:33:02.466035 32639 net.cpp:408] inception_4a/output <- inception_4a/1x1
I0322 17:33:02.466043 32639 net.cpp:408] inception_4a/output <- inception_4a/3x3
I0322 17:33:02.466050 32639 net.cpp:408] inception_4a/output <- inception_4a/5x5
I0322 17:33:02.466058 32639 net.cpp:408] inception_4a/output <- inception_4a/pool_proj
I0322 17:33:02.466065 32639 net.cpp:382] inception_4a/output -> inception_4a/output
I0322 17:33:02.466104 32639 net.cpp:124] Setting up inception_4a/output
I0322 17:33:02.466117 32639 net.cpp:131] Top shape: 128 256 14 14 (6422528)
I0322 17:33:02.466123 32639 net.cpp:139] Memory required for data: 2429322752
I0322 17:33:02.466130 32639 layer_factory.hpp:77] Creating layer inception_4a/output_inception_4a/output_0_split
I0322 17:33:02.466138 32639 net.cpp:86] Creating Layer inception_4a/output_inception_4a/output_0_split
I0322 17:33:02.466145 32639 net.cpp:408] inception_4a/output_inception_4a/output_0_split <- inception_4a/output
I0322 17:33:02.466156 32639 net.cpp:382] inception_4a/output_inception_4a/output_0_split -> inception_4a/output_inception_4a/output_0_split_0
I0322 17:33:02.466168 32639 net.cpp:382] inception_4a/output_inception_4a/output_0_split -> inception_4a/output_inception_4a/output_0_split_1
I0322 17:33:02.466181 32639 net.cpp:382] inception_4a/output_inception_4a/output_0_split -> inception_4a/output_inception_4a/output_0_split_2
I0322 17:33:02.466190 32639 net.cpp:382] inception_4a/output_inception_4a/output_0_split -> inception_4a/output_inception_4a/output_0_split_3
I0322 17:33:02.466264 32639 net.cpp:124] Setting up inception_4a/output_inception_4a/output_0_split
I0322 17:33:02.466279 32639 net.cpp:131] Top shape: 128 256 14 14 (6422528)
I0322 17:33:02.466285 32639 net.cpp:131] Top shape: 128 256 14 14 (6422528)
I0322 17:33:02.466292 32639 net.cpp:131] Top shape: 128 256 14 14 (6422528)
I0322 17:33:02.466300 32639 net.cpp:131] Top shape: 128 256 14 14 (6422528)
I0322 17:33:02.466305 32639 net.cpp:139] Memory required for data: 2532083200
I0322 17:33:02.466310 32639 layer_factory.hpp:77] Creating layer inception_4b/1x1
I0322 17:33:02.466326 32639 net.cpp:86] Creating Layer inception_4b/1x1
I0322 17:33:02.466336 32639 net.cpp:408] inception_4b/1x1 <- inception_4a/output_inception_4a/output_0_split_0
I0322 17:33:02.466346 32639 net.cpp:382] inception_4b/1x1 -> inception_4b/1x1
I0322 17:33:02.466778 32639 net.cpp:124] Setting up inception_4b/1x1
I0322 17:33:02.466794 32639 net.cpp:131] Top shape: 128 80 14 14 (2007040)
I0322 17:33:02.466799 32639 net.cpp:139] Memory required for data: 2540111360
I0322 17:33:02.466809 32639 layer_factory.hpp:77] Creating layer inception_4b/relu_1x1
I0322 17:33:02.466816 32639 net.cpp:86] Creating Layer inception_4b/relu_1x1
I0322 17:33:02.466825 32639 net.cpp:408] inception_4b/relu_1x1 <- inception_4b/1x1
I0322 17:33:02.466836 32639 net.cpp:369] inception_4b/relu_1x1 -> inception_4b/1x1 (in-place)
I0322 17:33:02.466848 32639 net.cpp:124] Setting up inception_4b/relu_1x1
I0322 17:33:02.466856 32639 net.cpp:131] Top shape: 128 80 14 14 (2007040)
I0322 17:33:02.466862 32639 net.cpp:139] Memory required for data: 2548139520
I0322 17:33:02.466867 32639 layer_factory.hpp:77] Creating layer inception_4b/3x3_reduce
I0322 17:33:02.466878 32639 net.cpp:86] Creating Layer inception_4b/3x3_reduce
I0322 17:33:02.466884 32639 net.cpp:408] inception_4b/3x3_reduce <- inception_4a/output_inception_4a/output_0_split_1
I0322 17:33:02.466897 32639 net.cpp:382] inception_4b/3x3_reduce -> inception_4b/3x3_reduce
I0322 17:33:02.467300 32639 net.cpp:124] Setting up inception_4b/3x3_reduce
I0322 17:33:02.467317 32639 net.cpp:131] Top shape: 128 56 14 14 (1404928)
I0322 17:33:02.467324 32639 net.cpp:139] Memory required for data: 2553759232
I0322 17:33:02.467332 32639 layer_factory.hpp:77] Creating layer inception_4b/relu_3x3_reduce
I0322 17:33:02.467356 32639 net.cpp:86] Creating Layer inception_4b/relu_3x3_reduce
I0322 17:33:02.467365 32639 net.cpp:408] inception_4b/relu_3x3_reduce <- inception_4b/3x3_reduce
I0322 17:33:02.467373 32639 net.cpp:369] inception_4b/relu_3x3_reduce -> inception_4b/3x3_reduce (in-place)
I0322 17:33:02.467386 32639 net.cpp:124] Setting up inception_4b/relu_3x3_reduce
I0322 17:33:02.467393 32639 net.cpp:131] Top shape: 128 56 14 14 (1404928)
I0322 17:33:02.467401 32639 net.cpp:139] Memory required for data: 2559378944
I0322 17:33:02.467407 32639 layer_factory.hpp:77] Creating layer inception_4b/3x3
I0322 17:33:02.467423 32639 net.cpp:86] Creating Layer inception_4b/3x3
I0322 17:33:02.467432 32639 net.cpp:408] inception_4b/3x3 <- inception_4b/3x3_reduce
I0322 17:33:02.467442 32639 net.cpp:382] inception_4b/3x3 -> inception_4b/3x3
I0322 17:33:02.468209 32639 net.cpp:124] Setting up inception_4b/3x3
I0322 17:33:02.468226 32639 net.cpp:131] Top shape: 128 112 14 14 (2809856)
I0322 17:33:02.468232 32639 net.cpp:139] Memory required for data: 2570618368
I0322 17:33:02.468241 32639 layer_factory.hpp:77] Creating layer inception_4b/relu_3x3
I0322 17:33:02.468262 32639 net.cpp:86] Creating Layer inception_4b/relu_3x3
I0322 17:33:02.468272 32639 net.cpp:408] inception_4b/relu_3x3 <- inception_4b/3x3
I0322 17:33:02.468281 32639 net.cpp:369] inception_4b/relu_3x3 -> inception_4b/3x3 (in-place)
I0322 17:33:02.468291 32639 net.cpp:124] Setting up inception_4b/relu_3x3
I0322 17:33:02.468299 32639 net.cpp:131] Top shape: 128 112 14 14 (2809856)
I0322 17:33:02.468305 32639 net.cpp:139] Memory required for data: 2581857792
I0322 17:33:02.468312 32639 layer_factory.hpp:77] Creating layer inception_4b/5x5_reduce
I0322 17:33:02.468325 32639 net.cpp:86] Creating Layer inception_4b/5x5_reduce
I0322 17:33:02.468334 32639 net.cpp:408] inception_4b/5x5_reduce <- inception_4a/output_inception_4a/output_0_split_2
I0322 17:33:02.468346 32639 net.cpp:382] inception_4b/5x5_reduce -> inception_4b/5x5_reduce
I0322 17:33:02.468647 32639 net.cpp:124] Setting up inception_4b/5x5_reduce
I0322 17:33:02.468662 32639 net.cpp:131] Top shape: 128 12 14 14 (301056)
I0322 17:33:02.468668 32639 net.cpp:139] Memory required for data: 2583062016
I0322 17:33:02.468677 32639 layer_factory.hpp:77] Creating layer inception_4b/relu_5x5_reduce
I0322 17:33:02.468688 32639 net.cpp:86] Creating Layer inception_4b/relu_5x5_reduce
I0322 17:33:02.468698 32639 net.cpp:408] inception_4b/relu_5x5_reduce <- inception_4b/5x5_reduce
I0322 17:33:02.468706 32639 net.cpp:369] inception_4b/relu_5x5_reduce -> inception_4b/5x5_reduce (in-place)
I0322 17:33:02.468715 32639 net.cpp:124] Setting up inception_4b/relu_5x5_reduce
I0322 17:33:02.468726 32639 net.cpp:131] Top shape: 128 12 14 14 (301056)
I0322 17:33:02.468731 32639 net.cpp:139] Memory required for data: 2584266240
I0322 17:33:02.468737 32639 layer_factory.hpp:77] Creating layer inception_4b/5x5
I0322 17:33:02.468751 32639 net.cpp:86] Creating Layer inception_4b/5x5
I0322 17:33:02.468760 32639 net.cpp:408] inception_4b/5x5 <- inception_4b/5x5_reduce
I0322 17:33:02.468771 32639 net.cpp:382] inception_4b/5x5 -> inception_4b/5x5
I0322 17:33:02.469132 32639 net.cpp:124] Setting up inception_4b/5x5
I0322 17:33:02.469148 32639 net.cpp:131] Top shape: 128 32 14 14 (802816)
I0322 17:33:02.469154 32639 net.cpp:139] Memory required for data: 2587477504
I0322 17:33:02.469163 32639 layer_factory.hpp:77] Creating layer inception_4b/relu_5x5
I0322 17:33:02.469172 32639 net.cpp:86] Creating Layer inception_4b/relu_5x5
I0322 17:33:02.469182 32639 net.cpp:408] inception_4b/relu_5x5 <- inception_4b/5x5
I0322 17:33:02.469190 32639 net.cpp:369] inception_4b/relu_5x5 -> inception_4b/5x5 (in-place)
I0322 17:33:02.469199 32639 net.cpp:124] Setting up inception_4b/relu_5x5
I0322 17:33:02.469209 32639 net.cpp:131] Top shape: 128 32 14 14 (802816)
I0322 17:33:02.469215 32639 net.cpp:139] Memory required for data: 2590688768
I0322 17:33:02.469220 32639 layer_factory.hpp:77] Creating layer inception_4b/pool
I0322 17:33:02.469230 32639 net.cpp:86] Creating Layer inception_4b/pool
I0322 17:33:02.469252 32639 net.cpp:408] inception_4b/pool <- inception_4a/output_inception_4a/output_0_split_3
I0322 17:33:02.469265 32639 net.cpp:382] inception_4b/pool -> inception_4b/pool
I0322 17:33:02.469322 32639 net.cpp:124] Setting up inception_4b/pool
I0322 17:33:02.469336 32639 net.cpp:131] Top shape: 128 256 14 14 (6422528)
I0322 17:33:02.469342 32639 net.cpp:139] Memory required for data: 2616378880
I0322 17:33:02.469347 32639 layer_factory.hpp:77] Creating layer inception_4b/pool_proj
I0322 17:33:02.469364 32639 net.cpp:86] Creating Layer inception_4b/pool_proj
I0322 17:33:02.469373 32639 net.cpp:408] inception_4b/pool_proj <- inception_4b/pool
I0322 17:33:02.469383 32639 net.cpp:382] inception_4b/pool_proj -> inception_4b/pool_proj
I0322 17:33:02.469729 32639 net.cpp:124] Setting up inception_4b/pool_proj
I0322 17:33:02.469746 32639 net.cpp:131] Top shape: 128 32 14 14 (802816)
I0322 17:33:02.469753 32639 net.cpp:139] Memory required for data: 2619590144
I0322 17:33:02.469761 32639 layer_factory.hpp:77] Creating layer inception_4b/relu_pool_proj
I0322 17:33:02.469770 32639 net.cpp:86] Creating Layer inception_4b/relu_pool_proj
I0322 17:33:02.469776 32639 net.cpp:408] inception_4b/relu_pool_proj <- inception_4b/pool_proj
I0322 17:33:02.469787 32639 net.cpp:369] inception_4b/relu_pool_proj -> inception_4b/pool_proj (in-place)
I0322 17:33:02.469799 32639 net.cpp:124] Setting up inception_4b/relu_pool_proj
I0322 17:33:02.469807 32639 net.cpp:131] Top shape: 128 32 14 14 (802816)
I0322 17:33:02.469813 32639 net.cpp:139] Memory required for data: 2622801408
I0322 17:33:02.469818 32639 layer_factory.hpp:77] Creating layer inception_4b/output
I0322 17:33:02.469827 32639 net.cpp:86] Creating Layer inception_4b/output
I0322 17:33:02.469833 32639 net.cpp:408] inception_4b/output <- inception_4b/1x1
I0322 17:33:02.469841 32639 net.cpp:408] inception_4b/output <- inception_4b/3x3
I0322 17:33:02.469847 32639 net.cpp:408] inception_4b/output <- inception_4b/5x5
I0322 17:33:02.469854 32639 net.cpp:408] inception_4b/output <- inception_4b/pool_proj
I0322 17:33:02.469862 32639 net.cpp:382] inception_4b/output -> inception_4b/output
I0322 17:33:02.469899 32639 net.cpp:124] Setting up inception_4b/output
I0322 17:33:02.469913 32639 net.cpp:131] Top shape: 128 256 14 14 (6422528)
I0322 17:33:02.469919 32639 net.cpp:139] Memory required for data: 2648491520
I0322 17:33:02.469924 32639 layer_factory.hpp:77] Creating layer inception_4b/output_inception_4b/output_0_split
I0322 17:33:02.469933 32639 net.cpp:86] Creating Layer inception_4b/output_inception_4b/output_0_split
I0322 17:33:02.469939 32639 net.cpp:408] inception_4b/output_inception_4b/output_0_split <- inception_4b/output
I0322 17:33:02.469949 32639 net.cpp:382] inception_4b/output_inception_4b/output_0_split -> inception_4b/output_inception_4b/output_0_split_0
I0322 17:33:02.469964 32639 net.cpp:382] inception_4b/output_inception_4b/output_0_split -> inception_4b/output_inception_4b/output_0_split_1
I0322 17:33:02.469975 32639 net.cpp:382] inception_4b/output_inception_4b/output_0_split -> inception_4b/output_inception_4b/output_0_split_2
I0322 17:33:02.469985 32639 net.cpp:382] inception_4b/output_inception_4b/output_0_split -> inception_4b/output_inception_4b/output_0_split_3
I0322 17:33:02.470057 32639 net.cpp:124] Setting up inception_4b/output_inception_4b/output_0_split
I0322 17:33:02.470074 32639 net.cpp:131] Top shape: 128 256 14 14 (6422528)
I0322 17:33:02.470082 32639 net.cpp:131] Top shape: 128 256 14 14 (6422528)
I0322 17:33:02.470088 32639 net.cpp:131] Top shape: 128 256 14 14 (6422528)
I0322 17:33:02.470095 32639 net.cpp:131] Top shape: 128 256 14 14 (6422528)
I0322 17:33:02.470100 32639 net.cpp:139] Memory required for data: 2751251968
I0322 17:33:02.470105 32639 layer_factory.hpp:77] Creating layer inception_4c/1x1
I0322 17:33:02.470120 32639 net.cpp:86] Creating Layer inception_4c/1x1
I0322 17:33:02.470129 32639 net.cpp:408] inception_4c/1x1 <- inception_4b/output_inception_4b/output_0_split_0
I0322 17:33:02.470155 32639 net.cpp:382] inception_4c/1x1 -> inception_4c/1x1
I0322 17:33:02.470574 32639 net.cpp:124] Setting up inception_4c/1x1
I0322 17:33:02.470592 32639 net.cpp:131] Top shape: 128 64 14 14 (1605632)
I0322 17:33:02.470598 32639 net.cpp:139] Memory required for data: 2757674496
I0322 17:33:02.470607 32639 layer_factory.hpp:77] Creating layer inception_4c/relu_1x1
I0322 17:33:02.470616 32639 net.cpp:86] Creating Layer inception_4c/relu_1x1
I0322 17:33:02.470625 32639 net.cpp:408] inception_4c/relu_1x1 <- inception_4c/1x1
I0322 17:33:02.470636 32639 net.cpp:369] inception_4c/relu_1x1 -> inception_4c/1x1 (in-place)
I0322 17:33:02.470649 32639 net.cpp:124] Setting up inception_4c/relu_1x1
I0322 17:33:02.470659 32639 net.cpp:131] Top shape: 128 64 14 14 (1605632)
I0322 17:33:02.470664 32639 net.cpp:139] Memory required for data: 2764097024
I0322 17:33:02.470669 32639 layer_factory.hpp:77] Creating layer inception_4c/3x3_reduce
I0322 17:33:02.470680 32639 net.cpp:86] Creating Layer inception_4c/3x3_reduce
I0322 17:33:02.470687 32639 net.cpp:408] inception_4c/3x3_reduce <- inception_4b/output_inception_4b/output_0_split_1
I0322 17:33:02.470700 32639 net.cpp:382] inception_4c/3x3_reduce -> inception_4c/3x3_reduce
I0322 17:33:02.471110 32639 net.cpp:124] Setting up inception_4c/3x3_reduce
I0322 17:33:02.471127 32639 net.cpp:131] Top shape: 128 64 14 14 (1605632)
I0322 17:33:02.471132 32639 net.cpp:139] Memory required for data: 2770519552
I0322 17:33:02.471141 32639 layer_factory.hpp:77] Creating layer inception_4c/relu_3x3_reduce
I0322 17:33:02.471149 32639 net.cpp:86] Creating Layer inception_4c/relu_3x3_reduce
I0322 17:33:02.471158 32639 net.cpp:408] inception_4c/relu_3x3_reduce <- inception_4c/3x3_reduce
I0322 17:33:02.471166 32639 net.cpp:369] inception_4c/relu_3x3_reduce -> inception_4c/3x3_reduce (in-place)
I0322 17:33:02.471176 32639 net.cpp:124] Setting up inception_4c/relu_3x3_reduce
I0322 17:33:02.471184 32639 net.cpp:131] Top shape: 128 64 14 14 (1605632)
I0322 17:33:02.471189 32639 net.cpp:139] Memory required for data: 2776942080
I0322 17:33:02.471194 32639 layer_factory.hpp:77] Creating layer inception_4c/3x3
I0322 17:33:02.471209 32639 net.cpp:86] Creating Layer inception_4c/3x3
I0322 17:33:02.471217 32639 net.cpp:408] inception_4c/3x3 <- inception_4c/3x3_reduce
I0322 17:33:02.471230 32639 net.cpp:382] inception_4c/3x3 -> inception_4c/3x3
I0322 17:33:02.472136 32639 net.cpp:124] Setting up inception_4c/3x3
I0322 17:33:02.472152 32639 net.cpp:131] Top shape: 128 128 14 14 (3211264)
I0322 17:33:02.472158 32639 net.cpp:139] Memory required for data: 2789787136
I0322 17:33:02.472167 32639 layer_factory.hpp:77] Creating layer inception_4c/relu_3x3
I0322 17:33:02.472179 32639 net.cpp:86] Creating Layer inception_4c/relu_3x3
I0322 17:33:02.472187 32639 net.cpp:408] inception_4c/relu_3x3 <- inception_4c/3x3
I0322 17:33:02.472194 32639 net.cpp:369] inception_4c/relu_3x3 -> inception_4c/3x3 (in-place)
I0322 17:33:02.472206 32639 net.cpp:124] Setting up inception_4c/relu_3x3
I0322 17:33:02.472214 32639 net.cpp:131] Top shape: 128 128 14 14 (3211264)
I0322 17:33:02.472219 32639 net.cpp:139] Memory required for data: 2802632192
I0322 17:33:02.472224 32639 layer_factory.hpp:77] Creating layer inception_4c/5x5_reduce
I0322 17:33:02.472239 32639 net.cpp:86] Creating Layer inception_4c/5x5_reduce
I0322 17:33:02.472247 32639 net.cpp:408] inception_4c/5x5_reduce <- inception_4b/output_inception_4b/output_0_split_2
I0322 17:33:02.472259 32639 net.cpp:382] inception_4c/5x5_reduce -> inception_4c/5x5_reduce
I0322 17:33:02.472565 32639 net.cpp:124] Setting up inception_4c/5x5_reduce
I0322 17:33:02.472581 32639 net.cpp:131] Top shape: 128 12 14 14 (301056)
I0322 17:33:02.472587 32639 net.cpp:139] Memory required for data: 2803836416
I0322 17:33:02.472596 32639 layer_factory.hpp:77] Creating layer inception_4c/relu_5x5_reduce
I0322 17:33:02.472605 32639 net.cpp:86] Creating Layer inception_4c/relu_5x5_reduce
I0322 17:33:02.472611 32639 net.cpp:408] inception_4c/relu_5x5_reduce <- inception_4c/5x5_reduce
I0322 17:33:02.472620 32639 net.cpp:369] inception_4c/relu_5x5_reduce -> inception_4c/5x5_reduce (in-place)
I0322 17:33:02.472647 32639 net.cpp:124] Setting up inception_4c/relu_5x5_reduce
I0322 17:33:02.472659 32639 net.cpp:131] Top shape: 128 12 14 14 (301056)
I0322 17:33:02.472666 32639 net.cpp:139] Memory required for data: 2805040640
I0322 17:33:02.472671 32639 layer_factory.hpp:77] Creating layer inception_4c/5x5
I0322 17:33:02.472685 32639 net.cpp:86] Creating Layer inception_4c/5x5
I0322 17:33:02.472694 32639 net.cpp:408] inception_4c/5x5 <- inception_4c/5x5_reduce
I0322 17:33:02.472707 32639 net.cpp:382] inception_4c/5x5 -> inception_4c/5x5
I0322 17:33:02.473065 32639 net.cpp:124] Setting up inception_4c/5x5
I0322 17:33:02.473081 32639 net.cpp:131] Top shape: 128 32 14 14 (802816)
I0322 17:33:02.473088 32639 net.cpp:139] Memory required for data: 2808251904
I0322 17:33:02.473096 32639 layer_factory.hpp:77] Creating layer inception_4c/relu_5x5
I0322 17:33:02.473107 32639 net.cpp:86] Creating Layer inception_4c/relu_5x5
I0322 17:33:02.473117 32639 net.cpp:408] inception_4c/relu_5x5 <- inception_4c/5x5
I0322 17:33:02.473125 32639 net.cpp:369] inception_4c/relu_5x5 -> inception_4c/5x5 (in-place)
I0322 17:33:02.473135 32639 net.cpp:124] Setting up inception_4c/relu_5x5
I0322 17:33:02.473142 32639 net.cpp:131] Top shape: 128 32 14 14 (802816)
I0322 17:33:02.473148 32639 net.cpp:139] Memory required for data: 2811463168
I0322 17:33:02.473153 32639 layer_factory.hpp:77] Creating layer inception_4c/pool
I0322 17:33:02.473162 32639 net.cpp:86] Creating Layer inception_4c/pool
I0322 17:33:02.473175 32639 net.cpp:408] inception_4c/pool <- inception_4b/output_inception_4b/output_0_split_3
I0322 17:33:02.473183 32639 net.cpp:382] inception_4c/pool -> inception_4c/pool
I0322 17:33:02.473235 32639 net.cpp:124] Setting up inception_4c/pool
I0322 17:33:02.473256 32639 net.cpp:131] Top shape: 128 256 14 14 (6422528)
I0322 17:33:02.473264 32639 net.cpp:139] Memory required for data: 2837153280
I0322 17:33:02.473270 32639 layer_factory.hpp:77] Creating layer inception_4c/pool_proj
I0322 17:33:02.473281 32639 net.cpp:86] Creating Layer inception_4c/pool_proj
I0322 17:33:02.473289 32639 net.cpp:408] inception_4c/pool_proj <- inception_4c/pool
I0322 17:33:02.473299 32639 net.cpp:382] inception_4c/pool_proj -> inception_4c/pool_proj
I0322 17:33:02.473634 32639 net.cpp:124] Setting up inception_4c/pool_proj
I0322 17:33:02.473650 32639 net.cpp:131] Top shape: 128 32 14 14 (802816)
I0322 17:33:02.473656 32639 net.cpp:139] Memory required for data: 2840364544
I0322 17:33:02.473685 32639 layer_factory.hpp:77] Creating layer inception_4c/relu_pool_proj
I0322 17:33:02.473704 32639 net.cpp:86] Creating Layer inception_4c/relu_pool_proj
I0322 17:33:02.473712 32639 net.cpp:408] inception_4c/relu_pool_proj <- inception_4c/pool_proj
I0322 17:33:02.473721 32639 net.cpp:369] inception_4c/relu_pool_proj -> inception_4c/pool_proj (in-place)
I0322 17:33:02.473731 32639 net.cpp:124] Setting up inception_4c/relu_pool_proj
I0322 17:33:02.473738 32639 net.cpp:131] Top shape: 128 32 14 14 (802816)
I0322 17:33:02.473743 32639 net.cpp:139] Memory required for data: 2843575808
I0322 17:33:02.473749 32639 layer_factory.hpp:77] Creating layer inception_4c/output
I0322 17:33:02.473758 32639 net.cpp:86] Creating Layer inception_4c/output
I0322 17:33:02.473764 32639 net.cpp:408] inception_4c/output <- inception_4c/1x1
I0322 17:33:02.473772 32639 net.cpp:408] inception_4c/output <- inception_4c/3x3
I0322 17:33:02.473778 32639 net.cpp:408] inception_4c/output <- inception_4c/5x5
I0322 17:33:02.473785 32639 net.cpp:408] inception_4c/output <- inception_4c/pool_proj
I0322 17:33:02.473798 32639 net.cpp:382] inception_4c/output -> inception_4c/output
I0322 17:33:02.473839 32639 net.cpp:124] Setting up inception_4c/output
I0322 17:33:02.473853 32639 net.cpp:131] Top shape: 128 256 14 14 (6422528)
I0322 17:33:02.473858 32639 net.cpp:139] Memory required for data: 2869265920
I0322 17:33:02.473865 32639 layer_factory.hpp:77] Creating layer inception_4c/output_inception_4c/output_0_split
I0322 17:33:02.473889 32639 net.cpp:86] Creating Layer inception_4c/output_inception_4c/output_0_split
I0322 17:33:02.473897 32639 net.cpp:408] inception_4c/output_inception_4c/output_0_split <- inception_4c/output
I0322 17:33:02.473906 32639 net.cpp:382] inception_4c/output_inception_4c/output_0_split -> inception_4c/output_inception_4c/output_0_split_0
I0322 17:33:02.473917 32639 net.cpp:382] inception_4c/output_inception_4c/output_0_split -> inception_4c/output_inception_4c/output_0_split_1
I0322 17:33:02.473929 32639 net.cpp:382] inception_4c/output_inception_4c/output_0_split -> inception_4c/output_inception_4c/output_0_split_2
I0322 17:33:02.473942 32639 net.cpp:382] inception_4c/output_inception_4c/output_0_split -> inception_4c/output_inception_4c/output_0_split_3
I0322 17:33:02.474016 32639 net.cpp:124] Setting up inception_4c/output_inception_4c/output_0_split
I0322 17:33:02.474030 32639 net.cpp:131] Top shape: 128 256 14 14 (6422528)
I0322 17:33:02.474037 32639 net.cpp:131] Top shape: 128 256 14 14 (6422528)
I0322 17:33:02.474045 32639 net.cpp:131] Top shape: 128 256 14 14 (6422528)
I0322 17:33:02.474050 32639 net.cpp:131] Top shape: 128 256 14 14 (6422528)
I0322 17:33:02.474056 32639 net.cpp:139] Memory required for data: 2972026368
I0322 17:33:02.474061 32639 layer_factory.hpp:77] Creating layer inception_4d/1x1
I0322 17:33:02.474076 32639 net.cpp:86] Creating Layer inception_4d/1x1
I0322 17:33:02.474084 32639 net.cpp:408] inception_4d/1x1 <- inception_4c/output_inception_4c/output_0_split_0
I0322 17:33:02.474098 32639 net.cpp:382] inception_4d/1x1 -> inception_4d/1x1
I0322 17:33:02.474488 32639 net.cpp:124] Setting up inception_4d/1x1
I0322 17:33:02.474504 32639 net.cpp:131] Top shape: 128 56 14 14 (1404928)
I0322 17:33:02.474510 32639 net.cpp:139] Memory required for data: 2977646080
I0322 17:33:02.474519 32639 layer_factory.hpp:77] Creating layer inception_4d/relu_1x1
I0322 17:33:02.474529 32639 net.cpp:86] Creating Layer inception_4d/relu_1x1
I0322 17:33:02.474536 32639 net.cpp:408] inception_4d/relu_1x1 <- inception_4d/1x1
I0322 17:33:02.474545 32639 net.cpp:369] inception_4d/relu_1x1 -> inception_4d/1x1 (in-place)
I0322 17:33:02.474553 32639 net.cpp:124] Setting up inception_4d/relu_1x1
I0322 17:33:02.474561 32639 net.cpp:131] Top shape: 128 56 14 14 (1404928)
I0322 17:33:02.474567 32639 net.cpp:139] Memory required for data: 2983265792
I0322 17:33:02.474572 32639 layer_factory.hpp:77] Creating layer inception_4d/3x3_reduce
I0322 17:33:02.474586 32639 net.cpp:86] Creating Layer inception_4d/3x3_reduce
I0322 17:33:02.474596 32639 net.cpp:408] inception_4d/3x3_reduce <- inception_4c/output_inception_4c/output_0_split_1
I0322 17:33:02.474607 32639 net.cpp:382] inception_4d/3x3_reduce -> inception_4d/3x3_reduce
I0322 17:33:02.475044 32639 net.cpp:124] Setting up inception_4d/3x3_reduce
I0322 17:33:02.475060 32639 net.cpp:131] Top shape: 128 72 14 14 (1806336)
I0322 17:33:02.475066 32639 net.cpp:139] Memory required for data: 2990491136
I0322 17:33:02.475075 32639 layer_factory.hpp:77] Creating layer inception_4d/relu_3x3_reduce
I0322 17:33:02.475083 32639 net.cpp:86] Creating Layer inception_4d/relu_3x3_reduce
I0322 17:33:02.475092 32639 net.cpp:408] inception_4d/relu_3x3_reduce <- inception_4d/3x3_reduce
I0322 17:33:02.475100 32639 net.cpp:369] inception_4d/relu_3x3_reduce -> inception_4d/3x3_reduce (in-place)
I0322 17:33:02.475111 32639 net.cpp:124] Setting up inception_4d/relu_3x3_reduce
I0322 17:33:02.475121 32639 net.cpp:131] Top shape: 128 72 14 14 (1806336)
I0322 17:33:02.475126 32639 net.cpp:139] Memory required for data: 2997716480
I0322 17:33:02.475131 32639 layer_factory.hpp:77] Creating layer inception_4d/3x3
I0322 17:33:02.475145 32639 net.cpp:86] Creating Layer inception_4d/3x3
I0322 17:33:02.475154 32639 net.cpp:408] inception_4d/3x3 <- inception_4d/3x3_reduce
I0322 17:33:02.475167 32639 net.cpp:382] inception_4d/3x3 -> inception_4d/3x3
I0322 17:33:02.476469 32639 net.cpp:124] Setting up inception_4d/3x3
I0322 17:33:02.476488 32639 net.cpp:131] Top shape: 128 144 14 14 (3612672)
I0322 17:33:02.476495 32639 net.cpp:139] Memory required for data: 3012167168
I0322 17:33:02.476521 32639 layer_factory.hpp:77] Creating layer inception_4d/relu_3x3
I0322 17:33:02.476537 32639 net.cpp:86] Creating Layer inception_4d/relu_3x3
I0322 17:33:02.476546 32639 net.cpp:408] inception_4d/relu_3x3 <- inception_4d/3x3
I0322 17:33:02.476553 32639 net.cpp:369] inception_4d/relu_3x3 -> inception_4d/3x3 (in-place)
I0322 17:33:02.476563 32639 net.cpp:124] Setting up inception_4d/relu_3x3
I0322 17:33:02.476573 32639 net.cpp:131] Top shape: 128 144 14 14 (3612672)
I0322 17:33:02.476579 32639 net.cpp:139] Memory required for data: 3026617856
I0322 17:33:02.476584 32639 layer_factory.hpp:77] Creating layer inception_4d/5x5_reduce
I0322 17:33:02.476599 32639 net.cpp:86] Creating Layer inception_4d/5x5_reduce
I0322 17:33:02.476608 32639 net.cpp:408] inception_4d/5x5_reduce <- inception_4c/output_inception_4c/output_0_split_2
I0322 17:33:02.476621 32639 net.cpp:382] inception_4d/5x5_reduce -> inception_4d/5x5_reduce
I0322 17:33:02.476936 32639 net.cpp:124] Setting up inception_4d/5x5_reduce
I0322 17:33:02.476954 32639 net.cpp:131] Top shape: 128 16 14 14 (401408)
I0322 17:33:02.476960 32639 net.cpp:139] Memory required for data: 3028223488
I0322 17:33:02.476969 32639 layer_factory.hpp:77] Creating layer inception_4d/relu_5x5_reduce
I0322 17:33:02.476979 32639 net.cpp:86] Creating Layer inception_4d/relu_5x5_reduce
I0322 17:33:02.476985 32639 net.cpp:408] inception_4d/relu_5x5_reduce <- inception_4d/5x5_reduce
I0322 17:33:02.476994 32639 net.cpp:369] inception_4d/relu_5x5_reduce -> inception_4d/5x5_reduce (in-place)
I0322 17:33:02.477005 32639 net.cpp:124] Setting up inception_4d/relu_5x5_reduce
I0322 17:33:02.477015 32639 net.cpp:131] Top shape: 128 16 14 14 (401408)
I0322 17:33:02.477021 32639 net.cpp:139] Memory required for data: 3029829120
I0322 17:33:02.477026 32639 layer_factory.hpp:77] Creating layer inception_4d/5x5
I0322 17:33:02.477041 32639 net.cpp:86] Creating Layer inception_4d/5x5
I0322 17:33:02.477048 32639 net.cpp:408] inception_4d/5x5 <- inception_4d/5x5_reduce
I0322 17:33:02.477061 32639 net.cpp:382] inception_4d/5x5 -> inception_4d/5x5
I0322 17:33:02.477450 32639 net.cpp:124] Setting up inception_4d/5x5
I0322 17:33:02.477468 32639 net.cpp:131] Top shape: 128 32 14 14 (802816)
I0322 17:33:02.477473 32639 net.cpp:139] Memory required for data: 3033040384
I0322 17:33:02.477483 32639 layer_factory.hpp:77] Creating layer inception_4d/relu_5x5
I0322 17:33:02.477494 32639 net.cpp:86] Creating Layer inception_4d/relu_5x5
I0322 17:33:02.477504 32639 net.cpp:408] inception_4d/relu_5x5 <- inception_4d/5x5
I0322 17:33:02.477511 32639 net.cpp:369] inception_4d/relu_5x5 -> inception_4d/5x5 (in-place)
I0322 17:33:02.477521 32639 net.cpp:124] Setting up inception_4d/relu_5x5
I0322 17:33:02.477529 32639 net.cpp:131] Top shape: 128 32 14 14 (802816)
I0322 17:33:02.477535 32639 net.cpp:139] Memory required for data: 3036251648
I0322 17:33:02.477540 32639 layer_factory.hpp:77] Creating layer inception_4d/pool
I0322 17:33:02.477552 32639 net.cpp:86] Creating Layer inception_4d/pool
I0322 17:33:02.477561 32639 net.cpp:408] inception_4d/pool <- inception_4c/output_inception_4c/output_0_split_3
I0322 17:33:02.477571 32639 net.cpp:382] inception_4d/pool -> inception_4d/pool
I0322 17:33:02.477623 32639 net.cpp:124] Setting up inception_4d/pool
I0322 17:33:02.477640 32639 net.cpp:131] Top shape: 128 256 14 14 (6422528)
I0322 17:33:02.477648 32639 net.cpp:139] Memory required for data: 3061941760
I0322 17:33:02.477654 32639 layer_factory.hpp:77] Creating layer inception_4d/pool_proj
I0322 17:33:02.477666 32639 net.cpp:86] Creating Layer inception_4d/pool_proj
I0322 17:33:02.477674 32639 net.cpp:408] inception_4d/pool_proj <- inception_4d/pool
I0322 17:33:02.477686 32639 net.cpp:382] inception_4d/pool_proj -> inception_4d/pool_proj
I0322 17:33:02.478044 32639 net.cpp:124] Setting up inception_4d/pool_proj
I0322 17:33:02.478062 32639 net.cpp:131] Top shape: 128 32 14 14 (802816)
I0322 17:33:02.478068 32639 net.cpp:139] Memory required for data: 3065153024
I0322 17:33:02.478094 32639 layer_factory.hpp:77] Creating layer inception_4d/relu_pool_proj
I0322 17:33:02.478104 32639 net.cpp:86] Creating Layer inception_4d/relu_pool_proj
I0322 17:33:02.478111 32639 net.cpp:408] inception_4d/relu_pool_proj <- inception_4d/pool_proj
I0322 17:33:02.478119 32639 net.cpp:369] inception_4d/relu_pool_proj -> inception_4d/pool_proj (in-place)
I0322 17:33:02.478129 32639 net.cpp:124] Setting up inception_4d/relu_pool_proj
I0322 17:33:02.478137 32639 net.cpp:131] Top shape: 128 32 14 14 (802816)
I0322 17:33:02.478142 32639 net.cpp:139] Memory required for data: 3068364288
I0322 17:33:02.478148 32639 layer_factory.hpp:77] Creating layer inception_4d/output
I0322 17:33:02.478163 32639 net.cpp:86] Creating Layer inception_4d/output
I0322 17:33:02.478173 32639 net.cpp:408] inception_4d/output <- inception_4d/1x1
I0322 17:33:02.478180 32639 net.cpp:408] inception_4d/output <- inception_4d/3x3
I0322 17:33:02.478188 32639 net.cpp:408] inception_4d/output <- inception_4d/5x5
I0322 17:33:02.478194 32639 net.cpp:408] inception_4d/output <- inception_4d/pool_proj
I0322 17:33:02.478202 32639 net.cpp:382] inception_4d/output -> inception_4d/output
I0322 17:33:02.478243 32639 net.cpp:124] Setting up inception_4d/output
I0322 17:33:02.478257 32639 net.cpp:131] Top shape: 128 264 14 14 (6623232)
I0322 17:33:02.478263 32639 net.cpp:139] Memory required for data: 3094857216
I0322 17:33:02.478268 32639 layer_factory.hpp:77] Creating layer inception_4d/output_inception_4d/output_0_split
I0322 17:33:02.478278 32639 net.cpp:86] Creating Layer inception_4d/output_inception_4d/output_0_split
I0322 17:33:02.478284 32639 net.cpp:408] inception_4d/output_inception_4d/output_0_split <- inception_4d/output
I0322 17:33:02.478296 32639 net.cpp:382] inception_4d/output_inception_4d/output_0_split -> inception_4d/output_inception_4d/output_0_split_0
I0322 17:33:02.478309 32639 net.cpp:382] inception_4d/output_inception_4d/output_0_split -> inception_4d/output_inception_4d/output_0_split_1
I0322 17:33:02.478320 32639 net.cpp:382] inception_4d/output_inception_4d/output_0_split -> inception_4d/output_inception_4d/output_0_split_2
I0322 17:33:02.478330 32639 net.cpp:382] inception_4d/output_inception_4d/output_0_split -> inception_4d/output_inception_4d/output_0_split_3
I0322 17:33:02.478407 32639 net.cpp:124] Setting up inception_4d/output_inception_4d/output_0_split
I0322 17:33:02.478421 32639 net.cpp:131] Top shape: 128 264 14 14 (6623232)
I0322 17:33:02.478428 32639 net.cpp:131] Top shape: 128 264 14 14 (6623232)
I0322 17:33:02.478435 32639 net.cpp:131] Top shape: 128 264 14 14 (6623232)
I0322 17:33:02.478442 32639 net.cpp:131] Top shape: 128 264 14 14 (6623232)
I0322 17:33:02.478447 32639 net.cpp:139] Memory required for data: 3200828928
I0322 17:33:02.478453 32639 layer_factory.hpp:77] Creating layer inception_4e/1x1
I0322 17:33:02.478471 32639 net.cpp:86] Creating Layer inception_4e/1x1
I0322 17:33:02.478480 32639 net.cpp:408] inception_4e/1x1 <- inception_4d/output_inception_4d/output_0_split_0
I0322 17:33:02.478490 32639 net.cpp:382] inception_4e/1x1 -> inception_4e/1x1
I0322 17:33:02.479049 32639 net.cpp:124] Setting up inception_4e/1x1
I0322 17:33:02.479066 32639 net.cpp:131] Top shape: 128 128 14 14 (3211264)
I0322 17:33:02.479073 32639 net.cpp:139] Memory required for data: 3213673984
I0322 17:33:02.479082 32639 layer_factory.hpp:77] Creating layer inception_4e/relu_1x1
I0322 17:33:02.479090 32639 net.cpp:86] Creating Layer inception_4e/relu_1x1
I0322 17:33:02.479097 32639 net.cpp:408] inception_4e/relu_1x1 <- inception_4e/1x1
I0322 17:33:02.479105 32639 net.cpp:369] inception_4e/relu_1x1 -> inception_4e/1x1 (in-place)
I0322 17:33:02.479115 32639 net.cpp:124] Setting up inception_4e/relu_1x1
I0322 17:33:02.479125 32639 net.cpp:131] Top shape: 128 128 14 14 (3211264)
I0322 17:33:02.479130 32639 net.cpp:139] Memory required for data: 3226519040
I0322 17:33:02.479135 32639 layer_factory.hpp:77] Creating layer inception_4e/3x3_reduce
I0322 17:33:02.479151 32639 net.cpp:86] Creating Layer inception_4e/3x3_reduce
I0322 17:33:02.479172 32639 net.cpp:408] inception_4e/3x3_reduce <- inception_4d/output_inception_4d/output_0_split_1
I0322 17:33:02.479187 32639 net.cpp:382] inception_4e/3x3_reduce -> inception_4e/3x3_reduce
I0322 17:33:02.479652 32639 net.cpp:124] Setting up inception_4e/3x3_reduce
I0322 17:33:02.479671 32639 net.cpp:131] Top shape: 128 80 14 14 (2007040)
I0322 17:33:02.479676 32639 net.cpp:139] Memory required for data: 3234547200
I0322 17:33:02.479686 32639 layer_factory.hpp:77] Creating layer inception_4e/relu_3x3_reduce
I0322 17:33:02.479694 32639 net.cpp:86] Creating Layer inception_4e/relu_3x3_reduce
I0322 17:33:02.479701 32639 net.cpp:408] inception_4e/relu_3x3_reduce <- inception_4e/3x3_reduce
I0322 17:33:02.479709 32639 net.cpp:369] inception_4e/relu_3x3_reduce -> inception_4e/3x3_reduce (in-place)
I0322 17:33:02.479718 32639 net.cpp:124] Setting up inception_4e/relu_3x3_reduce
I0322 17:33:02.479729 32639 net.cpp:131] Top shape: 128 80 14 14 (2007040)
I0322 17:33:02.479734 32639 net.cpp:139] Memory required for data: 3242575360
I0322 17:33:02.479740 32639 layer_factory.hpp:77] Creating layer inception_4e/3x3
I0322 17:33:02.479756 32639 net.cpp:86] Creating Layer inception_4e/3x3
I0322 17:33:02.479764 32639 net.cpp:408] inception_4e/3x3 <- inception_4e/3x3_reduce
I0322 17:33:02.479778 32639 net.cpp:382] inception_4e/3x3 -> inception_4e/3x3
I0322 17:33:02.482913 32639 net.cpp:124] Setting up inception_4e/3x3
I0322 17:33:02.482990 32639 net.cpp:131] Top shape: 128 160 14 14 (4014080)
I0322 17:33:02.482997 32639 net.cpp:139] Memory required for data: 3258631680
I0322 17:33:02.483011 32639 layer_factory.hpp:77] Creating layer inception_4e/relu_3x3
I0322 17:33:02.483027 32639 net.cpp:86] Creating Layer inception_4e/relu_3x3
I0322 17:33:02.483038 32639 net.cpp:408] inception_4e/relu_3x3 <- inception_4e/3x3
I0322 17:33:02.483052 32639 net.cpp:369] inception_4e/relu_3x3 -> inception_4e/3x3 (in-place)
I0322 17:33:02.483067 32639 net.cpp:124] Setting up inception_4e/relu_3x3
I0322 17:33:02.483078 32639 net.cpp:131] Top shape: 128 160 14 14 (4014080)
I0322 17:33:02.483083 32639 net.cpp:139] Memory required for data: 3274688000
I0322 17:33:02.483089 32639 layer_factory.hpp:77] Creating layer inception_4e/5x5_reduce
I0322 17:33:02.483108 32639 net.cpp:86] Creating Layer inception_4e/5x5_reduce
I0322 17:33:02.483119 32639 net.cpp:408] inception_4e/5x5_reduce <- inception_4d/output_inception_4d/output_0_split_2
I0322 17:33:02.483131 32639 net.cpp:382] inception_4e/5x5_reduce -> inception_4e/5x5_reduce
I0322 17:33:02.483494 32639 net.cpp:124] Setting up inception_4e/5x5_reduce
I0322 17:33:02.483511 32639 net.cpp:131] Top shape: 128 16 14 14 (401408)
I0322 17:33:02.483517 32639 net.cpp:139] Memory required for data: 3276293632
I0322 17:33:02.483526 32639 layer_factory.hpp:77] Creating layer inception_4e/relu_5x5_reduce
I0322 17:33:02.483536 32639 net.cpp:86] Creating Layer inception_4e/relu_5x5_reduce
I0322 17:33:02.483544 32639 net.cpp:408] inception_4e/relu_5x5_reduce <- inception_4e/5x5_reduce
I0322 17:33:02.483553 32639 net.cpp:369] inception_4e/relu_5x5_reduce -> inception_4e/5x5_reduce (in-place)
I0322 17:33:02.483562 32639 net.cpp:124] Setting up inception_4e/relu_5x5_reduce
I0322 17:33:02.483572 32639 net.cpp:131] Top shape: 128 16 14 14 (401408)
I0322 17:33:02.483578 32639 net.cpp:139] Memory required for data: 3277899264
I0322 17:33:02.483584 32639 layer_factory.hpp:77] Creating layer inception_4e/5x5
I0322 17:33:02.483599 32639 net.cpp:86] Creating Layer inception_4e/5x5
I0322 17:33:02.483608 32639 net.cpp:408] inception_4e/5x5 <- inception_4e/5x5_reduce
I0322 17:33:02.483620 32639 net.cpp:382] inception_4e/5x5 -> inception_4e/5x5
I0322 17:33:02.484138 32639 net.cpp:124] Setting up inception_4e/5x5
I0322 17:33:02.484155 32639 net.cpp:131] Top shape: 128 64 14 14 (1605632)
I0322 17:33:02.484161 32639 net.cpp:139] Memory required for data: 3284321792
I0322 17:33:02.484170 32639 layer_factory.hpp:77] Creating layer inception_4e/relu_5x5
I0322 17:33:02.484179 32639 net.cpp:86] Creating Layer inception_4e/relu_5x5
I0322 17:33:02.484220 32639 net.cpp:408] inception_4e/relu_5x5 <- inception_4e/5x5
I0322 17:33:02.484230 32639 net.cpp:369] inception_4e/relu_5x5 -> inception_4e/5x5 (in-place)
I0322 17:33:02.484241 32639 net.cpp:124] Setting up inception_4e/relu_5x5
I0322 17:33:02.484248 32639 net.cpp:131] Top shape: 128 64 14 14 (1605632)
I0322 17:33:02.484253 32639 net.cpp:139] Memory required for data: 3290744320
I0322 17:33:02.484259 32639 layer_factory.hpp:77] Creating layer inception_4e/pool
I0322 17:33:02.484272 32639 net.cpp:86] Creating Layer inception_4e/pool
I0322 17:33:02.484282 32639 net.cpp:408] inception_4e/pool <- inception_4d/output_inception_4d/output_0_split_3
I0322 17:33:02.484292 32639 net.cpp:382] inception_4e/pool -> inception_4e/pool
I0322 17:33:02.484349 32639 net.cpp:124] Setting up inception_4e/pool
I0322 17:33:02.484364 32639 net.cpp:131] Top shape: 128 264 14 14 (6623232)
I0322 17:33:02.484369 32639 net.cpp:139] Memory required for data: 3317237248
I0322 17:33:02.484375 32639 layer_factory.hpp:77] Creating layer inception_4e/pool_proj
I0322 17:33:02.484392 32639 net.cpp:86] Creating Layer inception_4e/pool_proj
I0322 17:33:02.484401 32639 net.cpp:408] inception_4e/pool_proj <- inception_4e/pool
I0322 17:33:02.484411 32639 net.cpp:382] inception_4e/pool_proj -> inception_4e/pool_proj
I0322 17:33:02.484824 32639 net.cpp:124] Setting up inception_4e/pool_proj
I0322 17:33:02.484843 32639 net.cpp:131] Top shape: 128 64 14 14 (1605632)
I0322 17:33:02.484848 32639 net.cpp:139] Memory required for data: 3323659776
I0322 17:33:02.484856 32639 layer_factory.hpp:77] Creating layer inception_4e/relu_pool_proj
I0322 17:33:02.484869 32639 net.cpp:86] Creating Layer inception_4e/relu_pool_proj
I0322 17:33:02.484879 32639 net.cpp:408] inception_4e/relu_pool_proj <- inception_4e/pool_proj
I0322 17:33:02.484886 32639 net.cpp:369] inception_4e/relu_pool_proj -> inception_4e/pool_proj (in-place)
I0322 17:33:02.484896 32639 net.cpp:124] Setting up inception_4e/relu_pool_proj
I0322 17:33:02.484906 32639 net.cpp:131] Top shape: 128 64 14 14 (1605632)
I0322 17:33:02.484911 32639 net.cpp:139] Memory required for data: 3330082304
I0322 17:33:02.484917 32639 layer_factory.hpp:77] Creating layer inception_4e/output
I0322 17:33:02.484926 32639 net.cpp:86] Creating Layer inception_4e/output
I0322 17:33:02.484932 32639 net.cpp:408] inception_4e/output <- inception_4e/1x1
I0322 17:33:02.484939 32639 net.cpp:408] inception_4e/output <- inception_4e/3x3
I0322 17:33:02.484946 32639 net.cpp:408] inception_4e/output <- inception_4e/5x5
I0322 17:33:02.484954 32639 net.cpp:408] inception_4e/output <- inception_4e/pool_proj
I0322 17:33:02.484962 32639 net.cpp:382] inception_4e/output -> inception_4e/output
I0322 17:33:02.485003 32639 net.cpp:124] Setting up inception_4e/output
I0322 17:33:02.485018 32639 net.cpp:131] Top shape: 128 416 14 14 (10436608)
I0322 17:33:02.485023 32639 net.cpp:139] Memory required for data: 3371828736
I0322 17:33:02.485029 32639 layer_factory.hpp:77] Creating layer conv_16
I0322 17:33:02.485044 32639 net.cpp:86] Creating Layer conv_16
I0322 17:33:02.485052 32639 net.cpp:408] conv_16 <- inception_4e/output
I0322 17:33:02.485065 32639 net.cpp:382] conv_16 -> conv_16
I0322 17:33:02.487455 32639 net.cpp:124] Setting up conv_16
I0322 17:33:02.487522 32639 net.cpp:131] Top shape: 128 128 14 14 (3211264)
I0322 17:33:02.487529 32639 net.cpp:139] Memory required for data: 3384673792
I0322 17:33:02.487542 32639 layer_factory.hpp:77] Creating layer relu_16
I0322 17:33:02.487557 32639 net.cpp:86] Creating Layer relu_16
I0322 17:33:02.487566 32639 net.cpp:408] relu_16 <- conv_16
I0322 17:33:02.487577 32639 net.cpp:369] relu_16 -> conv_16 (in-place)
I0322 17:33:02.487593 32639 net.cpp:124] Setting up relu_16
I0322 17:33:02.487603 32639 net.cpp:131] Top shape: 128 128 14 14 (3211264)
I0322 17:33:02.487609 32639 net.cpp:139] Memory required for data: 3397518848
I0322 17:33:02.487614 32639 layer_factory.hpp:77] Creating layer conv_face_predict
I0322 17:33:02.487632 32639 net.cpp:86] Creating Layer conv_face_predict
I0322 17:33:02.487642 32639 net.cpp:408] conv_face_predict <- conv_16
I0322 17:33:02.487678 32639 net.cpp:382] conv_face_predict -> conv_face_predict
I0322 17:33:02.488108 32639 net.cpp:124] Setting up conv_face_predict
I0322 17:33:02.488126 32639 net.cpp:131] Top shape: 128 20 14 14 (501760)
I0322 17:33:02.488131 32639 net.cpp:139] Memory required for data: 3399525888
I0322 17:33:02.488142 32639 layer_factory.hpp:77] Creating layer pool5/7x7_s1
I0322 17:33:02.488158 32639 net.cpp:86] Creating Layer pool5/7x7_s1
I0322 17:33:02.488168 32639 net.cpp:408] pool5/7x7_s1 <- conv_face_predict
I0322 17:33:02.488176 32639 net.cpp:382] pool5/7x7_s1 -> pool5/7x7_s1
I0322 17:33:02.488224 32639 net.cpp:124] Setting up pool5/7x7_s1
I0322 17:33:02.488237 32639 net.cpp:131] Top shape: 128 20 11 11 (309760)
I0322 17:33:02.488243 32639 net.cpp:139] Memory required for data: 3400764928
I0322 17:33:02.488250 32639 layer_factory.hpp:77] Creating layer pool5/drop_7x7_s1
I0322 17:33:02.488260 32639 net.cpp:86] Creating Layer pool5/drop_7x7_s1
I0322 17:33:02.488268 32639 net.cpp:408] pool5/drop_7x7_s1 <- pool5/7x7_s1
I0322 17:33:02.488281 32639 net.cpp:369] pool5/drop_7x7_s1 -> pool5/7x7_s1 (in-place)
I0322 17:33:02.488317 32639 net.cpp:124] Setting up pool5/drop_7x7_s1
I0322 17:33:02.488329 32639 net.cpp:131] Top shape: 128 20 11 11 (309760)
I0322 17:33:02.488340 32639 net.cpp:139] Memory required for data: 3402003968
I0322 17:33:02.488346 32639 layer_factory.hpp:77] Creating layer loss3_my/predict
I0322 17:33:02.488358 32639 net.cpp:86] Creating Layer loss3_my/predict
I0322 17:33:02.488364 32639 net.cpp:408] loss3_my/predict <- pool5/7x7_s1
I0322 17:33:02.488373 32639 net.cpp:382] loss3_my/predict -> loss3_my/predict
I0322 17:33:02.488525 32639 net.cpp:124] Setting up loss3_my/predict
I0322 17:33:02.488543 32639 net.cpp:131] Top shape: 128 1 (128)
I0322 17:33:02.488548 32639 net.cpp:139] Memory required for data: 3402004480
I0322 17:33:02.488557 32639 layer_factory.hpp:77] Creating layer loss3_my/predict_loss3_my/predict_0_split
I0322 17:33:02.488567 32639 net.cpp:86] Creating Layer loss3_my/predict_loss3_my/predict_0_split
I0322 17:33:02.488576 32639 net.cpp:408] loss3_my/predict_loss3_my/predict_0_split <- loss3_my/predict
I0322 17:33:02.488587 32639 net.cpp:382] loss3_my/predict_loss3_my/predict_0_split -> loss3_my/predict_loss3_my/predict_0_split_0
I0322 17:33:02.488601 32639 net.cpp:382] loss3_my/predict_loss3_my/predict_0_split -> loss3_my/predict_loss3_my/predict_0_split_1
I0322 17:33:02.488647 32639 net.cpp:124] Setting up loss3_my/predict_loss3_my/predict_0_split
I0322 17:33:02.488662 32639 net.cpp:131] Top shape: 128 1 (128)
I0322 17:33:02.488668 32639 net.cpp:131] Top shape: 128 1 (128)
I0322 17:33:02.488674 32639 net.cpp:139] Memory required for data: 3402005504
I0322 17:33:02.488680 32639 layer_factory.hpp:77] Creating layer loss3_my/loss3_my
I0322 17:33:02.488770 32639 net.cpp:86] Creating Layer loss3_my/loss3_my
I0322 17:33:02.488785 32639 net.cpp:408] loss3_my/loss3_my <- loss3_my/predict_loss3_my/predict_0_split_0
I0322 17:33:02.488792 32639 net.cpp:408] loss3_my/loss3_my <- label_data_1_split_0
I0322 17:33:02.488802 32639 net.cpp:382] loss3_my/loss3_my -> loss3_my/loss3_my
I0322 17:33:02.488987 32639 net.cpp:124] Setting up loss3_my/loss3_my
I0322 17:33:02.489006 32639 net.cpp:131] Top shape: 1 (1)
I0322 17:33:02.489012 32639 net.cpp:134]     with loss weight 1
I0322 17:33:02.489039 32639 net.cpp:139] Memory required for data: 3402005508
I0322 17:33:02.489045 32639 layer_factory.hpp:77] Creating layer loss3_my/loss3_test
I0322 17:33:02.489079 32639 net.cpp:86] Creating Layer loss3_my/loss3_test
I0322 17:33:02.489092 32639 net.cpp:408] loss3_my/loss3_test <- loss3_my/predict_loss3_my/predict_0_split_1
I0322 17:33:02.489100 32639 net.cpp:408] loss3_my/loss3_test <- label_data_1_split_1
I0322 17:33:02.489114 32639 net.cpp:382] loss3_my/loss3_test -> loss3_my/loss3_test
I0322 17:33:02.489228 32639 net.cpp:124] Setting up loss3_my/loss3_test
I0322 17:33:02.489244 32639 net.cpp:131] Top shape: 1 (1)
I0322 17:33:02.489251 32639 net.cpp:134]     with loss weight 1
I0322 17:33:02.489284 32639 net.cpp:139] Memory required for data: 3402005512
I0322 17:33:02.489291 32639 net.cpp:200] loss3_my/loss3_test needs backward computation.
I0322 17:33:02.489298 32639 net.cpp:200] loss3_my/loss3_my needs backward computation.
I0322 17:33:02.489305 32639 net.cpp:200] loss3_my/predict_loss3_my/predict_0_split needs backward computation.
…
