…
I0321 14:19:11.974711  9963 net.cpp:296] The NetState phase (0) differed from the phase (1) specified by a rule in layer data
I0321 14:19:11.974822  9963 net.cpp:296] The NetState phase (0) differed from the phase (1) specified by a rule in layer loss3_my/loss3_test
I0321 14:19:11.975713  9963 net.cpp:53] Initializing net from parameters: 
name: "GoogleNet-Lite"
state {
  phase: TRAIN
  level: 0
  stage: ""
}
layer {
  name: "data"
  type: "Python"
  top: "data"
  top: "label"
  include {
    phase: TRAIN
  }
  python_param {
    module: "data_generator"
    layer: "DataLayer"
    param_str: "/home/zhongzhen/dataset/attribute/age/train.txt"
  }
}
layer {
  name: "conv1/7x7_s2"
  type: "Convolution"
  bottom: "data"
  top: "conv1/7x7_s2"
  param {
    lr_mult: 1
    decay_mult: 1
  }
  param {
    lr_mult: 2
    decay_mult: 0
  }
  convolution_param {
    num_output: 64
    pad: 3
    kernel_size: 7
    stride: 2
    weight_filler {
      type: "xavier"
    }
    bias_filler {
      type: "constant"
      value: 0.2
    }
  }
}
layer {
  name: "conv1/relu_7x7"
  type: "ReLU"
  bottom: "conv1/7x7_s2"
  top: "conv1/7x7_s2"
}
layer {
  name: "pool1/3x3_s2"
  type: "Pooling"
  bottom: "conv1/7x7_s2"
  top: "pool1/3x3_s2"
  pooling_param {
    pool: MAX
    kernel_size: 3
    stride: 2
  }
}
layer {
  name: "pool1/norm1"
  type: "LRN"
  bottom: "pool1/3x3_s2"
  top: "pool1/norm1"
  lrn_param {
    local_size: 5
    alpha: 0.0001
    beta: 0.75
  }
}
layer {
  name: "conv2/3x3_reduce"
  type: "Convolution"
  bottom: "pool1/norm1"
  top: "conv2/3x3_reduce"
  param {
    lr_mult: 1
    decay_mult: 1
  }
  param {
    lr_mult: 2
    decay_mult: 0
  }
  convolution_param {
    num_output: 64
    kernel_size: 1
    weight_filler {
      type: "xavier"
    }
    bias_filler {
      type: "constant"
      value: 0.2
    }
  }
}
layer {
  name: "conv2/relu_3x3_reduce"
  type: "ReLU"
  bottom: "conv2/3x3_reduce"
  top: "conv2/3x3_reduce"
}
layer {
  name: "conv2/norm2"
  type: "LRN"
  bottom: "conv2/3x3_reduce"
  top: "conv2/norm2"
  lrn_param {
    local_size: 5
    alpha: 0.0001
    beta: 0.75
  }
}
layer {
  name: "pool2/3x3_s2"
  type: "Pooling"
  bottom: "conv2/norm2"
  top: "pool2/3x3_s2"
  pooling_param {
    pool: MAX
    kernel_size: 3
    stride: 2
  }
}
layer {
  name: "inception_3a/1x1"
  type: "Convolution"
  bottom: "pool2/3x3_s2"
  top: "inception_3a/1x1"
  param {
    lr_mult: 1
    decay_mult: 1
  }
  param {
    lr_mult: 2
    decay_mult: 0
  }
  convolution_param {
    num_output: 64
    kernel_size: 1
    weight_filler {
      type: "xavier"
    }
    bias_filler {
      type: "constant"
      value: 0.2
    }
  }
}
layer {
  name: "inception_3a/relu_1x1"
  type: "ReLU"
  bottom: "inception_3a/1x1"
  top: "inception_3a/1x1"
}
layer {
  name: "inception_3a/3x3_reduce"
  type: "Convolution"
  bottom: "pool2/3x3_s2"
  top: "inception_3a/3x3_reduce"
  param {
    lr_mult: 1
    decay_mult: 1
  }
  param {
    lr_mult: 2
    decay_mult: 0
  }
  convolution_param {
    num_output: 96
    kernel_size: 1
    weight_filler {
      type: "xavier"
    }
    bias_filler {
      type: "constant"
      value: 0.2
    }
  }
}
layer {
  name: "inception_3a/relu_3x3_reduce"
  type: "ReLU"
  bottom: "inception_3a/3x3_reduce"
  top: "inception_3a/3x3_reduce"
}
layer {
  name: "inception_3a/3x3"
  type: "Convolution"
  bottom: "inception_3a/3x3_reduce"
  top: "inception_3a/3x3"
  param {
    lr_mult: 1
    decay_mult: 1
  }
  param {
    lr_mult: 2
    decay_mult: 0
  }
  convolution_param {
    num_output: 128
    pad: 1
    kernel_size: 3
    weight_filler {
      type: "xavier"
    }
    bias_filler {
      type: "constant"
      value: 0.2
    }
  }
}
layer {
  name: "inception_3a/relu_3x3"
  type: "ReLU"
  bottom: "inception_3a/3x3"
  top: "inception_3a/3x3"
}
layer {
  name: "inception_3a/5x5_reduce"
  type: "Convolution"
  bottom: "pool2/3x3_s2"
  top: "inception_3a/5x5_reduce"
  param {
    lr_mult: 1
    decay_mult: 1
  }
  param {
    lr_mult: 2
    decay_mult: 0
  }
  convolution_param {
    num_output: 16
    kernel_size: 1
    weight_filler {
      type: "xavier"
    }
    bias_filler {
      type: "constant"
      value: 0.2
    }
  }
}
layer {
  name: "inception_3a/relu_5x5_reduce"
  type: "ReLU"
  bottom: "inception_3a/5x5_reduce"
  top: "inception_3a/5x5_reduce"
}
layer {
  name: "inception_3a/5x5"
  type: "Convolution"
  bottom: "inception_3a/5x5_reduce"
  top: "inception_3a/5x5"
  param {
    lr_mult: 1
    decay_mult: 1
  }
  param {
    lr_mult: 2
    decay_mult: 0
  }
  convolution_param {
    num_output: 32
    pad: 2
    kernel_size: 5
    weight_filler {
      type: "xavier"
    }
    bias_filler {
      type: "constant"
      value: 0.2
    }
  }
}
layer {
  name: "inception_3a/relu_5x5"
  type: "ReLU"
  bottom: "inception_3a/5x5"
  top: "inception_3a/5x5"
}
layer {
  name: "inception_3a/pool"
  type: "Pooling"
  bottom: "pool2/3x3_s2"
  top: "inception_3a/pool"
  pooling_param {
    pool: MAX
    kernel_size: 3
    stride: 1
    pad: 1
  }
}
layer {
  name: "inception_3a/pool_proj"
  type: "Convolution"
  bottom: "inception_3a/pool"
  top: "inception_3a/pool_proj"
  param {
    lr_mult: 1
    decay_mult: 1
  }
  param {
    lr_mult: 2
    decay_mult: 0
  }
  convolution_param {
    num_output: 32
    kernel_size: 1
    weight_filler {
      type: "xavier"
    }
    bias_filler {
      type: "constant"
      value: 0.2
    }
  }
}
layer {
  name: "inception_3a/relu_pool_proj"
  type: "ReLU"
  bottom: "inception_3a/pool_proj"
  top: "inception_3a/pool_proj"
}
layer {
  name: "inception_3a/output"
  type: "Concat"
  bottom: "inception_3a/1x1"
  bottom: "inception_3a/3x3"
  bottom: "inception_3a/5x5"
  bottom: "inception_3a/pool_proj"
  top: "inception_3a/output"
}
layer {
  name: "pool3/3x3_s2"
  type: "Pooling"
  bottom: "inception_3a/output"
  top: "pool3/3x3_s2"
  pooling_param {
    pool: MAX
    kernel_size: 3
    stride: 2
  }
}
layer {
  name: "inception_4a/1x1"
  type: "Convolution"
  bottom: "pool3/3x3_s2"
  top: "inception_4a/1x1"
  param {
    lr_mult: 1
    decay_mult: 1
  }
  param {
    lr_mult: 2
    decay_mult: 0
  }
  convolution_param {
    num_output: 192
    kernel_size: 1
    weight_filler {
      type: "xavier"
    }
    bias_filler {
      type: "constant"
      value: 0.2
    }
  }
}
layer {
  name: "inception_4a/relu_1x1"
  type: "ReLU"
  bottom: "inception_4a/1x1"
  top: "inception_4a/1x1"
}
layer {
  name: "inception_4a/3x3_reduce"
  type: "Convolution"
  bottom: "pool3/3x3_s2"
  top: "inception_4a/3x3_reduce"
  param {
    lr_mult: 1
    decay_mult: 1
  }
  param {
    lr_mult: 2
    decay_mult: 0
  }
  convolution_param {
    num_output: 96
    kernel_size: 1
    weight_filler {
      type: "xavier"
    }
    bias_filler {
      type: "constant"
      value: 0.2
    }
  }
}
layer {
  name: "inception_4a/relu_3x3_reduce"
  type: "ReLU"
  bottom: "inception_4a/3x3_reduce"
  top: "inception_4a/3x3_reduce"
}
layer {
  name: "inception_4a/3x3"
  type: "Convolution"
  bottom: "inception_4a/3x3_reduce"
  top: "inception_4a/3x3"
  param {
    lr_mult: 1
    decay_mult: 1
  }
  param {
    lr_mult: 2
    decay_mult: 0
  }
  convolution_param {
    num_output: 208
    pad: 1
    kernel_size: 3
    weight_filler {
      type: "xavier"
    }
    bias_filler {
      type: "constant"
      value: 0.2
    }
  }
}
layer {
  name: "inception_4a/relu_3x3"
  type: "ReLU"
  bottom: "inception_4a/3x3"
  top: "inception_4a/3x3"
}
layer {
  name: "inception_4a/5x5_reduce"
  type: "Convolution"
  bottom: "pool3/3x3_s2"
  top: "inception_4a/5x5_reduce"
  param {
    lr_mult: 1
    decay_mult: 1
  }
  param {
    lr_mult: 2
    decay_mult: 0
  }
  convolution_param {
    num_output: 16
    kernel_size: 1
    weight_filler {
      type: "xavier"
    }
    bias_filler {
      type: "constant"
      value: 0.2
    }
  }
}
layer {
  name: "inception_4a/relu_5x5_reduce"
  type: "ReLU"
  bottom: "inception_4a/5x5_reduce"
  top: "inception_4a/5x5_reduce"
}
layer {
  name: "inception_4a/5x5"
  type: "Convolution"
  bottom: "inception_4a/5x5_reduce"
  top: "inception_4a/5x5"
  param {
    lr_mult: 1
    decay_mult: 1
  }
  param {
    lr_mult: 2
    decay_mult: 0
  }
  convolution_param {
    num_output: 48
    pad: 2
    kernel_size: 5
    weight_filler {
      type: "xavier"
    }
    bias_filler {
      type: "constant"
      value: 0.2
    }
  }
}
layer {
  name: "inception_4a/relu_5x5"
  type: "ReLU"
  bottom: "inception_4a/5x5"
  top: "inception_4a/5x5"
}
layer {
  name: "inception_4a/pool"
  type: "Pooling"
  bottom: "pool3/3x3_s2"
  top: "inception_4a/pool"
  pooling_param {
    pool: MAX
    kernel_size: 3
    stride: 1
    pad: 1
  }
}
layer {
  name: "inception_4a/pool_proj"
  type: "Convolution"
  bottom: "inception_4a/pool"
  top: "inception_4a/pool_proj"
  param {
    lr_mult: 1
    decay_mult: 1
  }
  param {
    lr_mult: 2
    decay_mult: 0
  }
  convolution_param {
    num_output: 64
    kernel_size: 1
    weight_filler {
      type: "xavier"
    }
    bias_filler {
      type: "constant"
      value: 0.2
    }
  }
}
layer {
  name: "inception_4a/relu_pool_proj"
  type: "ReLU"
  bottom: "inception_4a/pool_proj"
  top: "inception_4a/pool_proj"
}
layer {
  name: "inception_4a/output"
  type: "Concat"
  bottom: "inception_4a/1x1"
  bottom: "inception_4a/3x3"
  bottom: "inception_4a/5x5"
  bottom: "inception_4a/pool_proj"
  top: "inception_4a/output"
}
layer {
  name: "loss1_my/ave_pool"
  type: "Pooling"
  bottom: "inception_4a/output"
  top: "loss1_my/ave_pool"
  pooling_param {
    pool: AVE
    kernel_size: 5
    stride: 3
  }
}
layer {
  name: "loss1_my/conv"
  type: "Convolution"
  bottom: "loss1_my/ave_pool"
  top: "loss1_my/conv"
  param {
    lr_mult: 1
    decay_mult: 1
  }
  param {
    lr_mult: 2
    decay_mult: 0
  }
  convolution_param {
    num_output: 128
    kernel_size: 1
    weight_filler {
      type: "xavier"
    }
    bias_filler {
      type: "constant"
      value: 0.2
    }
  }
}
layer {
  name: "loss1_my/relu_conv"
  type: "ReLU"
  bottom: "loss1_my/conv"
  top: "loss1_my/conv"
}
layer {
  name: "loss1_my/fc"
  type: "InnerProduct"
  bottom: "loss1_my/conv"
  top: "loss1_my/fc"
  param {
    lr_mult: 1
    decay_mult: 1
  }
  param {
    lr_mult: 2
    decay_mult: 0
  }
  inner_product_param {
    num_output: 1024
    weight_filler {
      type: "xavier"
    }
    bias_filler {
      type: "constant"
      value: 0.2
    }
  }
}
layer {
  name: "loss1_my/relu_fc"
  type: "ReLU"
  bottom: "loss1_my/fc"
  top: "loss1_my/fc"
}
layer {
  name: "loss1_my/drop_fc"
  type: "Dropout"
  bottom: "loss1_my/fc"
  top: "loss1_my/fc"
  dropout_param {
    dropout_ratio: 0.7
  }
}
layer {
  name: "loss1_lite/classifier"
  type: "InnerProduct"
  bottom: "loss1_my/fc"
  top: "loss1_lite/classifier"
  param {
    lr_mult: 1
    decay_mult: 1
  }
  param {
    lr_mult: 2
    decay_mult: 0
  }
  inner_product_param {
    num_output: 1
    weight_filler {
      type: "xavier"
    }
    bias_filler {
      type: "constant"
      value: 0
    }
  }
}
layer {
  name: "loss1_my/loss"
  type: "Python"
  bottom: "loss1_lite/classifier"
  bottom: "label"
  top: "loss1_my/loss"
  loss_weight: 0.1
  python_param {
    module: "robust_loss"
    layer: "RobustLossLayer"
  }
}
layer {
  name: "inception_4b/1x1"
  type: "Convolution"
  bottom: "inception_4a/output"
  top: "inception_4b/1x1"
  param {
    lr_mult: 1
    decay_mult: 1
  }
  param {
    lr_mult: 2
    decay_mult: 0
  }
  convolution_param {
    num_output: 160
    kernel_size: 1
    weight_filler {
      type: "xavier"
    }
    bias_filler {
      type: "constant"
      value: 0.2
    }
  }
}
layer {
  name: "inception_4b/relu_1x1"
  type: "ReLU"
  bottom: "inception_4b/1x1"
  top: "inception_4b/1x1"
}
layer {
  name: "inception_4b/3x3_reduce"
  type: "Convolution"
  bottom: "inception_4a/output"
  top: "inception_4b/3x3_reduce"
  param {
    lr_mult: 1
    decay_mult: 1
  }
  param {
    lr_mult: 2
    decay_mult: 0
  }
  convolution_param {
    num_output: 112
    kernel_size: 1
    weight_filler {
      type: "xavier"
    }
    bias_filler {
      type: "constant"
      value: 0.2
    }
  }
}
layer {
  name: "inception_4b/relu_3x3_reduce"
  type: "ReLU"
  bottom: "inception_4b/3x3_reduce"
  top: "inception_4b/3x3_reduce"
}
layer {
  name: "inception_4b/3x3"
  type: "Convolution"
  bottom: "inception_4b/3x3_reduce"
  top: "inception_4b/3x3"
  param {
    lr_mult: 1
    decay_mult: 1
  }
  param {
    lr_mult: 2
    decay_mult: 0
  }
  convolution_param {
    num_output: 224
    pad: 1
    kernel_size: 3
    weight_filler {
      type: "xavier"
    }
    bias_filler {
      type: "constant"
      value: 0.2
    }
  }
}
layer {
  name: "inception_4b/relu_3x3"
  type: "ReLU"
  bottom: "inception_4b/3x3"
  top: "inception_4b/3x3"
}
layer {
  name: "inception_4b/5x5_reduce"
  type: "Convolution"
  bottom: "inception_4a/output"
  top: "inception_4b/5x5_reduce"
  param {
    lr_mult: 1
    decay_mult: 1
  }
  param {
    lr_mult: 2
    decay_mult: 0
  }
  convolution_param {
    num_output: 24
    kernel_size: 1
    weight_filler {
      type: "xavier"
    }
    bias_filler {
      type: "constant"
      value: 0.2
    }
  }
}
layer {
  name: "inception_4b/relu_5x5_reduce"
  type: "ReLU"
  bottom: "inception_4b/5x5_reduce"
  top: "inception_4b/5x5_reduce"
}
layer {
  name: "inception_4b/5x5"
  type: "Convolution"
  bottom: "inception_4b/5x5_reduce"
  top: "inception_4b/5x5"
  param {
    lr_mult: 1
    decay_mult: 1
  }
  param {
    lr_mult: 2
    decay_mult: 0
  }
  convolution_param {
    num_output: 64
    pad: 2
    kernel_size: 5
    weight_filler {
      type: "xavier"
    }
    bias_filler {
      type: "constant"
      value: 0.2
    }
  }
}
layer {
  name: "inception_4b/relu_5x5"
  type: "ReLU"
  bottom: "inception_4b/5x5"
  top: "inception_4b/5x5"
}
layer {
  name: "inception_4b/pool"
  type: "Pooling"
  bottom: "inception_4a/output"
  top: "inception_4b/pool"
  pooling_param {
    pool: MAX
    kernel_size: 3
    stride: 1
    pad: 1
  }
}
layer {
  name: "inception_4b/pool_proj"
  type: "Convolution"
  bottom: "inception_4b/pool"
  top: "inception_4b/pool_proj"
  param {
    lr_mult: 1
    decay_mult: 1
  }
  param {
    lr_mult: 2
    decay_mult: 0
  }
  convolution_param {
    num_output: 64
    kernel_size: 1
    weight_filler {
      type: "xavier"
    }
    bias_filler {
      type: "constant"
      value: 0.2
    }
  }
}
layer {
  name: "inception_4b/relu_pool_proj"
  type: "ReLU"
  bottom: "inception_4b/pool_proj"
  top: "inception_4b/pool_proj"
}
layer {
  name: "inception_4c/output"
  type: "Concat"
  bottom: "inception_4b/1x1"
  bottom: "inception_4b/3x3"
  bottom: "inception_4b/5x5"
  bottom: "inception_4b/pool_proj"
  top: "inception_4c/output"
}
layer {
  name: "inception_4d/1x1"
  type: "Convolution"
  bottom: "inception_4c/output"
  top: "inception_4d/1x1"
  param {
    lr_mult: 1
    decay_mult: 1
  }
  param {
    lr_mult: 2
    decay_mult: 0
  }
  convolution_param {
    num_output: 112
    kernel_size: 1
    weight_filler {
      type: "xavier"
    }
    bias_filler {
      type: "constant"
      value: 0.2
    }
  }
}
layer {
  name: "inception_4d/relu_1x1"
  type: "ReLU"
  bottom: "inception_4d/1x1"
  top: "inception_4d/1x1"
}
layer {
  name: "inception_4d/3x3_reduce"
  type: "Convolution"
  bottom: "inception_4c/output"
  top: "inception_4d/3x3_reduce"
  param {
    lr_mult: 1
    decay_mult: 1
  }
  param {
    lr_mult: 2
    decay_mult: 0
  }
  convolution_param {
    num_output: 144
    kernel_size: 1
    weight_filler {
      type: "xavier"
    }
    bias_filler {
      type: "constant"
      value: 0.2
    }
  }
}
layer {
  name: "inception_4d/relu_3x3_reduce"
  type: "ReLU"
  bottom: "inception_4d/3x3_reduce"
  top: "inception_4d/3x3_reduce"
}
layer {
  name: "inception_4d/3x3"
  type: "Convolution"
  bottom: "inception_4d/3x3_reduce"
  top: "inception_4d/3x3"
  param {
    lr_mult: 1
    decay_mult: 1
  }
  param {
    lr_mult: 2
    decay_mult: 0
  }
  convolution_param {
    num_output: 288
    pad: 1
    kernel_size: 3
    weight_filler {
      type: "xavier"
    }
    bias_filler {
      type: "constant"
      value: 0.2
    }
  }
}
layer {
  name: "inception_4d/relu_3x3"
  type: "ReLU"
  bottom: "inception_4d/3x3"
  top: "inception_4d/3x3"
}
layer {
  name: "inception_4d/5x5_reduce"
  type: "Convolution"
  bottom: "inception_4c/output"
  top: "inception_4d/5x5_reduce"
  param {
    lr_mult: 1
    decay_mult: 1
  }
  param {
    lr_mult: 2
    decay_mult: 0
  }
  convolution_param {
    num_output: 32
    kernel_size: 1
    weight_filler {
      type: "xavier"
    }
    bias_filler {
      type: "constant"
      value: 0.2
    }
  }
}
layer {
  name: "inception_4d/relu_5x5_reduce"
  type: "ReLU"
  bottom: "inception_4d/5x5_reduce"
  top: "inception_4d/5x5_reduce"
}
layer {
  name: "inception_4d/5x5"
  type: "Convolution"
  bottom: "inception_4d/5x5_reduce"
  top: "inception_4d/5x5"
  param {
    lr_mult: 1
    decay_mult: 1
  }
  param {
    lr_mult: 2
    decay_mult: 0
  }
  convolution_param {
    num_output: 64
    pad: 2
    kernel_size: 5
    weight_filler {
      type: "xavier"
    }
    bias_filler {
      type: "constant"
      value: 0.2
    }
  }
}
layer {
  name: "inception_4d/relu_5x5"
  type: "ReLU"
  bottom: "inception_4d/5x5"
  top: "inception_4d/5x5"
}
layer {
  name: "inception_4d/pool"
  type: "Pooling"
  bottom: "inception_4c/output"
  top: "inception_4d/pool"
  pooling_param {
    pool: MAX
    kernel_size: 3
    stride: 1
    pad: 1
  }
}
layer {
  name: "inception_4d/pool_proj"
  type: "Convolution"
  bottom: "inception_4d/pool"
  top: "inception_4d/pool_proj"
  param {
    lr_mult: 1
    decay_mult: 1
  }
  param {
    lr_mult: 2
    decay_mult: 0
  }
  convolution_param {
    num_output: 64
    kernel_size: 1
    weight_filler {
      type: "xavier"
    }
    bias_filler {
      type: "constant"
      value: 0.2
    }
  }
}
layer {
  name: "inception_4d/relu_pool_proj"
  type: "ReLU"
  bottom: "inception_4d/pool_proj"
  top: "inception_4d/pool_proj"
}
layer {
  name: "inception_4d/output"
  type: "Concat"
  bottom: "inception_4d/1x1"
  bottom: "inception_4d/3x3"
  bottom: "inception_4d/5x5"
  bottom: "inception_4d/pool_proj"
  top: "inception_4d/output"
}
layer {
  name: "loss2_my/ave_pool"
  type: "Pooling"
  bottom: "inception_4d/output"
  top: "loss2_my/ave_pool"
  pooling_param {
    pool: AVE
    kernel_size: 5
    stride: 3
  }
}
layer {
  name: "loss2_my/conv"
  type: "Convolution"
  bottom: "loss2_my/ave_pool"
  top: "loss2_my/conv"
  param {
    lr_mult: 1
    decay_mult: 1
  }
  param {
    lr_mult: 2
    decay_mult: 0
  }
  convolution_param {
    num_output: 128
    kernel_size: 1
    weight_filler {
      type: "xavier"
    }
    bias_filler {
      type: "constant"
      value: 0.2
    }
  }
}
layer {
  name: "loss2_my/relu_conv"
  type: "ReLU"
  bottom: "loss2_my/conv"
  top: "loss2_my/conv"
}
layer {
  name: "loss2_my/fc"
  type: "InnerProduct"
  bottom: "loss2_my/conv"
  top: "loss2_my/fc"
  param {
    lr_mult: 1
    decay_mult: 1
  }
  param {
    lr_mult: 2
    decay_mult: 0
  }
  inner_product_param {
    num_output: 1024
    weight_filler {
      type: "xavier"
    }
    bias_filler {
      type: "constant"
      value: 0.2
    }
  }
}
layer {
  name: "loss2_my/relu_fc"
  type: "ReLU"
  bottom: "loss2_my/fc"
  top: "loss2_my/fc"
}
layer {
  name: "loss2_my/drop_fc"
  type: "Dropout"
  bottom: "loss2_my/fc"
  top: "loss2_my/fc"
  dropout_param {
    dropout_ratio: 0.7
  }
}
layer {
  name: "loss2_lite/classifier"
  type: "InnerProduct"
  bottom: "loss2_my/fc"
  top: "loss2_lite/classifier"
  param {
    lr_mult: 1
    decay_mult: 1
  }
  param {
    lr_mult: 2
    decay_mult: 0
  }
  inner_product_param {
    num_output: 1
    weight_filler {
      type: "xavier"
    }
    bias_filler {
      type: "constant"
      value: 0
    }
  }
}
layer {
  name: "loss2_my/loss"
  type: "Python"
  bottom: "loss2_lite/classifier"
  bottom: "label"
  top: "loss2_my/loss"
  loss_weight: 0.4
  python_param {
    module: "robust_loss"
    layer: "RobustLossLayer"
  }
}
layer {
  name: "inception_4e/1x1"
  type: "Convolution"
  bottom: "inception_4d/output"
  top: "inception_4e/1x1"
  param {
    lr_mult: 1
    decay_mult: 1
  }
  param {
    lr_mult: 2
    decay_mult: 0
  }
  convolution_param {
    num_output: 256
    kernel_size: 1
    weight_filler {
      type: "xavier"
    }
    bias_filler {
      type: "constant"
      value: 0.2
    }
  }
}
layer {
  name: "inception_4e/relu_1x1"
  type: "ReLU"
  bottom: "inception_4e/1x1"
  top: "inception_4e/1x1"
}
layer {
  name: "inception_4e/3x3_reduce"
  type: "Convolution"
  bottom: "inception_4d/output"
  top: "inception_4e/3x3_reduce"
  param {
    lr_mult: 1
    decay_mult: 1
  }
  param {
    lr_mult: 2
    decay_mult: 0
  }
  convolution_param {
    num_output: 160
    kernel_size: 1
    weight_filler {
      type: "xavier"
    }
    bias_filler {
      type: "constant"
      value: 0.2
    }
  }
}
layer {
  name: "inception_4e/relu_3x3_reduce"
  type: "ReLU"
  bottom: "inception_4e/3x3_reduce"
  top: "inception_4e/3x3_reduce"
}
layer {
  name: "inception_4e/3x3"
  type: "Convolution"
  bottom: "inception_4e/3x3_reduce"
  top: "inception_4e/3x3"
  param {
    lr_mult: 1
    decay_mult: 1
  }
  param {
    lr_mult: 2
    decay_mult: 0
  }
  convolution_param {
    num_output: 320
    pad: 1
    kernel_size: 3
    weight_filler {
      type: "xavier"
    }
    bias_filler {
      type: "constant"
      value: 0.2
    }
  }
}
layer {
  name: "inception_4e/relu_3x3"
  type: "ReLU"
  bottom: "inception_4e/3x3"
  top: "inception_4e/3x3"
}
layer {
  name: "inception_4e/5x5_reduce"
  type: "Convolution"
  bottom: "inception_4d/output"
  top: "inception_4e/5x5_reduce"
  param {
    lr_mult: 1
    decay_mult: 1
  }
  param {
    lr_mult: 2
    decay_mult: 0
  }
  convolution_param {
    num_output: 32
    kernel_size: 1
    weight_filler {
      type: "xavier"
    }
    bias_filler {
      type: "constant"
      value: 0.2
    }
  }
}
layer {
  name: "inception_4e/relu_5x5_reduce"
  type: "ReLU"
  bottom: "inception_4e/5x5_reduce"
  top: "inception_4e/5x5_reduce"
}
layer {
  name: "inception_4e/5x5"
  type: "Convolution"
  bottom: "inception_4e/5x5_reduce"
  top: "inception_4e/5x5"
  param {
    lr_mult: 1
    decay_mult: 1
  }
  param {
    lr_mult: 2
    decay_mult: 0
  }
  convolution_param {
    num_output: 128
    pad: 2
    kernel_size: 5
    weight_filler {
      type: "xavier"
    }
    bias_filler {
      type: "constant"
      value: 0.2
    }
  }
}
layer {
  name: "inception_4e/relu_5x5"
  type: "ReLU"
  bottom: "inception_4e/5x5"
  top: "inception_4e/5x5"
}
layer {
  name: "inception_4e/pool"
  type: "Pooling"
  bottom: "inception_4d/output"
  top: "inception_4e/pool"
  pooling_param {
    pool: MAX
    kernel_size: 3
    stride: 1
    pad: 1
  }
}
layer {
  name: "inception_4e/pool_proj"
  type: "Convolution"
  bottom: "inception_4e/pool"
  top: "inception_4e/pool_proj"
  param {
    lr_mult: 1
    decay_mult: 1
  }
  param {
    lr_mult: 2
    decay_mult: 0
  }
  convolution_param {
    num_output: 128
    kernel_size: 1
    weight_filler {
      type: "xavier"
    }
    bias_filler {
      type: "constant"
      value: 0.2
    }
  }
}
layer {
  name: "inception_4e/relu_pool_proj"
  type: "ReLU"
  bottom: "inception_4e/pool_proj"
  top: "inception_4e/pool_proj"
}
layer {
  name: "inception_4e/output"
  type: "Concat"
  bottom: "inception_4e/1x1"
  bottom: "inception_4e/3x3"
  bottom: "inception_4e/5x5"
  bottom: "inception_4e/pool_proj"
  top: "inception_4e/output"
}
layer {
  name: "pool4/3x3_s2"
  type: "Pooling"
  bottom: "inception_4e/output"
  top: "pool4/3x3_s2"
  pooling_param {
    pool: MAX
    kernel_size: 3
    stride: 2
  }
}
layer {
  name: "inception_5a/1x1"
  type: "Convolution"
  bottom: "pool4/3x3_s2"
  top: "inception_5a/1x1"
  param {
    lr_mult: 1
    decay_mult: 1
  }
  param {
    lr_mult: 2
    decay_mult: 0
  }
  convolution_param {
    num_output: 256
    kernel_size: 1
    weight_filler {
      type: "xavier"
    }
    bias_filler {
      type: "constant"
      value: 0.2
    }
  }
}
layer {
  name: "inception_5a/relu_1x1"
  type: "ReLU"
  bottom: "inception_5a/1x1"
  top: "inception_5a/1x1"
}
layer {
  name: "inception_5a/3x3_reduce"
  type: "Convolution"
  bottom: "pool4/3x3_s2"
  top: "inception_5a/3x3_reduce"
  param {
    lr_mult: 1
    decay_mult: 1
  }
  param {
    lr_mult: 2
    decay_mult: 0
  }
  convolution_param {
    num_output: 160
    kernel_size: 1
    weight_filler {
      type: "xavier"
    }
    bias_filler {
      type: "constant"
      value: 0.2
    }
  }
}
layer {
  name: "inception_5a/relu_3x3_reduce"
  type: "ReLU"
  bottom: "inception_5a/3x3_reduce"
  top: "inception_5a/3x3_reduce"
}
layer {
  name: "inception_5a/3x3"
  type: "Convolution"
  bottom: "inception_5a/3x3_reduce"
  top: "inception_5a/3x3"
  param {
    lr_mult: 1
    decay_mult: 1
  }
  param {
    lr_mult: 2
    decay_mult: 0
  }
  convolution_param {
    num_output: 320
    pad: 1
    kernel_size: 3
    weight_filler {
      type: "xavier"
    }
    bias_filler {
      type: "constant"
      value: 0.2
    }
  }
}
layer {
  name: "inception_5a/relu_3x3"
  type: "ReLU"
  bottom: "inception_5a/3x3"
  top: "inception_5a/3x3"
}
layer {
  name: "inception_5a/5x5_reduce"
  type: "Convolution"
  bottom: "pool4/3x3_s2"
  top: "inception_5a/5x5_reduce"
  param {
    lr_mult: 1
    decay_mult: 1
  }
  param {
    lr_mult: 2
    decay_mult: 0
  }
  convolution_param {
    num_output: 32
    kernel_size: 1
    weight_filler {
      type: "xavier"
    }
    bias_filler {
      type: "constant"
      value: 0.2
    }
  }
}
layer {
  name: "inception_5a/relu_5x5_reduce"
  type: "ReLU"
  bottom: "inception_5a/5x5_reduce"
  top: "inception_5a/5x5_reduce"
}
layer {
  name: "inception_5a/5x5"
  type: "Convolution"
  bottom: "inception_5a/5x5_reduce"
  top: "inception_5a/5x5"
  param {
    lr_mult: 1
    decay_mult: 1
  }
  param {
    lr_mult: 2
    decay_mult: 0
  }
  convolution_param {
    num_output: 128
    pad: 2
    kernel_size: 5
    weight_filler {
      type: "xavier"
    }
    bias_filler {
      type: "constant"
      value: 0.2
    }
  }
}
layer {
  name: "inception_5a/relu_5x5"
  type: "ReLU"
  bottom: "inception_5a/5x5"
  top: "inception_5a/5x5"
}
layer {
  name: "inception_5a/pool"
  type: "Pooling"
  bottom: "pool4/3x3_s2"
  top: "inception_5a/pool"
  pooling_param {
    pool: MAX
    kernel_size: 3
    stride: 1
    pad: 1
  }
}
layer {
  name: "inception_5a/pool_proj"
  type: "Convolution"
  bottom: "inception_5a/pool"
  top: "inception_5a/pool_proj"
  param {
    lr_mult: 1
    decay_mult: 1
  }
  param {
    lr_mult: 2
    decay_mult: 0
  }
  convolution_param {
    num_output: 128
    kernel_size: 1
    weight_filler {
      type: "xavier"
    }
    bias_filler {
      type: "constant"
      value: 0.2
    }
  }
}
layer {
  name: "inception_5a/relu_pool_proj"
  type: "ReLU"
  bottom: "inception_5a/pool_proj"
  top: "inception_5a/pool_proj"
}
layer {
  name: "inception_5a/output"
  type: "Concat"
  bottom: "inception_5a/1x1"
  bottom: "inception_5a/3x3"
  bottom: "inception_5a/5x5"
  bottom: "inception_5a/pool_proj"
  top: "inception_5a/output"
}
layer {
  name: "inception_5b/1x1"
  type: "Convolution"
  bottom: "inception_5a/output"
  top: "inception_5b/1x1"
  param {
    lr_mult: 1
    decay_mult: 1
  }
  param {
    lr_mult: 2
    decay_mult: 0
  }
  convolution_param {
    num_output: 384
    kernel_size: 1
    weight_filler {
      type: "xavier"
    }
    bias_filler {
      type: "constant"
      value: 0.2
    }
  }
}
layer {
  name: "inception_5b/relu_1x1"
  type: "ReLU"
  bottom: "inception_5b/1x1"
  top: "inception_5b/1x1"
}
layer {
  name: "inception_5b/3x3_reduce"
  type: "Convolution"
  bottom: "inception_5a/output"
  top: "inception_5b/3x3_reduce"
  param {
    lr_mult: 1
    decay_mult: 1
  }
  param {
    lr_mult: 2
    decay_mult: 0
  }
  convolution_param {
    num_output: 192
    kernel_size: 1
    weight_filler {
      type: "xavier"
    }
    bias_filler {
      type: "constant"
      value: 0.2
    }
  }
}
layer {
  name: "inception_5b/relu_3x3_reduce"
  type: "ReLU"
  bottom: "inception_5b/3x3_reduce"
  top: "inception_5b/3x3_reduce"
}
layer {
  name: "inception_5b/3x3"
  type: "Convolution"
  bottom: "inception_5b/3x3_reduce"
  top: "inception_5b/3x3"
  param {
    lr_mult: 1
    decay_mult: 1
  }
  param {
    lr_mult: 2
    decay_mult: 0
  }
  convolution_param {
    num_output: 384
    pad: 1
    kernel_size: 3
    weight_filler {
      type: "xavier"
    }
    bias_filler {
      type: "constant"
      value: 0.2
    }
  }
}
layer {
  name: "inception_5b/relu_3x3"
  type: "ReLU"
  bottom: "inception_5b/3x3"
  top: "inception_5b/3x3"
}
layer {
  name: "inception_5b/5x5_reduce"
  type: "Convolution"
  bottom: "inception_5a/output"
  top: "inception_5b/5x5_reduce"
  param {
    lr_mult: 1
    decay_mult: 1
  }
  param {
    lr_mult: 2
    decay_mult: 0
  }
  convolution_param {
    num_output: 48
    kernel_size: 1
    weight_filler {
      type: "xavier"
    }
    bias_filler {
      type: "constant"
      value: 0.2
    }
  }
}
layer {
  name: "inception_5b/relu_5x5_reduce"
  type: "ReLU"
  bottom: "inception_5b/5x5_reduce"
  top: "inception_5b/5x5_reduce"
}
layer {
  name: "inception_5b/5x5"
  type: "Convolution"
  bottom: "inception_5b/5x5_reduce"
  top: "inception_5b/5x5"
  param {
    lr_mult: 1
    decay_mult: 1
  }
  param {
    lr_mult: 2
    decay_mult: 0
  }
  convolution_param {
    num_output: 128
    pad: 2
    kernel_size: 5
    weight_filler {
      type: "xavier"
    }
    bias_filler {
      type: "constant"
      value: 0.2
    }
  }
}
layer {
  name: "inception_5b/relu_5x5"
  type: "ReLU"
  bottom: "inception_5b/5x5"
  top: "inception_5b/5x5"
}
layer {
  name: "inception_5b/pool"
  type: "Pooling"
  bottom: "inception_5a/output"
  top: "inception_5b/pool"
  pooling_param {
    pool: MAX
    kernel_size: 3
    stride: 1
    pad: 1
  }
}
layer {
  name: "inception_5b/pool_proj"
  type: "Convolution"
  bottom: "inceptio
I0321 14:19:11.976454  9963 layer_factory.hpp:77] Creating layer data
I0321 14:19:13.038451  9963 net.cpp:86] Creating Layer data
I0321 14:19:13.038511  9963 net.cpp:382] data -> data
I0321 14:19:13.038542  9963 net.cpp:382] data -> label
I0321 14:19:13.376003  9963 net.cpp:124] Setting up data
I0321 14:19:13.376142  9963 net.cpp:131] Top shape: 128 3 128 128 (6291456)
I0321 14:19:13.376157  9963 net.cpp:131] Top shape: 128 1 (128)
I0321 14:19:13.376164  9963 net.cpp:139] Memory required for data: 25166336
I0321 14:19:13.376207  9963 layer_factory.hpp:77] Creating layer label_data_1_split
I0321 14:19:13.376312  9963 net.cpp:86] Creating Layer label_data_1_split
I0321 14:19:13.376329  9963 net.cpp:408] label_data_1_split <- label
I0321 14:19:13.376371  9963 net.cpp:382] label_data_1_split -> label_data_1_split_0
I0321 14:19:13.376410  9963 net.cpp:382] label_data_1_split -> label_data_1_split_1
I0321 14:19:13.376423  9963 net.cpp:382] label_data_1_split -> label_data_1_split_2
I0321 14:19:13.376515  9963 net.cpp:124] Setting up label_data_1_split
I0321 14:19:13.376530  9963 net.cpp:131] Top shape: 128 1 (128)
I0321 14:19:13.376539  9963 net.cpp:131] Top shape: 128 1 (128)
I0321 14:19:13.376549  9963 net.cpp:131] Top shape: 128 1 (128)
I0321 14:19:13.376556  9963 net.cpp:139] Memory required for data: 25167872
I0321 14:19:13.376569  9963 layer_factory.hpp:77] Creating layer conv1/7x7_s2
I0321 14:19:13.376641  9963 net.cpp:86] Creating Layer conv1/7x7_s2
I0321 14:19:13.376648  9963 net.cpp:408] conv1/7x7_s2 <- data
I0321 14:19:13.376663  9963 net.cpp:382] conv1/7x7_s2 -> conv1/7x7_s2
I0321 14:19:13.380617  9963 net.cpp:124] Setting up conv1/7x7_s2
I0321 14:19:13.380688  9963 net.cpp:131] Top shape: 128 64 64 64 (33554432)
I0321 14:19:13.380698  9963 net.cpp:139] Memory required for data: 159385600
I0321 14:19:13.380743  9963 layer_factory.hpp:77] Creating layer conv1/relu_7x7
I0321 14:19:13.380810  9963 net.cpp:86] Creating Layer conv1/relu_7x7
I0321 14:19:13.380820  9963 net.cpp:408] conv1/relu_7x7 <- conv1/7x7_s2
I0321 14:19:13.380831  9963 net.cpp:369] conv1/relu_7x7 -> conv1/7x7_s2 (in-place)
I0321 14:19:13.380846  9963 net.cpp:124] Setting up conv1/relu_7x7
I0321 14:19:13.380853  9963 net.cpp:131] Top shape: 128 64 64 64 (33554432)
I0321 14:19:13.380859  9963 net.cpp:139] Memory required for data: 293603328
I0321 14:19:13.380864  9963 layer_factory.hpp:77] Creating layer pool1/3x3_s2
I0321 14:19:13.380879  9963 net.cpp:86] Creating Layer pool1/3x3_s2
I0321 14:19:13.380887  9963 net.cpp:408] pool1/3x3_s2 <- conv1/7x7_s2
I0321 14:19:13.380895  9963 net.cpp:382] pool1/3x3_s2 -> pool1/3x3_s2
I0321 14:19:13.380983  9963 net.cpp:124] Setting up pool1/3x3_s2
I0321 14:19:13.381000  9963 net.cpp:131] Top shape: 128 64 32 32 (8388608)
I0321 14:19:13.381006  9963 net.cpp:139] Memory required for data: 327157760
I0321 14:19:13.381016  9963 layer_factory.hpp:77] Creating layer pool1/norm1
I0321 14:19:13.381029  9963 net.cpp:86] Creating Layer pool1/norm1
I0321 14:19:13.381036  9963 net.cpp:408] pool1/norm1 <- pool1/3x3_s2
I0321 14:19:13.381047  9963 net.cpp:382] pool1/norm1 -> pool1/norm1
I0321 14:19:13.381098  9963 net.cpp:124] Setting up pool1/norm1
I0321 14:19:13.381112  9963 net.cpp:131] Top shape: 128 64 32 32 (8388608)
I0321 14:19:13.381119  9963 net.cpp:139] Memory required for data: 360712192
I0321 14:19:13.381125  9963 layer_factory.hpp:77] Creating layer conv2/3x3_reduce
I0321 14:19:13.381147  9963 net.cpp:86] Creating Layer conv2/3x3_reduce
I0321 14:19:13.381155  9963 net.cpp:408] conv2/3x3_reduce <- pool1/norm1
I0321 14:19:13.381165  9963 net.cpp:382] conv2/3x3_reduce -> conv2/3x3_reduce
I0321 14:19:13.382941  9963 net.cpp:124] Setting up conv2/3x3_reduce
I0321 14:19:13.382974  9963 net.cpp:131] Top shape: 128 64 32 32 (8388608)
I0321 14:19:13.382982  9963 net.cpp:139] Memory required for data: 394266624
I0321 14:19:13.382997  9963 layer_factory.hpp:77] Creating layer conv2/relu_3x3_reduce
I0321 14:19:13.383013  9963 net.cpp:86] Creating Layer conv2/relu_3x3_reduce
I0321 14:19:13.383020  9963 net.cpp:408] conv2/relu_3x3_reduce <- conv2/3x3_reduce
I0321 14:19:13.383031  9963 net.cpp:369] conv2/relu_3x3_reduce -> conv2/3x3_reduce (in-place)
I0321 14:19:13.383044  9963 net.cpp:124] Setting up conv2/relu_3x3_reduce
I0321 14:19:13.383050  9963 net.cpp:131] Top shape: 128 64 32 32 (8388608)
I0321 14:19:13.383056  9963 net.cpp:139] Memory required for data: 427821056
I0321 14:19:13.383061  9963 layer_factory.hpp:77] Creating layer conv2/norm2
I0321 14:19:13.383074  9963 net.cpp:86] Creating Layer conv2/norm2
I0321 14:19:13.383080  9963 net.cpp:408] conv2/norm2 <- conv2/3x3_reduce
I0321 14:19:13.383090  9963 net.cpp:382] conv2/norm2 -> conv2/norm2
I0321 14:19:13.383147  9963 net.cpp:124] Setting up conv2/norm2
I0321 14:19:13.383162  9963 net.cpp:131] Top shape: 128 64 32 32 (8388608)
I0321 14:19:13.383168  9963 net.cpp:139] Memory required for data: 461375488
I0321 14:19:13.383174  9963 layer_factory.hpp:77] Creating layer pool2/3x3_s2
I0321 14:19:13.383186  9963 net.cpp:86] Creating Layer pool2/3x3_s2
I0321 14:19:13.383193  9963 net.cpp:408] pool2/3x3_s2 <- conv2/norm2
I0321 14:19:13.383203  9963 net.cpp:382] pool2/3x3_s2 -> pool2/3x3_s2
I0321 14:19:13.383246  9963 net.cpp:124] Setting up pool2/3x3_s2
I0321 14:19:13.383260  9963 net.cpp:131] Top shape: 128 64 16 16 (2097152)
I0321 14:19:13.383265  9963 net.cpp:139] Memory required for data: 469764096
I0321 14:19:13.383271  9963 layer_factory.hpp:77] Creating layer pool2/3x3_s2_pool2/3x3_s2_0_split
I0321 14:19:13.383281  9963 net.cpp:86] Creating Layer pool2/3x3_s2_pool2/3x3_s2_0_split
I0321 14:19:13.383287  9963 net.cpp:408] pool2/3x3_s2_pool2/3x3_s2_0_split <- pool2/3x3_s2
I0321 14:19:13.383298  9963 net.cpp:382] pool2/3x3_s2_pool2/3x3_s2_0_split -> pool2/3x3_s2_pool2/3x3_s2_0_split_0
I0321 14:19:13.383308  9963 net.cpp:382] pool2/3x3_s2_pool2/3x3_s2_0_split -> pool2/3x3_s2_pool2/3x3_s2_0_split_1
I0321 14:19:13.383318  9963 net.cpp:382] pool2/3x3_s2_pool2/3x3_s2_0_split -> pool2/3x3_s2_pool2/3x3_s2_0_split_2
I0321 14:19:13.383349  9963 net.cpp:382] pool2/3x3_s2_pool2/3x3_s2_0_split -> pool2/3x3_s2_pool2/3x3_s2_0_split_3
I0321 14:19:13.383414  9963 net.cpp:124] Setting up pool2/3x3_s2_pool2/3x3_s2_0_split
I0321 14:19:13.383427  9963 net.cpp:131] Top shape: 128 64 16 16 (2097152)
I0321 14:19:13.383435  9963 net.cpp:131] Top shape: 128 64 16 16 (2097152)
I0321 14:19:13.383441  9963 net.cpp:131] Top shape: 128 64 16 16 (2097152)
I0321 14:19:13.383447  9963 net.cpp:131] Top shape: 128 64 16 16 (2097152)
I0321 14:19:13.383453  9963 net.cpp:139] Memory required for data: 503318528
I0321 14:19:13.383458  9963 layer_factory.hpp:77] Creating layer inception_3a/1x1
I0321 14:19:13.383476  9963 net.cpp:86] Creating Layer inception_3a/1x1
I0321 14:19:13.383482  9963 net.cpp:408] inception_3a/1x1 <- pool2/3x3_s2_pool2/3x3_s2_0_split_0
I0321 14:19:13.383494  9963 net.cpp:382] inception_3a/1x1 -> inception_3a/1x1
I0321 14:19:13.383779  9963 net.cpp:124] Setting up inception_3a/1x1
I0321 14:19:13.383795  9963 net.cpp:131] Top shape: 128 64 16 16 (2097152)
I0321 14:19:13.383801  9963 net.cpp:139] Memory required for data: 511707136
I0321 14:19:13.383816  9963 layer_factory.hpp:77] Creating layer inception_3a/relu_1x1
I0321 14:19:13.383826  9963 net.cpp:86] Creating Layer inception_3a/relu_1x1
I0321 14:19:13.383833  9963 net.cpp:408] inception_3a/relu_1x1 <- inception_3a/1x1
I0321 14:19:13.383842  9963 net.cpp:369] inception_3a/relu_1x1 -> inception_3a/1x1 (in-place)
I0321 14:19:13.383852  9963 net.cpp:124] Setting up inception_3a/relu_1x1
I0321 14:19:13.383859  9963 net.cpp:131] Top shape: 128 64 16 16 (2097152)
I0321 14:19:13.383864  9963 net.cpp:139] Memory required for data: 520095744
I0321 14:19:13.383869  9963 layer_factory.hpp:77] Creating layer inception_3a/3x3_reduce
I0321 14:19:13.383882  9963 net.cpp:86] Creating Layer inception_3a/3x3_reduce
I0321 14:19:13.383888  9963 net.cpp:408] inception_3a/3x3_reduce <- pool2/3x3_s2_pool2/3x3_s2_0_split_1
I0321 14:19:13.383898  9963 net.cpp:382] inception_3a/3x3_reduce -> inception_3a/3x3_reduce
I0321 14:19:13.384214  9963 net.cpp:124] Setting up inception_3a/3x3_reduce
I0321 14:19:13.384232  9963 net.cpp:131] Top shape: 128 96 16 16 (3145728)
I0321 14:19:13.384238  9963 net.cpp:139] Memory required for data: 532678656
I0321 14:19:13.384248  9963 layer_factory.hpp:77] Creating layer inception_3a/relu_3x3_reduce
I0321 14:19:13.384258  9963 net.cpp:86] Creating Layer inception_3a/relu_3x3_reduce
I0321 14:19:13.384265  9963 net.cpp:408] inception_3a/relu_3x3_reduce <- inception_3a/3x3_reduce
I0321 14:19:13.384274  9963 net.cpp:369] inception_3a/relu_3x3_reduce -> inception_3a/3x3_reduce (in-place)
I0321 14:19:13.384284  9963 net.cpp:124] Setting up inception_3a/relu_3x3_reduce
I0321 14:19:13.384290  9963 net.cpp:131] Top shape: 128 96 16 16 (3145728)
I0321 14:19:13.384296  9963 net.cpp:139] Memory required for data: 545261568
I0321 14:19:13.384301  9963 layer_factory.hpp:77] Creating layer inception_3a/3x3
I0321 14:19:13.384315  9963 net.cpp:86] Creating Layer inception_3a/3x3
I0321 14:19:13.384321  9963 net.cpp:408] inception_3a/3x3 <- inception_3a/3x3_reduce
I0321 14:19:13.384331  9963 net.cpp:382] inception_3a/3x3 -> inception_3a/3x3
I0321 14:19:13.386834  9963 net.cpp:124] Setting up inception_3a/3x3
I0321 14:19:13.386862  9963 net.cpp:131] Top shape: 128 128 16 16 (4194304)
I0321 14:19:13.386870  9963 net.cpp:139] Memory required for data: 562038784
I0321 14:19:13.386885  9963 layer_factory.hpp:77] Creating layer inception_3a/relu_3x3
I0321 14:19:13.386904  9963 net.cpp:86] Creating Layer inception_3a/relu_3x3
I0321 14:19:13.386911  9963 net.cpp:408] inception_3a/relu_3x3 <- inception_3a/3x3
I0321 14:19:13.386924  9963 net.cpp:369] inception_3a/relu_3x3 -> inception_3a/3x3 (in-place)
I0321 14:19:13.386935  9963 net.cpp:124] Setting up inception_3a/relu_3x3
I0321 14:19:13.386942  9963 net.cpp:131] Top shape: 128 128 16 16 (4194304)
I0321 14:19:13.386948  9963 net.cpp:139] Memory required for data: 578816000
I0321 14:19:13.386981  9963 layer_factory.hpp:77] Creating layer inception_3a/5x5_reduce
I0321 14:19:13.387006  9963 net.cpp:86] Creating Layer inception_3a/5x5_reduce
I0321 14:19:13.387013  9963 net.cpp:408] inception_3a/5x5_reduce <- pool2/3x3_s2_pool2/3x3_s2_0_split_2
I0321 14:19:13.387024  9963 net.cpp:382] inception_3a/5x5_reduce -> inception_3a/5x5_reduce
I0321 14:19:13.387281  9963 net.cpp:124] Setting up inception_3a/5x5_reduce
I0321 14:19:13.387300  9963 net.cpp:131] Top shape: 128 16 16 16 (524288)
I0321 14:19:13.387305  9963 net.cpp:139] Memory required for data: 580913152
I0321 14:19:13.387316  9963 layer_factory.hpp:77] Creating layer inception_3a/relu_5x5_reduce
I0321 14:19:13.387326  9963 net.cpp:86] Creating Layer inception_3a/relu_5x5_reduce
I0321 14:19:13.387333  9963 net.cpp:408] inception_3a/relu_5x5_reduce <- inception_3a/5x5_reduce
I0321 14:19:13.387342  9963 net.cpp:369] inception_3a/relu_5x5_reduce -> inception_3a/5x5_reduce (in-place)
I0321 14:19:13.387352  9963 net.cpp:124] Setting up inception_3a/relu_5x5_reduce
I0321 14:19:13.387361  9963 net.cpp:131] Top shape: 128 16 16 16 (524288)
I0321 14:19:13.387365  9963 net.cpp:139] Memory required for data: 583010304
I0321 14:19:13.387370  9963 layer_factory.hpp:77] Creating layer inception_3a/5x5
I0321 14:19:13.387384  9963 net.cpp:86] Creating Layer inception_3a/5x5
I0321 14:19:13.387390  9963 net.cpp:408] inception_3a/5x5 <- inception_3a/5x5_reduce
I0321 14:19:13.387400  9963 net.cpp:382] inception_3a/5x5 -> inception_3a/5x5
I0321 14:19:13.387778  9963 net.cpp:124] Setting up inception_3a/5x5
I0321 14:19:13.387794  9963 net.cpp:131] Top shape: 128 32 16 16 (1048576)
I0321 14:19:13.387800  9963 net.cpp:139] Memory required for data: 587204608
I0321 14:19:13.387809  9963 layer_factory.hpp:77] Creating layer inception_3a/relu_5x5
I0321 14:19:13.387820  9963 net.cpp:86] Creating Layer inception_3a/relu_5x5
I0321 14:19:13.387827  9963 net.cpp:408] inception_3a/relu_5x5 <- inception_3a/5x5
I0321 14:19:13.387835  9963 net.cpp:369] inception_3a/relu_5x5 -> inception_3a/5x5 (in-place)
I0321 14:19:13.387845  9963 net.cpp:124] Setting up inception_3a/relu_5x5
I0321 14:19:13.387852  9963 net.cpp:131] Top shape: 128 32 16 16 (1048576)
I0321 14:19:13.387857  9963 net.cpp:139] Memory required for data: 591398912
I0321 14:19:13.387862  9963 layer_factory.hpp:77] Creating layer inception_3a/pool
I0321 14:19:13.387872  9963 net.cpp:86] Creating Layer inception_3a/pool
I0321 14:19:13.387879  9963 net.cpp:408] inception_3a/pool <- pool2/3x3_s2_pool2/3x3_s2_0_split_3
I0321 14:19:13.387887  9963 net.cpp:382] inception_3a/pool -> inception_3a/pool
I0321 14:19:13.387928  9963 net.cpp:124] Setting up inception_3a/pool
I0321 14:19:13.387943  9963 net.cpp:131] Top shape: 128 64 16 16 (2097152)
I0321 14:19:13.387948  9963 net.cpp:139] Memory required for data: 599787520
I0321 14:19:13.387954  9963 layer_factory.hpp:77] Creating layer inception_3a/pool_proj
I0321 14:19:13.387967  9963 net.cpp:86] Creating Layer inception_3a/pool_proj
I0321 14:19:13.387974  9963 net.cpp:408] inception_3a/pool_proj <- inception_3a/pool
I0321 14:19:13.387984  9963 net.cpp:382] inception_3a/pool_proj -> inception_3a/pool_proj
I0321 14:19:13.388238  9963 net.cpp:124] Setting up inception_3a/pool_proj
I0321 14:19:13.388254  9963 net.cpp:131] Top shape: 128 32 16 16 (1048576)
I0321 14:19:13.388260  9963 net.cpp:139] Memory required for data: 603981824
I0321 14:19:13.388269  9963 layer_factory.hpp:77] Creating layer inception_3a/relu_pool_proj
I0321 14:19:13.388281  9963 net.cpp:86] Creating Layer inception_3a/relu_pool_proj
I0321 14:19:13.388288  9963 net.cpp:408] inception_3a/relu_pool_proj <- inception_3a/pool_proj
I0321 14:19:13.388296  9963 net.cpp:369] inception_3a/relu_pool_proj -> inception_3a/pool_proj (in-place)
I0321 14:19:13.388305  9963 net.cpp:124] Setting up inception_3a/relu_pool_proj
I0321 14:19:13.388314  9963 net.cpp:131] Top shape: 128 32 16 16 (1048576)
I0321 14:19:13.388319  9963 net.cpp:139] Memory required for data: 608176128
I0321 14:19:13.388324  9963 layer_factory.hpp:77] Creating layer inception_3a/output
I0321 14:19:13.388350  9963 net.cpp:86] Creating Layer inception_3a/output
I0321 14:19:13.388357  9963 net.cpp:408] inception_3a/output <- inception_3a/1x1
I0321 14:19:13.388365  9963 net.cpp:408] inception_3a/output <- inception_3a/3x3
I0321 14:19:13.388372  9963 net.cpp:408] inception_3a/output <- inception_3a/5x5
I0321 14:19:13.388380  9963 net.cpp:408] inception_3a/output <- inception_3a/pool_proj
I0321 14:19:13.388387  9963 net.cpp:382] inception_3a/output -> inception_3a/output
I0321 14:19:13.388417  9963 net.cpp:124] Setting up inception_3a/output
I0321 14:19:13.388427  9963 net.cpp:131] Top shape: 128 256 16 16 (8388608)
I0321 14:19:13.388432  9963 net.cpp:139] Memory required for data: 641730560
I0321 14:19:13.388440  9963 layer_factory.hpp:77] Creating layer pool3/3x3_s2
I0321 14:19:13.388449  9963 net.cpp:86] Creating Layer pool3/3x3_s2
I0321 14:19:13.388456  9963 net.cpp:408] pool3/3x3_s2 <- inception_3a/output
I0321 14:19:13.388466  9963 net.cpp:382] pool3/3x3_s2 -> pool3/3x3_s2
I0321 14:19:13.388510  9963 net.cpp:124] Setting up pool3/3x3_s2
I0321 14:19:13.388525  9963 net.cpp:131] Top shape: 128 256 8 8 (2097152)
I0321 14:19:13.388530  9963 net.cpp:139] Memory required for data: 650119168
I0321 14:19:13.388536  9963 layer_factory.hpp:77] Creating layer pool3/3x3_s2_pool3/3x3_s2_0_split
I0321 14:19:13.388546  9963 net.cpp:86] Creating Layer pool3/3x3_s2_pool3/3x3_s2_0_split
I0321 14:19:13.388552  9963 net.cpp:408] pool3/3x3_s2_pool3/3x3_s2_0_split <- pool3/3x3_s2
I0321 14:19:13.388561  9963 net.cpp:382] pool3/3x3_s2_pool3/3x3_s2_0_split -> pool3/3x3_s2_pool3/3x3_s2_0_split_0
I0321 14:19:13.388572  9963 net.cpp:382] pool3/3x3_s2_pool3/3x3_s2_0_split -> pool3/3x3_s2_pool3/3x3_s2_0_split_1
I0321 14:19:13.388582  9963 net.cpp:382] pool3/3x3_s2_pool3/3x3_s2_0_split -> pool3/3x3_s2_pool3/3x3_s2_0_split_2
I0321 14:19:13.388592  9963 net.cpp:382] pool3/3x3_s2_pool3/3x3_s2_0_split -> pool3/3x3_s2_pool3/3x3_s2_0_split_3
I0321 14:19:13.388653  9963 net.cpp:124] Setting up pool3/3x3_s2_pool3/3x3_s2_0_split
I0321 14:19:13.388665  9963 net.cpp:131] Top shape: 128 256 8 8 (2097152)
I0321 14:19:13.388674  9963 net.cpp:131] Top shape: 128 256 8 8 (2097152)
I0321 14:19:13.388679  9963 net.cpp:131] Top shape: 128 256 8 8 (2097152)
I0321 14:19:13.388686  9963 net.cpp:131] Top shape: 128 256 8 8 (2097152)
I0321 14:19:13.388691  9963 net.cpp:139] Memory required for data: 683673600
I0321 14:19:13.388697  9963 layer_factory.hpp:77] Creating layer inception_4a/1x1
I0321 14:19:13.388712  9963 net.cpp:86] Creating Layer inception_4a/1x1
I0321 14:19:13.388720  9963 net.cpp:408] inception_4a/1x1 <- pool3/3x3_s2_pool3/3x3_s2_0_split_0
I0321 14:19:13.388731  9963 net.cpp:382] inception_4a/1x1 -> inception_4a/1x1
I0321 14:19:13.390786  9963 net.cpp:124] Setting up inception_4a/1x1
I0321 14:19:13.390810  9963 net.cpp:131] Top shape: 128 192 8 8 (1572864)
I0321 14:19:13.390816  9963 net.cpp:139] Memory required for data: 689965056
I0321 14:19:13.390832  9963 layer_factory.hpp:77] Creating layer inception_4a/relu_1x1
I0321 14:19:13.390842  9963 net.cpp:86] Creating Layer inception_4a/relu_1x1
I0321 14:19:13.390849  9963 net.cpp:408] inception_4a/relu_1x1 <- inception_4a/1x1
I0321 14:19:13.390858  9963 net.cpp:369] inception_4a/relu_1x1 -> inception_4a/1x1 (in-place)
I0321 14:19:13.390869  9963 net.cpp:124] Setting up inception_4a/relu_1x1
I0321 14:19:13.390877  9963 net.cpp:131] Top shape: 128 192 8 8 (1572864)
I0321 14:19:13.390882  9963 net.cpp:139] Memory required for data: 696256512
I0321 14:19:13.390887  9963 layer_factory.hpp:77] Creating layer inception_4a/3x3_reduce
I0321 14:19:13.390899  9963 net.cpp:86] Creating Layer inception_4a/3x3_reduce
I0321 14:19:13.390907  9963 net.cpp:408] inception_4a/3x3_reduce <- pool3/3x3_s2_pool3/3x3_s2_0_split_1
I0321 14:19:13.390916  9963 net.cpp:382] inception_4a/3x3_reduce -> inception_4a/3x3_reduce
I0321 14:19:13.391362  9963 net.cpp:124] Setting up inception_4a/3x3_reduce
I0321 14:19:13.391379  9963 net.cpp:131] Top shape: 128 96 8 8 (786432)
I0321 14:19:13.391386  9963 net.cpp:139] Memory required for data: 699402240
I0321 14:19:13.391412  9963 layer_factory.hpp:77] Creating layer inception_4a/relu_3x3_reduce
I0321 14:19:13.391425  9963 net.cpp:86] Creating Layer inception_4a/relu_3x3_reduce
I0321 14:19:13.391433  9963 net.cpp:408] inception_4a/relu_3x3_reduce <- inception_4a/3x3_reduce
I0321 14:19:13.391441  9963 net.cpp:369] inception_4a/relu_3x3_reduce -> inception_4a/3x3_reduce (in-place)
I0321 14:19:13.391526  9963 net.cpp:124] Setting up inception_4a/relu_3x3_reduce
I0321 14:19:13.391540  9963 net.cpp:131] Top shape: 128 96 8 8 (786432)
I0321 14:19:13.391546  9963 net.cpp:139] Memory required for data: 702547968
I0321 14:19:13.391551  9963 layer_factory.hpp:77] Creating layer inception_4a/3x3
I0321 14:19:13.391569  9963 net.cpp:86] Creating Layer inception_4a/3x3
I0321 14:19:13.391577  9963 net.cpp:408] inception_4a/3x3 <- inception_4a/3x3_reduce
I0321 14:19:13.391587  9963 net.cpp:382] inception_4a/3x3 -> inception_4a/3x3
I0321 14:19:13.393503  9963 net.cpp:124] Setting up inception_4a/3x3
I0321 14:19:13.393522  9963 net.cpp:131] Top shape: 128 208 8 8 (1703936)
I0321 14:19:13.393528  9963 net.cpp:139] Memory required for data: 709363712
I0321 14:19:13.393539  9963 layer_factory.hpp:77] Creating layer inception_4a/relu_3x3
I0321 14:19:13.393553  9963 net.cpp:86] Creating Layer inception_4a/relu_3x3
I0321 14:19:13.393560  9963 net.cpp:408] inception_4a/relu_3x3 <- inception_4a/3x3
I0321 14:19:13.393569  9963 net.cpp:369] inception_4a/relu_3x3 -> inception_4a/3x3 (in-place)
I0321 14:19:13.393579  9963 net.cpp:124] Setting up inception_4a/relu_3x3
I0321 14:19:13.393586  9963 net.cpp:131] Top shape: 128 208 8 8 (1703936)
I0321 14:19:13.393592  9963 net.cpp:139] Memory required for data: 716179456
I0321 14:19:13.393597  9963 layer_factory.hpp:77] Creating layer inception_4a/5x5_reduce
I0321 14:19:13.393611  9963 net.cpp:86] Creating Layer inception_4a/5x5_reduce
I0321 14:19:13.393618  9963 net.cpp:408] inception_4a/5x5_reduce <- pool3/3x3_s2_pool3/3x3_s2_0_split_2
I0321 14:19:13.393628  9963 net.cpp:382] inception_4a/5x5_reduce -> inception_4a/5x5_reduce
I0321 14:19:13.393919  9963 net.cpp:124] Setting up inception_4a/5x5_reduce
I0321 14:19:13.393937  9963 net.cpp:131] Top shape: 128 16 8 8 (131072)
I0321 14:19:13.393944  9963 net.cpp:139] Memory required for data: 716703744
I0321 14:19:13.393952  9963 layer_factory.hpp:77] Creating layer inception_4a/relu_5x5_reduce
I0321 14:19:13.393961  9963 net.cpp:86] Creating Layer inception_4a/relu_5x5_reduce
I0321 14:19:13.393967  9963 net.cpp:408] inception_4a/relu_5x5_reduce <- inception_4a/5x5_reduce
I0321 14:19:13.393976  9963 net.cpp:369] inception_4a/relu_5x5_reduce -> inception_4a/5x5_reduce (in-place)
I0321 14:19:13.393985  9963 net.cpp:124] Setting up inception_4a/relu_5x5_reduce
I0321 14:19:13.393993  9963 net.cpp:131] Top shape: 128 16 8 8 (131072)
I0321 14:19:13.393998  9963 net.cpp:139] Memory required for data: 717228032
I0321 14:19:13.394003  9963 layer_factory.hpp:77] Creating layer inception_4a/5x5
I0321 14:19:13.394016  9963 net.cpp:86] Creating Layer inception_4a/5x5
I0321 14:19:13.394022  9963 net.cpp:408] inception_4a/5x5 <- inception_4a/5x5_reduce
I0321 14:19:13.394032  9963 net.cpp:382] inception_4a/5x5 -> inception_4a/5x5
I0321 14:19:13.394434  9963 net.cpp:124] Setting up inception_4a/5x5
I0321 14:19:13.394453  9963 net.cpp:131] Top shape: 128 48 8 8 (393216)
I0321 14:19:13.394459  9963 net.cpp:139] Memory required for data: 718800896
I0321 14:19:13.394467  9963 layer_factory.hpp:77] Creating layer inception_4a/relu_5x5
I0321 14:19:13.394479  9963 net.cpp:86] Creating Layer inception_4a/relu_5x5
I0321 14:19:13.394485  9963 net.cpp:408] inception_4a/relu_5x5 <- inception_4a/5x5
I0321 14:19:13.394493  9963 net.cpp:369] inception_4a/relu_5x5 -> inception_4a/5x5 (in-place)
I0321 14:19:13.394503  9963 net.cpp:124] Setting up inception_4a/relu_5x5
I0321 14:19:13.394510  9963 net.cpp:131] Top shape: 128 48 8 8 (393216)
I0321 14:19:13.394515  9963 net.cpp:139] Memory required for data: 720373760
I0321 14:19:13.394520  9963 layer_factory.hpp:77] Creating layer inception_4a/pool
I0321 14:19:13.394547  9963 net.cpp:86] Creating Layer inception_4a/pool
I0321 14:19:13.394554  9963 net.cpp:408] inception_4a/pool <- pool3/3x3_s2_pool3/3x3_s2_0_split_3
I0321 14:19:13.394563  9963 net.cpp:382] inception_4a/pool -> inception_4a/pool
I0321 14:19:13.394609  9963 net.cpp:124] Setting up inception_4a/pool
I0321 14:19:13.394623  9963 net.cpp:131] Top shape: 128 256 8 8 (2097152)
I0321 14:19:13.394630  9963 net.cpp:139] Memory required for data: 728762368
I0321 14:19:13.394635  9963 layer_factory.hpp:77] Creating layer inception_4a/pool_proj
I0321 14:19:13.394649  9963 net.cpp:86] Creating Layer inception_4a/pool_proj
I0321 14:19:13.394655  9963 net.cpp:408] inception_4a/pool_proj <- inception_4a/pool
I0321 14:19:13.394665  9963 net.cpp:382] inception_4a/pool_proj -> inception_4a/pool_proj
I0321 14:19:13.395056  9963 net.cpp:124] Setting up inception_4a/pool_proj
I0321 14:19:13.395082  9963 net.cpp:131] Top shape: 128 64 8 8 (524288)
I0321 14:19:13.395089  9963 net.cpp:139] Memory required for data: 730859520
I0321 14:19:13.395100  9963 layer_factory.hpp:77] Creating layer inception_4a/relu_pool_proj
I0321 14:19:13.395112  9963 net.cpp:86] Creating Layer inception_4a/relu_pool_proj
I0321 14:19:13.395118  9963 net.cpp:408] inception_4a/relu_pool_proj <- inception_4a/pool_proj
I0321 14:19:13.395128  9963 net.cpp:369] inception_4a/relu_pool_proj -> inception_4a/pool_proj (in-place)
I0321 14:19:13.395136  9963 net.cpp:124] Setting up inception_4a/relu_pool_proj
I0321 14:19:13.395144  9963 net.cpp:131] Top shape: 128 64 8 8 (524288)
I0321 14:19:13.395149  9963 net.cpp:139] Memory required for data: 732956672
I0321 14:19:13.395155  9963 layer_factory.hpp:77] Creating layer inception_4a/output
I0321 14:19:13.395164  9963 net.cpp:86] Creating Layer inception_4a/output
I0321 14:19:13.395169  9963 net.cpp:408] inception_4a/output <- inception_4a/1x1
I0321 14:19:13.395176  9963 net.cpp:408] inception_4a/output <- inception_4a/3x3
I0321 14:19:13.395184  9963 net.cpp:408] inception_4a/output <- inception_4a/5x5
I0321 14:19:13.395190  9963 net.cpp:408] inception_4a/output <- inception_4a/pool_proj
I0321 14:19:13.395200  9963 net.cpp:382] inception_4a/output -> inception_4a/output
I0321 14:19:13.395231  9963 net.cpp:124] Setting up inception_4a/output
I0321 14:19:13.395242  9963 net.cpp:131] Top shape: 128 512 8 8 (4194304)
I0321 14:19:13.395248  9963 net.cpp:139] Memory required for data: 749733888
I0321 14:19:13.395253  9963 layer_factory.hpp:77] Creating layer inception_4a/output_inception_4a/output_0_split
I0321 14:19:13.395264  9963 net.cpp:86] Creating Layer inception_4a/output_inception_4a/output_0_split
I0321 14:19:13.395270  9963 net.cpp:408] inception_4a/output_inception_4a/output_0_split <- inception_4a/output
I0321 14:19:13.395279  9963 net.cpp:382] inception_4a/output_inception_4a/output_0_split -> inception_4a/output_inception_4a/output_0_split_0
I0321 14:19:13.395290  9963 net.cpp:382] inception_4a/output_inception_4a/output_0_split -> inception_4a/output_inception_4a/output_0_split_1
I0321 14:19:13.395300  9963 net.cpp:382] inception_4a/output_inception_4a/output_0_split -> inception_4a/output_inception_4a/output_0_split_2
I0321 14:19:13.395310  9963 net.cpp:382] inception_4a/output_inception_4a/output_0_split -> inception_4a/output_inception_4a/output_0_split_3
I0321 14:19:13.395319  9963 net.cpp:382] inception_4a/output_inception_4a/output_0_split -> inception_4a/output_inception_4a/output_0_split_4
I0321 14:19:13.395393  9963 net.cpp:124] Setting up inception_4a/output_inception_4a/output_0_split
I0321 14:19:13.395407  9963 net.cpp:131] Top shape: 128 512 8 8 (4194304)
I0321 14:19:13.395416  9963 net.cpp:131] Top shape: 128 512 8 8 (4194304)
I0321 14:19:13.395421  9963 net.cpp:131] Top shape: 128 512 8 8 (4194304)
I0321 14:19:13.395428  9963 net.cpp:131] Top shape: 128 512 8 8 (4194304)
I0321 14:19:13.395434  9963 net.cpp:131] Top shape: 128 512 8 8 (4194304)
I0321 14:19:13.395439  9963 net.cpp:139] Memory required for data: 833619968
I0321 14:19:13.395462  9963 layer_factory.hpp:77] Creating layer loss1_my/ave_pool
I0321 14:19:13.395473  9963 net.cpp:86] Creating Layer loss1_my/ave_pool
I0321 14:19:13.395479  9963 net.cpp:408] loss1_my/ave_pool <- inception_4a/output_inception_4a/output_0_split_0
I0321 14:19:13.395489  9963 net.cpp:382] loss1_my/ave_pool -> loss1_my/ave_pool
I0321 14:19:13.395521  9963 net.cpp:124] Setting up loss1_my/ave_pool
I0321 14:19:13.395535  9963 net.cpp:131] Top shape: 128 512 2 2 (262144)
I0321 14:19:13.395542  9963 net.cpp:139] Memory required for data: 834668544
I0321 14:19:13.395547  9963 layer_factory.hpp:77] Creating layer loss1_my/conv
I0321 14:19:13.395562  9963 net.cpp:86] Creating Layer loss1_my/conv
I0321 14:19:13.395570  9963 net.cpp:408] loss1_my/conv <- loss1_my/ave_pool
I0321 14:19:13.395579  9963 net.cpp:382] loss1_my/conv -> loss1_my/conv
I0321 14:19:13.396406  9963 net.cpp:124] Setting up loss1_my/conv
I0321 14:19:13.396425  9963 net.cpp:131] Top shape: 128 128 2 2 (65536)
I0321 14:19:13.396431  9963 net.cpp:139] Memory required for data: 834930688
I0321 14:19:13.396440  9963 layer_factory.hpp:77] Creating layer loss1_my/relu_conv
I0321 14:19:13.396450  9963 net.cpp:86] Creating Layer loss1_my/relu_conv
I0321 14:19:13.396456  9963 net.cpp:408] loss1_my/relu_conv <- loss1_my/conv
I0321 14:19:13.396466  9963 net.cpp:369] loss1_my/relu_conv -> loss1_my/conv (in-place)
I0321 14:19:13.396474  9963 net.cpp:124] Setting up loss1_my/relu_conv
I0321 14:19:13.396481  9963 net.cpp:131] Top shape: 128 128 2 2 (65536)
I0321 14:19:13.396487  9963 net.cpp:139] Memory required for data: 835192832
I0321 14:19:13.396494  9963 layer_factory.hpp:77] Creating layer loss1_my/fc
I0321 14:19:13.396515  9963 net.cpp:86] Creating Layer loss1_my/fc
I0321 14:19:13.396522  9963 net.cpp:408] loss1_my/fc <- loss1_my/conv
I0321 14:19:13.396530  9963 net.cpp:382] loss1_my/fc -> loss1_my/fc
I0321 14:19:13.402474  9963 net.cpp:124] Setting up loss1_my/fc
I0321 14:19:13.402516  9963 net.cpp:131] Top shape: 128 1024 (131072)
I0321 14:19:13.402523  9963 net.cpp:139] Memory required for data: 835717120
I0321 14:19:13.402535  9963 layer_factory.hpp:77] Creating layer loss1_my/relu_fc
I0321 14:19:13.402652  9963 net.cpp:86] Creating Layer loss1_my/relu_fc
I0321 14:19:13.402698  9963 net.cpp:408] loss1_my/relu_fc <- loss1_my/fc
I0321 14:19:13.402730  9963 net.cpp:369] loss1_my/relu_fc -> loss1_my/fc (in-place)
I0321 14:19:13.402767  9963 net.cpp:124] Setting up loss1_my/relu_fc
I0321 14:19:13.402796  9963 net.cpp:131] Top shape: 128 1024 (131072)
I0321 14:19:13.402812  9963 net.cpp:139] Memory required for data: 836241408
I0321 14:19:13.402832  9963 layer_factory.hpp:77] Creating layer loss1_my/drop_fc
I0321 14:19:13.402871  9963 net.cpp:86] Creating Layer loss1_my/drop_fc
I0321 14:19:13.402892  9963 net.cpp:408] loss1_my/drop_fc <- loss1_my/fc
I0321 14:19:13.402915  9963 net.cpp:369] loss1_my/drop_fc -> loss1_my/fc (in-place)
I0321 14:19:13.403033  9963 net.cpp:124] Setting up loss1_my/drop_fc
I0321 14:19:13.403059  9963 net.cpp:131] Top shape: 128 1024 (131072)
I0321 14:19:13.403074  9963 net.cpp:139] Memory required for data: 836765696
I0321 14:19:13.403118  9963 layer_factory.hpp:77] Creating layer loss1_lite/classifier
I0321 14:19:13.403149  9963 net.cpp:86] Creating Layer loss1_lite/classifier
I0321 14:19:13.403167  9963 net.cpp:408] loss1_lite/classifier <- loss1_my/fc
I0321 14:19:13.403192  9963 net.cpp:382] loss1_lite/classifier -> loss1_lite/classifier
I0321 14:19:13.403450  9963 net.cpp:124] Setting up loss1_lite/classifier
I0321 14:19:13.403476  9963 net.cpp:131] Top shape: 128 1 (128)
I0321 14:19:13.403494  9963 net.cpp:139] Memory required for data: 836766208
I0321 14:19:13.403542  9963 layer_factory.hpp:77] Creating layer loss1_my/loss
I0321 14:19:13.404875  9963 net.cpp:86] Creating Layer loss1_my/loss
I0321 14:19:13.404904  9963 net.cpp:408] loss1_my/loss <- loss1_lite/classifier
I0321 14:19:13.404928  9963 net.cpp:408] loss1_my/loss <- label_data_1_split_0
I0321 14:19:13.404954  9963 net.cpp:382] loss1_my/loss -> loss1_my/loss
I0321 14:19:13.405488  9963 net.cpp:124] Setting up loss1_my/loss
I0321 14:19:13.405519  9963 net.cpp:131] Top shape: 1 (1)
I0321 14:19:13.405536  9963 net.cpp:134]     with loss weight 0.1
I0321 14:19:13.405606  9963 net.cpp:139] Memory required for data: 836766212
I0321 14:19:13.405624  9963 layer_factory.hpp:77] Creating layer inception_4b/1x1
I0321 14:19:13.405658  9963 net.cpp:86] Creating Layer inception_4b/1x1
I0321 14:19:13.405679  9963 net.cpp:408] inception_4b/1x1 <- inception_4a/output_inception_4a/output_0_split_1
I0321 14:19:13.405716  9963 net.cpp:382] inception_4b/1x1 -> inception_4b/1x1
I0321 14:19:13.406792  9963 net.cpp:124] Setting up inception_4b/1x1
I0321 14:19:13.406812  9963 net.cpp:131] Top shape: 128 160 8 8 (1310720)
I0321 14:19:13.406819  9963 net.cpp:139] Memory required for data: 842009092
I0321 14:19:13.406829  9963 layer_factory.hpp:77] Creating layer inception_4b/relu_1x1
I0321 14:19:13.406839  9963 net.cpp:86] Creating Layer inception_4b/relu_1x1
I0321 14:19:13.406848  9963 net.cpp:408] inception_4b/relu_1x1 <- inception_4b/1x1
I0321 14:19:13.406858  9963 net.cpp:369] inception_4b/relu_1x1 -> inception_4b/1x1 (in-place)
I0321 14:19:13.406868  9963 net.cpp:124] Setting up inception_4b/relu_1x1
I0321 14:19:13.406877  9963 net.cpp:131] Top shape: 128 160 8 8 (1310720)
I0321 14:19:13.406882  9963 net.cpp:139] Memory required for data: 847251972
I0321 14:19:13.406896  9963 layer_factory.hpp:77] Creating layer inception_4b/3x3_reduce
I0321 14:19:13.406918  9963 net.cpp:86] Creating Layer inception_4b/3x3_reduce
I0321 14:19:13.406927  9963 net.cpp:408] inception_4b/3x3_reduce <- inception_4a/output_inception_4a/output_0_split_2
I0321 14:19:13.406939  9963 net.cpp:382] inception_4b/3x3_reduce -> inception_4b/3x3_reduce
I0321 14:19:13.407737  9963 net.cpp:124] Setting up inception_4b/3x3_reduce
I0321 14:19:13.407754  9963 net.cpp:131] Top shape: 128 112 8 8 (917504)
I0321 14:19:13.407760  9963 net.cpp:139] Memory required for data: 850921988
I0321 14:19:13.407770  9963 layer_factory.hpp:77] Creating layer inception_4b/relu_3x3_reduce
I0321 14:19:13.407779  9963 net.cpp:86] Creating Layer inception_4b/relu_3x3_reduce
I0321 14:19:13.407786  9963 net.cpp:408] inception_4b/relu_3x3_reduce <- inception_4b/3x3_reduce
I0321 14:19:13.407795  9963 net.cpp:369] inception_4b/relu_3x3_reduce -> inception_4b/3x3_reduce (in-place)
I0321 14:19:13.407805  9963 net.cpp:124] Setting up inception_4b/relu_3x3_reduce
I0321 14:19:13.407815  9963 net.cpp:131] Top shape: 128 112 8 8 (917504)
I0321 14:19:13.407821  9963 net.cpp:139] Memory required for data: 854592004
I0321 14:19:13.407826  9963 layer_factory.hpp:77] Creating layer inception_4b/3x3
I0321 14:19:13.407840  9963 net.cpp:86] Creating Layer inception_4b/3x3
I0321 14:19:13.407848  9963 net.cpp:408] inception_4b/3x3 <- inception_4b/3x3_reduce
I0321 14:19:13.407858  9963 net.cpp:382] inception_4b/3x3 -> inception_4b/3x3
I0321 14:19:13.411500  9963 net.cpp:124] Setting up inception_4b/3x3
I0321 14:19:13.411525  9963 net.cpp:131] Top shape: 128 224 8 8 (1835008)
I0321 14:19:13.411531  9963 net.cpp:139] Memory required for data: 861932036
I0321 14:19:13.411552  9963 layer_factory.hpp:77] Creating layer inception_4b/relu_3x3
I0321 14:19:13.411573  9963 net.cpp:86] Creating Layer inception_4b/relu_3x3
I0321 14:19:13.411583  9963 net.cpp:408] inception_4b/relu_3x3 <- inception_4b/3x3
I0321 14:19:13.411593  9963 net.cpp:369] inception_4b/relu_3x3 -> inception_4b/3x3 (in-place)
I0321 14:19:13.411604  9963 net.cpp:124] Setting up inception_4b/relu_3x3
I0321 14:19:13.411614  9963 net.cpp:131] Top shape: 128 224 8 8 (1835008)
I0321 14:19:13.411620  9963 net.cpp:139] Memory required for data: 869272068
I0321 14:19:13.411625  9963 layer_factory.hpp:77] Creating layer inception_4b/5x5_reduce
I0321 14:19:13.411643  9963 net.cpp:86] Creating Layer inception_4b/5x5_reduce
I0321 14:19:13.411651  9963 net.cpp:408] inception_4b/5x5_reduce <- inception_4a/output_inception_4a/output_0_split_3
I0321 14:19:13.411665  9963 net.cpp:382] inception_4b/5x5_reduce -> inception_4b/5x5_reduce
I0321 14:19:13.412072  9963 net.cpp:124] Setting up inception_4b/5x5_reduce
I0321 14:19:13.412091  9963 net.cpp:131] Top shape: 128 24 8 8 (196608)
I0321 14:19:13.412096  9963 net.cpp:139] Memory required for data: 870058500
I0321 14:19:13.412106  9963 layer_factory.hpp:77] Creating layer inception_4b/relu_5x5_reduce
I0321 14:19:13.412129  9963 net.cpp:86] Creating Layer inception_4b/relu_5x5_reduce
I0321 14:19:13.412139  9963 net.cpp:408] inception_4b/relu_5x5_reduce <- inception_4b/5x5_reduce
I0321 14:19:13.412149  9963 net.cpp:369] inception_4b/relu_5x5_reduce -> inception_4b/5x5_reduce (in-place)
I0321 14:19:13.412161  9963 net.cpp:124] Setting up inception_4b/relu_5x5_reduce
I0321 14:19:13.412171  9963 net.cpp:131] Top shape: 128 24 8 8 (196608)
I0321 14:19:13.412176  9963 net.cpp:139] Memory required for data: 870844932
I0321 14:19:13.412183  9963 layer_factory.hpp:77] Creating layer inception_4b/5x5
I0321 14:19:13.412195  9963 net.cpp:86] Creating Layer inception_4b/5x5
I0321 14:19:13.412204  9963 net.cpp:408] inception_4b/5x5 <- inception_4b/5x5_reduce
I0321 14:19:13.412214  9963 net.cpp:382] inception_4b/5x5 -> inception_4b/5x5
I0321 14:19:13.412832  9963 net.cpp:124] Setting up inception_4b/5x5
I0321 14:19:13.412850  9963 net.cpp:131] Top shape: 128 64 8 8 (524288)
I0321 14:19:13.412856  9963 net.cpp:139] Memory required for data: 872942084
I0321 14:19:13.412873  9963 layer_factory.hpp:77] Creating layer inception_4b/relu_5x5
I0321 14:19:13.412886  9963 net.cpp:86] Creating Layer inception_4b/relu_5x5
I0321 14:19:13.412895  9963 net.cpp:408] inception_4b/relu_5x5 <- inception_4b/5x5
I0321 14:19:13.412904  9963 net.cpp:369] inception_4b/relu_5x5 -> inception_4b/5x5 (in-place)
I0321 14:19:13.412914  9963 net.cpp:124] Setting up inception_4b/relu_5x5
I0321 14:19:13.412924  9963 net.cpp:131] Top shape: 128 64 8 8 (524288)
I0321 14:19:13.412930  9963 net.cpp:139] Memory required for data: 875039236
I0321 14:19:13.412935  9963 layer_factory.hpp:77] Creating layer inception_4b/pool
I0321 14:19:13.412948  9963 net.cpp:86] Creating Layer inception_4b/pool
I0321 14:19:13.412955  9963 net.cpp:408] inception_4b/pool <- inception_4a/output_inception_4a/output_0_split_4
I0321 14:19:13.412966  9963 net.cpp:382] inception_4b/pool -> inception_4b/pool
I0321 14:19:13.413014  9963 net.cpp:124] Setting up inception_4b/pool
I0321 14:19:13.413029  9963 net.cpp:131] Top shape: 128 512 8 8 (4194304)
I0321 14:19:13.413035  9963 net.cpp:139] Memory required for data: 891816452
I0321 14:19:13.413041  9963 layer_factory.hpp:77] Creating layer inception_4b/pool_proj
I0321 14:19:13.413065  9963 net.cpp:86] Creating Layer inception_4b/pool_proj
I0321 14:19:13.413075  9963 net.cpp:408] inception_4b/pool_proj <- inception_4b/pool
I0321 14:19:13.413086  9963 net.cpp:382] inception_4b/pool_proj -> inception_4b/pool_proj
I0321 14:19:13.413650  9963 net.cpp:124] Setting up inception_4b/pool_proj
I0321 14:19:13.413666  9963 net.cpp:131] Top shape: 128 64 8 8 (524288)
I0321 14:19:13.413673  9963 net.cpp:139] Memory required for data: 893913604
I0321 14:19:13.413682  9963 layer_factory.hpp:77] Creating layer inception_4b/relu_pool_proj
I0321 14:19:13.413691  9963 net.cpp:86] Creating Layer inception_4b/relu_pool_proj
I0321 14:19:13.413712  9963 net.cpp:408] inception_4b/relu_pool_proj <- inception_4b/pool_proj
I0321 14:19:13.413722  9963 net.cpp:369] inception_4b/relu_pool_proj -> inception_4b/pool_proj (in-place)
I0321 14:19:13.413733  9963 net.cpp:124] Setting up inception_4b/relu_pool_proj
I0321 14:19:13.413740  9963 net.cpp:131] Top shape: 128 64 8 8 (524288)
I0321 14:19:13.413745  9963 net.cpp:139] Memory required for data: 896010756
I0321 14:19:13.413758  9963 layer_factory.hpp:77] Creating layer inception_4c/output
I0321 14:19:13.413774  9963 net.cpp:86] Creating Layer inception_4c/output
I0321 14:19:13.413780  9963 net.cpp:408] inception_4c/output <- inception_4b/1x1
I0321 14:19:13.413789  9963 net.cpp:408] inception_4c/output <- inception_4b/3x3
I0321 14:19:13.413795  9963 net.cpp:408] inception_4c/output <- inception_4b/5x5
I0321 14:19:13.413802  9963 net.cpp:408] inception_4c/output <- inception_4b/pool_proj
I0321 14:19:13.413827  9963 net.cpp:382] inception_4c/output -> inception_4c/output
I0321 14:19:13.413863  9963 net.cpp:124] Setting up inception_4c/output
I0321 14:19:13.413878  9963 net.cpp:131] Top shape: 128 512 8 8 (4194304)
I0321 14:19:13.413884  9963 net.cpp:139] Memory required for data: 912787972
I0321 14:19:13.413890  9963 layer_factory.hpp:77] Creating layer inception_4c/output_inception_4c/output_0_split
I0321 14:19:13.413914  9963 net.cpp:86] Creating Layer inception_4c/output_inception_4c/output_0_split
I0321 14:19:13.413924  9963 net.cpp:408] inception_4c/output_inception_4c/output_0_split <- inception_4c/output
I0321 14:19:13.413934  9963 net.cpp:382] inception_4c/output_inception_4c/output_0_split -> inception_4c/output_inception_4c/output_0_split_0
I0321 14:19:13.413946  9963 net.cpp:382] inception_4c/output_inception_4c/output_0_split -> inception_4c/output_inception_4c/output_0_split_1
I0321 14:19:13.413961  9963 net.cpp:382] inception_4c/output_inception_4c/output_0_split -> inception_4c/output_inception_4c/output_0_split_2
I0321 14:19:13.413977  9963 net.cpp:382] inception_4c/output_inception_4c/output_0_split -> inception_4c/output_inception_4c/output_0_split_3
I0321 14:19:13.414048  9963 net.cpp:124] Setting up inception_4c/output_inception_4c/output_0_split
I0321 14:19:13.414062  9963 net.cpp:131] Top shape: 128 512 8 8 (4194304)
I0321 14:19:13.414069  9963 net.cpp:131] Top shape: 128 512 8 8 (4194304)
I0321 14:19:13.414077  9963 net.cpp:131] Top shape: 128 512 8 8 (4194304)
I0321 14:19:13.414083  9963 net.cpp:131] Top shape: 128 512 8 8 (4194304)
I0321 14:19:13.414088  9963 net.cpp:139] Memory required for data: 979896836
I0321 14:19:13.414094  9963 layer_factory.hpp:77] Creating layer inception_4d/1x1
I0321 14:19:13.414108  9963 net.cpp:86] Creating Layer inception_4d/1x1
I0321 14:19:13.414119  9963 net.cpp:408] inception_4d/1x1 <- inception_4c/output_inception_4c/output_0_split_0
I0321 14:19:13.414130  9963 net.cpp:382] inception_4d/1x1 -> inception_4d/1x1
I0321 14:19:13.414916  9963 net.cpp:124] Setting up inception_4d/1x1
I0321 14:19:13.414933  9963 net.cpp:131] Top shape: 128 112 8 8 (917504)
I0321 14:19:13.414939  9963 net.cpp:139] Memory required for data: 983566852
I0321 14:19:13.414948  9963 layer_factory.hpp:77] Creating layer inception_4d/relu_1x1
I0321 14:19:13.414958  9963 net.cpp:86] Creating Layer inception_4d/relu_1x1
I0321 14:19:13.414964  9963 net.cpp:408] inception_4d/relu_1x1 <- inception_4d/1x1
I0321 14:19:13.414974  9963 net.cpp:369] inception_4d/relu_1x1 -> inception_4d/1x1 (in-place)
I0321 14:19:13.414983  9963 net.cpp:124] Setting up inception_4d/relu_1x1
I0321 14:19:13.414991  9963 net.cpp:131] Top shape: 128 112 8 8 (917504)
I0321 14:19:13.414996  9963 net.cpp:139] Memory required for data: 987236868
I0321 14:19:13.415010  9963 layer_factory.hpp:77] Creating layer inception_4d/3x3_reduce
I0321 14:19:13.415033  9963 net.cpp:86] Creating Layer inception_4d/3x3_reduce
I0321 14:19:13.415043  9963 net.cpp:408] inception_4d/3x3_reduce <- inception_4c/output_inception_4c/output_0_split_1
I0321 14:19:13.415053  9963 net.cpp:382] inception_4d/3x3_reduce -> inception_4d/3x3_reduce
I0321 14:19:13.415933  9963 net.cpp:124] Setting up inception_4d/3x3_reduce
I0321 14:19:13.415951  9963 net.cpp:131] Top shape: 128 144 8 8 (1179648)
I0321 14:19:13.415957  9963 net.cpp:139] Memory required for data: 991955460
I0321 14:19:13.415966  9963 layer_factory.hpp:77] Creating layer inception_4d/relu_3x3_reduce
I0321 14:19:13.415976  9963 net.cpp:86] Creating Layer inception_4d/relu_3x3_reduce
I0321 14:19:13.415982  9963 net.cpp:408] inception_4d/relu_3x3_reduce <- inception_4d/3x3_reduce
I0321 14:19:13.415992  9963 net.cpp:369] inception_4d/relu_3x3_reduce -> inception_4d/3x3_reduce (in-place)
I0321 14:19:13.416002  9963 net.cpp:124] Setting up inception_4d/relu_3x3_reduce
I0321 14:19:13.416008  9963 net.cpp:131] Top shape: 128 144 8 8 (1179648)
I0321 14:19:13.416014  9963 net.cpp:139] Memory required for data: 996674052
I0321 14:19:13.416019  9963 layer_factory.hpp:77] Creating layer inception_4d/3x3
I0321 14:19:13.416054  9963 net.cpp:86] Creating Layer inception_4d/3x3
I0321 14:19:13.416064  9963 net.cpp:408] inception_4d/3x3 <- inception_4d/3x3_reduce
I0321 14:19:13.416075  9963 net.cpp:382] inception_4d/3x3 -> inception_4d/3x3
I0321 14:19:13.420863  9963 net.cpp:124] Setting up inception_4d/3x3
I0321 14:19:13.420889  9963 net.cpp:131] Top shape: 128 288 8 8 (2359296)
I0321 14:19:13.420897  9963 net.cpp:139] Memory required for data: 1006111236
I0321 14:19:13.420917  9963 layer_factory.hpp:77] Creating layer inception_4d/relu_3x3
I0321 14:19:13.420938  9963 net.cpp:86] Creating Layer inception_4d/relu_3x3
I0321 14:19:13.420946  9963 net.cpp:408] inception_4d/relu_3x3 <- inception_4d/3x3
I0321 14:19:13.420955  9963 net.cpp:369] inception_4d/relu_3x3 -> inception_4d/3x3 (in-place)
I0321 14:19:13.420971  9963 net.cpp:124] Setting up inception_4d/relu_3x3
I0321 14:19:13.420985  9963 net.cpp:131] Top shape: 128 288 8 8 (2359296)
I0321 14:19:13.420990  9963 net.cpp:139] Memory required for data: 1015548420
I0321 14:19:13.420996  9963 layer_factory.hpp:77] Creating layer inception_4d/5x5_reduce
I0321 14:19:13.421010  9963 net.cpp:86] Creating Layer inception_4d/5x5_reduce
I0321 14:19:13.421021  9963 net.cpp:408] inception_4d/5x5_reduce <- inception_4c/output_inception_4c/output_0_split_2
I0321 14:19:13.421033  9963 net.cpp:382] inception_4d/5x5_reduce -> inception_4d/5x5_reduce
I0321 14:19:13.421448  9963 net.cpp:124] Setting up inception_4d/5x5_reduce
I0321 14:19:13.421466  9963 net.cpp:131] Top shape: 128 32 8 8 (262144)
I0321 14:19:13.421473  9963 net.cpp:139] Memory required for data: 1016596996
I0321 14:19:13.421483  9963 layer_factory.hpp:77] Creating layer inception_4d/relu_5x5_reduce
I0321 14:19:13.421491  9963 net.cpp:86] Creating Layer inception_4d/relu_5x5_reduce
I0321 14:19:13.421501  9963 net.cpp:408] inception_4d/relu_5x5_reduce <- inception_4d/5x5_reduce
I0321 14:19:13.421510  9963 net.cpp:369] inception_4d/relu_5x5_reduce -> inception_4d/5x5_reduce (in-place)
I0321 14:19:13.421520  9963 net.cpp:124] Setting up inception_4d/relu_5x5_reduce
I0321 14:19:13.421530  9963 net.cpp:131] Top shape: 128 32 8 8 (262144)
I0321 14:19:13.421535  9963 net.cpp:139] Memory required for data: 1017645572
I0321 14:19:13.421540  9963 layer_factory.hpp:77] Creating layer inception_4d/5x5
I0321 14:19:13.421566  9963 net.cpp:86] Creating Layer inception_4d/5x5
I0321 14:19:13.421574  9963 net.cpp:408] inception_4d/5x5 <- inception_4d/5x5_reduce
I0321 14:19:13.421586  9963 net.cpp:382] inception_4d/5x5 -> inception_4d/5x5
I0321 14:19:13.422345  9963 net.cpp:124] Setting up inception_4d/5x5
I0321 14:19:13.422365  9963 net.cpp:131] Top shape: 128 64 8 8 (524288)
I0321 14:19:13.422371  9963 net.cpp:139] Memory required for data: 1019742724
I0321 14:19:13.422391  9963 layer_factory.hpp:77] Creating layer inception_4d/relu_5x5
I0321 14:19:13.422401  9963 net.cpp:86] Creating Layer inception_4d/relu_5x5
I0321 14:19:13.422408  9963 net.cpp:408] inception_4d/relu_5x5 <- inception_4d/5x5
I0321 14:19:13.422416  9963 net.cpp:369] inception_4d/relu_5x5 -> inception_4d/5x5 (in-place)
I0321 14:19:13.422426  9963 net.cpp:124] Setting up inception_4d/relu_5x5
I0321 14:19:13.422433  9963 net.cpp:131] Top shape: 128 64 8 8 (524288)
I0321 14:19:13.422439  9963 net.cpp:139] Memory required for data: 1021839876
I0321 14:19:13.422444  9963 layer_factory.hpp:77] Creating layer inception_4d/pool
I0321 14:19:13.422452  9963 net.cpp:86] Creating Layer inception_4d/pool
I0321 14:19:13.422459  9963 net.cpp:408] inception_4d/pool <- inception_4c/output_inception_4c/output_0_split_3
I0321 14:19:13.422468  9963 net.cpp:382] inception_4d/pool -> inception_4d/pool
I0321 14:19:13.422516  9963 net.cpp:124] Setting up inception_4d/pool
I0321 14:19:13.422531  9963 net.cpp:131] Top shape: 128 512 8 8 (4194304)
I0321 14:19:13.422538  9963 net.cpp:139] Memory required for data: 1038617092
I0321 14:19:13.422544  9963 layer_factory.hpp:77] Creating layer inception_4d/pool_proj
I0321 14:19:13.422570  9963 net.cpp:86] Creating Layer inception_4d/pool_proj
I0321 14:19:13.422596  9963 net.cpp:408] inception_4d/pool_proj <- inception_4d/pool
I0321 14:19:13.422608  9963 net.cpp:382] inception_4d/pool_proj -> inception_4d/pool_proj
I0321 14:19:13.423189  9963 net.cpp:124] Setting up inception_4d/pool_proj
I0321 14:19:13.423208  9963 net.cpp:131] Top shape: 128 64 8 8 (524288)
I0321 14:19:13.423215  9963 net.cpp:139] Memory required for data: 1040714244
I0321 14:19:13.423224  9963 layer_factory.hpp:77] Creating layer inception_4d/relu_pool_proj
I0321 14:19:13.423233  9963 net.cpp:86] Creating Layer inception_4d/relu_pool_proj
I0321 14:19:13.423240  9963 net.cpp:408] inception_4d/relu_pool_proj <- inception_4d/pool_proj
I0321 14:19:13.423249  9963 net.cpp:369] inception_4d/relu_pool_proj -> inception_4d/pool_proj (in-place)
I0321 14:19:13.423259  9963 net.cpp:124] Setting up inception_4d/relu_pool_proj
I0321 14:19:13.423266  9963 net.cpp:131] Top shape: 128 64 8 8 (524288)
I0321 14:19:13.423272  9963 net.cpp:139] Memory required for data: 1042811396
I0321 14:19:13.423286  9963 layer_factory.hpp:77] Creating layer inception_4d/output
I0321 14:19:13.423296  9963 net.cpp:86] Creating Layer inception_4d/output
I0321 14:19:13.423302  9963 net.cpp:408] inception_4d/output <- inception_4d/1x1
I0321 14:19:13.423310  9963 net.cpp:408] inception_4d/output <- inception_4d/3x3
I0321 14:19:13.423316  9963 net.cpp:408] inception_4d/output <- inception_4d/5x5
I0321 14:19:13.423323  9963 net.cpp:408] inception_4d/output <- inception_4d/pool_proj
I0321 14:19:13.423332  9963 net.cpp:382] inception_4d/output -> inception_4d/output
I0321 14:19:13.423365  9963 net.cpp:124] Setting up inception_4d/output
I0321 14:19:13.423379  9963 net.cpp:131] Top shape: 128 528 8 8 (4325376)
I0321 14:19:13.423385  9963 net.cpp:139] Memory required for data: 1060112900
I0321 14:19:13.423391  9963 layer_factory.hpp:77] Creating layer inception_4d/output_inception_4d/output_0_split
I0321 14:19:13.423403  9963 net.cpp:86] Creating Layer inception_4d/output_inception_4d/output_0_split
I0321 14:19:13.423409  9963 net.cpp:408] inception_4d/output_inception_4d/output_0_split <- inception_4d/output
I0321 14:19:13.423420  9963 net.cpp:382] inception_4d/output_inception_4d/output_0_split -> inception_4d/output_inception_4d/output_0_split_0
I0321 14:19:13.423434  9963 net.cpp:382] inception_4d/output_inception_4d/output_0_split -> inception_4d/output_inception_4d/output_0_split_1
I0321 14:19:13.423447  9963 net.cpp:382] inception_4d/output_inception_4d/output_0_split -> inception_4d/output_inception_4d/output_0_split_2
I0321 14:19:13.423460  9963 net.cpp:382] inception_4d/output_inception_4d/output_0_split -> inception_4d/output_inception_4d/output_0_split_3
I0321 14:19:13.423472  9963 net.cpp:382] inception_4d/output_inception_4d/output_0_split -> inception_4d/output_inception_4d/output_0_split_4
I0321 14:19:13.423552  9963 net.cpp:124] Setting up inception_4d/output_inception_4d/output_0_split
I0321 14:19:13.423565  9963 net.cpp:131] Top shape: 128 528 8 8 (4325376)
I0321 14:19:13.423573  9963 net.cpp:131] Top shape: 128 528 8 8 (4325376)
I0321 14:19:13.423579  9963 net.cpp:131] Top shape: 128 528 8 8 (4325376)
I0321 14:19:13.423586  9963 net.cpp:131] Top shape: 128 528 8 8 (4325376)
I0321 14:19:13.423593  9963 net.cpp:131] Top shape: 128 528 8 8 (4325376)
I0321 14:19:13.423599  9963 net.cpp:139] Memory required for data: 1146620420
I0321 14:19:13.423604  9963 layer_factory.hpp:77] Creating layer loss2_my/ave_pool
I0321 14:19:13.423625  9963 net.cpp:86] Creating Layer loss2_my/ave_pool
I0321 14:19:13.423635  9963 net.cpp:408] loss2_my/ave_pool <- inception_4d/output_inception_4d/output_0_split_0
I0321 14:19:13.423646  9963 net.cpp:382] loss2_my/ave_pool -> loss2_my/ave_pool
I0321 14:19:13.423682  9963 net.cpp:124] Setting up loss2_my/ave_pool
I0321 14:19:13.423697  9963 net.cpp:131] Top shape: 128 528 2 2 (270336)
I0321 14:19:13.423703  9963 net.cpp:139] Memory required for data: 1147701764
I0321 14:19:13.423709  9963 layer_factory.hpp:77] Creating layer loss2_my/conv
I0321 14:19:13.423739  9963 net.cpp:86] Creating Layer loss2_my/conv
I0321 14:19:13.423748  9963 net.cpp:408] loss2_my/conv <- loss2_my/ave_pool
I0321 14:19:13.423758  9963 net.cpp:382] loss2_my/conv -> loss2_my/conv
I0321 14:19:13.424577  9963 net.cpp:124] Setting up loss2_my/conv
I0321 14:19:13.424595  9963 net.cpp:131] Top shape: 128 128 2 2 (65536)
I0321 14:19:13.424602  9963 net.cpp:139] Memory required for data: 1147963908
I0321 14:19:13.424618  9963 layer_factory.hpp:77] Creating layer loss2_my/relu_conv
I0321 14:19:13.424631  9963 net.cpp:86] Creating Layer loss2_my/relu_conv
I0321 14:19:13.424638  9963 net.cpp:408] loss2_my/relu_conv <- loss2_my/conv
I0321 14:19:13.424648  9963 net.cpp:369] loss2_my/relu_conv -> loss2_my/conv (in-place)
I0321 14:19:13.424659  9963 net.cpp:124] Setting up loss2_my/relu_conv
I0321 14:19:13.424667  9963 net.cpp:131] Top shape: 128 128 2 2 (65536)
I0321 14:19:13.424672  9963 net.cpp:139] Memory required for data: 1148226052
I0321 14:19:13.424677  9963 layer_factory.hpp:77] Creating layer loss2_my/fc
I0321 14:19:13.424697  9963 net.cpp:86] Creating Layer loss2_my/fc
I0321 14:19:13.424707  9963 net.cpp:408] loss2_my/fc <- loss2_my/conv
I0321 14:19:13.424717  9963 net.cpp:382] loss2_my/fc -> loss2_my/fc
I0321 14:19:13.430644  9963 net.cpp:124] Setting up loss2_my/fc
I0321 14:19:13.430670  9963 net.cpp:131] Top shape: 128 1024 (131072)
I0321 14:19:13.430676  9963 net.cpp:139] Memory required for data: 1148750340
I0321 14:19:13.430687  9963 layer_factory.hpp:77] Creating layer loss2_my/relu_fc
I0321 14:19:13.430697  9963 net.cpp:86] Creating Layer loss2_my/relu_fc
I0321 14:19:13.430704  9963 net.cpp:408] loss2_my/relu_fc <- loss2_my/fc
I0321 14:19:13.430714  9963 net.cpp:369] loss2_my/relu_fc -> loss2_my/fc (in-place)
I0321 14:19:13.430726  9963 net.cpp:124] Setting up loss2_my/relu_fc
I0321 14:19:13.430733  9963 net.cpp:131] Top shape: 128 1024 (131072)
I0321 14:19:13.430739  9963 net.cpp:139] Memory required for data: 1149274628
I0321 14:19:13.430744  9963 layer_factory.hpp:77] Creating layer loss2_my/drop_fc
I0321 14:19:13.430765  9963 net.cpp:86] Creating Layer loss2_my/drop_fc
I0321 14:19:13.430773  9963 net.cpp:408] loss2_my/drop_fc <- loss2_my/fc
I0321 14:19:13.430783  9963 net.cpp:369] loss2_my/drop_fc -> loss2_my/fc (in-place)
I0321 14:19:13.430810  9963 net.cpp:124] Setting up loss2_my/drop_fc
I0321 14:19:13.430824  9963 net.cpp:131] Top shape: 128 1024 (131072)
I0321 14:19:13.430830  9963 net.cpp:139] Memory required for data: 1149798916
I0321 14:19:13.430836  9963 layer_factory.hpp:77] Creating layer loss2_lite/classifier
I0321 14:19:13.430860  9963 net.cpp:86] Creating Layer loss2_lite/classifier
I0321 14:19:13.430871  9963 net.cpp:408] loss2_lite/classifier <- loss2_my/fc
I0321 14:19:13.430881  9963 net.cpp:382] loss2_lite/classifier -> loss2_lite/classifier
I0321 14:19:13.431008  9963 net.cpp:124] Setting up loss2_lite/classifier
I0321 14:19:13.431023  9963 net.cpp:131] Top shape: 128 1 (128)
I0321 14:19:13.431030  9963 net.cpp:139] Memory required for data: 1149799428
I0321 14:19:13.431038  9963 layer_factory.hpp:77] Creating layer loss2_my/loss
I0321 14:19:13.431138  9963 net.cpp:86] Creating Layer loss2_my/loss
I0321 14:19:13.431150  9963 net.cpp:408] loss2_my/loss <- loss2_lite/classifier
I0321 14:19:13.431160  9963 net.cpp:408] loss2_my/loss <- label_data_1_split_1
I0321 14:19:13.431170  9963 net.cpp:382] loss2_my/loss -> loss2_my/loss
I0321 14:19:13.431341  9963 net.cpp:124] Setting up loss2_my/loss
I0321 14:19:13.431360  9963 net.cpp:131] Top shape: 1 (1)
I0321 14:19:13.431367  9963 net.cpp:134]     with loss weight 0.4
I0321 14:19:13.431388  9963 net.cpp:139] Memory required for data: 1149799432
I0321 14:19:13.431396  9963 layer_factory.hpp:77] Creating layer inception_4e/1x1
I0321 14:19:13.431411  9963 net.cpp:86] Creating Layer inception_4e/1x1
I0321 14:19:13.431421  9963 net.cpp:408] inception_4e/1x1 <- inception_4d/output_inception_4d/output_0_split_1
I0321 14:19:13.431433  9963 net.cpp:382] inception_4e/1x1 -> inception_4e/1x1
I0321 14:19:13.432924  9963 net.cpp:124] Setting up inception_4e/1x1
I0321 14:19:13.432960  9963 net.cpp:131] Top shape: 128 256 8 8 (2097152)
I0321 14:19:13.432968  9963 net.cpp:139] Memory required for data: 1158188040
I0321 14:19:13.433007  9963 layer_factory.hpp:77] Creating layer inception_4e/relu_1x1
I0321 14:19:13.433028  9963 net.cpp:86] Creating Layer inception_4e/relu_1x1
I0321 14:19:13.433038  9963 net.cpp:408] inception_4e/relu_1x1 <- inception_4e/1x1
I0321 14:19:13.433048  9963 net.cpp:369] inception_4e/relu_1x1 -> inception_4e/1x1 (in-place)
I0321 14:19:13.433058  9963 net.cpp:124] Setting up inception_4e/relu_1x1
I0321 14:19:13.433068  9963 net.cpp:131] Top shape: 128 256 8 8 (2097152)
I0321 14:19:13.433073  9963 net.cpp:139] Memory required for data: 1166576648
I0321 14:19:13.433079  9963 layer_factory.hpp:77] Creating layer inception_4e/3x3_reduce
I0321 14:19:13.433091  9963 net.cpp:86] Creating Layer inception_4e/3x3_reduce
I0321 14:19:13.433097  9963 net.cpp:408] inception_4e/3x3_reduce <- inception_4d/output_inception_4d/output_0_split_2
I0321 14:19:13.433109  9963 net.cpp:382] inception_4e/3x3_reduce -> inception_4e/3x3_reduce
I0321 14:19:13.434160  9963 net.cpp:124] Setting up inception_4e/3x3_reduce
I0321 14:19:13.434178  9963 net.cpp:131] Top shape: 128 160 8 8 (1310720)
I0321 14:19:13.434185  9963 net.cpp:139] Memory required for data: 1171819528
I0321 14:19:13.434195  9963 layer_factory.hpp:77] Creating layer inception_4e/relu_3x3_reduce
I0321 14:19:13.434203  9963 net.cpp:86] Creating Layer inception_4e/relu_3x3_reduce
I0321 14:19:13.434211  9963 net.cpp:408] inception_4e/relu_3x3_reduce <- inception_4e/3x3_reduce
I0321 14:19:13.434219  9963 net.cpp:369] inception_4e/relu_3x3_reduce -> inception_4e/3x3_reduce (in-place)
I0321 14:19:13.434229  9963 net.cpp:124] Setting up inception_4e/relu_3x3_reduce
I0321 14:19:13.434237  9963 net.cpp:131] Top shape: 128 160 8 8 (1310720)
I0321 14:19:13.434242  9963 net.cpp:139] Memory required for data: 1177062408
I0321 14:19:13.434247  9963 layer_factory.hpp:77] Creating layer inception_4e/3x3
I0321 14:19:13.434273  9963 net.cpp:86] Creating Layer inception_4e/3x3
I0321 14:19:13.434281  9963 net.cpp:408] inception_4e/3x3 <- inception_4e/3x3_reduce
I0321 14:19:13.434293  9963 net.cpp:382] inception_4e/3x3 -> inception_4e/3x3
I0321 14:19:13.439656  9963 net.cpp:124] Setting up inception_4e/3x3
I0321 14:19:13.439678  9963 net.cpp:131] Top shape: 128 320 8 8 (2621440)
I0321 14:19:13.439685  9963 net.cpp:139] Memory required for data: 1187548168
I0321 14:19:13.439707  9963 layer_factory.hpp:77] Creating layer inception_4e/relu_3x3
I0321 14:19:13.439718  9963 net.cpp:86] Creating Layer inception_4e/relu_3x3
I0321 14:19:13.439726  9963 net.cpp:408] inception_4e/relu_3x3 <- inception_4e/3x3
I0321 14:19:13.439734  9963 net.cpp:369] inception_4e/relu_3x3 -> inception_4e/3x3 (in-place)
I0321 14:19:13.439745  9963 net.cpp:124] Setting up inception_4e/relu_3x3
I0321 14:19:13.439754  9963 net.cpp:131] Top shape: 128 320 8 8 (2621440)
I0321 14:19:13.439759  9963 net.cpp:139] Memory required for data: 1198033928
I0321 14:19:13.439765  9963 layer_factory.hpp:77] Creating layer inception_4e/5x5_reduce
I0321 14:19:13.439779  9963 net.cpp:86] Creating Layer inception_4e/5x5_reduce
I0321 14:19:13.439796  9963 net.cpp:408] inception_4e/5x5_reduce <- inception_4d/output_inception_4d/output_0_split_3
I0321 14:19:13.439808  9963 net.cpp:382] inception_4e/5x5_reduce -> inception_4e/5x5_reduce
I0321 14:19:13.440234  9963 net.cpp:124] Setting up inception_4e/5x5_reduce
I0321 14:19:13.440251  9963 net.cpp:131] Top shape: 128 32 8 8 (262144)
I0321 14:19:13.440258  9963 net.cpp:139] Memory required for data: 1199082504
I0321 14:19:13.440268  9963 layer_factory.hpp:77] Creating layer inception_4e/relu_5x5_reduce
I0321 14:19:13.440285  9963 net.cpp:86] Creating Layer inception_4e/relu_5x5_reduce
I0321 14:19:13.440294  9963 net.cpp:408] inception_4e/relu_5x5_reduce <- inception_4e/5x5_reduce
I0321 14:19:13.440302  9963 net.cpp:369] inception_4e/relu_5x5_reduce -> inception_4e/5x5_reduce (in-place)
I0321 14:19:13.440312  9963 net.cpp:124] Setting up inception_4e/relu_5x5_reduce
I0321 14:19:13.440336  9963 net.cpp:131] Top shape: 128 32 8 8 (262144)
I0321 14:19:13.440342  9963 net.cpp:139] Memory required for data: 1200131080
I0321 14:19:13.440348  9963 layer_factory.hpp:77] Creating layer inception_4e/5x5
I0321 14:19:13.440363  9963 net.cpp:86] Creating Layer inception_4e/5x5
I0321 14:19:13.440369  9963 net.cpp:408] inception_4e/5x5 <- inception_4e/5x5_reduce
I0321 14:19:13.440381  9963 net.cpp:382] inception_4e/5x5 -> inception_4e/5x5
I0321 14:19:13.441576  9963 net.cpp:124] Setting up inception_4e/5x5
I0321 14:19:13.441593  9963 net.cpp:131] Top shape: 128 128 8 8 (1048576)
I0321 14:19:13.441599  9963 net.cpp:139] Memory required for data: 1204325384
I0321 14:19:13.441618  9963 layer_factory.hpp:77] Creating layer inception_4e/relu_5x5
I0321 14:19:13.441634  9963 net.cpp:86] Creating Layer inception_4e/relu_5x5
I0321 14:19:13.441648  9963 net.cpp:408] inception_4e/relu_5x5 <- inception_4e/5x5
I0321 14:19:13.441658  9963 net.cpp:369] inception_4e/relu_5x5 -> inception_4e/5x5 (in-place)
I0321 14:19:13.441668  9963 net.cpp:124] Setting up inception_4e/relu_5x5
I0321 14:19:13.441675  9963 net.cpp:131] Top shape: 128 128 8 8 (1048576)
I0321 14:19:13.441680  9963 net.cpp:139] Memory required for data: 1208519688
I0321 14:19:13.441685  9963 layer_factory.hpp:77] Creating layer inception_4e/pool
I0321 14:19:13.441700  9963 net.cpp:86] Creating Layer inception_4e/pool
I0321 14:19:13.441709  9963 net.cpp:408] inception_4e/pool <- inception_4d/output_inception_4d/output_0_split_4
I0321 14:19:13.441720  9963 net.cpp:382] inception_4e/pool -> inception_4e/pool
I0321 14:19:13.441768  9963 net.cpp:124] Setting up inception_4e/pool
I0321 14:19:13.441798  9963 net.cpp:131] Top shape: 128 528 8 8 (4325376)
I0321 14:19:13.441807  9963 net.cpp:139] Memory required for data: 1225821192
I0321 14:19:13.441812  9963 layer_factory.hpp:77] Creating layer inception_4e/pool_proj
I0321 14:19:13.441826  9963 net.cpp:86] Creating Layer inception_4e/pool_proj
I0321 14:19:13.441835  9963 net.cpp:408] inception_4e/pool_proj <- inception_4e/pool
I0321 14:19:13.441846  9963 net.cpp:382] inception_4e/pool_proj -> inception_4e/pool_proj
I0321 14:19:13.442718  9963 net.cpp:124] Setting up inception_4e/pool_proj
I0321 14:19:13.442735  9963 net.cpp:131] Top shape: 128 128 8 8 (1048576)
I0321 14:19:13.442741  9963 net.cpp:139] Memory required for data: 1230015496
I0321 14:19:13.442750  9963 layer_factory.hpp:77] Creating layer inception_4e/relu_pool_proj
I0321 14:19:13.442772  9963 net.cpp:86] Creating Layer inception_4e/relu_pool_proj
I0321 14:19:13.442782  9963 net.cpp:408] inception_4e/relu_pool_proj <- inception_4e/pool_proj
I0321 14:19:13.442791  9963 net.cpp:369] inception_4e/relu_pool_proj -> inception_4e/pool_proj (in-place)
I0321 14:19:13.442801  9963 net.cpp:124] Setting up inception_4e/relu_pool_proj
I0321 14:19:13.442811  9963 net.cpp:131] Top shape: 128 128 8 8 (1048576)
I0321 14:19:13.442816  9963 net.cpp:139] Memory required for data: 1234209800
I0321 14:19:13.442822  9963 layer_factory.hpp:77] Creating layer inception_4e/output
I0321 14:19:13.442840  9963 net.cpp:86] Creating Layer inception_4e/output
I0321 14:19:13.442849  9963 net.cpp:408] inception_4e/output <- inception_4e/1x1
I0321 14:19:13.442857  9963 net.cpp:408] inception_4e/output <- inception_4e/3x3
I0321 14:19:13.442864  9963 net.cpp:408] inception_4e/output <- inception_4e/5x5
I0321 14:19:13.442873  9963 net.cpp:408] inception_4e/output <- inception_4e/pool_proj
I0321 14:19:13.442881  9963 net.cpp:382] inception_4e/output -> inception_4e/output
I0321 14:19:13.442917  9963 net.cpp:124] Setting up inception_4e/output
I0321 14:19:13.442931  9963 net.cpp:131] Top shape: 128 832 8 8 (6815744)
I0321 14:19:13.442937  9963 net.cpp:139] Memory required for data: 1261472776
I0321 14:19:13.442944  9963 layer_factory.hpp:77] Creating layer pool4/3x3_s2
I0321 14:19:13.442952  9963 net.cpp:86] Creating Layer pool4/3x3_s2
I0321 14:19:13.442958  9963 net.cpp:408] pool4/3x3_s2 <- inception_4e/output
I0321 14:19:13.442970  9963 net.cpp:382] pool4/3x3_s2 -> pool4/3x3_s2
I0321 14:19:13.443034  9963 net.cpp:124] Setting up pool4/3x3_s2
I0321 14:19:13.443050  9963 net.cpp:131] Top shape: 128 832 4 4 (1703936)
I0321 14:19:13.443056  9963 net.cpp:139] Memory required for data: 1268288520
I0321 14:19:13.443063  9963 layer_factory.hpp:77] Creating layer pool4/3x3_s2_pool4/3x3_s2_0_split
I0321 14:19:13.443073  9963 net.cpp:86] Creating Layer pool4/3x3_s2_pool4/3x3_s2_0_split
I0321 14:19:13.443079  9963 net.cpp:408] pool4/3x3_s2_pool4/3x3_s2_0_split <- pool4/3x3_s2
I0321 14:19:13.443089  9963 net.cpp:382] pool4/3x3_s2_pool4/3x3_s2_0_split -> pool4/3x3_s2_pool4/3x3_s2_0_split_0
I0321 14:19:13.443100  9963 net.cpp:382] pool4/3x3_s2_pool4/3x3_s2_0_split -> pool4/3x3_s2_pool4/3x3_s2_0_split_1
I0321 14:19:13.443110  9963 net.cpp:382] pool4/3x3_s2_pool4/3x3_s2_0_split -> pool4/3x3_s2_pool4/3x3_s2_0_split_2
I0321 14:19:13.443123  9963 net.cpp:382] pool4/3x3_s2_pool4/3x3_s2_0_split -> pool4/3x3_s2_pool4/3x3_s2_0_split_3
I0321 14:19:13.443191  9963 net.cpp:124] Setting up pool4/3x3_s2_pool4/3x3_s2_0_split
I0321 14:19:13.443204  9963 net.cpp:131] Top shape: 128 832 4 4 (1703936)
I0321 14:19:13.443212  9963 net.cpp:131] Top shape: 128 832 4 4 (1703936)
I0321 14:19:13.443218  9963 net.cpp:131] Top shape: 128 832 4 4 (1703936)
I0321 14:19:13.443224  9963 net.cpp:131] Top shape: 128 832 4 4 (1703936)
I0321 14:19:13.443229  9963 net.cpp:139] Memory required for data: 1295551496
I0321 14:19:13.443243  9963 layer_factory.hpp:77] Creating layer inception_5a/1x1
I0321 14:19:13.443259  9963 net.cpp:86] Creating Layer inception_5a/1x1
I0321 14:19:13.443269  9963 net.cpp:408] inception_5a/1x1 <- pool4/3x3_s2_pool4/3x3_s2_0_split_0
I0321 14:19:13.443281  9963 net.cpp:382] inception_5a/1x1 -> inception_5a/1x1
I0321 14:19:13.446744  9963 net.cpp:124] Setting up inception_5a/1x1
I0321 14:19:13.446768  9963 net.cpp:131] Top shape: 128 256 4 4 (524288)
I0321 14:19:13.446774  9963 net.cpp:139] Memory required for data: 1297648648
I0321 14:19:13.446784  9963 layer_factory.hpp:77] Creating layer inception_5a/relu_1x1
I0321 14:19:13.446806  9963 net.cpp:86] Creating Layer inception_5a/relu_1x1
I0321 14:19:13.446817  9963 net.cpp:408] inception_5a/relu_1x1 <- inception_5a/1x1
I0321 14:19:13.446827  9963 net.cpp:369] inception_5a/relu_1x1 -> inception_5a/1x1 (in-place)
I0321 14:19:13.446838  9963 net.cpp:124] Setting up inception_5a/relu_1x1
I0321 14:19:13.446849  9963 net.cpp:131] Top shape: 128 256 4 4 (524288)
I0321 14:19:13.446856  9963 net.cpp:139] Memory required for data: 1299745800
I0321 14:19:13.446861  9963 layer_factory.hpp:77] Creating layer inception_5a/3x3_reduce
I0321 14:19:13.446874  9963 net.cpp:86] Creating Layer inception_5a/3x3_reduce
I0321 14:19:13.446883  9963 net.cpp:408] inception_5a/3x3_reduce <- pool4/3x3_s2_pool4/3x3_s2_0_split_1
I0321 14:19:13.446894  9963 net.cpp:382] inception_5a/3x3_reduce -> inception_5a/3x3_reduce
I0321 14:19:13.448276  9963 net.cpp:124] Setting up inception_5a/3x3_reduce
I0321 14:19:13.448294  9963 net.cpp:131] Top shape: 128 160 4 4 (327680)
I0321 14:19:13.448300  9963 net.cpp:139] Memory required for data: 1301056520
I0321 14:19:13.448310  9963 layer_factory.hpp:77] Creating layer inception_5a/relu_3x3_reduce
I0321 14:19:13.448319  9963 net.cpp:86] Creating Layer inception_5a/relu_3x3_reduce
I0321 14:19:13.448326  9963 net.cpp:408] inception_5a/relu_3x3_reduce <- inception_5a/3x3_reduce
I0321 14:19:13.448335  9963 net.cpp:369] inception_5a/relu_3x3_reduce -> inception_5a/3x3_reduce (in-place)
I0321 14:19:13.448345  9963 net.cpp:124] Setting up inception_5a/relu_3x3_reduce
I0321 14:19:13.448352  9963 net.cpp:131] Top shape: 128 160 4 4 (327680)
I0321 14:19:13.448359  9963 net.cpp:139] Memory required for data: 1302367240
I0321 14:19:13.448371  9963 layer_factory.hpp:77] Creating layer inception_5a/3x3
I0321 14:19:13.448393  9963 net.cpp:86] Creating Layer inception_5a/3x3
I0321 14:19:13.448402  9963 net.cpp:408] inception_5a/3x3 <- inception_5a/3x3_reduce
I0321 14:19:13.448415  9963 net.cpp:382] inception_5a/3x3 -> inception_5a/3x3
I0321 14:19:13.453825  9963 net.cpp:124] Setting up inception_5a/3x3
I0321 14:19:13.453848  9963 net.cpp:131] Top shape: 128 320 4 4 (655360)
I0321 14:19:13.453855  9963 net.cpp:139] Memory required for data: 1304988680
I0321 14:19:13.453866  9963 layer_factory.hpp:77] Creating layer inception_5a/relu_3x3
I0321 14:19:13.453876  9963 net.cpp:86] Creating Layer inception_5a/relu_3x3
I0321 14:19:13.453882  9963 net.cpp:408] inception_5a/relu_3x3 <- inception_5a/3x3
I0321 14:19:13.453891  9963 net.cpp:369] inception_5a/relu_3x3 -> inception_5a/3x3 (in-place)
I0321 14:19:13.453902  9963 net.cpp:124] Setting up inception_5a/relu_3x3
I0321 14:19:13.453910  9963 net.cpp:131] Top shape: 128 320 4 4 (655360)
I0321 14:19:13.453917  9963 net.cpp:139] Memory required for data: 1307610120
I0321 14:19:13.453922  9963 layer_factory.hpp:77] Creating layer inception_5a/5x5_reduce
I0321 14:19:13.453933  9963 net.cpp:86] Creating Layer inception_5a/5x5_reduce
I0321 14:19:13.453948  9963 net.cpp:408] inception_5a/5x5_reduce <- pool4/3x3_s2_pool4/3x3_s2_0_split_2
I0321 14:19:13.453958  9963 net.cpp:382] inception_5a/5x5_reduce -> inception_5a/5x5_reduce
I0321 14:19:13.454474  9963 net.cpp:124] Setting up inception_5a/5x5_reduce
I0321 14:19:13.454493  9963 net.cpp:131] Top shape: 128 32 4 4 (65536)
I0321 14:19:13.454499  9963 net.cpp:139] Memory required for data: 1307872264
I0321 14:19:13.454509  9963 layer_factory.hpp:77] Creating layer inception_5a/relu_5x5_reduce
I0321 14:19:13.454531  9963 net.cpp:86] Creating Layer inception_5a/relu_5x5_reduce
I0321 14:19:13.454542  9963 net.cpp:408] inception_5a/relu_5x5_reduce <- inception_5a/5x5_reduce
I0321 14:19:13.454551  9963 net.cpp:369] inception_5a/relu_5x5_reduce -> inception_5a/5x5_reduce (in-place)
I0321 14:19:13.454561  9963 net.cpp:124] Setting up inception_5a/relu_5x5_reduce
I0321 14:19:13.454571  9963 net.cpp:131] Top shape: 128 32 4 4 (65536)
I0321 14:19:13.454576  9963 net.cpp:139] Memory required for data: 1308134408
I0321 14:19:13.454588  9963 layer_factory.hpp:77] Creating layer inception_5a/5x5
I0321 14:19:13.454604  9963 net.cpp:86] Creating Layer inception_5a/5x5
I0321 14:19:13.454613  9963 net.cpp:408] inception_5a/5x5 <- inception_5a/5x5_reduce
I0321 14:19:13.454624  9963 net.cpp:382] inception_5a/5x5 -> inception_5a/5x5
I0321 14:19:13.455754  9963 net.cpp:124] Setting up inception_5a/5x5
I0321 14:19:13.455771  9963 net.cpp:131] Top shape: 128 128 4 4 (262144)
I0321 14:19:13.455777  9963 net.cpp:139] Memory required for data: 1309182984
I0321 14:19:13.455786  9963 layer_factory.hpp:77] Creating layer inception_5a/relu_5x5
I0321 14:19:13.455804  9963 net.cpp:86] Creating Layer inception_5a/relu_5x5
I0321 14:19:13.455814  9963 net.cpp:408] inception_5a/relu_5x5 <- inception_5a/5x5
I0321 14:19:13.455824  9963 net.cpp:369] inception_5a/relu_5x5 -> inception_5a/5x5 (in-place)
I0321 14:19:13.455834  9963 net.cpp:124] Setting up inception_5a/relu_5x5
I0321 14:19:13.455842  9963 net.cpp:131] Top shape: 128 128 4 4 (262144)
I0321 14:19:13.455847  9963 net.cpp:139] Memory required for data: 1310231560
I0321 14:19:13.455852  9963 layer_factory.hpp:77] Creating layer inception_5a/pool
I0321 14:19:13.455860  9963 net.cpp:86] Creating Layer inception_5a/pool
I0321 14:19:13.455868  9963 net.cpp:408] inception_5a/pool <- pool4/3x3_s2_pool4/3x3_s2_0_split_3
I0321 14:19:13.455876  9963 net.cpp:382] inception_5a/pool -> inception_5a/pool
I0321 14:19:13.455925  9963 net.cpp:124] Setting up inception_5a/pool
I0321 14:19:13.455940  9963 net.cpp:131] Top shape: 128 832 4 4 (1703936)
I0321 14:19:13.455945  9963 net.cpp:139] Memory required for data: 1317047304
I0321 14:19:13.455951  9963 layer_factory.hpp:77] Creating layer inception_5a/pool_proj
I0321 14:19:13.455977  9963 net.cpp:86] Creating Layer inception_5a/pool_proj
I0321 14:19:13.455986  9963 net.cpp:408] inception_5a/pool_proj <- inception_5a/pool
I0321 14:19:13.455997  9963 net.cpp:382] inception_5a/pool_proj -> inception_5a/pool_proj
I0321 14:19:13.458436  9963 net.cpp:124] Setting up inception_5a/pool_proj
I0321 14:19:13.458458  9963 net.cpp:131] Top shape: 128 128 4 4 (262144)
I0321 14:19:13.458483  9963 net.cpp:139] Memory required for data: 1318095880
I0321 14:19:13.458495  9963 layer_factory.hpp:77] Creating layer inception_5a/relu_pool_proj
I0321 14:19:13.458519  9963 net.cpp:86] Creating Layer inception_5a/relu_pool_proj
I0321 14:19:13.458529  9963 net.cpp:408] inception_5a/relu_pool_proj <- inception_5a/pool_proj
I0321 14:19:13.458539  9963 net.cpp:369] inception_5a/relu_pool_proj -> inception_5a/pool_proj (in-place)
I0321 14:19:13.458550  9963 net.cpp:124] Setting up inception_5a/relu_pool_proj
I0321 14:19:13.458561  9963 net.cpp:131] Top shape: 128 128 4 4 (262144)
I0321 14:19:13.458567  9963 net.cpp:139] Memory required for data: 1319144456
I0321 14:19:13.458572  9963 layer_factory.hpp:77] Creating layer inception_5a/output
I0321 14:19:13.458581  9963 net.cpp:86] Creating Layer inception_5a/output
I0321 14:19:13.458587  9963 net.cpp:408] inception_5a/output <- inception_5a/1x1
I0321 14:19:13.458595  9963 net.cpp:408] inception_5a/output <- inception_5a/3x3
I0321 14:19:13.458602  9963 net.cpp:408] inception_5a/output <- inception_5a/5x5
I0321 14:19:13.458609  9963 net.cpp:408] inception_5a/output <- inception_5a/pool_proj
I0321 14:19:13.458617  9963 net.cpp:382] inception_5a/output -> inception_5a/output
I0321 14:19:13.458653  9963 net.cpp:124] Setting up inception_5a/output
I0321 14:19:13.458667  9963 net.cpp:131] Top shape: 128 832 4 4 (1703936)
I0321 14:19:13.458673  9963 net.cpp:139] Memory required for data: 1325960200
I0321 14:19:13.458678  9963 layer_factory.hpp:77] Creating layer inception_5a/output_inception_5a/output_0_split
I0321 14:19:13.458689  9963 net.cpp:86] Creating Layer inception_5a/output_inception_5a/output_0_split
I0321 14:19:13.458699  9963 net.cpp:408] inception_5a/output_inception_5a/output_0_split <- inception_5a/output
I0321 14:19:13.458712  9963 net.cpp:382] inception_5a/output_inception_5a/output_0_split -> inception_5a/output_inception_5a/output_0_split_0
I0321 14:19:13.458726  9963 net.cpp:382] inception_5a/output_inception_5a/output_0_split -> inception_5a/output_inception_5a/output_0_split_1
I0321 14:19:13.458739  9963 net.cpp:382] inception_5a/output_inception_5a/output_0_split -> inception_5a/output_inception_5a/output_0_split_2
I0321 14:19:13.458752  9963 net.cpp:382] inception_5a/output_inception_5a/output_0_split -> inception_5a/output_inception_5a/output_0_split_3
I0321 14:19:13.458827  9963 net.cpp:124] Setting up inception_5a/output_inception_5a/output_0_split
I0321 14:19:13.458842  9963 net.cpp:131] Top shape: 128 832 4 4 (1703936)
I0321 14:19:13.458853  9963 net.cpp:131] Top shape: 128 832 4 4 (1703936)
I0321 14:19:13.458859  9963 net.cpp:131] Top shape: 128 832 4 4 (1703936)
I0321 14:19:13.458866  9963 net.cpp:131] Top shape: 128 832 4 4 (1703936)
I0321 14:19:13.458871  9963 net.cpp:139] Memory required for data: 1353223176
I0321 14:19:13.458885  9963 layer_factory.hpp:77] Creating layer inception_5b/1x1
I0321 14:19:13.458899  9963 net.cpp:86] Creating Layer inception_5b/1x1
I0321 14:19:13.458909  9963 net.cpp:408] inception_5b/1x1 <- inception_5a/output_inception_5a/output_0_split_0
I0321 14:19:13.458920  9963 net.cpp:382] inception_5b/1x1 -> inception_5b/1x1
I0321 14:19:13.461869  9963 net.cpp:124] Setting up inception_5b/1x1
I0321 14:19:13.461889  9963 net.cpp:131] Top shape: 128 384 4 4 (786432)
I0321 14:19:13.461894  9963 net.cpp:139] Memory required for data: 1356368904
I0321 14:19:13.461904  9963 layer_factory.hpp:77] Creating layer inception_5b/relu_1x1
I0321 14:19:13.461921  9963 net.cpp:86] Creating Layer inception_5b/relu_1x1
I0321 14:19:13.461931  9963 net.cpp:408] inception_5b/relu_1x1 <- inception_5b/1x1
I0321 14:19:13.461941  9963 net.cpp:369] inception_5b/relu_1x1 -> inception_5b/1x1 (in-place)
I0321 14:19:13.461951  9963 net.cpp:124] Setting up inception_5b/relu_1x1
I0321 14:19:13.461961  9963 net.cpp:131] Top shape: 128 384 4 4 (786432)
I0321 14:19:13.461966  9963 net.cpp:139] Memory required for data: 1359514632
I0321 14:19:13.461972  9963 layer_factory.hpp:77] Creating layer inception_5b/3x3_reduce
I0321 14:19:13.462002  9963 net.cpp:86] Creating Layer inception_5b/3x3_reduce
I0321 14:19:13.462013  9963 net.cpp:408] inception_5b/3x3_reduce <- inception_5a/output_inception_5a/output_0_split_1
I0321 14:19:13.462023  9963 net.cpp:382] inception_5b/3x3_reduce -> inception_5b/3x3_reduce
I0321 14:19:13.465111  9963 net.cpp:124] Setting up inception_5b/3x3_reduce
I0321 14:19:13.465132  9963 net.cpp:131] Top shape: 128 192 4 4 (393216)
I0321 14:19:13.465138  9963 net.cpp:139] Memory required for data: 1361087496
I0321 14:19:13.465148  9963 layer_factory.hpp:77] Creating layer inception_5b/relu_3x3_reduce
I0321 14:19:13.465157  9963 net.cpp:86] Creating Layer inception_5b/relu_3x3_reduce
I0321 14:19:13.465164  9963 net.cpp:408] inception_5b/relu_3x3_reduce <- inception_5b/3x3_reduce
I0321 14:19:13.465176  9963 net.cpp:369] inception_5b/relu_3x3_reduce -> inception_5b/3x3_reduce (in-place)
I0321 14:19:13.465188  9963 net.cpp:124] Setting up inception_5b/relu_3x3_reduce
I0321 14:19:13.465203  9963 net.cpp:131] Top shape: 128 192 4 4 (393216)
I0321 14:19:13.465207  9963 net.cpp:139] Memory required for data: 1362660360
I0321 14:19:13.465222  9963 layer_factory.hpp:77] Creating layer inception_5b/3x3
I0321 14:19:13.465245  9963 net.cpp:86] Creating Layer inception_5b/3x3
I0321 14:19:13.465255  9963 net.cpp:408] inception_5b/3x3 <- inception_5b/3x3_reduce
I0321 14:19:13.465266  9963 net.cpp:382] inception_5b/3x3 -> inception_5b/3x3
I0321 14:19:13.472864  9963 net.cpp:124] Setting up inception_5b/3x3
I0321 14:19:13.472888  9963 net.cpp:131] Top shape: 128 384 4 4 (786432)
I0321 14:19:13.472894  9963 net.cpp:139] Memory required for data: 1365806088
I0321 14:19:13.472904  9963 layer_factory.hpp:77] Creating layer inception_5b/relu_3x3
I0321 14:19:13.472913  9963 net.cpp:86] Creating Layer inception_5b/relu_3x3
I0321 14:19:13.472920  9963 net.cpp:408] inception_5b/relu_3x3 <- inception_5b/3x3
I0321 14:19:13.472929  9963 net.cpp:369] inception_5b/relu_3x3 -> inception_5b/3x3 (in-place)
I0321 14:19:13.472942  9963 net.cpp:124] Setting up inception_5b/relu_3x3
I0321 14:19:13.472950  9963 net.cpp:131] Top shape: 128 384 4 4 (786432)
I0321 14:19:13.472956  9963 net.cpp:139] Memory required for data: 1368951816
I0321 14:19:13.472961  9963 layer_factory.hpp:77] Creating layer inception_5b/5x5_reduce
I0321 14:19:13.472973  9963 net.cpp:86] Creating Layer inception_5b/5x5_reduce
I0321 14:19:13.472980  9963 net.cpp:408] inception_5b/5x5_reduce <- inception_5a/output_inception_5a/output_0_split_2
I0321 14:19:13.472992  9963 net.cpp:382] inception_5b/5x5_reduce -> inception_5b/5x5_reduce
I0321 14:19:13.473645  9963 net.cpp:124] Setting up inception_5b/5x5_reduce
I0321 14:19:13.473664  9963 net.cpp:131] Top shape: 128 48 4 4 (98304)
I0321 14:19:13.473670  9963 net.cpp:139] Memory required for data: 1369345032
I0321 14:19:13.473678  9963 layer_factory.hpp:77] Creating layer inception_5b/relu_5x5_reduce
I0321 14:19:13.473702  9963 net.cpp:86] Creating Layer inception_5b/relu_5x5_reduce
I0321 14:19:13.473711  9963 net.cpp:408] inception_5b/relu_5x5_reduce <- inception_5b/5x5_reduce
I0321 14:19:13.473719  9963 net.cpp:369] inception_5b/relu_5x5_reduce -> inception_5b/5x5_reduce (in-place)
I0321 14:19:13.473729  9963 net.cpp:124] Setting up inception_5b/relu_5x5_reduce
I0321 14:19:13.473737  9963 net.cpp:131] Top shape: 128 48 4 4 (98304)
I0321 14:19:13.473742  9963 net.cpp:139] Memory required for data: 1369738248
I0321 14:19:13.473747  9963 layer_factory.hpp:77] Creating layer inception_5b/5x5
I0321 14:19:13.473762  9963 net.cpp:86] Creating Layer inception_5b/5x5
I0321 14:19:13.473769  9963 net.cpp:408] inception_5b/5x5 <- inception_5b/5x5_reduce
I0321 14:19:13.473781  9963 net.cpp:382] inception_5b/5x5 -> inception_5b/5x5
I0321 14:19:13.475371  9963 net.cpp:124] Setting up inception_5b/5x5
I0321 14:19:13.475389  9963 net.cpp:131] Top shape: 128 128 4 4 (262144)
I0321 14:19:13.475394  9963 net.cpp:139] Memory required for data: 1370786824
I0321 14:19:13.475404  9963 layer_factory.hpp:77] Creating layer inception_5b/relu_5x5
I0321 14:19:13.475467  9963 net.cpp:86] Creating Layer inception_5b/relu_5x5
I0321 14:19:13.475481  9963 net.cpp:408] inception_5b/relu_5x5 <- inception_5b/5x5
I0321 14:19:13.475489  9963 net.cpp:369] inception_5b/relu_5x5 -> inception_5b/5x5 (in-place)
I0321 14:19:13.475499  9963 net.cpp:124] Setting up inception_5b/relu_5x5
I0321 14:19:13.475507  9963 net.cpp:131] Top shape: 128 128 4 4 (262144)
I0321 14:19:13.475514  9963 net.cpp:139] Memory required for data: 1371835400
I0321 14:19:13.475520  9963 layer_factory.hpp:77] Creating layer inception_5b/pool
I0321 14:19:13.475544  9963 net.cpp:86] Creating Layer inception_5b/pool
I0321 14:19:13.475555  9963 net.cpp:408] inception_5b/pool <- inception_5a/output_inception_5a/output_0_split_3
I0321 14:19:13.475564  9963 net.cpp:382] inception_5b/pool -> inception_5b/pool
I0321 14:19:13.475620  9963 net.cpp:124] Setting up inception_5b/pool
I0321 14:19:13.475636  9963 net.cpp:131] Top shape: 128 832 4 4 (1703936)
I0321 14:19:13.475641  9963 net.cpp:139] Memory required for data: 1378651144
I0321 14:19:13.475647  9963 layer_factory.hpp:77] Creating layer inception_5b/pool_proj
I0321 14:19:13.475662  9963 net.cpp:86] Creating Layer inception_5b/pool_proj
I0321 14:19:13.475672  9963 net.cpp:408] inception_5b/pool_proj <- inception_5b/pool
I0321 14:19:13.475682  9963 net.cpp:382] inception_5b/pool_proj -> inception_5b/pool_proj
I0321 14:19:13.476858  9963 net.cpp:124] Setting up inception_5b/pool_proj
I0321 14:19:13.476876  9963 net.cpp:131] Top shape: 128 128 4 4 (262144)
I0321 14:19:13.476881  9963 net.cpp:139] Memory required for data: 1379699720
I0321 14:19:13.476891  9963 layer_factory.hpp:77] Creating layer inception_5b/relu_pool_proj
I0321 14:19:13.476899  9963 net.cpp:86] Creating Layer inception_5b/relu_pool_proj
I0321 14:19:13.476907  9963 net.cpp:408] inception_5b/relu_pool_proj <- inception_5b/pool_proj
I0321 14:19:13.476917  9963 net.cpp:369] inception_5b/relu_pool_proj -> inception_5b/pool_proj (in-place)
I0321 14:19:13.476927  9963 net.cpp:124] Setting up inception_5b/relu_pool_proj
I0321 14:19:13.476934  9963 net.cpp:131] Top shape: 128 128 4 4 (262144)
I0321 14:19:13.476940  9963 net.cpp:139] Memory required for data: 1380748296
I0321 14:19:13.476946  9963 layer_factory.hpp:77] Creating layer inception_5b/output
I0321 14:19:13.476963  9963 net.cpp:86] Creating Layer inception_5b/output
I0321 14:19:13.476972  9963 net.cpp:408] inception_5b/output <- inception_5b/1x1
I0321 14:19:13.476980  9963 net.cpp:408] inception_5b/output <- inception_5b/3x3
I0321 14:19:13.476989  9963 net.cpp:408] inception_5b/output <- inception_5b/5x5
I0321 14:19:13.476995  9963 net.cpp:408] inception_5b/output <- inception_5b/pool_proj
I0321 14:19:13.477004  9963 net.cpp:382] inception_5b/output -> inception_5b/output
I0321 14:19:13.477042  9963 net.cpp:124] Setting up inception_5b/output
I0321 14:19:13.477057  9963 net.cpp:131] Top shape: 128 1024 4 4 (2097152)
I0321 14:19:13.477063  9963 net.cpp:139] Memory required for data: 1389136904
I0321 14:19:13.477068  9963 layer_factory.hpp:77] Creating layer pool5/7x7_s1
I0321 14:19:13.477079  9963 net.cpp:86] Creating Layer pool5/7x7_s1
I0321 14:19:13.477089  9963 net.cpp:408] pool5/7x7_s1 <- inception_5b/output
I0321 14:19:13.477099  9963 net.cpp:382] pool5/7x7_s1 -> pool5/7x7_s1
I0321 14:19:13.477133  9963 net.cpp:124] Setting up pool5/7x7_s1
I0321 14:19:13.477147  9963 net.cpp:131] Top shape: 128 1024 1 1 (131072)
I0321 14:19:13.477152  9963 net.cpp:139] Memory required for data: 1389661192
I0321 14:19:13.477159  9963 layer_factory.hpp:77] Creating layer pool5/drop_7x7_s1
I0321 14:19:13.477171  9963 net.cpp:86] Creating Layer pool5/drop_7x7_s1
I0321 14:19:13.477180  9963 net.cpp:408] pool5/drop_7x7_s1 <- pool5/7x7_s1
I0321 14:19:13.477191  9963 net.cpp:369] pool5/drop_7x7_s1 -> pool5/7x7_s1 (in-place)
I0321 14:19:13.477224  9963 net.cpp:124] Setting up pool5/drop_7x7_s1
I0321 14:19:13.477238  9963 net.cpp:131] Top shape: 128 1024 1 1 (131072)
I0321 14:19:13.477243  9963 net.cpp:139] Memory required for data: 1390185480
I0321 14:19:13.477249  9963 layer_factory.hpp:77] Creating layer loss3_lite/predict
I0321 14:19:13.477282  9963 net.cpp:86] Creating Layer loss3_lite/predict
I0321 14:19:13.477291  9963 net.cpp:408] loss3_lite/predict <- pool5/7x7_s1
I0321 14:19:13.477304  9963 net.cpp:382] loss3_lite/predict -> loss3_lite/predict
I0321 14:19:13.477440  9963 net.cpp:124] Setting up loss3_lite/predict
I0321 14:19:13.477457  9963 net.cpp:131] Top shape: 128 1 (128)
I0321 14:19:13.477463  9963 net.cpp:139] Memory required for data: 1390185992
I0321 14:19:13.477471  9963 layer_factory.hpp:77] Creating layer loss3_my/loss3_my
I0321 14:19:13.477568  9963 net.cpp:86] Creating Layer loss3_my/loss3_my
I0321 14:19:13.477581  9963 net.cpp:408] loss3_my/loss3_my <- loss3_lite/predict
I0321 14:19:13.477591  9963 net.cpp:408] loss3_my/loss3_my <- label_data_1_split_2
I0321 14:19:13.477599  9963 net.cpp:382] loss3_my/loss3_my -> loss3_my/loss3_my
I0321 14:19:13.477797  9963 net.cpp:124] Setting up loss3_my/loss3_my
I0321 14:19:13.477815  9963 net.cpp:131] Top shape: 1 (1)
I0321 14:19:13.477821  9963 net.cpp:134]     with loss weight 10
I0321 14:19:13.477843  9963 net.cpp:139] Memory required for data: 1390185996
I0321 14:19:13.477849  9963 net.cpp:200] loss3_my/loss3_my needs backward computation.
I0321 14:19:13.477855  9963 net.cpp:200] loss3_lite/predict needs backward computation.
I0321 14:19:13.477861  9963 net.cpp:200] pool5/drop_7x7_s1 needs backward computation.
…
I0321 14:19:13.482368  9963 solver.cpp:173] Creating test net (#0) specified by net file: models/age_google_lite/train_val.prototxt.txt
I0321 14:19:13.482545  9963 net.cpp:296] The NetState phase (1) differed from the phase (0) specified by a rule in layer data
I0321 14:19:13.483474  9963 net.cpp:53] Initializing net from parameters: 
name: "GoogleNet-Lite"
state {
  phase: TEST
}
layer {
  name: "data"
  type: "Python"
  top: "data"
  top: "label"
  include {
    phase: TEST
  }
  python_param {
    module: "data_generator"
    layer: "DataLayer"
    param_str: "/home/zhongzhen/dataset/attribute/age/test.txt"
  }
}
layer {
  name: "conv1/7x7_s2"
  type: "Convolution"
  bottom: "data"
  top: "conv1/7x7_s2"
  param {
    lr_mult: 1
    decay_mult: 1
  }
  param {
    lr_mult: 2
    decay_mult: 0
  }
  convolution_param {
    num_output: 64
    pad: 3
    kernel_size: 7
    stride: 2
    weight_filler {
      type: "xavier"
    }
    bias_filler {
      type: "constant"
      value: 0.2
    }
  }
}
layer {
  name: "conv1/relu_7x7"
  type: "ReLU"
  bottom: "conv1/7x7_s2"
  top: "conv1/7x7_s2"
}
layer {
  name: "pool1/3x3_s2"
  type: "Pooling"
  bottom: "conv1/7x7_s2"
  top: "pool1/3x3_s2"
  pooling_param {
    pool: MAX
    kernel_size: 3
    stride: 2
  }
}
layer {
  name: "pool1/norm1"
  type: "LRN"
  bottom: "pool1/3x3_s2"
  top: "pool1/norm1"
  lrn_param {
    local_size: 5
    alpha: 0.0001
    beta: 0.75
  }
}
layer {
  name: "conv2/3x3_reduce"
  type: "Convolution"
  bottom: "pool1/norm1"
  top: "conv2/3x3_reduce"
  param {
    lr_mult: 1
    decay_mult: 1
  }
  param {
    lr_mult: 2
    decay_mult: 0
  }
  convolution_param {
    num_output: 64
    kernel_size: 1
    weight_filler {
      type: "xavier"
    }
    bias_filler {
      type: "constant"
      value: 0.2
    }
  }
}
layer {
  name: "conv2/relu_3x3_reduce"
  type: "ReLU"
  bottom: "conv2/3x3_reduce"
  top: "conv2/3x3_reduce"
}
layer {
  name: "conv2/norm2"
  type: "LRN"
  bottom: "conv2/3x3_reduce"
  top: "conv2/norm2"
  lrn_param {
    local_size: 5
    alpha: 0.0001
    beta: 0.75
  }
}
layer {
  name: "pool2/3x3_s2"
  type: "Pooling"
  bottom: "conv2/norm2"
  top: "pool2/3x3_s2"
  pooling_param {
    pool: MAX
    kernel_size: 3
    stride: 2
  }
}
layer {
  name: "inception_3a/1x1"
  type: "Convolution"
  bottom: "pool2/3x3_s2"
  top: "inception_3a/1x1"
  param {
    lr_mult: 1
    decay_mult: 1
  }
  param {
    lr_mult: 2
    decay_mult: 0
  }
  convolution_param {
    num_output: 64
    kernel_size: 1
    weight_filler {
      type: "xavier"
    }
    bias_filler {
      type: "constant"
      value: 0.2
    }
  }
}
layer {
  name: "inception_3a/relu_1x1"
  type: "ReLU"
  bottom: "inception_3a/1x1"
  top: "inception_3a/1x1"
}
layer {
  name: "inception_3a/3x3_reduce"
  type: "Convolution"
  bottom: "pool2/3x3_s2"
  top: "inception_3a/3x3_reduce"
  param {
    lr_mult: 1
    decay_mult: 1
  }
  param {
    lr_mult: 2
    decay_mult: 0
  }
  convolution_param {
    num_output: 96
    kernel_size: 1
    weight_filler {
      type: "xavier"
    }
    bias_filler {
      type: "constant"
      value: 0.2
    }
  }
}
layer {
  name: "inception_3a/relu_3x3_reduce"
  type: "ReLU"
  bottom: "inception_3a/3x3_reduce"
  top: "inception_3a/3x3_reduce"
}
layer {
  name: "inception_3a/3x3"
  type: "Convolution"
  bottom: "inception_3a/3x3_reduce"
  top: "inception_3a/3x3"
  param {
    lr_mult: 1
    decay_mult: 1
  }
  param {
    lr_mult: 2
    decay_mult: 0
  }
  convolution_param {
    num_output: 128
    pad: 1
    kernel_size: 3
    weight_filler {
      type: "xavier"
    }
    bias_filler {
      type: "constant"
      value: 0.2
    }
  }
}
layer {
  name: "inception_3a/relu_3x3"
  type: "ReLU"
  bottom: "inception_3a/3x3"
  top: "inception_3a/3x3"
}
layer {
  name: "inception_3a/5x5_reduce"
  type: "Convolution"
  bottom: "pool2/3x3_s2"
  top: "inception_3a/5x5_reduce"
  param {
    lr_mult: 1
    decay_mult: 1
  }
  param {
    lr_mult: 2
    decay_mult: 0
  }
  convolution_param {
    num_output: 16
    kernel_size: 1
    weight_filler {
      type: "xavier"
    }
    bias_filler {
      type: "constant"
      value: 0.2
    }
  }
}
layer {
  name: "inception_3a/relu_5x5_reduce"
  type: "ReLU"
  bottom: "inception_3a/5x5_reduce"
  top: "inception_3a/5x5_reduce"
}
layer {
  name: "inception_3a/5x5"
  type: "Convolution"
  bottom: "inception_3a/5x5_reduce"
  top: "inception_3a/5x5"
  param {
    lr_mult: 1
    decay_mult: 1
  }
  param {
    lr_mult: 2
    decay_mult: 0
  }
  convolution_param {
    num_output: 32
    pad: 2
    kernel_size: 5
    weight_filler {
      type: "xavier"
    }
    bias_filler {
      type: "constant"
      value: 0.2
    }
  }
}
layer {
  name: "inception_3a/relu_5x5"
  type: "ReLU"
  bottom: "inception_3a/5x5"
  top: "inception_3a/5x5"
}
layer {
  name: "inception_3a/pool"
  type: "Pooling"
  bottom: "pool2/3x3_s2"
  top: "inception_3a/pool"
  pooling_param {
    pool: MAX
    kernel_size: 3
    stride: 1
    pad: 1
  }
}
layer {
  name: "inception_3a/pool_proj"
  type: "Convolution"
  bottom: "inception_3a/pool"
  top: "inception_3a/pool_proj"
  param {
    lr_mult: 1
    decay_mult: 1
  }
  param {
    lr_mult: 2
    decay_mult: 0
  }
  convolution_param {
    num_output: 32
    kernel_size: 1
    weight_filler {
      type: "xavier"
    }
    bias_filler {
      type: "constant"
      value: 0.2
    }
  }
}
layer {
  name: "inception_3a/relu_pool_proj"
  type: "ReLU"
  bottom: "inception_3a/pool_proj"
  top: "inception_3a/pool_proj"
}
layer {
  name: "inception_3a/output"
  type: "Concat"
  bottom: "inception_3a/1x1"
  bottom: "inception_3a/3x3"
  bottom: "inception_3a/5x5"
  bottom: "inception_3a/pool_proj"
  top: "inception_3a/output"
}
layer {
  name: "pool3/3x3_s2"
  type: "Pooling"
  bottom: "inception_3a/output"
  top: "pool3/3x3_s2"
  pooling_param {
    pool: MAX
    kernel_size: 3
    stride: 2
  }
}
layer {
  name: "inception_4a/1x1"
  type: "Convolution"
  bottom: "pool3/3x3_s2"
  top: "inception_4a/1x1"
  param {
    lr_mult: 1
    decay_mult: 1
  }
  param {
    lr_mult: 2
    decay_mult: 0
  }
  convolution_param {
    num_output: 192
    kernel_size: 1
    weight_filler {
      type: "xavier"
    }
    bias_filler {
      type: "constant"
      value: 0.2
    }
  }
}
layer {
  name: "inception_4a/relu_1x1"
  type: "ReLU"
  bottom: "inception_4a/1x1"
  top: "inception_4a/1x1"
}
layer {
  name: "inception_4a/3x3_reduce"
  type: "Convolution"
  bottom: "pool3/3x3_s2"
  top: "inception_4a/3x3_reduce"
  param {
    lr_mult: 1
    decay_mult: 1
  }
  param {
    lr_mult: 2
    decay_mult: 0
  }
  convolution_param {
    num_output: 96
    kernel_size: 1
    weight_filler {
      type: "xavier"
    }
    bias_filler {
      type: "constant"
      value: 0.2
    }
  }
}
layer {
  name: "inception_4a/relu_3x3_reduce"
  type: "ReLU"
  bottom: "inception_4a/3x3_reduce"
  top: "inception_4a/3x3_reduce"
}
layer {
  name: "inception_4a/3x3"
  type: "Convolution"
  bottom: "inception_4a/3x3_reduce"
  top: "inception_4a/3x3"
  param {
    lr_mult: 1
    decay_mult: 1
  }
  param {
    lr_mult: 2
    decay_mult: 0
  }
  convolution_param {
    num_output: 208
    pad: 1
    kernel_size: 3
    weight_filler {
      type: "xavier"
    }
    bias_filler {
      type: "constant"
      value: 0.2
    }
  }
}
layer {
  name: "inception_4a/relu_3x3"
  type: "ReLU"
  bottom: "inception_4a/3x3"
  top: "inception_4a/3x3"
}
layer {
  name: "inception_4a/5x5_reduce"
  type: "Convolution"
  bottom: "pool3/3x3_s2"
  top: "inception_4a/5x5_reduce"
  param {
    lr_mult: 1
    decay_mult: 1
  }
  param {
    lr_mult: 2
    decay_mult: 0
  }
  convolution_param {
    num_output: 16
    kernel_size: 1
    weight_filler {
      type: "xavier"
    }
    bias_filler {
      type: "constant"
      value: 0.2
    }
  }
}
layer {
  name: "inception_4a/relu_5x5_reduce"
  type: "ReLU"
  bottom: "inception_4a/5x5_reduce"
  top: "inception_4a/5x5_reduce"
}
layer {
  name: "inception_4a/5x5"
  type: "Convolution"
  bottom: "inception_4a/5x5_reduce"
  top: "inception_4a/5x5"
  param {
    lr_mult: 1
    decay_mult: 1
  }
  param {
    lr_mult: 2
    decay_mult: 0
  }
  convolution_param {
    num_output: 48
    pad: 2
    kernel_size: 5
    weight_filler {
      type: "xavier"
    }
    bias_filler {
      type: "constant"
      value: 0.2
    }
  }
}
layer {
  name: "inception_4a/relu_5x5"
  type: "ReLU"
  bottom: "inception_4a/5x5"
  top: "inception_4a/5x5"
}
layer {
  name: "inception_4a/pool"
  type: "Pooling"
  bottom: "pool3/3x3_s2"
  top: "inception_4a/pool"
  pooling_param {
    pool: MAX
    kernel_size: 3
    stride: 1
    pad: 1
  }
}
layer {
  name: "inception_4a/pool_proj"
  type: "Convolution"
  bottom: "inception_4a/pool"
  top: "inception_4a/pool_proj"
  param {
    lr_mult: 1
    decay_mult: 1
  }
  param {
    lr_mult: 2
    decay_mult: 0
  }
  convolution_param {
    num_output: 64
    kernel_size: 1
    weight_filler {
      type: "xavier"
    }
    bias_filler {
      type: "constant"
      value: 0.2
    }
  }
}
layer {
  name: "inception_4a/relu_pool_proj"
  type: "ReLU"
  bottom: "inception_4a/pool_proj"
  top: "inception_4a/pool_proj"
}
layer {
  name: "inception_4a/output"
  type: "Concat"
  bottom: "inception_4a/1x1"
  bottom: "inception_4a/3x3"
  bottom: "inception_4a/5x5"
  bottom: "inception_4a/pool_proj"
  top: "inception_4a/output"
}
layer {
  name: "loss1_my/ave_pool"
  type: "Pooling"
  bottom: "inception_4a/output"
  top: "loss1_my/ave_pool"
  pooling_param {
    pool: AVE
    kernel_size: 5
    stride: 3
  }
}
layer {
  name: "loss1_my/conv"
  type: "Convolution"
  bottom: "loss1_my/ave_pool"
  top: "loss1_my/conv"
  param {
    lr_mult: 1
    decay_mult: 1
  }
  param {
    lr_mult: 2
    decay_mult: 0
  }
  convolution_param {
    num_output: 128
    kernel_size: 1
    weight_filler {
      type: "xavier"
    }
    bias_filler {
      type: "constant"
      value: 0.2
    }
  }
}
layer {
  name: "loss1_my/relu_conv"
  type: "ReLU"
  bottom: "loss1_my/conv"
  top: "loss1_my/conv"
}
layer {
  name: "loss1_my/fc"
  type: "InnerProduct"
  bottom: "loss1_my/conv"
  top: "loss1_my/fc"
  param {
    lr_mult: 1
    decay_mult: 1
  }
  param {
    lr_mult: 2
    decay_mult: 0
  }
  inner_product_param {
    num_output: 1024
    weight_filler {
      type: "xavier"
    }
    bias_filler {
      type: "constant"
      value: 0.2
    }
  }
}
layer {
  name: "loss1_my/relu_fc"
  type: "ReLU"
  bottom: "loss1_my/fc"
  top: "loss1_my/fc"
}
layer {
  name: "loss1_my/drop_fc"
  type: "Dropout"
  bottom: "loss1_my/fc"
  top: "loss1_my/fc"
  dropout_param {
    dropout_ratio: 0.7
  }
}
layer {
  name: "loss1_lite/classifier"
  type: "InnerProduct"
  bottom: "loss1_my/fc"
  top: "loss1_lite/classifier"
  param {
    lr_mult: 1
    decay_mult: 1
  }
  param {
    lr_mult: 2
    decay_mult: 0
  }
  inner_product_param {
    num_output: 1
    weight_filler {
      type: "xavier"
    }
    bias_filler {
      type: "constant"
      value: 0
    }
  }
}
layer {
  name: "loss1_my/loss"
  type: "Python"
  bottom: "loss1_lite/classifier"
  bottom: "label"
  top: "loss1_my/loss"
  loss_weight: 0.1
  python_param {
    module: "robust_loss"
    layer: "RobustLossLayer"
  }
}
layer {
  name: "inception_4b/1x1"
  type: "Convolution"
  bottom: "inception_4a/output"
  top: "inception_4b/1x1"
  param {
    lr_mult: 1
    decay_mult: 1
  }
  param {
    lr_mult: 2
    decay_mult: 0
  }
  convolution_param {
    num_output: 160
    kernel_size: 1
    weight_filler {
      type: "xavier"
    }
    bias_filler {
      type: "constant"
      value: 0.2
    }
  }
}
layer {
  name: "inception_4b/relu_1x1"
  type: "ReLU"
  bottom: "inception_4b/1x1"
  top: "inception_4b/1x1"
}
layer {
  name: "inception_4b/3x3_reduce"
  type: "Convolution"
  bottom: "inception_4a/output"
  top: "inception_4b/3x3_reduce"
  param {
    lr_mult: 1
    decay_mult: 1
  }
  param {
    lr_mult: 2
    decay_mult: 0
  }
  convolution_param {
    num_output: 112
    kernel_size: 1
    weight_filler {
      type: "xavier"
    }
    bias_filler {
      type: "constant"
      value: 0.2
    }
  }
}
layer {
  name: "inception_4b/relu_3x3_reduce"
  type: "ReLU"
  bottom: "inception_4b/3x3_reduce"
  top: "inception_4b/3x3_reduce"
}
layer {
  name: "inception_4b/3x3"
  type: "Convolution"
  bottom: "inception_4b/3x3_reduce"
  top: "inception_4b/3x3"
  param {
    lr_mult: 1
    decay_mult: 1
  }
  param {
    lr_mult: 2
    decay_mult: 0
  }
  convolution_param {
    num_output: 224
    pad: 1
    kernel_size: 3
    weight_filler {
      type: "xavier"
    }
    bias_filler {
      type: "constant"
      value: 0.2
    }
  }
}
layer {
  name: "inception_4b/relu_3x3"
  type: "ReLU"
  bottom: "inception_4b/3x3"
  top: "inception_4b/3x3"
}
layer {
  name: "inception_4b/5x5_reduce"
  type: "Convolution"
  bottom: "inception_4a/output"
  top: "inception_4b/5x5_reduce"
  param {
    lr_mult: 1
    decay_mult: 1
  }
  param {
    lr_mult: 2
    decay_mult: 0
  }
  convolution_param {
    num_output: 24
    kernel_size: 1
    weight_filler {
      type: "xavier"
    }
    bias_filler {
      type: "constant"
      value: 0.2
    }
  }
}
layer {
  name: "inception_4b/relu_5x5_reduce"
  type: "ReLU"
  bottom: "inception_4b/5x5_reduce"
  top: "inception_4b/5x5_reduce"
}
layer {
  name: "inception_4b/5x5"
  type: "Convolution"
  bottom: "inception_4b/5x5_reduce"
  top: "inception_4b/5x5"
  param {
    lr_mult: 1
    decay_mult: 1
  }
  param {
    lr_mult: 2
    decay_mult: 0
  }
  convolution_param {
    num_output: 64
    pad: 2
    kernel_size: 5
    weight_filler {
      type: "xavier"
    }
    bias_filler {
      type: "constant"
      value: 0.2
    }
  }
}
layer {
  name: "inception_4b/relu_5x5"
  type: "ReLU"
  bottom: "inception_4b/5x5"
  top: "inception_4b/5x5"
}
layer {
  name: "inception_4b/pool"
  type: "Pooling"
  bottom: "inception_4a/output"
  top: "inception_4b/pool"
  pooling_param {
    pool: MAX
    kernel_size: 3
    stride: 1
    pad: 1
  }
}
layer {
  name: "inception_4b/pool_proj"
  type: "Convolution"
  bottom: "inception_4b/pool"
  top: "inception_4b/pool_proj"
  param {
    lr_mult: 1
    decay_mult: 1
  }
  param {
    lr_mult: 2
    decay_mult: 0
  }
  convolution_param {
    num_output: 64
    kernel_size: 1
    weight_filler {
      type: "xavier"
    }
    bias_filler {
      type: "constant"
      value: 0.2
    }
  }
}
layer {
  name: "inception_4b/relu_pool_proj"
  type: "ReLU"
  bottom: "inception_4b/pool_proj"
  top: "inception_4b/pool_proj"
}
layer {
  name: "inception_4c/output"
  type: "Concat"
  bottom: "inception_4b/1x1"
  bottom: "inception_4b/3x3"
  bottom: "inception_4b/5x5"
  bottom: "inception_4b/pool_proj"
  top: "inception_4c/output"
}
layer {
  name: "inception_4d/1x1"
  type: "Convolution"
  bottom: "inception_4c/output"
  top: "inception_4d/1x1"
  param {
    lr_mult: 1
    decay_mult: 1
  }
  param {
    lr_mult: 2
    decay_mult: 0
  }
  convolution_param {
    num_output: 112
    kernel_size: 1
    weight_filler {
      type: "xavier"
    }
    bias_filler {
      type: "constant"
      value: 0.2
    }
  }
}
layer {
  name: "inception_4d/relu_1x1"
  type: "ReLU"
  bottom: "inception_4d/1x1"
  top: "inception_4d/1x1"
}
layer {
  name: "inception_4d/3x3_reduce"
  type: "Convolution"
  bottom: "inception_4c/output"
  top: "inception_4d/3x3_reduce"
  param {
    lr_mult: 1
    decay_mult: 1
  }
  param {
    lr_mult: 2
    decay_mult: 0
  }
  convolution_param {
    num_output: 144
    kernel_size: 1
    weight_filler {
      type: "xavier"
    }
    bias_filler {
      type: "constant"
      value: 0.2
    }
  }
}
layer {
  name: "inception_4d/relu_3x3_reduce"
  type: "ReLU"
  bottom: "inception_4d/3x3_reduce"
  top: "inception_4d/3x3_reduce"
}
layer {
  name: "inception_4d/3x3"
  type: "Convolution"
  bottom: "inception_4d/3x3_reduce"
  top: "inception_4d/3x3"
  param {
    lr_mult: 1
    decay_mult: 1
  }
  param {
    lr_mult: 2
    decay_mult: 0
  }
  convolution_param {
    num_output: 288
    pad: 1
    kernel_size: 3
    weight_filler {
      type: "xavier"
    }
    bias_filler {
      type: "constant"
      value: 0.2
    }
  }
}
layer {
  name: "inception_4d/relu_3x3"
  type: "ReLU"
  bottom: "inception_4d/3x3"
  top: "inception_4d/3x3"
}
layer {
  name: "inception_4d/5x5_reduce"
  type: "Convolution"
  bottom: "inception_4c/output"
  top: "inception_4d/5x5_reduce"
  param {
    lr_mult: 1
    decay_mult: 1
  }
  param {
    lr_mult: 2
    decay_mult: 0
  }
  convolution_param {
    num_output: 32
    kernel_size: 1
    weight_filler {
      type: "xavier"
    }
    bias_filler {
      type: "constant"
      value: 0.2
    }
  }
}
layer {
  name: "inception_4d/relu_5x5_reduce"
  type: "ReLU"
  bottom: "inception_4d/5x5_reduce"
  top: "inception_4d/5x5_reduce"
}
layer {
  name: "inception_4d/5x5"
  type: "Convolution"
  bottom: "inception_4d/5x5_reduce"
  top: "inception_4d/5x5"
  param {
    lr_mult: 1
    decay_mult: 1
  }
  param {
    lr_mult: 2
    decay_mult: 0
  }
  convolution_param {
    num_output: 64
    pad: 2
    kernel_size: 5
    weight_filler {
      type: "xavier"
    }
    bias_filler {
      type: "constant"
      value: 0.2
    }
  }
}
layer {
  name: "inception_4d/relu_5x5"
  type: "ReLU"
  bottom: "inception_4d/5x5"
  top: "inception_4d/5x5"
}
layer {
  name: "inception_4d/pool"
  type: "Pooling"
  bottom: "inception_4c/output"
  top: "inception_4d/pool"
  pooling_param {
    pool: MAX
    kernel_size: 3
    stride: 1
    pad: 1
  }
}
layer {
  name: "inception_4d/pool_proj"
  type: "Convolution"
  bottom: "inception_4d/pool"
  top: "inception_4d/pool_proj"
  param {
    lr_mult: 1
    decay_mult: 1
  }
  param {
    lr_mult: 2
    decay_mult: 0
  }
  convolution_param {
    num_output: 64
    kernel_size: 1
    weight_filler {
      type: "xavier"
    }
    bias_filler {
      type: "constant"
      value: 0.2
    }
  }
}
layer {
  name: "inception_4d/relu_pool_proj"
  type: "ReLU"
  bottom: "inception_4d/pool_proj"
  top: "inception_4d/pool_proj"
}
layer {
  name: "inception_4d/output"
  type: "Concat"
  bottom: "inception_4d/1x1"
  bottom: "inception_4d/3x3"
  bottom: "inception_4d/5x5"
  bottom: "inception_4d/pool_proj"
  top: "inception_4d/output"
}
layer {
  name: "loss2_my/ave_pool"
  type: "Pooling"
  bottom: "inception_4d/output"
  top: "loss2_my/ave_pool"
  pooling_param {
    pool: AVE
    kernel_size: 5
    stride: 3
  }
}
layer {
  name: "loss2_my/conv"
  type: "Convolution"
  bottom: "loss2_my/ave_pool"
  top: "loss2_my/conv"
  param {
    lr_mult: 1
    decay_mult: 1
  }
  param {
    lr_mult: 2
    decay_mult: 0
  }
  convolution_param {
    num_output: 128
    kernel_size: 1
    weight_filler {
      type: "xavier"
    }
    bias_filler {
      type: "constant"
      value: 0.2
    }
  }
}
layer {
  name: "loss2_my/relu_conv"
  type: "ReLU"
  bottom: "loss2_my/conv"
  top: "loss2_my/conv"
}
layer {
  name: "loss2_my/fc"
  type: "InnerProduct"
  bottom: "loss2_my/conv"
  top: "loss2_my/fc"
  param {
    lr_mult: 1
    decay_mult: 1
  }
  param {
    lr_mult: 2
    decay_mult: 0
  }
  inner_product_param {
    num_output: 1024
    weight_filler {
      type: "xavier"
    }
    bias_filler {
      type: "constant"
      value: 0.2
    }
  }
}
layer {
  name: "loss2_my/relu_fc"
  type: "ReLU"
  bottom: "loss2_my/fc"
  top: "loss2_my/fc"
}
layer {
  name: "loss2_my/drop_fc"
  type: "Dropout"
  bottom: "loss2_my/fc"
  top: "loss2_my/fc"
  dropout_param {
    dropout_ratio: 0.7
  }
}
layer {
  name: "loss2_lite/classifier"
  type: "InnerProduct"
  bottom: "loss2_my/fc"
  top: "loss2_lite/classifier"
  param {
    lr_mult: 1
    decay_mult: 1
  }
  param {
    lr_mult: 2
    decay_mult: 0
  }
  inner_product_param {
    num_output: 1
    weight_filler {
      type: "xavier"
    }
    bias_filler {
      type: "constant"
      value: 0
    }
  }
}
layer {
  name: "loss2_my/loss"
  type: "Python"
  bottom: "loss2_lite/classifier"
  bottom: "label"
  top: "loss2_my/loss"
  loss_weight: 0.4
  python_param {
    module: "robust_loss"
    layer: "RobustLossLayer"
  }
}
layer {
  name: "inception_4e/1x1"
  type: "Convolution"
  bottom: "inception_4d/output"
  top: "inception_4e/1x1"
  param {
    lr_mult: 1
    decay_mult: 1
  }
  param {
    lr_mult: 2
    decay_mult: 0
  }
  convolution_param {
    num_output: 256
    kernel_size: 1
    weight_filler {
      type: "xavier"
    }
    bias_filler {
      type: "constant"
      value: 0.2
    }
  }
}
layer {
  name: "inception_4e/relu_1x1"
  type: "ReLU"
  bottom: "inception_4e/1x1"
  top: "inception_4e/1x1"
}
layer {
  name: "inception_4e/3x3_reduce"
  type: "Convolution"
  bottom: "inception_4d/output"
  top: "inception_4e/3x3_reduce"
  param {
    lr_mult: 1
    decay_mult: 1
  }
  param {
    lr_mult: 2
    decay_mult: 0
  }
  convolution_param {
    num_output: 160
    kernel_size: 1
    weight_filler {
      type: "xavier"
    }
    bias_filler {
      type: "constant"
      value: 0.2
    }
  }
}
layer {
  name: "inception_4e/relu_3x3_reduce"
  type: "ReLU"
  bottom: "inception_4e/3x3_reduce"
  top: "inception_4e/3x3_reduce"
}
layer {
  name: "inception_4e/3x3"
  type: "Convolution"
  bottom: "inception_4e/3x3_reduce"
  top: "inception_4e/3x3"
  param {
    lr_mult: 1
    decay_mult: 1
  }
  param {
    lr_mult: 2
    decay_mult: 0
  }
  convolution_param {
    num_output: 320
    pad: 1
    kernel_size: 3
    weight_filler {
      type: "xavier"
    }
    bias_filler {
      type: "constant"
      value: 0.2
    }
  }
}
layer {
  name: "inception_4e/relu_3x3"
  type: "ReLU"
  bottom: "inception_4e/3x3"
  top: "inception_4e/3x3"
}
layer {
  name: "inception_4e/5x5_reduce"
  type: "Convolution"
  bottom: "inception_4d/output"
  top: "inception_4e/5x5_reduce"
  param {
    lr_mult: 1
    decay_mult: 1
  }
  param {
    lr_mult: 2
    decay_mult: 0
  }
  convolution_param {
    num_output: 32
    kernel_size: 1
    weight_filler {
      type: "xavier"
    }
    bias_filler {
      type: "constant"
      value: 0.2
    }
  }
}
layer {
  name: "inception_4e/relu_5x5_reduce"
  type: "ReLU"
  bottom: "inception_4e/5x5_reduce"
  top: "inception_4e/5x5_reduce"
}
layer {
  name: "inception_4e/5x5"
  type: "Convolution"
  bottom: "inception_4e/5x5_reduce"
  top: "inception_4e/5x5"
  param {
    lr_mult: 1
    decay_mult: 1
  }
  param {
    lr_mult: 2
    decay_mult: 0
  }
  convolution_param {
    num_output: 128
    pad: 2
    kernel_size: 5
    weight_filler {
      type: "xavier"
    }
    bias_filler {
      type: "constant"
      value: 0.2
    }
  }
}
layer {
  name: "inception_4e/relu_5x5"
  type: "ReLU"
  bottom: "inception_4e/5x5"
  top: "inception_4e/5x5"
}
layer {
  name: "inception_4e/pool"
  type: "Pooling"
  bottom: "inception_4d/output"
  top: "inception_4e/pool"
  pooling_param {
    pool: MAX
    kernel_size: 3
    stride: 1
    pad: 1
  }
}
layer {
  name: "inception_4e/pool_proj"
  type: "Convolution"
  bottom: "inception_4e/pool"
  top: "inception_4e/pool_proj"
  param {
    lr_mult: 1
    decay_mult: 1
  }
  param {
    lr_mult: 2
    decay_mult: 0
  }
  convolution_param {
    num_output: 128
    kernel_size: 1
    weight_filler {
      type: "xavier"
    }
    bias_filler {
      type: "constant"
      value: 0.2
    }
  }
}
layer {
  name: "inception_4e/relu_pool_proj"
  type: "ReLU"
  bottom: "inception_4e/pool_proj"
  top: "inception_4e/pool_proj"
}
layer {
  name: "inception_4e/output"
  type: "Concat"
  bottom: "inception_4e/1x1"
  bottom: "inception_4e/3x3"
  bottom: "inception_4e/5x5"
  bottom: "inception_4e/pool_proj"
  top: "inception_4e/output"
}
layer {
  name: "pool4/3x3_s2"
  type: "Pooling"
  bottom: "inception_4e/output"
  top: "pool4/3x3_s2"
  pooling_param {
    pool: MAX
    kernel_size: 3
    stride: 2
  }
}
layer {
  name: "inception_5a/1x1"
  type: "Convolution"
  bottom: "pool4/3x3_s2"
  top: "inception_5a/1x1"
  param {
    lr_mult: 1
    decay_mult: 1
  }
  param {
    lr_mult: 2
    decay_mult: 0
  }
  convolution_param {
    num_output: 256
    kernel_size: 1
    weight_filler {
      type: "xavier"
    }
    bias_filler {
      type: "constant"
      value: 0.2
    }
  }
}
layer {
  name: "inception_5a/relu_1x1"
  type: "ReLU"
  bottom: "inception_5a/1x1"
  top: "inception_5a/1x1"
}
layer {
  name: "inception_5a/3x3_reduce"
  type: "Convolution"
  bottom: "pool4/3x3_s2"
  top: "inception_5a/3x3_reduce"
  param {
    lr_mult: 1
    decay_mult: 1
  }
  param {
    lr_mult: 2
    decay_mult: 0
  }
  convolution_param {
    num_output: 160
    kernel_size: 1
    weight_filler {
      type: "xavier"
    }
    bias_filler {
      type: "constant"
      value: 0.2
    }
  }
}
layer {
  name: "inception_5a/relu_3x3_reduce"
  type: "ReLU"
  bottom: "inception_5a/3x3_reduce"
  top: "inception_5a/3x3_reduce"
}
layer {
  name: "inception_5a/3x3"
  type: "Convolution"
  bottom: "inception_5a/3x3_reduce"
  top: "inception_5a/3x3"
  param {
    lr_mult: 1
    decay_mult: 1
  }
  param {
    lr_mult: 2
    decay_mult: 0
  }
  convolution_param {
    num_output: 320
    pad: 1
    kernel_size: 3
    weight_filler {
      type: "xavier"
    }
    bias_filler {
      type: "constant"
      value: 0.2
    }
  }
}
layer {
  name: "inception_5a/relu_3x3"
  type: "ReLU"
  bottom: "inception_5a/3x3"
  top: "inception_5a/3x3"
}
layer {
  name: "inception_5a/5x5_reduce"
  type: "Convolution"
  bottom: "pool4/3x3_s2"
  top: "inception_5a/5x5_reduce"
  param {
    lr_mult: 1
    decay_mult: 1
  }
  param {
    lr_mult: 2
    decay_mult: 0
  }
  convolution_param {
    num_output: 32
    kernel_size: 1
    weight_filler {
      type: "xavier"
    }
    bias_filler {
      type: "constant"
      value: 0.2
    }
  }
}
layer {
  name: "inception_5a/relu_5x5_reduce"
  type: "ReLU"
  bottom: "inception_5a/5x5_reduce"
  top: "inception_5a/5x5_reduce"
}
layer {
  name: "inception_5a/5x5"
  type: "Convolution"
  bottom: "inception_5a/5x5_reduce"
  top: "inception_5a/5x5"
  param {
    lr_mult: 1
    decay_mult: 1
  }
  param {
    lr_mult: 2
    decay_mult: 0
  }
  convolution_param {
    num_output: 128
    pad: 2
    kernel_size: 5
    weight_filler {
      type: "xavier"
    }
    bias_filler {
      type: "constant"
      value: 0.2
    }
  }
}
layer {
  name: "inception_5a/relu_5x5"
  type: "ReLU"
  bottom: "inception_5a/5x5"
  top: "inception_5a/5x5"
}
layer {
  name: "inception_5a/pool"
  type: "Pooling"
  bottom: "pool4/3x3_s2"
  top: "inception_5a/pool"
  pooling_param {
    pool: MAX
    kernel_size: 3
    stride: 1
    pad: 1
  }
}
layer {
  name: "inception_5a/pool_proj"
  type: "Convolution"
  bottom: "inception_5a/pool"
  top: "inception_5a/pool_proj"
  param {
    lr_mult: 1
    decay_mult: 1
  }
  param {
    lr_mult: 2
    decay_mult: 0
  }
  convolution_param {
    num_output: 128
    kernel_size: 1
    weight_filler {
      type: "xavier"
    }
    bias_filler {
      type: "constant"
      value: 0.2
    }
  }
}
layer {
  name: "inception_5a/relu_pool_proj"
  type: "ReLU"
  bottom: "inception_5a/pool_proj"
  top: "inception_5a/pool_proj"
}
layer {
  name: "inception_5a/output"
  type: "Concat"
  bottom: "inception_5a/1x1"
  bottom: "inception_5a/3x3"
  bottom: "inception_5a/5x5"
  bottom: "inception_5a/pool_proj"
  top: "inception_5a/output"
}
layer {
  name: "inception_5b/1x1"
  type: "Convolution"
  bottom: "inception_5a/output"
  top: "inception_5b/1x1"
  param {
    lr_mult: 1
    decay_mult: 1
  }
  param {
    lr_mult: 2
    decay_mult: 0
  }
  convolution_param {
    num_output: 384
    kernel_size: 1
    weight_filler {
      type: "xavier"
    }
    bias_filler {
      type: "constant"
      value: 0.2
    }
  }
}
layer {
  name: "inception_5b/relu_1x1"
  type: "ReLU"
  bottom: "inception_5b/1x1"
  top: "inception_5b/1x1"
}
layer {
  name: "inception_5b/3x3_reduce"
  type: "Convolution"
  bottom: "inception_5a/output"
  top: "inception_5b/3x3_reduce"
  param {
    lr_mult: 1
    decay_mult: 1
  }
  param {
    lr_mult: 2
    decay_mult: 0
  }
  convolution_param {
    num_output: 192
    kernel_size: 1
    weight_filler {
      type: "xavier"
    }
    bias_filler {
      type: "constant"
      value: 0.2
    }
  }
}
layer {
  name: "inception_5b/relu_3x3_reduce"
  type: "ReLU"
  bottom: "inception_5b/3x3_reduce"
  top: "inception_5b/3x3_reduce"
}
layer {
  name: "inception_5b/3x3"
  type: "Convolution"
  bottom: "inception_5b/3x3_reduce"
  top: "inception_5b/3x3"
  param {
    lr_mult: 1
    decay_mult: 1
  }
  param {
    lr_mult: 2
    decay_mult: 0
  }
  convolution_param {
    num_output: 384
    pad: 1
    kernel_size: 3
    weight_filler {
      type: "xavier"
    }
    bias_filler {
      type: "constant"
      value: 0.2
    }
  }
}
layer {
  name: "inception_5b/relu_3x3"
  type: "ReLU"
  bottom: "inception_5b/3x3"
  top: "inception_5b/3x3"
}
layer {
  name: "inception_5b/5x5_reduce"
  type: "Convolution"
  bottom: "inception_5a/output"
  top: "inception_5b/5x5_reduce"
  param {
    lr_mult: 1
    decay_mult: 1
  }
  param {
    lr_mult: 2
    decay_mult: 0
  }
  convolution_param {
    num_output: 48
    kernel_size: 1
    weight_filler {
      type: "xavier"
    }
    bias_filler {
      type: "constant"
      value: 0.2
    }
  }
}
layer {
  name: "inception_5b/relu_5x5_reduce"
  type: "ReLU"
  bottom: "inception_5b/5x5_reduce"
  top: "inception_5b/5x5_reduce"
}
layer {
  name: "inception_5b/5x5"
  type: "Convolution"
  bottom: "inception_5b/5x5_reduce"
  top: "inception_5b/5x5"
  param {
    lr_mult: 1
    decay_mult: 1
  }
  param {
    lr_mult: 2
    decay_mult: 0
  }
  convolution_param {
    num_output: 128
    pad: 2
    kernel_size: 5
    weight_filler {
      type: "xavier"
    }
    bias_filler {
      type: "constant"
      value: 0.2
    }
  }
}
layer {
  name: "inception_5b/relu_5x5"
  type: "ReLU"
  bottom: "inception_5b/5x5"
  top: "inception_5b/5x5"
}
layer {
  name: "inception_5b/pool"
  type: "Pooling"
  bottom: "inception_5a/output"
  top: "inception_5b/pool"
  pooling_param {
    pool: MAX
    kernel_size: 3
    stride: 1
    pad: 1
  }
}
layer {
  name: "inception_5b/pool_proj"
  type: "Convolution"
  bottom: "inception_5b/pool"
  top: "incepti
I0321 14:19:13.484163  9963 layer_factory.hpp:77] Creating layer data
I0321 14:19:13.484206  9963 net.cpp:86] Creating Layer data
I0321 14:19:13.484218  9963 net.cpp:382] data -> data
I0321 14:19:13.484231  9963 net.cpp:382] data -> label
I0321 14:19:13.514971  9963 net.cpp:124] Setting up data
I0321 14:19:13.515034  9963 net.cpp:131] Top shape: 128 3 128 128 (6291456)
I0321 14:19:13.515044  9963 net.cpp:131] Top shape: 128 1 (128)
I0321 14:19:13.515051  9963 net.cpp:139] Memory required for data: 25166336
I0321 14:19:13.515064  9963 layer_factory.hpp:77] Creating layer label_data_1_split
I0321 14:19:13.515089  9963 net.cpp:86] Creating Layer label_data_1_split
I0321 14:19:13.515101  9963 net.cpp:408] label_data_1_split <- label
I0321 14:19:13.515115  9963 net.cpp:382] label_data_1_split -> label_data_1_split_0
I0321 14:19:13.515133  9963 net.cpp:382] label_data_1_split -> label_data_1_split_1
I0321 14:19:13.515175  9963 net.cpp:382] label_data_1_split -> label_data_1_split_2
I0321 14:19:13.515187  9963 net.cpp:382] label_data_1_split -> label_data_1_split_3
I0321 14:19:13.515276  9963 net.cpp:124] Setting up label_data_1_split
I0321 14:19:13.515292  9963 net.cpp:131] Top shape: 128 1 (128)
I0321 14:19:13.515300  9963 net.cpp:131] Top shape: 128 1 (128)
I0321 14:19:13.515306  9963 net.cpp:131] Top shape: 128 1 (128)
I0321 14:19:13.515313  9963 net.cpp:131] Top shape: 128 1 (128)
I0321 14:19:13.515318  9963 net.cpp:139] Memory required for data: 25168384
I0321 14:19:13.515324  9963 layer_factory.hpp:77] Creating layer conv1/7x7_s2
I0321 14:19:13.515347  9963 net.cpp:86] Creating Layer conv1/7x7_s2
I0321 14:19:13.515357  9963 net.cpp:408] conv1/7x7_s2 <- data
I0321 14:19:13.515367  9963 net.cpp:382] conv1/7x7_s2 -> conv1/7x7_s2
I0321 14:19:13.515753  9963 net.cpp:124] Setting up conv1/7x7_s2
I0321 14:19:13.515769  9963 net.cpp:131] Top shape: 128 64 64 64 (33554432)
I0321 14:19:13.515775  9963 net.cpp:139] Memory required for data: 159386112
I0321 14:19:13.515792  9963 layer_factory.hpp:77] Creating layer conv1/relu_7x7
I0321 14:19:13.515802  9963 net.cpp:86] Creating Layer conv1/relu_7x7
I0321 14:19:13.515810  9963 net.cpp:408] conv1/relu_7x7 <- conv1/7x7_s2
I0321 14:19:13.515817  9963 net.cpp:369] conv1/relu_7x7 -> conv1/7x7_s2 (in-place)
I0321 14:19:13.515827  9963 net.cpp:124] Setting up conv1/relu_7x7
I0321 14:19:13.515836  9963 net.cpp:131] Top shape: 128 64 64 64 (33554432)
I0321 14:19:13.515841  9963 net.cpp:139] Memory required for data: 293603840
I0321 14:19:13.515846  9963 layer_factory.hpp:77] Creating layer pool1/3x3_s2
I0321 14:19:13.515857  9963 net.cpp:86] Creating Layer pool1/3x3_s2
I0321 14:19:13.515863  9963 net.cpp:408] pool1/3x3_s2 <- conv1/7x7_s2
I0321 14:19:13.515872  9963 net.cpp:382] pool1/3x3_s2 -> pool1/3x3_s2
I0321 14:19:13.515920  9963 net.cpp:124] Setting up pool1/3x3_s2
I0321 14:19:13.515934  9963 net.cpp:131] Top shape: 128 64 32 32 (8388608)
I0321 14:19:13.515940  9963 net.cpp:139] Memory required for data: 327158272
I0321 14:19:13.515946  9963 layer_factory.hpp:77] Creating layer pool1/norm1
I0321 14:19:13.515959  9963 net.cpp:86] Creating Layer pool1/norm1
I0321 14:19:13.515964  9963 net.cpp:408] pool1/norm1 <- pool1/3x3_s2
I0321 14:19:13.515974  9963 net.cpp:382] pool1/norm1 -> pool1/norm1
I0321 14:19:13.516016  9963 net.cpp:124] Setting up pool1/norm1
I0321 14:19:13.516031  9963 net.cpp:131] Top shape: 128 64 32 32 (8388608)
I0321 14:19:13.516037  9963 net.cpp:139] Memory required for data: 360712704
I0321 14:19:13.516043  9963 layer_factory.hpp:77] Creating layer conv2/3x3_reduce
I0321 14:19:13.516055  9963 net.cpp:86] Creating Layer conv2/3x3_reduce
I0321 14:19:13.516068  9963 net.cpp:408] conv2/3x3_reduce <- pool1/norm1
I0321 14:19:13.516078  9963 net.cpp:382] conv2/3x3_reduce -> conv2/3x3_reduce
I0321 14:19:13.516371  9963 net.cpp:124] Setting up conv2/3x3_reduce
I0321 14:19:13.516388  9963 net.cpp:131] Top shape: 128 64 32 32 (8388608)
I0321 14:19:13.516394  9963 net.cpp:139] Memory required for data: 394267136
I0321 14:19:13.516407  9963 layer_factory.hpp:77] Creating layer conv2/relu_3x3_reduce
I0321 14:19:13.516415  9963 net.cpp:86] Creating Layer conv2/relu_3x3_reduce
…
I0321 14:19:13.545379  9963 net.cpp:382] inception_4b/pool -> inception_4b/pool
I0321 14:19:13.545452  9963 net.cpp:124] Setting up inception_4b/pool
I0321 14:19:13.545472  9963 net.cpp:131] Top shape: 128 512 8 8 (4194304)
I0321 14:19:13.545483  9963 net.cpp:139] Memory required for data: 891816964
I0321 14:19:13.545496  9963 layer_factory.hpp:77] Creating layer inception_4b/pool_proj
I0321 14:19:13.545523  9963 net.cpp:86] Creating Layer inception_4b/pool_proj
I0321 14:19:13.545542  9963 net.cpp:408] inception_4b/pool_proj <- inception_4b/pool
I0321 14:19:13.545565  9963 net.cpp:382] inception_4b/pool_proj -> inception_4b/pool_proj
I0321 14:19:13.546181  9963 net.cpp:124] Setting up inception_4b/pool_proj
I0321 14:19:13.546221  9963 net.cpp:131] Top shape: 128 64 8 8 (524288)
I0321 14:19:13.546236  9963 net.cpp:139] Memory required for data: 893914116
I0321 14:19:13.546255  9963 layer_factory.hpp:77] Creating layer inception_4b/relu_pool_proj
I0321 14:19:13.546272  9963 net.cpp:86] Creating Layer inception_4b/relu_pool_proj
I0321 14:19:13.546285  9963 net.cpp:408] inception_4b/relu_pool_proj <- inception_4b/pool_proj
I0321 14:19:13.546303  9963 net.cpp:369] inception_4b/relu_pool_proj -> inception_4b/pool_proj (in-place)
I0321 14:19:13.546320  9963 net.cpp:124] Setting up inception_4b/relu_pool_proj
I0321 14:19:13.546344  9963 net.cpp:131] Top shape: 128 64 8 8 (524288)
I0321 14:19:13.546360  9963 net.cpp:139] Memory required for data: 896011268
I0321 14:19:13.546373  9963 layer_factory.hpp:77] Creating layer inception_4c/output
I0321 14:19:13.546396  9963 net.cpp:86] Creating Layer inception_4c/output
I0321 14:19:13.546413  9963 net.cpp:408] inception_4c/output <- inception_4b/1x1
I0321 14:19:13.546430  9963 net.cpp:408] inception_4c/output <- inception_4b/3x3
I0321 14:19:13.546448  9963 net.cpp:408] inception_4c/output <- inception_4b/5x5
I0321 14:19:13.546468  9963 net.cpp:408] inception_4c/output <- inception_4b/pool_proj
I0321 14:19:13.546489  9963 net.cpp:382] inception_4c/output -> inception_4c/output
I0321 14:19:13.546540  9963 net.cpp:124] Setting up inception_4c/output
I0321 14:19:13.546560  9963 net.cpp:131] Top shape: 128 512 8 8 (4194304)
I0321 14:19:13.546571  9963 net.cpp:139] Memory required for data: 912788484
I0321 14:19:13.546583  9963 layer_factory.hpp:77] Creating layer inception_4c/output_inception_4c/output_0_split
I0321 14:19:13.546624  9963 net.cpp:86] Creating Layer inception_4c/output_inception_4c/output_0_split
I0321 14:19:13.546639  9963 net.cpp:408] inception_4c/output_inception_4c/output_0_split <- inception_4c/output
I0321 14:19:13.546658  9963 net.cpp:382] inception_4c/output_inception_4c/output_0_split -> inception_4c/output_inception_4c/output_0_split_0
I0321 14:19:13.546679  9963 net.cpp:382] inception_4c/output_inception_4c/output_0_split -> inception_4c/output_inception_4c/output_0_split_1
I0321 14:19:13.546701  9963 net.cpp:382] inception_4c/output_inception_4c/output_0_split -> inception_4c/output_inception_4c/output_0_split_2
I0321 14:19:13.546732  9963 net.cpp:382] inception_4c/output_inception_4c/output_0_split -> inception_4c/output_inception_4c/output_0_split_3
I0321 14:19:13.546828  9963 net.cpp:124] Setting up inception_4c/output_inception_4c/output_0_split
I0321 14:19:13.546849  9963 net.cpp:131] Top shape: 128 512 8 8 (4194304)
I0321 14:19:13.546864  9963 net.cpp:131] Top shape: 128 512 8 8 (4194304)
I0321 14:19:13.546878  9963 net.cpp:131] Top shape: 128 512 8 8 (4194304)
I0321 14:19:13.546895  9963 net.cpp:131] Top shape: 128 512 8 8 (4194304)
I0321 14:19:13.546905  9963 net.cpp:139] Memory required for data: 979897348
I0321 14:19:13.546918  9963 layer_factory.hpp:77] Creating layer inception_4d/1x1
I0321 14:19:13.546943  9963 net.cpp:86] Creating Layer inception_4d/1x1
I0321 14:19:13.546959  9963 net.cpp:408] inception_4d/1x1 <- inception_4c/output_inception_4c/output_0_split_0
I0321 14:19:13.546984  9963 net.cpp:382] inception_4d/1x1 -> inception_4d/1x1
I0321 14:19:13.547798  9963 net.cpp:124] Setting up inception_4d/1x1
I0321 14:19:13.547821  9963 net.cpp:131] Top shape: 128 112 8 8 (917504)
I0321 14:19:13.547832  9963 net.cpp:139] Memory required for data: 983567364
I0321 14:19:13.547852  9963 layer_factory.hpp:77] Creating layer inception_4d/relu_1x1
I0321 14:19:13.547873  9963 net.cpp:86] Creating Layer inception_4d/relu_1x1
I0321 14:19:13.547888  9963 net.cpp:408] inception_4d/relu_1x1 <- inception_4d/1x1
I0321 14:19:13.547904  9963 net.cpp:369] inception_4d/relu_1x1 -> inception_4d/1x1 (in-place)
I0321 14:19:13.547924  9963 net.cpp:124] Setting up inception_4d/relu_1x1
I0321 14:19:13.547943  9963 net.cpp:131] Top shape: 128 112 8 8 (917504)
I0321 14:19:13.547955  9963 net.cpp:139] Memory required for data: 987237380
I0321 14:19:13.547967  9963 layer_factory.hpp:77] Creating layer inception_4d/3x3_reduce
I0321 14:19:13.548012  9963 net.cpp:86] Creating Layer inception_4d/3x3_reduce
I0321 14:19:13.548027  9963 net.cpp:408] inception_4d/3x3_reduce <- inception_4c/output_inception_4c/output_0_split_1
I0321 14:19:13.548048  9963 net.cpp:382] inception_4d/3x3_reduce -> inception_4d/3x3_reduce
I0321 14:19:13.548988  9963 net.cpp:124] Setting up inception_4d/3x3_reduce
I0321 14:19:13.549015  9963 net.cpp:131] Top shape: 128 144 8 8 (1179648)
I0321 14:19:13.549027  9963 net.cpp:139] Memory required for data: 991955972
I0321 14:19:13.549047  9963 layer_factory.hpp:77] Creating layer inception_4d/relu_3x3_reduce
I0321 14:19:13.549064  9963 net.cpp:86] Creating Layer inception_4d/relu_3x3_reduce
I0321 14:19:13.549078  9963 net.cpp:408] inception_4d/relu_3x3_reduce <- inception_4d/3x3_reduce
I0321 14:19:13.549094  9963 net.cpp:369] inception_4d/relu_3x3_reduce -> inception_4d/3x3_reduce (in-place)
I0321 14:19:13.549115  9963 net.cpp:124] Setting up inception_4d/relu_3x3_reduce
I0321 14:19:13.549134  9963 net.cpp:131] Top shape: 128 144 8 8 (1179648)
I0321 14:19:13.549147  9963 net.cpp:139] Memory required for data: 996674564
I0321 14:19:13.549160  9963 layer_factory.hpp:77] Creating layer inception_4d/3x3
I0321 14:19:13.549186  9963 net.cpp:86] Creating Layer inception_4d/3x3
I0321 14:19:13.549201  9963 net.cpp:408] inception_4d/3x3 <- inception_4d/3x3_reduce
I0321 14:19:13.549226  9963 net.cpp:382] inception_4d/3x3 -> inception_4d/3x3
I0321 14:19:13.554265  9963 net.cpp:124] Setting up inception_4d/3x3
I0321 14:19:13.554301  9963 net.cpp:131] Top shape: 128 288 8 8 (2359296)
I0321 14:19:13.554314  9963 net.cpp:139] Memory required for data: 1006111748
I0321 14:19:13.554335  9963 layer_factory.hpp:77] Creating layer inception_4d/relu_3x3
I0321 14:19:13.554361  9963 net.cpp:86] Creating Layer inception_4d/relu_3x3
I0321 14:19:13.554378  9963 net.cpp:408] inception_4d/relu_3x3 <- inception_4d/3x3
I0321 14:19:13.554395  9963 net.cpp:369] inception_4d/relu_3x3 -> inception_4d/3x3 (in-place)
I0321 14:19:13.554431  9963 net.cpp:124] Setting up inception_4d/relu_3x3
I0321 14:19:13.554452  9963 net.cpp:131] Top shape: 128 288 8 8 (2359296)
I0321 14:19:13.554466  9963 net.cpp:139] Memory required for data: 1015548932
I0321 14:19:13.554477  9963 layer_factory.hpp:77] Creating layer inception_4d/5x5_reduce
I0321 14:19:13.554507  9963 net.cpp:86] Creating Layer inception_4d/5x5_reduce
I0321 14:19:13.554523  9963 net.cpp:408] inception_4d/5x5_reduce <- inception_4c/output_inception_4c/output_0_split_2
I0321 14:19:13.554544  9963 net.cpp:382] inception_4d/5x5_reduce -> inception_4d/5x5_reduce
I0321 14:19:13.555042  9963 net.cpp:124] Setting up inception_4d/5x5_reduce
I0321 14:19:13.555063  9963 net.cpp:131] Top shape: 128 32 8 8 (262144)
I0321 14:19:13.555075  9963 net.cpp:139] Memory required for data: 1016597508
I0321 14:19:13.555094  9963 layer_factory.hpp:77] Creating layer inception_4d/relu_5x5_reduce
I0321 14:19:13.555111  9963 net.cpp:86] Creating Layer inception_4d/relu_5x5_reduce
I0321 14:19:13.555130  9963 net.cpp:408] inception_4d/relu_5x5_reduce <- inception_4d/5x5_reduce
I0321 14:19:13.555151  9963 net.cpp:369] inception_4d/relu_5x5_reduce -> inception_4d/5x5_reduce (in-place)
I0321 14:19:13.555174  9963 net.cpp:124] Setting up inception_4d/relu_5x5_reduce
I0321 14:19:13.555193  9963 net.cpp:131] Top shape: 128 32 8 8 (262144)
I0321 14:19:13.555207  9963 net.cpp:139] Memory required for data: 1017646084
I0321 14:19:13.555217  9963 layer_factory.hpp:77] Creating layer inception_4d/5x5
I0321 14:19:13.555244  9963 net.cpp:86] Creating Layer inception_4d/5x5
I0321 14:19:13.555260  9963 net.cpp:408] inception_4d/5x5 <- inception_4d/5x5_reduce
I0321 14:19:13.555279  9963 net.cpp:382] inception_4d/5x5 -> inception_4d/5x5
I0321 14:19:13.556069  9963 net.cpp:124] Setting up inception_4d/5x5
I0321 14:19:13.556092  9963 net.cpp:131] Top shape: 128 64 8 8 (524288)
I0321 14:19:13.556103  9963 net.cpp:139] Memory required for data: 1019743236
I0321 14:19:13.556123  9963 layer_factory.hpp:77] Creating layer inception_4d/relu_5x5
I0321 14:19:13.556170  9963 net.cpp:86] Creating Layer inception_4d/relu_5x5
I0321 14:19:13.556185  9963 net.cpp:408] inception_4d/relu_5x5 <- inception_4d/5x5
I0321 14:19:13.556207  9963 net.cpp:369] inception_4d/relu_5x5 -> inception_4d/5x5 (in-place)
I0321 14:19:13.556226  9963 net.cpp:124] Setting up inception_4d/relu_5x5
I0321 14:19:13.556247  9963 net.cpp:131] Top shape: 128 64 8 8 (524288)
I0321 14:19:13.556259  9963 net.cpp:139] Memory required for data: 1021840388
I0321 14:19:13.556272  9963 layer_factory.hpp:77] Creating layer inception_4d/pool
I0321 14:19:13.556289  9963 net.cpp:86] Creating Layer inception_4d/pool
I0321 14:19:13.556304  9963 net.cpp:408] inception_4d/pool <- inception_4c/output_inception_4c/output_0_split_3
I0321 14:19:13.556323  9963 net.cpp:382] inception_4d/pool -> inception_4d/pool
I0321 14:19:13.556409  9963 net.cpp:124] Setting up inception_4d/pool
I0321 14:19:13.556430  9963 net.cpp:131] Top shape: 128 512 8 8 (4194304)
I0321 14:19:13.556442  9963 net.cpp:139] Memory required for data: 1038617604
I0321 14:19:13.556455  9963 layer_factory.hpp:77] Creating layer inception_4d/pool_proj
I0321 14:19:13.556483  9963 net.cpp:86] Creating Layer inception_4d/pool_proj
I0321 14:19:13.556499  9963 net.cpp:408] inception_4d/pool_proj <- inception_4d/pool
I0321 14:19:13.556522  9963 net.cpp:382] inception_4d/pool_proj -> inception_4d/pool_proj
I0321 14:19:13.557134  9963 net.cpp:124] Setting up inception_4d/pool_proj
I0321 14:19:13.557157  9963 net.cpp:131] Top shape: 128 64 8 8 (524288)
I0321 14:19:13.557169  9963 net.cpp:139] Memory required for data: 1040714756
I0321 14:19:13.557189  9963 layer_factory.hpp:77] Creating layer inception_4d/relu_pool_proj
I0321 14:19:13.557206  9963 net.cpp:86] Creating Layer inception_4d/relu_pool_proj
I0321 14:19:13.557222  9963 net.cpp:408] inception_4d/relu_pool_proj <- inception_4d/pool_proj
I0321 14:19:13.557240  9963 net.cpp:369] inception_4d/relu_pool_proj -> inception_4d/pool_proj (in-place)
I0321 14:19:13.557262  9963 net.cpp:124] Setting up inception_4d/relu_pool_proj
I0321 14:19:13.557281  9963 net.cpp:131] Top shape: 128 64 8 8 (524288)
I0321 14:19:13.557294  9963 net.cpp:139] Memory required for data: 1042811908
I0321 14:19:13.557307  9963 layer_factory.hpp:77] Creating layer inception_4d/output
I0321 14:19:13.557324  9963 net.cpp:86] Creating Layer inception_4d/output
I0321 14:19:13.557343  9963 net.cpp:408] inception_4d/output <- inception_4d/1x1
I0321 14:19:13.557358  9963 net.cpp:408] inception_4d/output <- inception_4d/3x3
I0321 14:19:13.557377  9963 net.cpp:408] inception_4d/output <- inception_4d/5x5
I0321 14:19:13.557392  9963 net.cpp:408] inception_4d/output <- inception_4d/pool_proj
I0321 14:19:13.557416  9963 net.cpp:382] inception_4d/output -> inception_4d/output
I0321 14:19:13.557468  9963 net.cpp:124] Setting up inception_4d/output
I0321 14:19:13.557492  9963 net.cpp:131] Top shape: 128 528 8 8 (4325376)
I0321 14:19:13.557505  9963 net.cpp:139] Memory required for data: 1060113412
I0321 14:19:13.557518  9963 layer_factory.hpp:77] Creating layer inception_4d/output_inception_4d/output_0_split
I0321 14:19:13.557536  9963 net.cpp:86] Creating Layer inception_4d/output_inception_4d/output_0_split
I0321 14:19:13.557552  9963 net.cpp:408] inception_4d/output_inception_4d/output_0_split <- inception_4d/output
I0321 14:19:13.557570  9963 net.cpp:382] inception_4d/output_inception_4d/output_0_split -> inception_4d/output_inception_4d/output_0_split_0
I0321 14:19:13.557595  9963 net.cpp:382] inception_4d/output_inception_4d/output_0_split -> inception_4d/output_inception_4d/output_0_split_1
I0321 14:19:13.557623  9963 net.cpp:382] inception_4d/output_inception_4d/output_0_split -> inception_4d/output_inception_4d/output_0_split_2
I0321 14:19:13.557646  9963 net.cpp:382] inception_4d/output_inception_4d/output_0_split -> inception_4d/output_inception_4d/output_0_split_3
I0321 14:19:13.557668  9963 net.cpp:382] inception_4d/output_inception_4d/output_0_split -> inception_4d/output_inception_4d/output_0_split_4
I0321 14:19:13.557795  9963 net.cpp:124] Setting up inception_4d/output_inception_4d/output_0_split
I0321 14:19:13.557832  9963 net.cpp:131] Top shape: 128 528 8 8 (4325376)
I0321 14:19:13.557848  9963 net.cpp:131] Top shape: 128 528 8 8 (4325376)
I0321 14:19:13.557863  9963 net.cpp:131] Top shape: 128 528 8 8 (4325376)
I0321 14:19:13.557879  9963 net.cpp:131] Top shape: 128 528 8 8 (4325376)
I0321 14:19:13.557898  9963 net.cpp:131] Top shape: 128 528 8 8 (4325376)
I0321 14:19:13.557914  9963 net.cpp:139] Memory required for data: 1146620932
I0321 14:19:13.557926  9963 layer_factory.hpp:77] Creating layer loss2_my/ave_pool
I0321 14:19:13.557947  9963 net.cpp:86] Creating Layer loss2_my/ave_pool
I0321 14:19:13.557965  9963 net.cpp:408] loss2_my/ave_pool <- inception_4d/output_inception_4d/output_0_split_0
I0321 14:19:13.557983  9963 net.cpp:382] loss2_my/ave_pool -> loss2_my/ave_pool
I0321 14:19:13.558038  9963 net.cpp:124] Setting up loss2_my/ave_pool
I0321 14:19:13.558058  9963 net.cpp:131] Top shape: 128 528 2 2 (270336)
I0321 14:19:13.558070  9963 net.cpp:139] Memory required for data: 1147702276
I0321 14:19:13.558082  9963 layer_factory.hpp:77] Creating layer loss2_my/conv
I0321 14:19:13.558109  9963 net.cpp:86] Creating Layer loss2_my/conv
I0321 14:19:13.558125  9963 net.cpp:408] loss2_my/conv <- loss2_my/ave_pool
I0321 14:19:13.558145  9963 net.cpp:382] loss2_my/conv -> loss2_my/conv
I0321 14:19:13.559036  9963 net.cpp:124] Setting up loss2_my/conv
I0321 14:19:13.559058  9963 net.cpp:131] Top shape: 128 128 2 2 (65536)
I0321 14:19:13.559070  9963 net.cpp:139] Memory required for data: 1147964420
I0321 14:19:13.559089  9963 layer_factory.hpp:77] Creating layer loss2_my/relu_conv
I0321 14:19:13.559105  9963 net.cpp:86] Creating Layer loss2_my/relu_conv
I0321 14:19:13.559119  9963 net.cpp:408] loss2_my/relu_conv <- loss2_my/conv
I0321 14:19:13.559140  9963 net.cpp:369] loss2_my/relu_conv -> loss2_my/conv (in-place)
I0321 14:19:13.559162  9963 net.cpp:124] Setting up loss2_my/relu_conv
I0321 14:19:13.559182  9963 net.cpp:131] Top shape: 128 128 2 2 (65536)
I0321 14:19:13.559195  9963 net.cpp:139] Memory required for data: 1148226564
I0321 14:19:13.559207  9963 layer_factory.hpp:77] Creating layer loss2_my/fc
I0321 14:19:13.559228  9963 net.cpp:86] Creating Layer loss2_my/fc
I0321 14:19:13.559244  9963 net.cpp:408] loss2_my/fc <- loss2_my/conv
I0321 14:19:13.559272  9963 net.cpp:382] loss2_my/fc -> loss2_my/fc
I0321 14:19:13.565873  9963 net.cpp:124] Setting up loss2_my/fc
I0321 14:19:13.565927  9963 net.cpp:131] Top shape: 128 1024 (131072)
I0321 14:19:13.565940  9963 net.cpp:139] Memory required for data: 1148750852
I0321 14:19:13.565963  9963 layer_factory.hpp:77] Creating layer loss2_my/relu_fc
I0321 14:19:13.565986  9963 net.cpp:86] Creating Layer loss2_my/relu_fc
I0321 14:19:13.566004  9963 net.cpp:408] loss2_my/relu_fc <- loss2_my/fc
I0321 14:19:13.566040  9963 net.cpp:369] loss2_my/relu_fc -> loss2_my/fc (in-place)
I0321 14:19:13.566068  9963 net.cpp:124] Setting up loss2_my/relu_fc
I0321 14:19:13.566088  9963 net.cpp:131] Top shape: 128 1024 (131072)
I0321 14:19:13.566102  9963 net.cpp:139] Memory required for data: 1149275140
I0321 14:19:13.566113  9963 layer_factory.hpp:77] Creating layer loss2_my/drop_fc
I0321 14:19:13.566133  9963 net.cpp:86] Creating Layer loss2_my/drop_fc
I0321 14:19:13.566153  9963 net.cpp:408] loss2_my/drop_fc <- loss2_my/fc
I0321 14:19:13.566174  9963 net.cpp:369] loss2_my/drop_fc -> loss2_my/fc (in-place)
I0321 14:19:13.566223  9963 net.cpp:124] Setting up loss2_my/drop_fc
I0321 14:19:13.566243  9963 net.cpp:131] Top shape: 128 1024 (131072)
I0321 14:19:13.566254  9963 net.cpp:139] Memory required for data: 1149799428
I0321 14:19:13.566267  9963 layer_factory.hpp:77] Creating layer loss2_lite/classifier
I0321 14:19:13.566293  9963 net.cpp:86] Creating Layer loss2_lite/classifier
I0321 14:19:13.566308  9963 net.cpp:408] loss2_lite/classifier <- loss2_my/fc
I0321 14:19:13.566328  9963 net.cpp:382] loss2_lite/classifier -> loss2_lite/classifier
I0321 14:19:13.566495  9963 net.cpp:124] Setting up loss2_lite/classifier
I0321 14:19:13.566540  9963 net.cpp:131] Top shape: 128 1 (128)
I0321 14:19:13.566552  9963 net.cpp:139] Memory required for data: 1149799940
I0321 14:19:13.566572  9963 layer_factory.hpp:77] Creating layer loss2_my/loss
I0321 14:19:13.566691  9963 net.cpp:86] Creating Layer loss2_my/loss
I0321 14:19:13.566709  9963 net.cpp:408] loss2_my/loss <- loss2_lite/classifier
I0321 14:19:13.566726  9963 net.cpp:408] loss2_my/loss <- label_data_1_split_1
I0321 14:19:13.566746  9963 net.cpp:382] loss2_my/loss -> loss2_my/loss
I0321 14:19:13.566938  9963 net.cpp:124] Setting up loss2_my/loss
I0321 14:19:13.566959  9963 net.cpp:131] Top shape: 1 (1)
I0321 14:19:13.566972  9963 net.cpp:134]     with loss weight 0.4
I0321 14:19:13.567005  9963 net.cpp:139] Memory required for data: 1149799944
I0321 14:19:13.567019  9963 layer_factory.hpp:77] Creating layer inception_4e/1x1
I0321 14:19:13.567054  9963 net.cpp:86] Creating Layer inception_4e/1x1
I0321 14:19:13.567070  9963 net.cpp:408] inception_4e/1x1 <- inception_4d/output_inception_4d/output_0_split_1
I0321 14:19:13.567090  9963 net.cpp:382] inception_4e/1x1 -> inception_4e/1x1
I0321 14:19:13.568645  9963 net.cpp:124] Setting up inception_4e/1x1
I0321 14:19:13.568666  9963 net.cpp:131] Top shape: 128 256 8 8 (2097152)
I0321 14:19:13.568678  9963 net.cpp:139] Memory required for data: 1158188552
I0321 14:19:13.568727  9963 layer_factory.hpp:77] Creating layer inception_4e/relu_1x1
I0321 14:19:13.568749  9963 net.cpp:86] Creating Layer inception_4e/relu_1x1
I0321 14:19:13.568764  9963 net.cpp:408] inception_4e/relu_1x1 <- inception_4e/1x1
I0321 14:19:13.568784  9963 net.cpp:369] inception_4e/relu_1x1 -> inception_4e/1x1 (in-place)
I0321 14:19:13.568807  9963 net.cpp:124] Setting up inception_4e/relu_1x1
I0321 14:19:13.568827  9963 net.cpp:131] Top shape: 128 256 8 8 (2097152)
I0321 14:19:13.568843  9963 net.cpp:139] Memory required for data: 1166577160
I0321 14:19:13.568856  9963 layer_factory.hpp:77] Creating layer inception_4e/3x3_reduce
I0321 14:19:13.568876  9963 net.cpp:86] Creating Layer inception_4e/3x3_reduce
I0321 14:19:13.568893  9963 net.cpp:408] inception_4e/3x3_reduce <- inception_4d/output_inception_4d/output_0_split_2
I0321 14:19:13.568918  9963 net.cpp:382] inception_4e/3x3_reduce -> inception_4e/3x3_reduce
I0321 14:19:13.570027  9963 net.cpp:124] Setting up inception_4e/3x3_reduce
I0321 14:19:13.570050  9963 net.cpp:131] Top shape: 128 160 8 8 (1310720)
I0321 14:19:13.570065  9963 net.cpp:139] Memory required for data: 1171820040
I0321 14:19:13.570082  9963 layer_factory.hpp:77] Creating layer inception_4e/relu_3x3_reduce
I0321 14:19:13.570101  9963 net.cpp:86] Creating Layer inception_4e/relu_3x3_reduce
I0321 14:19:13.570121  9963 net.cpp:408] inception_4e/relu_3x3_reduce <- inception_4e/3x3_reduce
I0321 14:19:13.570137  9963 net.cpp:369] inception_4e/relu_3x3_reduce -> inception_4e/3x3_reduce (in-place)
I0321 14:19:13.570157  9963 net.cpp:124] Setting up inception_4e/relu_3x3_reduce
I0321 14:19:13.570176  9963 net.cpp:131] Top shape: 128 160 8 8 (1310720)
I0321 14:19:13.570188  9963 net.cpp:139] Memory required for data: 1177062920
I0321 14:19:13.570200  9963 layer_factory.hpp:77] Creating layer inception_4e/3x3
I0321 14:19:13.570227  9963 net.cpp:86] Creating Layer inception_4e/3x3
I0321 14:19:13.570242  9963 net.cpp:408] inception_4e/3x3 <- inception_4e/3x3_reduce
I0321 14:19:13.570266  9963 net.cpp:382] inception_4e/3x3 -> inception_4e/3x3
I0321 14:19:13.576148  9963 net.cpp:124] Setting up inception_4e/3x3
I0321 14:19:13.576181  9963 net.cpp:131] Top shape: 128 320 8 8 (2621440)
I0321 14:19:13.576195  9963 net.cpp:139] Memory required for data: 1187548680
I0321 14:19:13.576215  9963 layer_factory.hpp:77] Creating layer inception_4e/relu_3x3
I0321 14:19:13.576241  9963 net.cpp:86] Creating Layer inception_4e/relu_3x3
I0321 14:19:13.576256  9963 net.cpp:408] inception_4e/relu_3x3 <- inception_4e/3x3
I0321 14:19:13.576273  9963 net.cpp:369] inception_4e/relu_3x3 -> inception_4e/3x3 (in-place)
I0321 14:19:13.576294  9963 net.cpp:124] Setting up inception_4e/relu_3x3
I0321 14:19:13.576336  9963 net.cpp:131] Top shape: 128 320 8 8 (2621440)
I0321 14:19:13.576351  9963 net.cpp:139] Memory required for data: 1198034440
I0321 14:19:13.576364  9963 layer_factory.hpp:77] Creating layer inception_4e/5x5_reduce
I0321 14:19:13.576392  9963 net.cpp:86] Creating Layer inception_4e/5x5_reduce
I0321 14:19:13.576409  9963 net.cpp:408] inception_4e/5x5_reduce <- inception_4d/output_inception_4d/output_0_split_3
I0321 14:19:13.576431  9963 net.cpp:382] inception_4e/5x5_reduce -> inception_4e/5x5_reduce
I0321 14:19:13.576920  9963 net.cpp:124] Setting up inception_4e/5x5_reduce
I0321 14:19:13.576941  9963 net.cpp:131] Top shape: 128 32 8 8 (262144)
I0321 14:19:13.576953  9963 net.cpp:139] Memory required for data: 1199083016
I0321 14:19:13.576972  9963 layer_factory.hpp:77] Creating layer inception_4e/relu_5x5_reduce
I0321 14:19:13.576990  9963 net.cpp:86] Creating Layer inception_4e/relu_5x5_reduce
I0321 14:19:13.577014  9963 net.cpp:408] inception_4e/relu_5x5_reduce <- inception_4e/5x5_reduce
I0321 14:19:13.577036  9963 net.cpp:369] inception_4e/relu_5x5_reduce -> inception_4e/5x5_reduce (in-place)
I0321 14:19:13.577059  9963 net.cpp:124] Setting up inception_4e/relu_5x5_reduce
I0321 14:19:13.577078  9963 net.cpp:131] Top shape: 128 32 8 8 (262144)
I0321 14:19:13.577091  9963 net.cpp:139] Memory required for data: 1200131592
I0321 14:19:13.577103  9963 layer_factory.hpp:77] Creating layer inception_4e/5x5
I0321 14:19:13.577128  9963 net.cpp:86] Creating Layer inception_4e/5x5
I0321 14:19:13.577144  9963 net.cpp:408] inception_4e/5x5 <- inception_4e/5x5_reduce
I0321 14:19:13.577163  9963 net.cpp:382] inception_4e/5x5 -> inception_4e/5x5
I0321 14:19:13.578408  9963 net.cpp:124] Setting up inception_4e/5x5
I0321 14:19:13.578438  9963 net.cpp:131] Top shape: 128 128 8 8 (1048576)
I0321 14:19:13.578450  9963 net.cpp:139] Memory required for data: 1204325896
I0321 14:19:13.578469  9963 layer_factory.hpp:77] Creating layer inception_4e/relu_5x5
I0321 14:19:13.578487  9963 net.cpp:86] Creating Layer inception_4e/relu_5x5
I0321 14:19:13.578500  9963 net.cpp:408] inception_4e/relu_5x5 <- inception_4e/5x5
I0321 14:19:13.578522  9963 net.cpp:369] inception_4e/relu_5x5 -> inception_4e/5x5 (in-place)
I0321 14:19:13.578546  9963 net.cpp:124] Setting up inception_4e/relu_5x5
I0321 14:19:13.578567  9963 net.cpp:131] Top shape: 128 128 8 8 (1048576)
I0321 14:19:13.578583  9963 net.cpp:139] Memory required for data: 1208520200
I0321 14:19:13.578595  9963 layer_factory.hpp:77] Creating layer inception_4e/pool
I0321 14:19:13.578618  9963 net.cpp:86] Creating Layer inception_4e/pool
I0321 14:19:13.578634  9963 net.cpp:408] inception_4e/pool <- inception_4d/output_inception_4d/output_0_split_4
I0321 14:19:13.578652  9963 net.cpp:382] inception_4e/pool -> inception_4e/pool
I0321 14:19:13.578733  9963 net.cpp:124] Setting up inception_4e/pool
I0321 14:19:13.578752  9963 net.cpp:131] Top shape: 128 528 8 8 (4325376)
I0321 14:19:13.578764  9963 net.cpp:139] Memory required for data: 1225821704
I0321 14:19:13.578776  9963 layer_factory.hpp:77] Creating layer inception_4e/pool_proj
I0321 14:19:13.578806  9963 net.cpp:86] Creating Layer inception_4e/pool_proj
I0321 14:19:13.578824  9963 net.cpp:408] inception_4e/pool_proj <- inception_4e/pool
I0321 14:19:13.578847  9963 net.cpp:382] inception_4e/pool_proj -> inception_4e/pool_proj
I0321 14:19:13.579828  9963 net.cpp:124] Setting up inception_4e/pool_proj
I0321 14:19:13.579849  9963 net.cpp:131] Top shape: 128 128 8 8 (1048576)
I0321 14:19:13.579861  9963 net.cpp:139] Memory required for data: 1230016008
I0321 14:19:13.579879  9963 layer_factory.hpp:77] Creating layer inception_4e/relu_pool_proj
I0321 14:19:13.579896  9963 net.cpp:86] Creating Layer inception_4e/relu_pool_proj
I0321 14:19:13.579913  9963 net.cpp:408] inception_4e/relu_pool_proj <- inception_4e/pool_proj
I0321 14:19:13.579936  9963 net.cpp:369] inception_4e/relu_pool_proj -> inception_4e/pool_proj (in-place)
I0321 14:19:13.579957  9963 net.cpp:124] Setting up inception_4e/relu_pool_proj
I0321 14:19:13.579977  9963 net.cpp:131] Top shape: 128 128 8 8 (1048576)
I0321 14:19:13.580013  9963 net.cpp:139] Memory required for data: 1234210312
I0321 14:19:13.580027  9963 layer_factory.hpp:77] Creating layer inception_4e/output
I0321 14:19:13.580045  9963 net.cpp:86] Creating Layer inception_4e/output
I0321 14:19:13.580061  9963 net.cpp:408] inception_4e/output <- inception_4e/1x1
I0321 14:19:13.580077  9963 net.cpp:408] inception_4e/output <- inception_4e/3x3
I0321 14:19:13.580091  9963 net.cpp:408] inception_4e/output <- inception_4e/5x5
I0321 14:19:13.580109  9963 net.cpp:408] inception_4e/output <- inception_4e/pool_proj
I0321 14:19:13.580130  9963 net.cpp:382] inception_4e/output -> inception_4e/output
I0321 14:19:13.580188  9963 net.cpp:124] Setting up inception_4e/output
I0321 14:19:13.580207  9963 net.cpp:131] Top shape: 128 832 8 8 (6815744)
I0321 14:19:13.580219  9963 net.cpp:139] Memory required for data: 1261473288
I0321 14:19:13.580234  9963 layer_factory.hpp:77] Creating layer pool4/3x3_s2
I0321 14:19:13.580250  9963 net.cpp:86] Creating Layer pool4/3x3_s2
I0321 14:19:13.580265  9963 net.cpp:408] pool4/3x3_s2 <- inception_4e/output
I0321 14:19:13.580286  9963 net.cpp:382] pool4/3x3_s2 -> pool4/3x3_s2
I0321 14:19:13.580358  9963 net.cpp:124] Setting up pool4/3x3_s2
I0321 14:19:13.580379  9963 net.cpp:131] Top shape: 128 832 4 4 (1703936)
I0321 14:19:13.580390  9963 net.cpp:139] Memory required for data: 1268289032
I0321 14:19:13.580402  9963 layer_factory.hpp:77] Creating layer pool4/3x3_s2_pool4/3x3_s2_0_split
I0321 14:19:13.580426  9963 net.cpp:86] Creating Layer pool4/3x3_s2_pool4/3x3_s2_0_split
I0321 14:19:13.580442  9963 net.cpp:408] pool4/3x3_s2_pool4/3x3_s2_0_split <- pool4/3x3_s2
I0321 14:19:13.580464  9963 net.cpp:382] pool4/3x3_s2_pool4/3x3_s2_0_split -> pool4/3x3_s2_pool4/3x3_s2_0_split_0
I0321 14:19:13.580487  9963 net.cpp:382] pool4/3x3_s2_pool4/3x3_s2_0_split -> pool4/3x3_s2_pool4/3x3_s2_0_split_1
I0321 14:19:13.580512  9963 net.cpp:382] pool4/3x3_s2_pool4/3x3_s2_0_split -> pool4/3x3_s2_pool4/3x3_s2_0_split_2
I0321 14:19:13.580534  9963 net.cpp:382] pool4/3x3_s2_pool4/3x3_s2_0_split -> pool4/3x3_s2_pool4/3x3_s2_0_split_3
I0321 14:19:13.580631  9963 net.cpp:124] Setting up pool4/3x3_s2_pool4/3x3_s2_0_split
I0321 14:19:13.580651  9963 net.cpp:131] Top shape: 128 832 4 4 (1703936)
I0321 14:19:13.580667  9963 net.cpp:131] Top shape: 128 832 4 4 (1703936)
I0321 14:19:13.580682  9963 net.cpp:131] Top shape: 128 832 4 4 (1703936)
I0321 14:19:13.580696  9963 net.cpp:131] Top shape: 128 832 4 4 (1703936)
I0321 14:19:13.580711  9963 net.cpp:139] Memory required for data: 1295552008
I0321 14:19:13.580724  9963 layer_factory.hpp:77] Creating layer inception_5a/1x1
I0321 14:19:13.580750  9963 net.cpp:86] Creating Layer inception_5a/1x1
I0321 14:19:13.580766  9963 net.cpp:408] inception_5a/1x1 <- pool4/3x3_s2_pool4/3x3_s2_0_split_0
I0321 14:19:13.580791  9963 net.cpp:382] inception_5a/1x1 -> inception_5a/1x1
I0321 14:19:13.584578  9963 net.cpp:124] Setting up inception_5a/1x1
I0321 14:19:13.584609  9963 net.cpp:131] Top shape: 128 256 4 4 (524288)
I0321 14:19:13.584620  9963 net.cpp:139] Memory required for data: 1297649160
I0321 14:19:13.584640  9963 layer_factory.hpp:77] Creating layer inception_5a/relu_1x1
I0321 14:19:13.584658  9963 net.cpp:86] Creating Layer inception_5a/relu_1x1
I0321 14:19:13.584671  9963 net.cpp:408] inception_5a/relu_1x1 <- inception_5a/1x1
I0321 14:19:13.584688  9963 net.cpp:369] inception_5a/relu_1x1 -> inception_5a/1x1 (in-place)
I0321 14:19:13.584707  9963 net.cpp:124] Setting up inception_5a/relu_1x1
I0321 14:19:13.584729  9963 net.cpp:131] Top shape: 128 256 4 4 (524288)
I0321 14:19:13.584745  9963 net.cpp:139] Memory required for data: 1299746312
I0321 14:19:13.584758  9963 layer_factory.hpp:77] Creating layer inception_5a/3x3_reduce
I0321 14:19:13.584785  9963 net.cpp:86] Creating Layer inception_5a/3x3_reduce
I0321 14:19:13.584802  9963 net.cpp:408] inception_5a/3x3_reduce <- pool4/3x3_s2_pool4/3x3_s2_0_split_1
I0321 14:19:13.584826  9963 net.cpp:382] inception_5a/3x3_reduce -> inception_5a/3x3_reduce
I0321 14:19:13.586519  9963 net.cpp:124] Setting up inception_5a/3x3_reduce
I0321 14:19:13.586542  9963 net.cpp:131] Top shape: 128 160 4 4 (327680)
I0321 14:19:13.586555  9963 net.cpp:139] Memory required for data: 1301057032
I0321 14:19:13.586575  9963 layer_factory.hpp:77] Creating layer inception_5a/relu_3x3_reduce
I0321 14:19:13.586591  9963 net.cpp:86] Creating Layer inception_5a/relu_3x3_reduce
I0321 14:19:13.586606  9963 net.cpp:408] inception_5a/relu_3x3_reduce <- inception_5a/3x3_reduce
I0321 14:19:13.586622  9963 net.cpp:369] inception_5a/relu_3x3_reduce -> inception_5a/3x3_reduce (in-place)
I0321 14:19:13.586645  9963 net.cpp:124] Setting up inception_5a/relu_3x3_reduce
I0321 14:19:13.586664  9963 net.cpp:131] Top shape: 128 160 4 4 (327680)
I0321 14:19:13.586678  9963 net.cpp:139] Memory required for data: 1302367752
I0321 14:19:13.586689  9963 layer_factory.hpp:77] Creating layer inception_5a/3x3
I0321 14:19:13.586716  9963 net.cpp:86] Creating Layer inception_5a/3x3
I0321 14:19:13.586731  9963 net.cpp:408] inception_5a/3x3 <- inception_5a/3x3_reduce
I0321 14:19:13.586755  9963 net.cpp:382] inception_5a/3x3 -> inception_5a/3x3
I0321 14:19:13.592703  9963 net.cpp:124] Setting up inception_5a/3x3
I0321 14:19:13.592748  9963 net.cpp:131] Top shape: 128 320 4 4 (655360)
I0321 14:19:13.592761  9963 net.cpp:139] Memory required for data: 1304989192
I0321 14:19:13.592790  9963 layer_factory.hpp:77] Creating layer inception_5a/relu_3x3
I0321 14:19:13.592813  9963 net.cpp:86] Creating Layer inception_5a/relu_3x3
I0321 14:19:13.592828  9963 net.cpp:408] inception_5a/relu_3x3 <- inception_5a/3x3
I0321 14:19:13.592845  9963 net.cpp:369] inception_5a/relu_3x3 -> inception_5a/3x3 (in-place)
I0321 14:19:13.592869  9963 net.cpp:124] Setting up inception_5a/relu_3x3
I0321 14:19:13.592895  9963 net.cpp:131] Top shape: 128 320 4 4 (655360)
I0321 14:19:13.592908  9963 net.cpp:139] Memory required for data: 1307610632
I0321 14:19:13.592921  9963 layer_factory.hpp:77] Creating layer inception_5a/5x5_reduce
I0321 14:19:13.592952  9963 net.cpp:86] Creating Layer inception_5a/5x5_reduce
I0321 14:19:13.592970  9963 net.cpp:408] inception_5a/5x5_reduce <- pool4/3x3_s2_pool4/3x3_s2_0_split_2
I0321 14:19:13.592996  9963 net.cpp:382] inception_5a/5x5_reduce -> inception_5a/5x5_reduce
I0321 14:19:13.593627  9963 net.cpp:124] Setting up inception_5a/5x5_reduce
I0321 14:19:13.593650  9963 net.cpp:131] Top shape: 128 32 4 4 (65536)
I0321 14:19:13.593662  9963 net.cpp:139] Memory required for data: 1307872776
I0321 14:19:13.593682  9963 layer_factory.hpp:77] Creating layer inception_5a/relu_5x5_reduce
I0321 14:19:13.593706  9963 net.cpp:86] Creating Layer inception_5a/relu_5x5_reduce
I0321 14:19:13.593722  9963 net.cpp:408] inception_5a/relu_5x5_reduce <- inception_5a/5x5_reduce
I0321 14:19:13.593739  9963 net.cpp:369] inception_5a/relu_5x5_reduce -> inception_5a/5x5_reduce (in-place)
I0321 14:19:13.593760  9963 net.cpp:124] Setting up inception_5a/relu_5x5_reduce
I0321 14:19:13.593783  9963 net.cpp:131] Top shape: 128 32 4 4 (65536)
I0321 14:19:13.593806  9963 net.cpp:139] Memory required for data: 1308134920
I0321 14:19:13.593818  9963 layer_factory.hpp:77] Creating layer inception_5a/5x5
I0321 14:19:13.593845  9963 net.cpp:86] Creating Layer inception_5a/5x5
I0321 14:19:13.593863  9963 net.cpp:408] inception_5a/5x5 <- inception_5a/5x5_reduce
I0321 14:19:13.593888  9963 net.cpp:382] inception_5a/5x5 -> inception_5a/5x5
I0321 14:19:13.595142  9963 net.cpp:124] Setting up inception_5a/5x5
I0321 14:19:13.595165  9963 net.cpp:131] Top shape: 128 128 4 4 (262144)
I0321 14:19:13.595177  9963 net.cpp:139] Memory required for data: 1309183496
I0321 14:19:13.595197  9963 layer_factory.hpp:77] Creating layer inception_5a/relu_5x5
I0321 14:19:13.595216  9963 net.cpp:86] Creating Layer inception_5a/relu_5x5
I0321 14:19:13.595229  9963 net.cpp:408] inception_5a/relu_5x5 <- inception_5a/5x5
I0321 14:19:13.595245  9963 net.cpp:369] inception_5a/relu_5x5 -> inception_5a/5x5 (in-place)
I0321 14:19:13.595265  9963 net.cpp:124] Setting up inception_5a/relu_5x5
I0321 14:19:13.595319  9963 net.cpp:131] Top shape: 128 128 4 4 (262144)
I0321 14:19:13.595335  9963 net.cpp:139] Memory required for data: 1310232072
I0321 14:19:13.595348  9963 layer_factory.hpp:77] Creating layer inception_5a/pool
I0321 14:19:13.595371  9963 net.cpp:86] Creating Layer inception_5a/pool
I0321 14:19:13.595388  9963 net.cpp:408] inception_5a/pool <- pool4/3x3_s2_pool4/3x3_s2_0_split_3
I0321 14:19:13.595412  9963 net.cpp:382] inception_5a/pool -> inception_5a/pool
I0321 14:19:13.595491  9963 net.cpp:124] Setting up inception_5a/pool
I0321 14:19:13.595511  9963 net.cpp:131] Top shape: 128 832 4 4 (1703936)
I0321 14:19:13.595523  9963 net.cpp:139] Memory required for data: 1317047816
I0321 14:19:13.595536  9963 layer_factory.hpp:77] Creating layer inception_5a/pool_proj
I0321 14:19:13.595564  9963 net.cpp:86] Creating Layer inception_5a/pool_proj
I0321 14:19:13.595582  9963 net.cpp:408] inception_5a/pool_proj <- inception_5a/pool
I0321 14:19:13.595602  9963 net.cpp:382] inception_5a/pool_proj -> inception_5a/pool_proj
I0321 14:19:13.598603  9963 net.cpp:124] Setting up inception_5a/pool_proj
I0321 14:19:13.598634  9963 net.cpp:131] Top shape: 128 128 4 4 (262144)
I0321 14:19:13.598647  9963 net.cpp:139] Memory required for data: 1318096392
I0321 14:19:13.598667  9963 layer_factory.hpp:77] Creating layer inception_5a/relu_pool_proj
I0321 14:19:13.598686  9963 net.cpp:86] Creating Layer inception_5a/relu_pool_proj
I0321 14:19:13.598701  9963 net.cpp:408] inception_5a/relu_pool_proj <- inception_5a/pool_proj
I0321 14:19:13.598718  9963 net.cpp:369] inception_5a/relu_pool_proj -> inception_5a/pool_proj (in-place)
I0321 14:19:13.598737  9963 net.cpp:124] Setting up inception_5a/relu_pool_proj
I0321 14:19:13.598762  9963 net.cpp:131] Top shape: 128 128 4 4 (262144)
I0321 14:19:13.598778  9963 net.cpp:139] Memory required for data: 1319144968
I0321 14:19:13.598791  9963 layer_factory.hpp:77] Creating layer inception_5a/output
I0321 14:19:13.598814  9963 net.cpp:86] Creating Layer inception_5a/output
I0321 14:19:13.598831  9963 net.cpp:408] inception_5a/output <- inception_5a/1x1
I0321 14:19:13.598848  9963 net.cpp:408] inception_5a/output <- inception_5a/3x3
I0321 14:19:13.598865  9963 net.cpp:408] inception_5a/output <- inception_5a/5x5
I0321 14:19:13.598884  9963 net.cpp:408] inception_5a/output <- inception_5a/pool_proj
I0321 14:19:13.598903  9963 net.cpp:382] inception_5a/output -> inception_5a/output
I0321 14:19:13.598963  9963 net.cpp:124] Setting up inception_5a/output
I0321 14:19:13.598981  9963 net.cpp:131] Top shape: 128 832 4 4 (1703936)
I0321 14:19:13.598994  9963 net.cpp:139] Memory required for data: 1325960712
I0321 14:19:13.599006  9963 layer_factory.hpp:77] Creating layer inception_5a/output_inception_5a/output_0_split
I0321 14:19:13.599025  9963 net.cpp:86] Creating Layer inception_5a/output_inception_5a/output_0_split
I0321 14:19:13.599038  9963 net.cpp:408] inception_5a/output_inception_5a/output_0_split <- inception_5a/output
I0321 14:19:13.599061  9963 net.cpp:382] inception_5a/output_inception_5a/output_0_split -> inception_5a/output_inception_5a/output_0_split_0
I0321 14:19:13.599083  9963 net.cpp:382] inception_5a/output_inception_5a/output_0_split -> inception_5a/output_inception_5a/output_0_split_1
I0321 14:19:13.599107  9963 net.cpp:382] inception_5a/output_inception_5a/output_0_split -> inception_5a/output_inception_5a/output_0_split_2
I0321 14:19:13.599130  9963 net.cpp:382] inception_5a/output_inception_5a/output_0_split -> inception_5a/output_inception_5a/output_0_split_3
I0321 14:19:13.599232  9963 net.cpp:124] Setting up inception_5a/output_inception_5a/output_0_split
I0321 14:19:13.599252  9963 net.cpp:131] Top shape: 128 832 4 4 (1703936)
I0321 14:19:13.599267  9963 net.cpp:131] Top shape: 128 832 4 4 (1703936)
I0321 14:19:13.599283  9963 net.cpp:131] Top shape: 128 832 4 4 (1703936)
I0321 14:19:13.599299  9963 net.cpp:131] Top shape: 128 832 4 4 (1703936)
I0321 14:19:13.599314  9963 net.cpp:139] Memory required for data: 1353223688
I0321 14:19:13.599328  9963 layer_factory.hpp:77] Creating layer inception_5b/1x1
I0321 14:19:13.599377  9963 net.cpp:86] Creating Layer inception_5b/1x1
I0321 14:19:13.599393  9963 net.cpp:408] inception_5b/1x1 <- inception_5a/output_inception_5a/output_0_split_0
I0321 14:19:13.599413  9963 net.cpp:382] inception_5b/1x1 -> inception_5b/1x1
I0321 14:19:13.602463  9963 net.cpp:124] Setting up inception_5b/1x1
I0321 14:19:13.602486  9963 net.cpp:131] Top shape: 128 384 4 4 (786432)
I0321 14:19:13.602499  9963 net.cpp:139] Memory required for data: 1356369416
I0321 14:19:13.602519  9963 layer_factory.hpp:77] Creating layer inception_5b/relu_1x1
I0321 14:19:13.602536  9963 net.cpp:86] Creating Layer inception_5b/relu_1x1
I0321 14:19:13.602555  9963 net.cpp:408] inception_5b/relu_1x1 <- inception_5b/1x1
I0321 14:19:13.602576  9963 net.cpp:369] inception_5b/relu_1x1 -> inception_5b/1x1 (in-place)
I0321 14:19:13.602597  9963 net.cpp:124] Setting up inception_5b/relu_1x1
I0321 14:19:13.602618  9963 net.cpp:131] Top shape: 128 384 4 4 (786432)
I0321 14:19:13.602634  9963 net.cpp:139] Memory required for data: 1359515144
I0321 14:19:13.602648  9963 layer_factory.hpp:77] Creating layer inception_5b/3x3_reduce
I0321 14:19:13.602671  9963 net.cpp:86] Creating Layer inception_5b/3x3_reduce
I0321 14:19:13.602686  9963 net.cpp:408] inception_5b/3x3_reduce <- inception_5a/output_inception_5a/output_0_split_1
I0321 14:19:13.602711  9963 net.cpp:382] inception_5b/3x3_reduce -> inception_5b/3x3_reduce
I0321 14:19:13.605823  9963 net.cpp:124] Setting up inception_5b/3x3_reduce
I0321 14:19:13.605851  9963 net.cpp:131] Top shape: 128 192 4 4 (393216)
I0321 14:19:13.605865  9963 net.cpp:139] Memory required for data: 1361088008
I0321 14:19:13.605885  9963 layer_factory.hpp:77] Creating layer inception_5b/relu_3x3_reduce
I0321 14:19:13.605902  9963 net.cpp:86] Creating Layer inception_5b/relu_3x3_reduce
I0321 14:19:13.605917  9963 net.cpp:408] inception_5b/relu_3x3_reduce <- inception_5b/3x3_reduce
I0321 14:19:13.605939  9963 net.cpp:369] inception_5b/relu_3x3_reduce -> inception_5b/3x3_reduce (in-place)
I0321 14:19:13.605969  9963 net.cpp:124] Setting up inception_5b/relu_3x3_reduce
I0321 14:19:13.605989  9963 net.cpp:131] Top shape: 128 192 4 4 (393216)
I0321 14:19:13.606003  9963 net.cpp:139] Memory required for data: 1362660872
I0321 14:19:13.606014  9963 layer_factory.hpp:77] Creating layer inception_5b/3x3
I0321 14:19:13.606037  9963 net.cpp:86] Creating Layer inception_5b/3x3
I0321 14:19:13.606052  9963 net.cpp:408] inception_5b/3x3 <- inception_5b/3x3_reduce
I0321 14:19:13.606076  9963 net.cpp:382] inception_5b/3x3 -> inception_5b/3x3
I0321 14:19:13.614085  9963 net.cpp:124] Setting up inception_5b/3x3
I0321 14:19:13.614179  9963 net.cpp:131] Top shape: 128 384 4 4 (786432)
I0321 14:19:13.614193  9963 net.cpp:139] Memory required for data: 1365806600
I0321 14:19:13.614225  9963 layer_factory.hpp:77] Creating layer inception_5b/relu_3x3
I0321 14:19:13.614261  9963 net.cpp:86] Creating Layer inception_5b/relu_3x3
I0321 14:19:13.614284  9963 net.cpp:408] inception_5b/relu_3x3 <- inception_5b/3x3
I0321 14:19:13.614313  9963 net.cpp:369] inception_5b/relu_3x3 -> inception_5b/3x3 (in-place)
I0321 14:19:13.614364  9963 net.cpp:124] Setting up inception_5b/relu_3x3
I0321 14:19:13.614384  9963 net.cpp:131] Top shape: 128 384 4 4 (786432)
I0321 14:19:13.614398  9963 net.cpp:139] Memory required for data: 1368952328
I0321 14:19:13.614409  9963 layer_factory.hpp:77] Creating layer inception_5b/5x5_reduce
I0321 14:19:13.614449  9963 net.cpp:86] Creating Layer inception_5b/5x5_reduce
I0321 14:19:13.614467  9963 net.cpp:408] inception_5b/5x5_reduce <- inception_5a/output_inception_5a/output_0_split_2
I0321 14:19:13.614493  9963 net.cpp:382] inception_5b/5x5_reduce -> inception_5b/5x5_reduce
I0321 14:19:13.615334  9963 net.cpp:124] Setting up inception_5b/5x5_reduce
I0321 14:19:13.615356  9963 net.cpp:131] Top shape: 128 48 4 4 (98304)
I0321 14:19:13.615368  9963 net.cpp:139] Memory required for data: 1369345544
I0321 14:19:13.615389  9963 layer_factory.hpp:77] Creating layer inception_5b/relu_5x5_reduce
I0321 14:19:13.615448  9963 net.cpp:86] Creating Layer inception_5b/relu_5x5_reduce
I0321 14:19:13.615468  9963 net.cpp:408] inception_5b/relu_5x5_reduce <- inception_5b/5x5_reduce
I0321 14:19:13.615485  9963 net.cpp:369] inception_5b/relu_5x5_reduce -> inception_5b/5x5_reduce (in-place)
I0321 14:19:13.615509  9963 net.cpp:124] Setting up inception_5b/relu_5x5_reduce
I0321 14:19:13.615528  9963 net.cpp:131] Top shape: 128 48 4 4 (98304)
I0321 14:19:13.615541  9963 net.cpp:139] Memory required for data: 1369738760
I0321 14:19:13.615553  9963 layer_factory.hpp:77] Creating layer inception_5b/5x5
I0321 14:19:13.615581  9963 net.cpp:86] Creating Layer inception_5b/5x5
I0321 14:19:13.615595  9963 net.cpp:408] inception_5b/5x5 <- inception_5b/5x5_reduce
I0321 14:19:13.615619  9963 net.cpp:382] inception_5b/5x5 -> inception_5b/5x5
I0321 14:19:13.617425  9963 net.cpp:124] Setting up inception_5b/5x5
I0321 14:19:13.617447  9963 net.cpp:131] Top shape: 128 128 4 4 (262144)
I0321 14:19:13.617460  9963 net.cpp:139] Memory required for data: 1370787336
I0321 14:19:13.617480  9963 layer_factory.hpp:77] Creating layer inception_5b/relu_5x5
I0321 14:19:13.617548  9963 net.cpp:86] Creating Layer inception_5b/relu_5x5
I0321 14:19:13.617564  9963 net.cpp:408] inception_5b/relu_5x5 <- inception_5b/5x5
I0321 14:19:13.617584  9963 net.cpp:369] inception_5b/relu_5x5 -> inception_5b/5x5 (in-place)
I0321 14:19:13.617604  9963 net.cpp:124] Setting up inception_5b/relu_5x5
I0321 14:19:13.617621  9963 net.cpp:131] Top shape: 128 128 4 4 (262144)
I0321 14:19:13.617636  9963 net.cpp:139] Memory required for data: 1371835912
I0321 14:19:13.617650  9963 layer_factory.hpp:77] Creating layer inception_5b/pool
I0321 14:19:13.617669  9963 net.cpp:86] Creating Layer inception_5b/pool
I0321 14:19:13.617687  9963 net.cpp:408] inception_5b/pool <- inception_5a/output_inception_5a/output_0_split_3
I0321 14:19:13.617717  9963 net.cpp:382] inception_5b/pool -> inception_5b/pool
I0321 14:19:13.617799  9963 net.cpp:124] Setting up inception_5b/pool
I0321 14:19:13.617818  9963 net.cpp:131] Top shape: 128 832 4 4 (1703936)
I0321 14:19:13.617830  9963 net.cpp:139] Memory required for data: 1378651656
I0321 14:19:13.617842  9963 layer_factory.hpp:77] Creating layer inception_5b/pool_proj
I0321 14:19:13.617871  9963 net.cpp:86] Creating Layer inception_5b/pool_proj
I0321 14:19:13.617887  9963 net.cpp:408] inception_5b/pool_proj <- inception_5b/pool
I0321 14:19:13.617911  9963 net.cpp:382] inception_5b/pool_proj -> inception_5b/pool_proj
I0321 14:19:13.619269  9963 net.cpp:124] Setting up inception_5b/pool_proj
I0321 14:19:13.619292  9963 net.cpp:131] Top shape: 128 128 4 4 (262144)
I0321 14:19:13.619304  9963 net.cpp:139] Memory required for data: 1379700232
I0321 14:19:13.619323  9963 layer_factory.hpp:77] Creating layer inception_5b/relu_pool_proj
I0321 14:19:13.619340  9963 net.cpp:86] Creating Layer inception_5b/relu_pool_proj
I0321 14:19:13.619354  9963 net.cpp:408] inception_5b/relu_pool_proj <- inception_5b/pool_proj
I0321 14:19:13.619370  9963 net.cpp:369] inception_5b/relu_pool_proj -> inception_5b/pool_proj (in-place)
I0321 14:19:13.619390  9963 net.cpp:124] Setting up inception_5b/relu_pool_proj
I0321 14:19:13.619410  9963 net.cpp:131] Top shape: 128 128 4 4 (262144)
I0321 14:19:13.619421  9963 net.cpp:139] Memory required for data: 1380748808
I0321 14:19:13.619433  9963 layer_factory.hpp:77] Creating layer inception_5b/output
I0321 14:19:13.619454  9963 net.cpp:86] Creating Layer inception_5b/output
I0321 14:19:13.619470  9963 net.cpp:408] inception_5b/output <- inception_5b/1x1
I0321 14:19:13.619485  9963 net.cpp:408] inception_5b/output <- inception_5b/3x3
I0321 14:19:13.619501  9963 net.cpp:408] inception_5b/output <- inception_5b/5x5
I0321 14:19:13.619519  9963 net.cpp:408] inception_5b/output <- inception_5b/pool_proj
I0321 14:19:13.619537  9963 net.cpp:382] inception_5b/output -> inception_5b/output
I0321 14:19:13.619601  9963 net.cpp:124] Setting up inception_5b/output
I0321 14:19:13.619621  9963 net.cpp:131] Top shape: 128 1024 4 4 (2097152)
I0321 14:19:13.619659  9963 net.cpp:139] Memory required for data: 1389137416
I0321 14:19:13.619675  9963 layer_factory.hpp:77] Creating layer pool5/7x7_s1
I0321 14:19:13.619699  9963 net.cpp:86] Creating Layer pool5/7x7_s1
I0321 14:19:13.619714  9963 net.cpp:408] pool5/7x7_s1 <- inception_5b/output
I0321 14:19:13.619734  9963 net.cpp:382] pool5/7x7_s1 -> pool5/7x7_s1
I0321 14:19:13.619791  9963 net.cpp:124] Setting up pool5/7x7_s1
I0321 14:19:13.619809  9963 net.cpp:131] Top shape: 128 1024 1 1 (131072)
I0321 14:19:13.619822  9963 net.cpp:139] Memory required for data: 1389661704
I0321 14:19:13.619834  9963 layer_factory.hpp:77] Creating layer pool5/drop_7x7_s1
I0321 14:19:13.619853  9963 net.cpp:86] Creating Layer pool5/drop_7x7_s1
I0321 14:19:13.619866  9963 net.cpp:408] pool5/drop_7x7_s1 <- pool5/7x7_s1
I0321 14:19:13.619887  9963 net.cpp:369] pool5/drop_7x7_s1 -> pool5/7x7_s1 (in-place)
I0321 14:19:13.619941  9963 net.cpp:124] Setting up pool5/drop_7x7_s1
I0321 14:19:13.619961  9963 net.cpp:131] Top shape: 128 1024 1 1 (131072)
I0321 14:19:13.619972  9963 net.cpp:139] Memory required for data: 1390185992
I0321 14:19:13.619985  9963 layer_factory.hpp:77] Creating layer loss3_lite/predict
I0321 14:19:13.620012  9963 net.cpp:86] Creating Layer loss3_lite/predict
I0321 14:19:13.620028  9963 net.cpp:408] loss3_lite/predict <- pool5/7x7_s1
I0321 14:19:13.620054  9963 net.cpp:382] loss3_lite/predict -> loss3_lite/predict
I0321 14:19:13.620231  9963 net.cpp:124] Setting up loss3_lite/predict
I0321 14:19:13.620252  9963 net.cpp:131] Top shape: 128 1 (128)
I0321 14:19:13.620265  9963 net.cpp:139] Memory required for data: 1390186504
I0321 14:19:13.620285  9963 layer_factory.hpp:77] Creating layer loss3_lite/predict_loss3_lite/predict_0_split
I0321 14:19:13.620306  9963 net.cpp:86] Creating Layer loss3_lite/predict_loss3_lite/predict_0_split
I0321 14:19:13.620326  9963 net.cpp:408] loss3_lite/predict_loss3_lite/predict_0_split <- loss3_lite/predict
I0321 14:19:13.620342  9963 net.cpp:382] loss3_lite/predict_loss3_lite/predict_0_split -> loss3_lite/predict_loss3_lite/predict_0_split_0
I0321 14:19:13.620362  9963 net.cpp:382] loss3_lite/predict_loss3_lite/predict_0_split -> loss3_lite/predict_loss3_lite/predict_0_split_1
I0321 14:19:13.620429  9963 net.cpp:124] Setting up loss3_lite/predict_loss3_lite/predict_0_split
I0321 14:19:13.620448  9963 net.cpp:131] Top shape: 128 1 (128)
I0321 14:19:13.620463  9963 net.cpp:131] Top shape: 128 1 (128)
I0321 14:19:13.620476  9963 net.cpp:139] Memory required for data: 1390187528
I0321 14:19:13.620487  9963 layer_factory.hpp:77] Creating layer loss3_my/loss3_my
I0321 14:19:13.620645  9963 net.cpp:86] Creating Layer loss3_my/loss3_my
I0321 14:19:13.620662  9963 net.cpp:408] loss3_my/loss3_my <- loss3_lite/predict_loss3_lite/predict_0_split_0
I0321 14:19:13.620679  9963 net.cpp:408] loss3_my/loss3_my <- label_data_1_split_2
I0321 14:19:13.620698  9963 net.cpp:382] loss3_my/loss3_my -> loss3_my/loss3_my
I0321 14:19:13.620945  9963 net.cpp:124] Setting up loss3_my/loss3_my
I0321 14:19:13.620967  9963 net.cpp:131] Top shape: 1 (1)
I0321 14:19:13.620980  9963 net.cpp:134]     with loss weight 10
I0321 14:19:13.621011  9963 net.cpp:139] Memory required for data: 1390187532
I0321 14:19:13.621024  9963 layer_factory.hpp:77] Creating layer loss3_my/loss3_test
I0321 14:19:13.621078  9963 net.cpp:86] Creating Layer loss3_my/loss3_test
I0321 14:19:13.621095  9963 net.cpp:408] loss3_my/loss3_test <- loss3_lite/predict_loss3_lite/predict_0_split_1
I0321 14:19:13.621110  9963 net.cpp:408] loss3_my/loss3_test <- label_data_1_split_3
I0321 14:19:13.621130  9963 net.cpp:382] loss3_my/loss3_test -> loss3_my/loss3_test
I0321 14:19:13.621263  9963 net.cpp:124] Setting up loss3_my/loss3_test
I0321 14:19:13.621284  9963 net.cpp:131] Top shape: 1 (1)
I0321 14:19:13.621295  9963 net.cpp:134]     with loss weight 10
I0321 14:19:13.621314  9963 net.cpp:139] Memory required for data: 1390187536
I0321 14:19:13.621326  9963 net.cpp:200] loss3_my/loss3_test needs backward computation.
I0321 14:19:13.621340  9963 net.cpp:200] loss3_my/loss3_my needs backward computation.
I0321 14:19:13.621372  9963 net.cpp:200] loss3_lite/predict_loss3_lite/predict_0_split needs backward computation.
…
