…
I0321 14:31:49.831626 15398 net.cpp:296] The NetState phase (0) differed from the phase (1) specified by a rule in layer data
I0321 14:31:49.831729 15398 net.cpp:296] The NetState phase (0) differed from the phase (1) specified by a rule in layer loss3_my/loss3_test
I0321 14:31:49.832607 15398 net.cpp:53] Initializing net from parameters: 
name: "GoogleNet-half"
state {
  phase: TRAIN
  level: 0
  stage: ""
}
layer {
  name: "data"
  type: "Python"
  top: "data"
  top: "label"
  include {
    phase: TRAIN
  }
  python_param {
    module: "data_generator"
    layer: "DataLayer"
    param_str: "/home/zhongzhen/dataset/attribute/age/train.txt"
  }
}
layer {
  name: "conv1/7x7_s2"
  type: "Convolution"
  bottom: "data"
  top: "conv1/7x7_s2"
  param {
    lr_mult: 1
    decay_mult: 1
  }
  param {
    lr_mult: 2
    decay_mult: 0
  }
  convolution_param {
    num_output: 32
    pad: 3
    kernel_size: 7
    stride: 2
    weight_filler {
      type: "xavier"
      std: 0.1
    }
    bias_filler {
      type: "constant"
      value: 0.2
    }
  }
}
layer {
  name: "conv1/relu_7x7"
  type: "ReLU"
  bottom: "conv1/7x7_s2"
  top: "conv1/7x7_s2"
}
layer {
  name: "pool1/3x3_s2"
  type: "Pooling"
  bottom: "conv1/7x7_s2"
  top: "pool1/3x3_s2"
  pooling_param {
    pool: MAX
    kernel_size: 3
    stride: 2
  }
}
layer {
  name: "pool1/norm1"
  type: "LRN"
  bottom: "pool1/3x3_s2"
  top: "pool1/norm1"
  lrn_param {
    local_size: 5
    alpha: 0.0001
    beta: 0.75
  }
}
layer {
  name: "conv2/3x3_reduce"
  type: "Convolution"
  bottom: "pool1/norm1"
  top: "conv2/3x3_reduce"
  param {
    lr_mult: 1
    decay_mult: 1
  }
  param {
    lr_mult: 2
    decay_mult: 0
  }
  convolution_param {
    num_output: 32
    kernel_size: 1
    weight_filler {
      type: "xavier"
      std: 0.1
    }
    bias_filler {
      type: "constant"
      value: 0.2
    }
  }
}
layer {
  name: "conv2/relu_3x3_reduce"
  type: "ReLU"
  bottom: "conv2/3x3_reduce"
  top: "conv2/3x3_reduce"
}
layer {
  name: "conv2/3x3"
  type: "Convolution"
  bottom: "conv2/3x3_reduce"
  top: "conv2/3x3"
  param {
    lr_mult: 1
    decay_mult: 1
  }
  param {
    lr_mult: 2
    decay_mult: 0
  }
  convolution_param {
    num_output: 96
    pad: 1
    kernel_size: 3
    weight_filler {
      type: "xavier"
      std: 0.03
    }
    bias_filler {
      type: "constant"
      value: 0.2
    }
  }
}
layer {
  name: "conv2/relu_3x3"
  type: "ReLU"
  bottom: "conv2/3x3"
  top: "conv2/3x3"
}
layer {
  name: "conv2/norm2"
  type: "LRN"
  bottom: "conv2/3x3"
  top: "conv2/norm2"
  lrn_param {
    local_size: 5
    alpha: 0.0001
    beta: 0.75
  }
}
layer {
  name: "pool2/3x3_s2"
  type: "Pooling"
  bottom: "conv2/norm2"
  top: "pool2/3x3_s2"
  pooling_param {
    pool: MAX
    kernel_size: 3
    stride: 2
  }
}
layer {
  name: "inception_3a/1x1"
  type: "Convolution"
  bottom: "pool2/3x3_s2"
  top: "inception_3a/1x1"
  param {
    lr_mult: 1
    decay_mult: 1
  }
  param {
    lr_mult: 2
    decay_mult: 0
  }
  convolution_param {
    num_output: 32
    kernel_size: 1
    weight_filler {
      type: "xavier"
      std: 0.03
    }
    bias_filler {
      type: "constant"
      value: 0.2
    }
  }
}
layer {
  name: "inception_3a/relu_1x1"
  type: "ReLU"
  bottom: "inception_3a/1x1"
  top: "inception_3a/1x1"
}
layer {
  name: "inception_3a/3x3_reduce"
  type: "Convolution"
  bottom: "pool2/3x3_s2"
  top: "inception_3a/3x3_reduce"
  param {
    lr_mult: 1
    decay_mult: 1
  }
  param {
    lr_mult: 2
    decay_mult: 0
  }
  convolution_param {
    num_output: 48
    kernel_size: 1
    weight_filler {
      type: "xavier"
      std: 0.09
    }
    bias_filler {
      type: "constant"
      value: 0.2
    }
  }
}
layer {
  name: "inception_3a/relu_3x3_reduce"
  type: "ReLU"
  bottom: "inception_3a/3x3_reduce"
  top: "inception_3a/3x3_reduce"
}
layer {
  name: "inception_3a/3x3"
  type: "Convolution"
  bottom: "inception_3a/3x3_reduce"
  top: "inception_3a/3x3"
  param {
    lr_mult: 1
    decay_mult: 1
  }
  param {
    lr_mult: 2
    decay_mult: 0
  }
  convolution_param {
    num_output: 64
    pad: 1
    kernel_size: 3
    weight_filler {
      type: "xavier"
      std: 0.03
    }
    bias_filler {
      type: "constant"
      value: 0.2
    }
  }
}
layer {
  name: "inception_3a/relu_3x3"
  type: "ReLU"
  bottom: "inception_3a/3x3"
  top: "inception_3a/3x3"
}
layer {
  name: "inception_3a/5x5_reduce"
  type: "Convolution"
  bottom: "pool2/3x3_s2"
  top: "inception_3a/5x5_reduce"
  param {
    lr_mult: 1
    decay_mult: 1
  }
  param {
    lr_mult: 2
    decay_mult: 0
  }
  convolution_param {
    num_output: 8
    kernel_size: 1
    weight_filler {
      type: "xavier"
      std: 0.2
    }
    bias_filler {
      type: "constant"
      value: 0.2
    }
  }
}
layer {
  name: "inception_3a/relu_5x5_reduce"
  type: "ReLU"
  bottom: "inception_3a/5x5_reduce"
  top: "inception_3a/5x5_reduce"
}
layer {
  name: "inception_3a/5x5"
  type: "Convolution"
  bottom: "inception_3a/5x5_reduce"
  top: "inception_3a/5x5"
  param {
    lr_mult: 1
    decay_mult: 1
  }
  param {
    lr_mult: 2
    decay_mult: 0
  }
  convolution_param {
    num_output: 16
    pad: 2
    kernel_size: 5
    weight_filler {
      type: "xavier"
      std: 0.03
    }
    bias_filler {
      type: "constant"
      value: 0.2
    }
  }
}
layer {
  name: "inception_3a/relu_5x5"
  type: "ReLU"
  bottom: "inception_3a/5x5"
  top: "inception_3a/5x5"
}
layer {
  name: "inception_3a/pool"
  type: "Pooling"
  bottom: "pool2/3x3_s2"
  top: "inception_3a/pool"
  pooling_param {
    pool: MAX
    kernel_size: 3
    stride: 1
    pad: 1
  }
}
layer {
  name: "inception_3a/pool_proj"
  type: "Convolution"
  bottom: "inception_3a/pool"
  top: "inception_3a/pool_proj"
  param {
    lr_mult: 1
    decay_mult: 1
  }
  param {
    lr_mult: 2
    decay_mult: 0
  }
  convolution_param {
    num_output: 16
    kernel_size: 1
    weight_filler {
      type: "xavier"
      std: 0.1
    }
    bias_filler {
      type: "constant"
      value: 0.2
    }
  }
}
layer {
  name: "inception_3a/relu_pool_proj"
  type: "ReLU"
  bottom: "inception_3a/pool_proj"
  top: "inception_3a/pool_proj"
}
layer {
  name: "inception_3a/output"
  type: "Concat"
  bottom: "inception_3a/1x1"
  bottom: "inception_3a/3x3"
  bottom: "inception_3a/5x5"
  bottom: "inception_3a/pool_proj"
  top: "inception_3a/output"
}
layer {
  name: "inception_3b/1x1"
  type: "Convolution"
  bottom: "inception_3a/output"
  top: "inception_3b/1x1"
  param {
    lr_mult: 1
    decay_mult: 1
  }
  param {
    lr_mult: 2
    decay_mult: 0
  }
  convolution_param {
    num_output: 64
    kernel_size: 1
    weight_filler {
      type: "xavier"
      std: 0.03
    }
    bias_filler {
      type: "constant"
      value: 0.2
    }
  }
}
layer {
  name: "inception_3b/relu_1x1"
  type: "ReLU"
  bottom: "inception_3b/1x1"
  top: "inception_3b/1x1"
}
layer {
  name: "inception_3b/3x3_reduce"
  type: "Convolution"
  bottom: "inception_3a/output"
  top: "inception_3b/3x3_reduce"
  param {
    lr_mult: 1
    decay_mult: 1
  }
  param {
    lr_mult: 2
    decay_mult: 0
  }
  convolution_param {
    num_output: 64
    kernel_size: 1
    weight_filler {
      type: "xavier"
      std: 0.09
    }
    bias_filler {
      type: "constant"
      value: 0.2
    }
  }
}
layer {
  name: "inception_3b/relu_3x3_reduce"
  type: "ReLU"
  bottom: "inception_3b/3x3_reduce"
  top: "inception_3b/3x3_reduce"
}
layer {
  name: "inception_3b/3x3"
  type: "Convolution"
  bottom: "inception_3b/3x3_reduce"
  top: "inception_3b/3x3"
  param {
    lr_mult: 1
    decay_mult: 1
  }
  param {
    lr_mult: 2
    decay_mult: 0
  }
  convolution_param {
    num_output: 96
    pad: 1
    kernel_size: 3
    weight_filler {
      type: "xavier"
      std: 0.03
    }
    bias_filler {
      type: "constant"
      value: 0.2
    }
  }
}
layer {
  name: "inception_3b/relu_3x3"
  type: "ReLU"
  bottom: "inception_3b/3x3"
  top: "inception_3b/3x3"
}
layer {
  name: "inception_3b/5x5_reduce"
  type: "Convolution"
  bottom: "inception_3a/output"
  top: "inception_3b/5x5_reduce"
  param {
    lr_mult: 1
    decay_mult: 1
  }
  param {
    lr_mult: 2
    decay_mult: 0
  }
  convolution_param {
    num_output: 16
    kernel_size: 1
    weight_filler {
      type: "xavier"
      std: 0.2
    }
    bias_filler {
      type: "constant"
      value: 0.2
    }
  }
}
layer {
  name: "inception_3b/relu_5x5_reduce"
  type: "ReLU"
  bottom: "inception_3b/5x5_reduce"
  top: "inception_3b/5x5_reduce"
}
layer {
  name: "inception_3b/5x5"
  type: "Convolution"
  bottom: "inception_3b/5x5_reduce"
  top: "inception_3b/5x5"
  param {
    lr_mult: 1
    decay_mult: 1
  }
  param {
    lr_mult: 2
    decay_mult: 0
  }
  convolution_param {
    num_output: 48
    pad: 2
    kernel_size: 5
    weight_filler {
      type: "xavier"
      std: 0.03
    }
    bias_filler {
      type: "constant"
      value: 0.2
    }
  }
}
layer {
  name: "inception_3b/relu_5x5"
  type: "ReLU"
  bottom: "inception_3b/5x5"
  top: "inception_3b/5x5"
}
layer {
  name: "inception_3b/pool"
  type: "Pooling"
  bottom: "inception_3a/output"
  top: "inception_3b/pool"
  pooling_param {
    pool: MAX
    kernel_size: 3
    stride: 1
    pad: 1
  }
}
layer {
  name: "inception_3b/pool_proj"
  type: "Convolution"
  bottom: "inception_3b/pool"
  top: "inception_3b/pool_proj"
  param {
    lr_mult: 1
    decay_mult: 1
  }
  param {
    lr_mult: 2
    decay_mult: 0
  }
  convolution_param {
    num_output: 32
    kernel_size: 1
    weight_filler {
      type: "xavier"
      std: 0.1
    }
    bias_filler {
      type: "constant"
      value: 0.2
    }
  }
}
layer {
  name: "inception_3b/relu_pool_proj"
  type: "ReLU"
  bottom: "inception_3b/pool_proj"
  top: "inception_3b/pool_proj"
}
layer {
  name: "inception_3b/output"
  type: "Concat"
  bottom: "inception_3b/1x1"
  bottom: "inception_3b/3x3"
  bottom: "inception_3b/5x5"
  bottom: "inception_3b/pool_proj"
  top: "inception_3b/output"
}
layer {
  name: "pool3/3x3_s2"
  type: "Pooling"
  bottom: "inception_3b/output"
  top: "pool3/3x3_s2"
  pooling_param {
    pool: MAX
    kernel_size: 3
    stride: 2
  }
}
layer {
  name: "inception_4a/1x1"
  type: "Convolution"
  bottom: "pool3/3x3_s2"
  top: "inception_4a/1x1"
  param {
    lr_mult: 1
    decay_mult: 1
  }
  param {
    lr_mult: 2
    decay_mult: 0
  }
  convolution_param {
    num_output: 96
    kernel_size: 1
    weight_filler {
      type: "xavier"
      std: 0.03
    }
    bias_filler {
      type: "constant"
      value: 0.2
    }
  }
}
layer {
  name: "inception_4a/relu_1x1"
  type: "ReLU"
  bottom: "inception_4a/1x1"
  top: "inception_4a/1x1"
}
layer {
  name: "inception_4a/3x3_reduce"
  type: "Convolution"
  bottom: "pool3/3x3_s2"
  top: "inception_4a/3x3_reduce"
  param {
    lr_mult: 1
    decay_mult: 1
  }
  param {
    lr_mult: 2
    decay_mult: 0
  }
  convolution_param {
    num_output: 48
    kernel_size: 1
    weight_filler {
      type: "xavier"
      std: 0.09
    }
    bias_filler {
      type: "constant"
      value: 0.2
    }
  }
}
layer {
  name: "inception_4a/relu_3x3_reduce"
  type: "ReLU"
  bottom: "inception_4a/3x3_reduce"
  top: "inception_4a/3x3_reduce"
}
layer {
  name: "inception_4a/3x3"
  type: "Convolution"
  bottom: "inception_4a/3x3_reduce"
  top: "inception_4a/3x3"
  param {
    lr_mult: 1
    decay_mult: 1
  }
  param {
    lr_mult: 2
    decay_mult: 0
  }
  convolution_param {
    num_output: 104
    pad: 1
    kernel_size: 3
    weight_filler {
      type: "xavier"
      std: 0.03
    }
    bias_filler {
      type: "constant"
      value: 0.2
    }
  }
}
layer {
  name: "inception_4a/relu_3x3"
  type: "ReLU"
  bottom: "inception_4a/3x3"
  top: "inception_4a/3x3"
}
layer {
  name: "inception_4a/5x5_reduce"
  type: "Convolution"
  bottom: "pool3/3x3_s2"
  top: "inception_4a/5x5_reduce"
  param {
    lr_mult: 1
    decay_mult: 1
  }
  param {
    lr_mult: 2
    decay_mult: 0
  }
  convolution_param {
    num_output: 8
    kernel_size: 1
    weight_filler {
      type: "xavier"
      std: 0.2
    }
    bias_filler {
      type: "constant"
      value: 0.2
    }
  }
}
layer {
  name: "inception_4a/relu_5x5_reduce"
  type: "ReLU"
  bottom: "inception_4a/5x5_reduce"
  top: "inception_4a/5x5_reduce"
}
layer {
  name: "inception_4a/5x5"
  type: "Convolution"
  bottom: "inception_4a/5x5_reduce"
  top: "inception_4a/5x5"
  param {
    lr_mult: 1
    decay_mult: 1
  }
  param {
    lr_mult: 2
    decay_mult: 0
  }
  convolution_param {
    num_output: 24
    pad: 2
    kernel_size: 5
    weight_filler {
      type: "xavier"
      std: 0.03
    }
    bias_filler {
      type: "constant"
      value: 0.2
    }
  }
}
layer {
  name: "inception_4a/relu_5x5"
  type: "ReLU"
  bottom: "inception_4a/5x5"
  top: "inception_4a/5x5"
}
layer {
  name: "inception_4a/pool"
  type: "Pooling"
  bottom: "pool3/3x3_s2"
  top: "inception_4a/pool"
  pooling_param {
    pool: MAX
    kernel_size: 3
    stride: 1
    pad: 1
  }
}
layer {
  name: "inception_4a/pool_proj"
  type: "Convolution"
  bottom: "inception_4a/pool"
  top: "inception_4a/pool_proj"
  param {
    lr_mult: 1
    decay_mult: 1
  }
  param {
    lr_mult: 2
    decay_mult: 0
  }
  convolution_param {
    num_output: 32
    kernel_size: 1
    weight_filler {
      type: "xavier"
      std: 0.1
    }
    bias_filler {
      type: "constant"
      value: 0.2
    }
  }
}
layer {
  name: "inception_4a/relu_pool_proj"
  type: "ReLU"
  bottom: "inception_4a/pool_proj"
  top: "inception_4a/pool_proj"
}
layer {
  name: "inception_4a/output"
  type: "Concat"
  bottom: "inception_4a/1x1"
  bottom: "inception_4a/3x3"
  bottom: "inception_4a/5x5"
  bottom: "inception_4a/pool_proj"
  top: "inception_4a/output"
}
layer {
  name: "inception_4b/1x1"
  type: "Convolution"
  bottom: "inception_4a/output"
  top: "inception_4b/1x1"
  param {
    lr_mult: 1
    decay_mult: 1
  }
  param {
    lr_mult: 2
    decay_mult: 0
  }
  convolution_param {
    num_output: 80
    kernel_size: 1
    weight_filler {
      type: "xavier"
      std: 0.03
    }
    bias_filler {
      type: "constant"
      value: 0.2
    }
  }
}
layer {
  name: "inception_4b/relu_1x1"
  type: "ReLU"
  bottom: "inception_4b/1x1"
  top: "inception_4b/1x1"
}
layer {
  name: "inception_4b/3x3_reduce"
  type: "Convolution"
  bottom: "inception_4a/output"
  top: "inception_4b/3x3_reduce"
  param {
    lr_mult: 1
    decay_mult: 1
  }
  param {
    lr_mult: 2
    decay_mult: 0
  }
  convolution_param {
    num_output: 56
    kernel_size: 1
    weight_filler {
      type: "xavier"
      std: 0.09
    }
    bias_filler {
      type: "constant"
      value: 0.2
    }
  }
}
layer {
  name: "inception_4b/relu_3x3_reduce"
  type: "ReLU"
  bottom: "inception_4b/3x3_reduce"
  top: "inception_4b/3x3_reduce"
}
layer {
  name: "inception_4b/3x3"
  type: "Convolution"
  bottom: "inception_4b/3x3_reduce"
  top: "inception_4b/3x3"
  param {
    lr_mult: 1
    decay_mult: 1
  }
  param {
    lr_mult: 2
    decay_mult: 0
  }
  convolution_param {
    num_output: 112
    pad: 1
    kernel_size: 3
    weight_filler {
      type: "xavier"
      std: 0.03
    }
    bias_filler {
      type: "constant"
      value: 0.2
    }
  }
}
layer {
  name: "inception_4b/relu_3x3"
  type: "ReLU"
  bottom: "inception_4b/3x3"
  top: "inception_4b/3x3"
}
layer {
  name: "inception_4b/5x5_reduce"
  type: "Convolution"
  bottom: "inception_4a/output"
  top: "inception_4b/5x5_reduce"
  param {
    lr_mult: 1
    decay_mult: 1
  }
  param {
    lr_mult: 2
    decay_mult: 0
  }
  convolution_param {
    num_output: 12
    kernel_size: 1
    weight_filler {
      type: "xavier"
      std: 0.2
    }
    bias_filler {
      type: "constant"
      value: 0.2
    }
  }
}
layer {
  name: "inception_4b/relu_5x5_reduce"
  type: "ReLU"
  bottom: "inception_4b/5x5_reduce"
  top: "inception_4b/5x5_reduce"
}
layer {
  name: "inception_4b/5x5"
  type: "Convolution"
  bottom: "inception_4b/5x5_reduce"
  top: "inception_4b/5x5"
  param {
    lr_mult: 1
    decay_mult: 1
  }
  param {
    lr_mult: 2
    decay_mult: 0
  }
  convolution_param {
    num_output: 32
    pad: 2
    kernel_size: 5
    weight_filler {
      type: "xavier"
      std: 0.03
    }
    bias_filler {
      type: "constant"
      value: 0.2
    }
  }
}
layer {
  name: "inception_4b/relu_5x5"
  type: "ReLU"
  bottom: "inception_4b/5x5"
  top: "inception_4b/5x5"
}
layer {
  name: "inception_4b/pool"
  type: "Pooling"
  bottom: "inception_4a/output"
  top: "inception_4b/pool"
  pooling_param {
    pool: MAX
    kernel_size: 3
    stride: 1
    pad: 1
  }
}
layer {
  name: "inception_4b/pool_proj"
  type: "Convolution"
  bottom: "inception_4b/pool"
  top: "inception_4b/pool_proj"
  param {
    lr_mult: 1
    decay_mult: 1
  }
  param {
    lr_mult: 2
    decay_mult: 0
  }
  convolution_param {
    num_output: 32
    kernel_size: 1
    weight_filler {
      type: "xavier"
      std: 0.1
    }
    bias_filler {
      type: "constant"
      value: 0.2
    }
  }
}
layer {
  name: "inception_4b/relu_pool_proj"
  type: "ReLU"
  bottom: "inception_4b/pool_proj"
  top: "inception_4b/pool_proj"
}
layer {
  name: "inception_4b/output"
  type: "Concat"
  bottom: "inception_4b/1x1"
  bottom: "inception_4b/3x3"
  bottom: "inception_4b/5x5"
  bottom: "inception_4b/pool_proj"
  top: "inception_4b/output"
}
layer {
  name: "inception_4c/1x1"
  type: "Convolution"
  bottom: "inception_4b/output"
  top: "inception_4c/1x1"
  param {
    lr_mult: 1
    decay_mult: 1
  }
  param {
    lr_mult: 2
    decay_mult: 0
  }
  convolution_param {
    num_output: 64
    kernel_size: 1
    weight_filler {
      type: "xavier"
      std: 0.03
    }
    bias_filler {
      type: "constant"
      value: 0.2
    }
  }
}
layer {
  name: "inception_4c/relu_1x1"
  type: "ReLU"
  bottom: "inception_4c/1x1"
  top: "inception_4c/1x1"
}
layer {
  name: "inception_4c/3x3_reduce"
  type: "Convolution"
  bottom: "inception_4b/output"
  top: "inception_4c/3x3_reduce"
  param {
    lr_mult: 1
    decay_mult: 1
  }
  param {
    lr_mult: 2
    decay_mult: 0
  }
  convolution_param {
    num_output: 64
    kernel_size: 1
    weight_filler {
      type: "xavier"
      std: 0.09
    }
    bias_filler {
      type: "constant"
      value: 0.2
    }
  }
}
layer {
  name: "inception_4c/relu_3x3_reduce"
  type: "ReLU"
  bottom: "inception_4c/3x3_reduce"
  top: "inception_4c/3x3_reduce"
}
layer {
  name: "inception_4c/3x3"
  type: "Convolution"
  bottom: "inception_4c/3x3_reduce"
  top: "inception_4c/3x3"
  param {
    lr_mult: 1
    decay_mult: 1
  }
  param {
    lr_mult: 2
    decay_mult: 0
  }
  convolution_param {
    num_output: 128
    pad: 1
    kernel_size: 3
    weight_filler {
      type: "xavier"
      std: 0.03
    }
    bias_filler {
      type: "constant"
      value: 0.2
    }
  }
}
layer {
  name: "inception_4c/relu_3x3"
  type: "ReLU"
  bottom: "inception_4c/3x3"
  top: "inception_4c/3x3"
}
layer {
  name: "inception_4c/5x5_reduce"
  type: "Convolution"
  bottom: "inception_4b/output"
  top: "inception_4c/5x5_reduce"
  param {
    lr_mult: 1
    decay_mult: 1
  }
  param {
    lr_mult: 2
    decay_mult: 0
  }
  convolution_param {
    num_output: 12
    kernel_size: 1
    weight_filler {
      type: "xavier"
      std: 0.2
    }
    bias_filler {
      type: "constant"
      value: 0.2
    }
  }
}
layer {
  name: "inception_4c/relu_5x5_reduce"
  type: "ReLU"
  bottom: "inception_4c/5x5_reduce"
  top: "inception_4c/5x5_reduce"
}
layer {
  name: "inception_4c/5x5"
  type: "Convolution"
  bottom: "inception_4c/5x5_reduce"
  top: "inception_4c/5x5"
  param {
    lr_mult: 1
    decay_mult: 1
  }
  param {
    lr_mult: 2
    decay_mult: 0
  }
  convolution_param {
    num_output: 32
    pad: 2
    kernel_size: 5
    weight_filler {
      type: "xavier"
      std: 0.03
    }
    bias_filler {
      type: "constant"
      value: 0.2
    }
  }
}
layer {
  name: "inception_4c/relu_5x5"
  type: "ReLU"
  bottom: "inception_4c/5x5"
  top: "inception_4c/5x5"
}
layer {
  name: "inception_4c/pool"
  type: "Pooling"
  bottom: "inception_4b/output"
  top: "inception_4c/pool"
  pooling_param {
    pool: MAX
    kernel_size: 3
    stride: 1
    pad: 1
  }
}
layer {
  name: "inception_4c/pool_proj"
  type: "Convolution"
  bottom: "inception_4c/pool"
  top: "inception_4c/pool_proj"
  param {
    lr_mult: 1
    decay_mult: 1
  }
  param {
    lr_mult: 2
    decay_mult: 0
  }
  convolution_param {
    num_output: 32
    kernel_size: 1
    weight_filler {
      type: "xavier"
      std: 0.1
    }
    bias_filler {
      type: "constant"
      value: 0.2
    }
  }
}
layer {
  name: "inception_4c/relu_pool_proj"
  type: "ReLU"
  bottom: "inception_4c/pool_proj"
  top: "inception_4c/pool_proj"
}
layer {
  name: "inception_4c/output"
  type: "Concat"
  bottom: "inception_4c/1x1"
  bottom: "inception_4c/3x3"
  bottom: "inception_4c/5x5"
  bottom: "inception_4c/pool_proj"
  top: "inception_4c/output"
}
layer {
  name: "inception_4d/1x1"
  type: "Convolution"
  bottom: "inception_4c/output"
  top: "inception_4d/1x1"
  param {
    lr_mult: 1
    decay_mult: 1
  }
  param {
    lr_mult: 2
    decay_mult: 0
  }
  convolution_param {
    num_output: 56
    kernel_size: 1
    weight_filler {
      type: "xavier"
      std: 0.03
    }
    bias_filler {
      type: "constant"
      value: 0.2
    }
  }
}
layer {
  name: "inception_4d/relu_1x1"
  type: "ReLU"
  bottom: "inception_4d/1x1"
  top: "inception_4d/1x1"
}
layer {
  name: "inception_4d/3x3_reduce"
  type: "Convolution"
  bottom: "inception_4c/output"
  top: "inception_4d/3x3_reduce"
  param {
    lr_mult: 1
    decay_mult: 1
  }
  param {
    lr_mult: 2
    decay_mult: 0
  }
  convolution_param {
    num_output: 72
    kernel_size: 1
    weight_filler {
      type: "xavier"
      std: 0.09
    }
    bias_filler {
      type: "constant"
      value: 0.2
    }
  }
}
layer {
  name: "inception_4d/relu_3x3_reduce"
  type: "ReLU"
  bottom: "inception_4d/3x3_reduce"
  top: "inception_4d/3x3_reduce"
}
layer {
  name: "inception_4d/3x3"
  type: "Convolution"
  bottom: "inception_4d/3x3_reduce"
  top: "inception_4d/3x3"
  param {
    lr_mult: 1
    decay_mult: 1
  }
  param {
    lr_mult: 2
    decay_mult: 0
  }
  convolution_param {
    num_output: 144
    pad: 1
    kernel_size: 3
    weight_filler {
      type: "xavier"
      std: 0.03
    }
    bias_filler {
      type: "constant"
      value: 0.2
    }
  }
}
layer {
  name: "inception_4d/relu_3x3"
  type: "ReLU"
  bottom: "inception_4d/3x3"
  top: "inception_4d/3x3"
}
layer {
  name: "inception_4d/5x5_reduce"
  type: "Convolution"
  bottom: "inception_4c/output"
  top: "inception_4d/5x5_reduce"
  param {
    lr_mult: 1
    decay_mult: 1
  }
  param {
    lr_mult: 2
    decay_mult: 0
  }
  convolution_param {
    num_output: 16
    kernel_size: 1
    weight_filler {
      type: "xavier"
      std: 0.2
    }
    bias_filler {
      type: "constant"
      value: 0.2
    }
  }
}
layer {
  name: "inception_4d/relu_5x5_reduce"
  type: "ReLU"
  bottom: "inception_4d/5x5_reduce"
  top: "inception_4d/5x5_reduce"
}
layer {
  name: "inception_4d/5x5"
  type: "Convolution"
  bottom: "inception_4d/5x5_reduce"
  top: "inception_4d/5x5"
  param {
    lr_mult: 1
    decay_mult: 1
  }
  param {
    lr_mult: 2
    decay_mult: 0
  }
  convolution_param {
    num_output: 32
    pad: 2
    kernel_size: 5
    weight_filler {
      type: "xavier"
      std: 0.03
    }
    bias_filler {
      type: "constant"
      value: 0.2
    }
  }
}
layer {
  name: "inception_4d/relu_5x5"
  type: "ReLU"
  bottom: "inception_4d/5x5"
  top: "inception_4d/5x5"
}
layer {
  name: "inception_4d/pool"
  type: "Pooling"
  bottom: "inception_4c/output"
  top: "inception_4d/pool"
  pooling_param {
    pool: MAX
    kernel_size: 3
    stride: 1
    pad: 1
  }
}
layer {
  name: "inception_4d/pool_proj"
  type: "Convolution"
  bottom: "inception_4d/pool"
  top: "inception_4d/pool_proj"
  param {
    lr_mult: 1
    decay_mult: 1
  }
  param {
    lr_mult: 2
    decay_mult: 0
  }
  convolution_param {
    num_output: 32
    kernel_size: 1
    weight_filler {
      type: "xavier"
      std: 0.1
    }
    bias_filler {
      type: "constant"
      value: 0.2
    }
  }
}
layer {
  name: "inception_4d/relu_pool_proj"
  type: "ReLU"
  bottom: "inception_4d/pool_proj"
  top: "inception_4d/pool_proj"
}
layer {
  name: "inception_4d/output"
  type: "Concat"
  bottom: "inception_4d/1x1"
  bottom: "inception_4d/3x3"
  bottom: "inception_4d/5x5"
  bottom: "inception_4d/pool_proj"
  top: "inception_4d/output"
}
layer {
  name: "inception_4e/1x1"
  type: "Convolution"
  bottom: "inception_4d/output"
  top: "inception_4e/1x1"
  param {
    lr_mult: 1
    decay_mult: 1
  }
  param {
    lr_mult: 2
    decay_mult: 0
  }
  convolution_param {
    num_output: 128
    kernel_size: 1
    weight_filler {
      type: "xavier"
      std: 0.03
    }
    bias_filler {
      type: "constant"
      value: 0.2
    }
  }
}
layer {
  name: "inception_4e/relu_1x1"
  type: "ReLU"
  bottom: "inception_4e/1x1"
  top: "inception_4e/1x1"
}
layer {
  name: "inception_4e/3x3_reduce"
  type: "Convolution"
  bottom: "inception_4d/output"
  top: "inception_4e/3x3_reduce"
  param {
    lr_mult: 1
    decay_mult: 1
  }
  param {
    lr_mult: 2
    decay_mult: 0
  }
  convolution_param {
    num_output: 80
    kernel_size: 1
    weight_filler {
      type: "xavier"
      std: 0.09
    }
    bias_filler {
      type: "constant"
      value: 0.2
    }
  }
}
layer {
  name: "inception_4e/relu_3x3_reduce"
  type: "ReLU"
  bottom: "inception_4e/3x3_reduce"
  top: "inception_4e/3x3_reduce"
}
layer {
  name: "inception_4e/3x3"
  type: "Convolution"
  bottom: "inception_4e/3x3_reduce"
  top: "inception_4e/3x3"
  param {
    lr_mult: 1
    decay_mult: 1
  }
  param {
    lr_mult: 2
    decay_mult: 0
  }
  convolution_param {
    num_output: 160
    pad: 1
    kernel_size: 3
    weight_filler {
      type: "xavier"
      std: 0.03
    }
    bias_filler {
      type: "constant"
      value: 0.2
    }
  }
}
layer {
  name: "inception_4e/relu_3x3"
  type: "ReLU"
  bottom: "inception_4e/3x3"
  top: "inception_4e/3x3"
}
layer {
  name: "inception_4e/5x5_reduce"
  type: "Convolution"
  bottom: "inception_4d/output"
  top: "inception_4e/5x5_reduce"
  param {
    lr_mult: 1
    decay_mult: 1
  }
  param {
    lr_mult: 2
    decay_mult: 0
  }
  convolution_param {
    num_output: 16
    kernel_size: 1
    weight_filler {
      type: "xavier"
      std: 0.2
    }
    bias_filler {
      type: "constant"
      value: 0.2
    }
  }
}
layer {
  name: "inception_4e/relu_5x5_reduce"
  type: "ReLU"
  bottom: "inception_4e/5x5_reduce"
  top: "inception_4e/5x5_reduce"
}
layer {
  name: "inception_4e/5x5"
  type: "Convolution"
  bottom: "inception_4e/5x5_reduce"
  top: "inception_4e/5x5"
  param {
    lr_mult: 1
    decay_mult: 1
  }
  param {
    lr_mult: 2
    decay_mult: 0
  }
  convolution_param {
    num_output: 64
    pad: 2
    kernel_size: 5
    weight_filler {
      type: "xavier"
      std: 0.03
    }
    bias_filler {
      type: "constant"
      value: 0.2
    }
  }
}
layer {
  name: "inception_4e/relu_5x5"
  type: "ReLU"
  bottom: "inception_4e/5x5"
  top: "inception_4e/5x5"
}
layer {
  name: "inception_4e/pool"
  type: "Pooling"
  bottom: "inception_4d/output"
  top: "inception_4e/pool"
  pooling_param {
    pool: MAX
    kernel_size: 3
    stride: 1
    pad: 1
  }
}
layer {
  name: "inception_4e/pool_proj"
  type: "Convolution"
  bottom: "inception_4e/pool"
  top: "inception_4e/pool_proj"
  param {
    lr_mult: 1
    decay_mult: 1
  }
  param {
    lr_mult: 2
    decay_mult: 0
  }
  convolution_param {
    num_output: 64
    kernel_size: 1
    weight_filler {
      type: "xavier"
      std: 0.1
    }
    bias_filler {
      type: "constant"
      value: 0.2
    }
  }
}
layer {
  name: "inception_4e/relu_pool_proj"
  type: "ReLU"
  bottom: "inception_4e/pool_proj"
  top: "inception_4e/pool_proj"
}
layer {
  name: "inception_4e/output"
  type: "Concat"
  bottom: "inception_4e/1x1"
  bottom: "inception_4e/3x3"
  bottom: "inception_4e/5x5"
  bottom: "inception_4e/pool_proj"
  top: "inception_4e/output"
}
layer {
  name: "conv_16"
  type: "Convolution"
  bottom: "inception_4e/output"
  top: "conv_16"
  param {
    lr_mult: 1
    decay_mult: 1
  }
  param {
    lr_mult: 2
    decay_mult: 0
  }
  convolution_param {
    num_output: 128
    kernel_size: 1
    weight_filler {
      type: "gaussian"
      std: 0.01
    }
    bias_filler {
      type: "constant"
      value: 0
    }
  }
}
layer {
  name: "relu_16"
  type: "ReLU"
  bottom: "conv_16"
  top: "conv_16"
}
layer {
  name: "conv_face_predict"
  type: "Convolution"
  bottom: "conv_16"
  top: "conv_face_predict"
  param {
    lr_mult: 1
    decay_mult: 1
  }
  param {
    lr_mult: 2
    decay_mult: 0
  }
  convolution_param {
    num_output: 20
    kernel_size: 1
    weight_filler {
      type: "gaussian"
      std: 0.01
    }
    bias_filler {
      type: "constant"
      value: 0
    }
  }
}
layer {
  name: "pool5/7x7_s1"
  type: "Pooling"
  bottom: "conv_face_predict"
  top: "pool5/7x7_s1"
  pooling_param {
    pool: AVE
    kernel_size: 4
    stride: 1
  }
}
layer {
  name: "pool5/drop_7x7_s1"
  type: "Dropout"
  bottom: "pool5/7x7_s1"
  top: "pool5/7x7_s1"
  dropout_param {
    dropout_ratio: 0.4
  }
}
layer {
  name: "loss3_my/predict"
  type: "InnerProduct"
  bottom: "pool5/7x7_s1"
  top: "loss3_my/predict"
  param {
    lr_mult: 1
    decay_mult: 1
  }
  param {
    lr_mult: 2
    decay_mult: 0
  }
  inner_product_param {
    num_output: 1
    weight_filler {
      type: "xavier"
    }
    bias_filler {
      type: "constant"
      value: 0
    }
  }
}
layer {
  name: "loss3_my/loss3_my"
  type: "Python"
  bottom: "loss3_my/predict"
  bottom: "label"
  top: "loss3_my/loss3_my"
  loss_weight: 1
  python_param {
    module: "robust_loss"
    layer: "RobustLossLayer"
  }
}
I0321 14:31:49.833297 15398 layer_factory.hpp:77] Creating layer data
I0321 14:31:50.841406 15398 net.cpp:86] Creating Layer data
I0321 14:31:50.841495 15398 net.cpp:382] data -> data
I0321 14:31:50.841578 15398 net.cpp:382] data -> label
I0321 14:31:51.194882 15398 net.cpp:124] Setting up data
I0321 14:31:51.194977 15398 net.cpp:131] Top shape: 128 3 224 224 (19267584)
I0321 14:31:51.194995 15398 net.cpp:131] Top shape: 128 1 (128)
I0321 14:31:51.195008 15398 net.cpp:139] Memory required for data: 77070848
I0321 14:31:51.195032 15398 layer_factory.hpp:77] Creating layer conv1/7x7_s2
I0321 14:31:51.195111 15398 net.cpp:86] Creating Layer conv1/7x7_s2
I0321 14:31:51.195132 15398 net.cpp:408] conv1/7x7_s2 <- data
I0321 14:31:51.195190 15398 net.cpp:382] conv1/7x7_s2 -> conv1/7x7_s2
I0321 14:31:51.197505 15398 net.cpp:124] Setting up conv1/7x7_s2
I0321 14:31:51.197535 15398 net.cpp:131] Top shape: 128 32 112 112 (51380224)
I0321 14:31:51.197548 15398 net.cpp:139] Memory required for data: 282591744
I0321 14:31:51.197592 15398 layer_factory.hpp:77] Creating layer conv1/relu_7x7
I0321 14:31:51.197621 15398 net.cpp:86] Creating Layer conv1/relu_7x7
I0321 14:31:51.197641 15398 net.cpp:408] conv1/relu_7x7 <- conv1/7x7_s2
I0321 14:31:51.197660 15398 net.cpp:369] conv1/relu_7x7 -> conv1/7x7_s2 (in-place)
I0321 14:31:51.197688 15398 net.cpp:124] Setting up conv1/relu_7x7
I0321 14:31:51.197720 15398 net.cpp:131] Top shape: 128 32 112 112 (51380224)
I0321 14:31:51.197732 15398 net.cpp:139] Memory required for data: 488112640
I0321 14:31:51.197746 15398 layer_factory.hpp:77] Creating layer pool1/3x3_s2
I0321 14:31:51.197779 15398 net.cpp:86] Creating Layer pool1/3x3_s2
I0321 14:31:51.197795 15398 net.cpp:408] pool1/3x3_s2 <- conv1/7x7_s2
I0321 14:31:51.197813 15398 net.cpp:382] pool1/3x3_s2 -> pool1/3x3_s2
I0321 14:31:51.197897 15398 net.cpp:124] Setting up pool1/3x3_s2
I0321 14:31:51.197919 15398 net.cpp:131] Top shape: 128 32 56 56 (12845056)
I0321 14:31:51.197932 15398 net.cpp:139] Memory required for data: 539492864
I0321 14:31:51.197944 15398 layer_factory.hpp:77] Creating layer pool1/norm1
I0321 14:31:51.197965 15398 net.cpp:86] Creating Layer pool1/norm1
I0321 14:31:51.198014 15398 net.cpp:408] pool1/norm1 <- pool1/3x3_s2
I0321 14:31:51.198046 15398 net.cpp:382] pool1/norm1 -> pool1/norm1
I0321 14:31:51.198122 15398 net.cpp:124] Setting up pool1/norm1
I0321 14:31:51.198145 15398 net.cpp:131] Top shape: 128 32 56 56 (12845056)
I0321 14:31:51.198158 15398 net.cpp:139] Memory required for data: 590873088
I0321 14:31:51.198170 15398 layer_factory.hpp:77] Creating layer conv2/3x3_reduce
I0321 14:31:51.198210 15398 net.cpp:86] Creating Layer conv2/3x3_reduce
I0321 14:31:51.198226 15398 net.cpp:408] conv2/3x3_reduce <- pool1/norm1
I0321 14:31:51.198246 15398 net.cpp:382] conv2/3x3_reduce -> conv2/3x3_reduce
I0321 14:31:51.201350 15398 net.cpp:124] Setting up conv2/3x3_reduce
I0321 14:31:51.201381 15398 net.cpp:131] Top shape: 128 32 56 56 (12845056)
I0321 14:31:51.201395 15398 net.cpp:139] Memory required for data: 642253312
I0321 14:31:51.201438 15398 layer_factory.hpp:77] Creating layer conv2/relu_3x3_reduce
I0321 14:31:51.201472 15398 net.cpp:86] Creating Layer conv2/relu_3x3_reduce
I0321 14:31:51.201488 15398 net.cpp:408] conv2/relu_3x3_reduce <- conv2/3x3_reduce
I0321 14:31:51.201508 15398 net.cpp:369] conv2/relu_3x3_reduce -> conv2/3x3_reduce (in-place)
I0321 14:31:51.201531 15398 net.cpp:124] Setting up conv2/relu_3x3_reduce
I0321 14:31:51.201550 15398 net.cpp:131] Top shape: 128 32 56 56 (12845056)
I0321 14:31:51.201565 15398 net.cpp:139] Memory required for data: 693633536
I0321 14:31:51.201576 15398 layer_factory.hpp:77] Creating layer conv2/3x3
I0321 14:31:51.201612 15398 net.cpp:86] Creating Layer conv2/3x3
I0321 14:31:51.201627 15398 net.cpp:408] conv2/3x3 <- conv2/3x3_reduce
I0321 14:31:51.201648 15398 net.cpp:382] conv2/3x3 -> conv2/3x3
I0321 14:31:51.203685 15398 net.cpp:124] Setting up conv2/3x3
I0321 14:31:51.203713 15398 net.cpp:131] Top shape: 128 96 56 56 (38535168)
I0321 14:31:51.203727 15398 net.cpp:139] Memory required for data: 847774208
I0321 14:31:51.203753 15398 layer_factory.hpp:77] Creating layer conv2/relu_3x3
I0321 14:31:51.203779 15398 net.cpp:86] Creating Layer conv2/relu_3x3
I0321 14:31:51.203796 15398 net.cpp:408] conv2/relu_3x3 <- conv2/3x3
I0321 14:31:51.203816 15398 net.cpp:369] conv2/relu_3x3 -> conv2/3x3 (in-place)
I0321 14:31:51.203838 15398 net.cpp:124] Setting up conv2/relu_3x3
I0321 14:31:51.203860 15398 net.cpp:131] Top shape: 128 96 56 56 (38535168)
I0321 14:31:51.203872 15398 net.cpp:139] Memory required for data: 1001914880
I0321 14:31:51.203884 15398 layer_factory.hpp:77] Creating layer conv2/norm2
I0321 14:31:51.203902 15398 net.cpp:86] Creating Layer conv2/norm2
I0321 14:31:51.203918 15398 net.cpp:408] conv2/norm2 <- conv2/3x3
I0321 14:31:51.203938 15398 net.cpp:382] conv2/norm2 -> conv2/norm2
I0321 14:31:51.204004 15398 net.cpp:124] Setting up conv2/norm2
I0321 14:31:51.204023 15398 net.cpp:131] Top shape: 128 96 56 56 (38535168)
I0321 14:31:51.204035 15398 net.cpp:139] Memory required for data: 1156055552
I0321 14:31:51.204048 15398 layer_factory.hpp:77] Creating layer pool2/3x3_s2
I0321 14:31:51.204066 15398 net.cpp:86] Creating Layer pool2/3x3_s2
I0321 14:31:51.204079 15398 net.cpp:408] pool2/3x3_s2 <- conv2/norm2
I0321 14:31:51.204110 15398 net.cpp:382] pool2/3x3_s2 -> pool2/3x3_s2
I0321 14:31:51.204180 15398 net.cpp:124] Setting up pool2/3x3_s2
I0321 14:31:51.204200 15398 net.cpp:131] Top shape: 128 96 28 28 (9633792)
I0321 14:31:51.204213 15398 net.cpp:139] Memory required for data: 1194590720
I0321 14:31:51.204226 15398 layer_factory.hpp:77] Creating layer pool2/3x3_s2_pool2/3x3_s2_0_split
I0321 14:31:51.204254 15398 net.cpp:86] Creating Layer pool2/3x3_s2_pool2/3x3_s2_0_split
I0321 14:31:51.204270 15398 net.cpp:408] pool2/3x3_s2_pool2/3x3_s2_0_split <- pool2/3x3_s2
I0321 14:31:51.204290 15398 net.cpp:382] pool2/3x3_s2_pool2/3x3_s2_0_split -> pool2/3x3_s2_pool2/3x3_s2_0_split_0
I0321 14:31:51.204314 15398 net.cpp:382] pool2/3x3_s2_pool2/3x3_s2_0_split -> pool2/3x3_s2_pool2/3x3_s2_0_split_1
I0321 14:31:51.204339 15398 net.cpp:382] pool2/3x3_s2_pool2/3x3_s2_0_split -> pool2/3x3_s2_pool2/3x3_s2_0_split_2
I0321 14:31:51.204362 15398 net.cpp:382] pool2/3x3_s2_pool2/3x3_s2_0_split -> pool2/3x3_s2_pool2/3x3_s2_0_split_3
I0321 14:31:51.204465 15398 net.cpp:124] Setting up pool2/3x3_s2_pool2/3x3_s2_0_split
I0321 14:31:51.204485 15398 net.cpp:131] Top shape: 128 96 28 28 (9633792)
I0321 14:31:51.204501 15398 net.cpp:131] Top shape: 128 96 28 28 (9633792)
I0321 14:31:51.204516 15398 net.cpp:131] Top shape: 128 96 28 28 (9633792)
I0321 14:31:51.204530 15398 net.cpp:131] Top shape: 128 96 28 28 (9633792)
I0321 14:31:51.204542 15398 net.cpp:139] Memory required for data: 1348731392
I0321 14:31:51.204555 15398 layer_factory.hpp:77] Creating layer inception_3a/1x1
I0321 14:31:51.204608 15398 net.cpp:86] Creating Layer inception_3a/1x1
I0321 14:31:51.204624 15398 net.cpp:408] inception_3a/1x1 <- pool2/3x3_s2_pool2/3x3_s2_0_split_0
I0321 14:31:51.204645 15398 net.cpp:382] inception_3a/1x1 -> inception_3a/1x1
I0321 14:31:51.204984 15398 net.cpp:124] Setting up inception_3a/1x1
I0321 14:31:51.205008 15398 net.cpp:131] Top shape: 128 32 28 28 (3211264)
I0321 14:31:51.205020 15398 net.cpp:139] Memory required for data: 1361576448
I0321 14:31:51.205054 15398 layer_factory.hpp:77] Creating layer inception_3a/relu_1x1
I0321 14:31:51.205073 15398 net.cpp:86] Creating Layer inception_3a/relu_1x1
I0321 14:31:51.205088 15398 net.cpp:408] inception_3a/relu_1x1 <- inception_3a/1x1
I0321 14:31:51.205106 15398 net.cpp:369] inception_3a/relu_1x1 -> inception_3a/1x1 (in-place)
I0321 14:31:51.205127 15398 net.cpp:124] Setting up inception_3a/relu_1x1
I0321 14:31:51.205147 15398 net.cpp:131] Top shape: 128 32 28 28 (3211264)
I0321 14:31:51.205159 15398 net.cpp:139] Memory required for data: 1374421504
I0321 14:31:51.205171 15398 layer_factory.hpp:77] Creating layer inception_3a/3x3_reduce
I0321 14:31:51.205209 15398 net.cpp:86] Creating Layer inception_3a/3x3_reduce
I0321 14:31:51.205226 15398 net.cpp:408] inception_3a/3x3_reduce <- pool2/3x3_s2_pool2/3x3_s2_0_split_1
I0321 14:31:51.205246 15398 net.cpp:382] inception_3a/3x3_reduce -> inception_3a/3x3_reduce
I0321 14:31:51.205718 15398 net.cpp:124] Setting up inception_3a/3x3_reduce
I0321 14:31:51.205740 15398 net.cpp:131] Top shape: 128 48 28 28 (4816896)
I0321 14:31:51.205754 15398 net.cpp:139] Memory required for data: 1393689088
I0321 14:31:51.205780 15398 layer_factory.hpp:77] Creating layer inception_3a/relu_3x3_reduce
I0321 14:31:51.205801 15398 net.cpp:86] Creating Layer inception_3a/relu_3x3_reduce
I0321 14:31:51.205817 15398 net.cpp:408] inception_3a/relu_3x3_reduce <- inception_3a/3x3_reduce
I0321 14:31:51.205834 15398 net.cpp:369] inception_3a/relu_3x3_reduce -> inception_3a/3x3_reduce (in-place)
I0321 14:31:51.205857 15398 net.cpp:124] Setting up inception_3a/relu_3x3_reduce
I0321 14:31:51.205876 15398 net.cpp:131] Top shape: 128 48 28 28 (4816896)
I0321 14:31:51.205894 15398 net.cpp:139] Memory required for data: 1412956672
I0321 14:31:51.205906 15398 layer_factory.hpp:77] Creating layer inception_3a/3x3
I0321 14:31:51.205952 15398 net.cpp:86] Creating Layer inception_3a/3x3
I0321 14:31:51.205967 15398 net.cpp:408] inception_3a/3x3 <- inception_3a/3x3_reduce
I0321 14:31:51.205988 15398 net.cpp:382] inception_3a/3x3 -> inception_3a/3x3
I0321 14:31:51.206490 15398 net.cpp:124] Setting up inception_3a/3x3
I0321 14:31:51.206512 15398 net.cpp:131] Top shape: 128 64 28 28 (6422528)
I0321 14:31:51.206524 15398 net.cpp:139] Memory required for data: 1438646784
I0321 14:31:51.206543 15398 layer_factory.hpp:77] Creating layer inception_3a/relu_3x3
I0321 14:31:51.206576 15398 net.cpp:86] Creating Layer inception_3a/relu_3x3
I0321 14:31:51.206593 15398 net.cpp:408] inception_3a/relu_3x3 <- inception_3a/3x3
I0321 14:31:51.206612 15398 net.cpp:369] inception_3a/relu_3x3 -> inception_3a/3x3 (in-place)
I0321 14:31:51.206634 15398 net.cpp:124] Setting up inception_3a/relu_3x3
I0321 14:31:51.206653 15398 net.cpp:131] Top shape: 128 64 28 28 (6422528)
I0321 14:31:51.206670 15398 net.cpp:139] Memory required for data: 1464336896
I0321 14:31:51.206681 15398 layer_factory.hpp:77] Creating layer inception_3a/5x5_reduce
I0321 14:31:51.206722 15398 net.cpp:86] Creating Layer inception_3a/5x5_reduce
I0321 14:31:51.206739 15398 net.cpp:408] inception_3a/5x5_reduce <- pool2/3x3_s2_pool2/3x3_s2_0_split_2
I0321 14:31:51.206759 15398 net.cpp:382] inception_3a/5x5_reduce -> inception_3a/5x5_reduce
I0321 14:31:51.207114 15398 net.cpp:124] Setting up inception_3a/5x5_reduce
I0321 14:31:51.207139 15398 net.cpp:131] Top shape: 128 8 28 28 (802816)
I0321 14:31:51.207151 15398 net.cpp:139] Memory required for data: 1467548160
I0321 14:31:51.207181 15398 layer_factory.hpp:77] Creating layer inception_3a/relu_5x5_reduce
I0321 14:31:51.207207 15398 net.cpp:86] Creating Layer inception_3a/relu_5x5_reduce
I0321 14:31:51.207224 15398 net.cpp:408] inception_3a/relu_5x5_reduce <- inception_3a/5x5_reduce
I0321 14:31:51.207242 15398 net.cpp:369] inception_3a/relu_5x5_reduce -> inception_3a/5x5_reduce (in-place)
I0321 14:31:51.207264 15398 net.cpp:124] Setting up inception_3a/relu_5x5_reduce
I0321 14:31:51.207284 15398 net.cpp:131] Top shape: 128 8 28 28 (802816)
I0321 14:31:51.207296 15398 net.cpp:139] Memory required for data: 1470759424
I0321 14:31:51.207309 15398 layer_factory.hpp:77] Creating layer inception_3a/5x5
I0321 14:31:51.207330 15398 net.cpp:86] Creating Layer inception_3a/5x5
I0321 14:31:51.207345 15398 net.cpp:408] inception_3a/5x5 <- inception_3a/5x5_reduce
I0321 14:31:51.207367 15398 net.cpp:382] inception_3a/5x5 -> inception_3a/5x5
I0321 14:31:51.207736 15398 net.cpp:124] Setting up inception_3a/5x5
I0321 14:31:51.207757 15398 net.cpp:131] Top shape: 128 16 28 28 (1605632)
I0321 14:31:51.207769 15398 net.cpp:139] Memory required for data: 1477181952
I0321 14:31:51.207788 15398 layer_factory.hpp:77] Creating layer inception_3a/relu_5x5
I0321 14:31:51.207806 15398 net.cpp:86] Creating Layer inception_3a/relu_5x5
I0321 14:31:51.207823 15398 net.cpp:408] inception_3a/relu_5x5 <- inception_3a/5x5
I0321 14:31:51.207840 15398 net.cpp:369] inception_3a/relu_5x5 -> inception_3a/5x5 (in-place)
I0321 14:31:51.207861 15398 net.cpp:124] Setting up inception_3a/relu_5x5
I0321 14:31:51.207880 15398 net.cpp:131] Top shape: 128 16 28 28 (1605632)
I0321 14:31:51.207892 15398 net.cpp:139] Memory required for data: 1483604480
I0321 14:31:51.207906 15398 layer_factory.hpp:77] Creating layer inception_3a/pool
I0321 14:31:51.207937 15398 net.cpp:86] Creating Layer inception_3a/pool
I0321 14:31:51.207952 15398 net.cpp:408] inception_3a/pool <- pool2/3x3_s2_pool2/3x3_s2_0_split_3
I0321 14:31:51.207981 15398 net.cpp:382] inception_3a/pool -> inception_3a/pool
I0321 14:31:51.208047 15398 net.cpp:124] Setting up inception_3a/pool
I0321 14:31:51.208067 15398 net.cpp:131] Top shape: 128 96 28 28 (9633792)
I0321 14:31:51.208081 15398 net.cpp:139] Memory required for data: 1522139648
I0321 14:31:51.208091 15398 layer_factory.hpp:77] Creating layer inception_3a/pool_proj
I0321 14:31:51.208125 15398 net.cpp:86] Creating Layer inception_3a/pool_proj
I0321 14:31:51.208140 15398 net.cpp:408] inception_3a/pool_proj <- inception_3a/pool
I0321 14:31:51.208161 15398 net.cpp:382] inception_3a/pool_proj -> inception_3a/pool_proj
I0321 14:31:51.208433 15398 net.cpp:124] Setting up inception_3a/pool_proj
I0321 14:31:51.208454 15398 net.cpp:131] Top shape: 128 16 28 28 (1605632)
I0321 14:31:51.208467 15398 net.cpp:139] Memory required for data: 1528562176
I0321 14:31:51.208492 15398 layer_factory.hpp:77] Creating layer inception_3a/relu_pool_proj
I0321 14:31:51.208513 15398 net.cpp:86] Creating Layer inception_3a/relu_pool_proj
I0321 14:31:51.208528 15398 net.cpp:408] inception_3a/relu_pool_proj <- inception_3a/pool_proj
I0321 14:31:51.208546 15398 net.cpp:369] inception_3a/relu_pool_proj -> inception_3a/pool_proj (in-place)
I0321 14:31:51.208569 15398 net.cpp:124] Setting up inception_3a/relu_pool_proj
I0321 14:31:51.208587 15398 net.cpp:131] Top shape: 128 16 28 28 (1605632)
I0321 14:31:51.208600 15398 net.cpp:139] Memory required for data: 1534984704
I0321 14:31:51.208611 15398 layer_factory.hpp:77] Creating layer inception_3a/output
I0321 14:31:51.208642 15398 net.cpp:86] Creating Layer inception_3a/output
I0321 14:31:51.208673 15398 net.cpp:408] inception_3a/output <- inception_3a/1x1
I0321 14:31:51.208689 15398 net.cpp:408] inception_3a/output <- inception_3a/3x3
I0321 14:31:51.208703 15398 net.cpp:408] inception_3a/output <- inception_3a/5x5
I0321 14:31:51.208722 15398 net.cpp:408] inception_3a/output <- inception_3a/pool_proj
I0321 14:31:51.208745 15398 net.cpp:382] inception_3a/output -> inception_3a/output
I0321 14:31:51.208794 15398 net.cpp:124] Setting up inception_3a/output
I0321 14:31:51.208814 15398 net.cpp:131] Top shape: 128 128 28 28 (12845056)
I0321 14:31:51.208827 15398 net.cpp:139] Memory required for data: 1586364928
I0321 14:31:51.208863 15398 layer_factory.hpp:77] Creating layer inception_3a/output_inception_3a/output_0_split
I0321 14:31:51.208884 15398 net.cpp:86] Creating Layer inception_3a/output_inception_3a/output_0_split
I0321 14:31:51.208900 15398 net.cpp:408] inception_3a/output_inception_3a/output_0_split <- inception_3a/output
I0321 14:31:51.208931 15398 net.cpp:382] inception_3a/output_inception_3a/output_0_split -> inception_3a/output_inception_3a/output_0_split_0
I0321 14:31:51.208953 15398 net.cpp:382] inception_3a/output_inception_3a/output_0_split -> inception_3a/output_inception_3a/output_0_split_1
I0321 14:31:51.208976 15398 net.cpp:382] inception_3a/output_inception_3a/output_0_split -> inception_3a/output_inception_3a/output_0_split_2
I0321 14:31:51.208999 15398 net.cpp:382] inception_3a/output_inception_3a/output_0_split -> inception_3a/output_inception_3a/output_0_split_3
I0321 14:31:51.209082 15398 net.cpp:124] Setting up inception_3a/output_inception_3a/output_0_split
I0321 14:31:51.209102 15398 net.cpp:131] Top shape: 128 128 28 28 (12845056)
I0321 14:31:51.209117 15398 net.cpp:131] Top shape: 128 128 28 28 (12845056)
I0321 14:31:51.209131 15398 net.cpp:131] Top shape: 128 128 28 28 (12845056)
I0321 14:31:51.209146 15398 net.cpp:131] Top shape: 128 128 28 28 (12845056)
I0321 14:31:51.209158 15398 net.cpp:139] Memory required for data: 1791885824
I0321 14:31:51.209172 15398 layer_factory.hpp:77] Creating layer inception_3b/1x1
I0321 14:31:51.209195 15398 net.cpp:86] Creating Layer inception_3b/1x1
I0321 14:31:51.209210 15398 net.cpp:408] inception_3b/1x1 <- inception_3a/output_inception_3a/output_0_split_0
I0321 14:31:51.209231 15398 net.cpp:382] inception_3b/1x1 -> inception_3b/1x1
I0321 14:31:51.209573 15398 net.cpp:124] Setting up inception_3b/1x1
I0321 14:31:51.209594 15398 net.cpp:131] Top shape: 128 64 28 28 (6422528)
I0321 14:31:51.209606 15398 net.cpp:139] Memory required for data: 1817575936
I0321 14:31:51.209626 15398 layer_factory.hpp:77] Creating layer inception_3b/relu_1x1
I0321 14:31:51.209643 15398 net.cpp:86] Creating Layer inception_3b/relu_1x1
I0321 14:31:51.209659 15398 net.cpp:408] inception_3b/relu_1x1 <- inception_3b/1x1
I0321 14:31:51.209676 15398 net.cpp:369] inception_3b/relu_1x1 -> inception_3b/1x1 (in-place)
I0321 14:31:51.209705 15398 net.cpp:124] Setting up inception_3b/relu_1x1
I0321 14:31:51.209723 15398 net.cpp:131] Top shape: 128 64 28 28 (6422528)
I0321 14:31:51.209733 15398 net.cpp:139] Memory required for data: 1843266048
I0321 14:31:51.209743 15398 layer_factory.hpp:77] Creating layer inception_3b/3x3_reduce
I0321 14:31:51.209776 15398 net.cpp:86] Creating Layer inception_3b/3x3_reduce
I0321 14:31:51.209794 15398 net.cpp:408] inception_3b/3x3_reduce <- inception_3a/output_inception_3a/output_0_split_1
I0321 14:31:51.209813 15398 net.cpp:382] inception_3b/3x3_reduce -> inception_3b/3x3_reduce
I0321 14:31:51.210206 15398 net.cpp:124] Setting up inception_3b/3x3_reduce
I0321 14:31:51.210228 15398 net.cpp:131] Top shape: 128 64 28 28 (6422528)
I0321 14:31:51.210242 15398 net.cpp:139] Memory required for data: 1868956160
I0321 14:31:51.210274 15398 layer_factory.hpp:77] Creating layer inception_3b/relu_3x3_reduce
I0321 14:31:51.210294 15398 net.cpp:86] Creating Layer inception_3b/relu_3x3_reduce
I0321 14:31:51.210309 15398 net.cpp:408] inception_3b/relu_3x3_reduce <- inception_3b/3x3_reduce
I0321 14:31:51.210326 15398 net.cpp:369] inception_3b/relu_3x3_reduce -> inception_3b/3x3_reduce (in-place)
I0321 14:31:51.210366 15398 net.cpp:124] Setting up inception_3b/relu_3x3_reduce
I0321 14:31:51.210386 15398 net.cpp:131] Top shape: 128 64 28 28 (6422528)
I0321 14:31:51.210399 15398 net.cpp:139] Memory required for data: 1894646272
I0321 14:31:51.210412 15398 layer_factory.hpp:77] Creating layer inception_3b/3x3
I0321 14:31:51.210435 15398 net.cpp:86] Creating Layer inception_3b/3x3
I0321 14:31:51.210450 15398 net.cpp:408] inception_3b/3x3 <- inception_3b/3x3_reduce
I0321 14:31:51.210471 15398 net.cpp:382] inception_3b/3x3 -> inception_3b/3x3
I0321 14:31:51.211235 15398 net.cpp:124] Setting up inception_3b/3x3
I0321 14:31:51.211256 15398 net.cpp:131] Top shape: 128 96 28 28 (9633792)
I0321 14:31:51.211268 15398 net.cpp:139] Memory required for data: 1933181440
I0321 14:31:51.211287 15398 layer_factory.hpp:77] Creating layer inception_3b/relu_3x3
I0321 14:31:51.211328 15398 net.cpp:86] Creating Layer inception_3b/relu_3x3
I0321 14:31:51.211345 15398 net.cpp:408] inception_3b/relu_3x3 <- inception_3b/3x3
I0321 14:31:51.211364 15398 net.cpp:369] inception_3b/relu_3x3 -> inception_3b/3x3 (in-place)
I0321 14:31:51.211382 15398 net.cpp:124] Setting up inception_3b/relu_3x3
I0321 14:31:51.211401 15398 net.cpp:131] Top shape: 128 96 28 28 (9633792)
I0321 14:31:51.211413 15398 net.cpp:139] Memory required for data: 1971716608
I0321 14:31:51.211438 15398 layer_factory.hpp:77] Creating layer inception_3b/5x5_reduce
I0321 14:31:51.211464 15398 net.cpp:86] Creating Layer inception_3b/5x5_reduce
I0321 14:31:51.211482 15398 net.cpp:408] inception_3b/5x5_reduce <- inception_3a/output_inception_3a/output_0_split_2
I0321 14:31:51.211501 15398 net.cpp:382] inception_3b/5x5_reduce -> inception_3b/5x5_reduce
I0321 14:31:51.211784 15398 net.cpp:124] Setting up inception_3b/5x5_reduce
I0321 14:31:51.211807 15398 net.cpp:131] Top shape: 128 16 28 28 (1605632)
I0321 14:31:51.211819 15398 net.cpp:139] Memory required for data: 1978139136
I0321 14:31:51.211838 15398 layer_factory.hpp:77] Creating layer inception_3b/relu_5x5_reduce
I0321 14:31:51.211856 15398 net.cpp:86] Creating Layer inception_3b/relu_5x5_reduce
I0321 14:31:51.211872 15398 net.cpp:408] inception_3b/relu_5x5_reduce <- inception_3b/5x5_reduce
I0321 14:31:51.211890 15398 net.cpp:369] inception_3b/relu_5x5_reduce -> inception_3b/5x5_reduce (in-place)
I0321 14:31:51.211911 15398 net.cpp:124] Setting up inception_3b/relu_5x5_reduce
I0321 14:31:51.211931 15398 net.cpp:131] Top shape: 128 16 28 28 (1605632)
I0321 14:31:51.211944 15398 net.cpp:139] Memory required for data: 1984561664
I0321 14:31:51.211956 15398 layer_factory.hpp:77] Creating layer inception_3b/5x5
I0321 14:31:51.211992 15398 net.cpp:86] Creating Layer inception_3b/5x5
I0321 14:31:51.212009 15398 net.cpp:408] inception_3b/5x5 <- inception_3b/5x5_reduce
I0321 14:31:51.212029 15398 net.cpp:382] inception_3b/5x5 -> inception_3b/5x5
I0321 14:31:51.212504 15398 net.cpp:124] Setting up inception_3b/5x5
I0321 14:31:51.212527 15398 net.cpp:131] Top shape: 128 48 28 28 (4816896)
I0321 14:31:51.212539 15398 net.cpp:139] Memory required for data: 2003829248
I0321 14:31:51.212558 15398 layer_factory.hpp:77] Creating layer inception_3b/relu_5x5
I0321 14:31:51.212575 15398 net.cpp:86] Creating Layer inception_3b/relu_5x5
I0321 14:31:51.212592 15398 net.cpp:408] inception_3b/relu_5x5 <- inception_3b/5x5
I0321 14:31:51.212610 15398 net.cpp:369] inception_3b/relu_5x5 -> inception_3b/5x5 (in-place)
I0321 14:31:51.212630 15398 net.cpp:124] Setting up inception_3b/relu_5x5
I0321 14:31:51.212651 15398 net.cpp:131] Top shape: 128 48 28 28 (4816896)
I0321 14:31:51.212663 15398 net.cpp:139] Memory required for data: 2023096832
I0321 14:31:51.212676 15398 layer_factory.hpp:77] Creating layer inception_3b/pool
I0321 14:31:51.212692 15398 net.cpp:86] Creating Layer inception_3b/pool
I0321 14:31:51.212708 15398 net.cpp:408] inception_3b/pool <- inception_3a/output_inception_3a/output_0_split_3
I0321 14:31:51.212728 15398 net.cpp:382] inception_3b/pool -> inception_3b/pool
I0321 14:31:51.212813 15398 net.cpp:124] Setting up inception_3b/pool
I0321 14:31:51.212834 15398 net.cpp:131] Top shape: 128 128 28 28 (12845056)
I0321 14:31:51.212847 15398 net.cpp:139] Memory required for data: 2074477056
I0321 14:31:51.212859 15398 layer_factory.hpp:77] Creating layer inception_3b/pool_proj
I0321 14:31:51.212898 15398 net.cpp:86] Creating Layer inception_3b/pool_proj
I0321 14:31:51.212914 15398 net.cpp:408] inception_3b/pool_proj <- inception_3b/pool
I0321 14:31:51.212934 15398 net.cpp:382] inception_3b/pool_proj -> inception_3b/pool_proj
I0321 14:31:51.213238 15398 net.cpp:124] Setting up inception_3b/pool_proj
I0321 14:31:51.213260 15398 net.cpp:131] Top shape: 128 32 28 28 (3211264)
I0321 14:31:51.213273 15398 net.cpp:139] Memory required for data: 2087322112
I0321 14:31:51.213304 15398 layer_factory.hpp:77] Creating layer inception_3b/relu_pool_proj
I0321 14:31:51.213323 15398 net.cpp:86] Creating Layer inception_3b/relu_pool_proj
I0321 14:31:51.213337 15398 net.cpp:408] inception_3b/relu_pool_proj <- inception_3b/pool_proj
I0321 14:31:51.213354 15398 net.cpp:369] inception_3b/relu_pool_proj -> inception_3b/pool_proj (in-place)
I0321 14:31:51.213376 15398 net.cpp:124] Setting up inception_3b/relu_pool_proj
I0321 14:31:51.213397 15398 net.cpp:131] Top shape: 128 32 28 28 (3211264)
I0321 14:31:51.213409 15398 net.cpp:139] Memory required for data: 2100167168
I0321 14:31:51.213421 15398 layer_factory.hpp:77] Creating layer inception_3b/output
I0321 14:31:51.213436 15398 net.cpp:86] Creating Layer inception_3b/output
I0321 14:31:51.213449 15398 net.cpp:408] inception_3b/output <- inception_3b/1x1
I0321 14:31:51.213464 15398 net.cpp:408] inception_3b/output <- inception_3b/3x3
I0321 14:31:51.213484 15398 net.cpp:408] inception_3b/output <- inception_3b/5x5
I0321 14:31:51.213498 15398 net.cpp:408] inception_3b/output <- inception_3b/pool_proj
I0321 14:31:51.213517 15398 net.cpp:382] inception_3b/output -> inception_3b/output
I0321 14:31:51.213577 15398 net.cpp:124] Setting up inception_3b/output
I0321 14:31:51.213603 15398 net.cpp:131] Top shape: 128 240 28 28 (24084480)
I0321 14:31:51.213618 15398 net.cpp:139] Memory required for data: 2196505088
I0321 14:31:51.213629 15398 layer_factory.hpp:77] Creating layer pool3/3x3_s2
I0321 14:31:51.213660 15398 net.cpp:86] Creating Layer pool3/3x3_s2
I0321 14:31:51.213678 15398 net.cpp:408] pool3/3x3_s2 <- inception_3b/output
I0321 14:31:51.213708 15398 net.cpp:382] pool3/3x3_s2 -> pool3/3x3_s2
I0321 14:31:51.213778 15398 net.cpp:124] Setting up pool3/3x3_s2
I0321 14:31:51.213799 15398 net.cpp:131] Top shape: 128 240 14 14 (6021120)
I0321 14:31:51.213811 15398 net.cpp:139] Memory required for data: 2220589568
I0321 14:31:51.213824 15398 layer_factory.hpp:77] Creating layer pool3/3x3_s2_pool3/3x3_s2_0_split
I0321 14:31:51.213840 15398 net.cpp:86] Creating Layer pool3/3x3_s2_pool3/3x3_s2_0_split
I0321 14:31:51.213853 15398 net.cpp:408] pool3/3x3_s2_pool3/3x3_s2_0_split <- pool3/3x3_s2
I0321 14:31:51.213871 15398 net.cpp:382] pool3/3x3_s2_pool3/3x3_s2_0_split -> pool3/3x3_s2_pool3/3x3_s2_0_split_0
I0321 14:31:51.213894 15398 net.cpp:382] pool3/3x3_s2_pool3/3x3_s2_0_split -> pool3/3x3_s2_pool3/3x3_s2_0_split_1
I0321 14:31:51.213918 15398 net.cpp:382] pool3/3x3_s2_pool3/3x3_s2_0_split -> pool3/3x3_s2_pool3/3x3_s2_0_split_2
I0321 14:31:51.213943 15398 net.cpp:382] pool3/3x3_s2_pool3/3x3_s2_0_split -> pool3/3x3_s2_pool3/3x3_s2_0_split_3
I0321 14:31:51.214058 15398 net.cpp:124] Setting up pool3/3x3_s2_pool3/3x3_s2_0_split
I0321 14:31:51.214085 15398 net.cpp:131] Top shape: 128 240 14 14 (6021120)
I0321 14:31:51.214102 15398 net.cpp:131] Top shape: 128 240 14 14 (6021120)
I0321 14:31:51.214118 15398 net.cpp:131] Top shape: 128 240 14 14 (6021120)
I0321 14:31:51.214134 15398 net.cpp:131] Top shape: 128 240 14 14 (6021120)
I0321 14:31:51.214146 15398 net.cpp:139] Memory required for data: 2316927488
I0321 14:31:51.214171 15398 layer_factory.hpp:77] Creating layer inception_4a/1x1
I0321 14:31:51.214198 15398 net.cpp:86] Creating Layer inception_4a/1x1
I0321 14:31:51.214215 15398 net.cpp:408] inception_4a/1x1 <- pool3/3x3_s2_pool3/3x3_s2_0_split_0
I0321 14:31:51.214256 15398 net.cpp:382] inception_4a/1x1 -> inception_4a/1x1
I0321 14:31:51.214788 15398 net.cpp:124] Setting up inception_4a/1x1
I0321 14:31:51.214810 15398 net.cpp:131] Top shape: 128 96 14 14 (2408448)
I0321 14:31:51.214824 15398 net.cpp:139] Memory required for data: 2326561280
I0321 14:31:51.214844 15398 layer_factory.hpp:77] Creating layer inception_4a/relu_1x1
I0321 14:31:51.214862 15398 net.cpp:86] Creating Layer inception_4a/relu_1x1
I0321 14:31:51.214879 15398 net.cpp:408] inception_4a/relu_1x1 <- inception_4a/1x1
I0321 14:31:51.214896 15398 net.cpp:369] inception_4a/relu_1x1 -> inception_4a/1x1 (in-place)
I0321 14:31:51.214918 15398 net.cpp:124] Setting up inception_4a/relu_1x1
I0321 14:31:51.214938 15398 net.cpp:131] Top shape: 128 96 14 14 (2408448)
I0321 14:31:51.214951 15398 net.cpp:139] Memory required for data: 2336195072
I0321 14:31:51.214962 15398 layer_factory.hpp:77] Creating layer inception_4a/3x3_reduce
I0321 14:31:51.215003 15398 net.cpp:86] Creating Layer inception_4a/3x3_reduce
I0321 14:31:51.215019 15398 net.cpp:408] inception_4a/3x3_reduce <- pool3/3x3_s2_pool3/3x3_s2_0_split_1
I0321 14:31:51.215040 15398 net.cpp:382] inception_4a/3x3_reduce -> inception_4a/3x3_reduce
I0321 14:31:51.215625 15398 net.cpp:124] Setting up inception_4a/3x3_reduce
I0321 14:31:51.215646 15398 net.cpp:131] Top shape: 128 48 14 14 (1204224)
I0321 14:31:51.215659 15398 net.cpp:139] Memory required for data: 2341011968
I0321 14:31:51.215688 15398 layer_factory.hpp:77] Creating layer inception_4a/relu_3x3_reduce
I0321 14:31:51.215720 15398 net.cpp:86] Creating Layer inception_4a/relu_3x3_reduce
I0321 14:31:51.215735 15398 net.cpp:408] inception_4a/relu_3x3_reduce <- inception_4a/3x3_reduce
I0321 14:31:51.215754 15398 net.cpp:369] inception_4a/relu_3x3_reduce -> inception_4a/3x3_reduce (in-place)
I0321 14:31:51.215775 15398 net.cpp:124] Setting up inception_4a/relu_3x3_reduce
I0321 14:31:51.215795 15398 net.cpp:131] Top shape: 128 48 14 14 (1204224)
I0321 14:31:51.215807 15398 net.cpp:139] Memory required for data: 2345828864
I0321 14:31:51.215818 15398 layer_factory.hpp:77] Creating layer inception_4a/3x3
I0321 14:31:51.215842 15398 net.cpp:86] Creating Layer inception_4a/3x3
I0321 14:31:51.215857 15398 net.cpp:408] inception_4a/3x3 <- inception_4a/3x3_reduce
I0321 14:31:51.215878 15398 net.cpp:382] inception_4a/3x3 -> inception_4a/3x3
I0321 14:31:51.216781 15398 net.cpp:124] Setting up inception_4a/3x3
I0321 14:31:51.216804 15398 net.cpp:131] Top shape: 128 104 14 14 (2609152)
I0321 14:31:51.216816 15398 net.cpp:139] Memory required for data: 2356265472
I0321 14:31:51.216835 15398 layer_factory.hpp:77] Creating layer inception_4a/relu_3x3
I0321 14:31:51.216866 15398 net.cpp:86] Creating Layer inception_4a/relu_3x3
I0321 14:31:51.216884 15398 net.cpp:408] inception_4a/relu_3x3 <- inception_4a/3x3
I0321 14:31:51.216902 15398 net.cpp:369] inception_4a/relu_3x3 -> inception_4a/3x3 (in-place)
I0321 14:31:51.216924 15398 net.cpp:124] Setting up inception_4a/relu_3x3
I0321 14:31:51.216944 15398 net.cpp:131] Top shape: 128 104 14 14 (2609152)
I0321 14:31:51.216958 15398 net.cpp:139] Memory required for data: 2366702080
I0321 14:31:51.216969 15398 layer_factory.hpp:77] Creating layer inception_4a/5x5_reduce
I0321 14:31:51.216991 15398 net.cpp:86] Creating Layer inception_4a/5x5_reduce
I0321 14:31:51.217007 15398 net.cpp:408] inception_4a/5x5_reduce <- pool3/3x3_s2_pool3/3x3_s2_0_split_2
I0321 14:31:51.217028 15398 net.cpp:382] inception_4a/5x5_reduce -> inception_4a/5x5_reduce
I0321 14:31:51.217313 15398 net.cpp:124] Setting up inception_4a/5x5_reduce
I0321 14:31:51.217334 15398 net.cpp:131] Top shape: 128 8 14 14 (200704)
I0321 14:31:51.217346 15398 net.cpp:139] Memory required for data: 2367504896
I0321 14:31:51.217378 15398 layer_factory.hpp:77] Creating layer inception_4a/relu_5x5_reduce
I0321 14:31:51.217397 15398 net.cpp:86] Creating Layer inception_4a/relu_5x5_reduce
I0321 14:31:51.217411 15398 net.cpp:408] inception_4a/relu_5x5_reduce <- inception_4a/5x5_reduce
I0321 14:31:51.217447 15398 net.cpp:369] inception_4a/relu_5x5_reduce -> inception_4a/5x5_reduce (in-place)
I0321 14:31:51.217469 15398 net.cpp:124] Setting up inception_4a/relu_5x5_reduce
I0321 14:31:51.217488 15398 net.cpp:131] Top shape: 128 8 14 14 (200704)
I0321 14:31:51.217499 15398 net.cpp:139] Memory required for data: 2368307712
I0321 14:31:51.217511 15398 layer_factory.hpp:77] Creating layer inception_4a/5x5
I0321 14:31:51.217545 15398 net.cpp:86] Creating Layer inception_4a/5x5
I0321 14:31:51.217563 15398 net.cpp:408] inception_4a/5x5 <- inception_4a/5x5_reduce
I0321 14:31:51.217584 15398 net.cpp:382] inception_4a/5x5 -> inception_4a/5x5
I0321 14:31:51.217908 15398 net.cpp:124] Setting up inception_4a/5x5
I0321 14:31:51.217931 15398 net.cpp:131] Top shape: 128 24 14 14 (602112)
I0321 14:31:51.217943 15398 net.cpp:139] Memory required for data: 2370716160
I0321 14:31:51.217962 15398 layer_factory.hpp:77] Creating layer inception_4a/relu_5x5
I0321 14:31:51.217979 15398 net.cpp:86] Creating Layer inception_4a/relu_5x5
I0321 14:31:51.217996 15398 net.cpp:408] inception_4a/relu_5x5 <- inception_4a/5x5
I0321 14:31:51.218015 15398 net.cpp:369] inception_4a/relu_5x5 -> inception_4a/5x5 (in-place)
I0321 14:31:51.218036 15398 net.cpp:124] Setting up inception_4a/relu_5x5
I0321 14:31:51.218056 15398 net.cpp:131] Top shape: 128 24 14 14 (602112)
I0321 14:31:51.218068 15398 net.cpp:139] Memory required for data: 2373124608
I0321 14:31:51.218081 15398 layer_factory.hpp:77] Creating layer inception_4a/pool
I0321 14:31:51.218097 15398 net.cpp:86] Creating Layer inception_4a/pool
I0321 14:31:51.218116 15398 net.cpp:408] inception_4a/pool <- pool3/3x3_s2_pool3/3x3_s2_0_split_3
I0321 14:31:51.218133 15398 net.cpp:382] inception_4a/pool -> inception_4a/pool
I0321 14:31:51.218201 15398 net.cpp:124] Setting up inception_4a/pool
I0321 14:31:51.218221 15398 net.cpp:131] Top shape: 128 240 14 14 (6021120)
I0321 14:31:51.218235 15398 net.cpp:139] Memory required for data: 2397209088
I0321 14:31:51.218262 15398 layer_factory.hpp:77] Creating layer inception_4a/pool_proj
I0321 14:31:51.218297 15398 net.cpp:86] Creating Layer inception_4a/pool_proj
I0321 14:31:51.218314 15398 net.cpp:408] inception_4a/pool_proj <- inception_4a/pool
I0321 14:31:51.218336 15398 net.cpp:382] inception_4a/pool_proj -> inception_4a/pool_proj
I0321 14:31:51.218677 15398 net.cpp:124] Setting up inception_4a/pool_proj
I0321 14:31:51.218698 15398 net.cpp:131] Top shape: 128 32 14 14 (802816)
I0321 14:31:51.218710 15398 net.cpp:139] Memory required for data: 2400420352
I0321 14:31:51.218730 15398 layer_factory.hpp:77] Creating layer inception_4a/relu_pool_proj
I0321 14:31:51.218746 15398 net.cpp:86] Creating Layer inception_4a/relu_pool_proj
I0321 14:31:51.218762 15398 net.cpp:408] inception_4a/relu_pool_proj <- inception_4a/pool_proj
I0321 14:31:51.218780 15398 net.cpp:369] inception_4a/relu_pool_proj -> inception_4a/pool_proj (in-place)
I0321 14:31:51.218803 15398 net.cpp:124] Setting up inception_4a/relu_pool_proj
I0321 14:31:51.218822 15398 net.cpp:131] Top shape: 128 32 14 14 (802816)
I0321 14:31:51.218834 15398 net.cpp:139] Memory required for data: 2403631616
I0321 14:31:51.218847 15398 layer_factory.hpp:77] Creating layer inception_4a/output
I0321 14:31:51.218861 15398 net.cpp:86] Creating Layer inception_4a/output
I0321 14:31:51.218879 15398 net.cpp:408] inception_4a/output <- inception_4a/1x1
I0321 14:31:51.218895 15398 net.cpp:408] inception_4a/output <- inception_4a/3x3
I0321 14:31:51.218910 15398 net.cpp:408] inception_4a/output <- inception_4a/5x5
I0321 14:31:51.218927 15398 net.cpp:408] inception_4a/output <- inception_4a/pool_proj
I0321 14:31:51.218946 15398 net.cpp:382] inception_4a/output -> inception_4a/output
I0321 14:31:51.218999 15398 net.cpp:124] Setting up inception_4a/output
I0321 14:31:51.219019 15398 net.cpp:131] Top shape: 128 256 14 14 (6422528)
I0321 14:31:51.219032 15398 net.cpp:139] Memory required for data: 2429321728
I0321 14:31:51.219043 15398 layer_factory.hpp:77] Creating layer inception_4a/output_inception_4a/output_0_split
I0321 14:31:51.219080 15398 net.cpp:86] Creating Layer inception_4a/output_inception_4a/output_0_split
I0321 14:31:51.219096 15398 net.cpp:408] inception_4a/output_inception_4a/output_0_split <- inception_4a/output
I0321 14:31:51.219116 15398 net.cpp:382] inception_4a/output_inception_4a/output_0_split -> inception_4a/output_inception_4a/output_0_split_0
I0321 14:31:51.219141 15398 net.cpp:382] inception_4a/output_inception_4a/output_0_split -> inception_4a/output_inception_4a/output_0_split_1
I0321 14:31:51.219166 15398 net.cpp:382] inception_4a/output_inception_4a/output_0_split -> inception_4a/output_inception_4a/output_0_split_2
I0321 14:31:51.219190 15398 net.cpp:382] inception_4a/output_inception_4a/output_0_split -> inception_4a/output_inception_4a/output_0_split_3
I0321 14:31:51.219276 15398 net.cpp:124] Setting up inception_4a/output_inception_4a/output_0_split
I0321 14:31:51.219296 15398 net.cpp:131] Top shape: 128 256 14 14 (6422528)
I0321 14:31:51.219312 15398 net.cpp:131] Top shape: 128 256 14 14 (6422528)
I0321 14:31:51.219327 15398 net.cpp:131] Top shape: 128 256 14 14 (6422528)
I0321 14:31:51.219341 15398 net.cpp:131] Top shape: 128 256 14 14 (6422528)
I0321 14:31:51.219353 15398 net.cpp:139] Memory required for data: 2532082176
I0321 14:31:51.219378 15398 layer_factory.hpp:77] Creating layer inception_4b/1x1
I0321 14:31:51.219410 15398 net.cpp:86] Creating Layer inception_4b/1x1
I0321 14:31:51.219429 15398 net.cpp:408] inception_4b/1x1 <- inception_4a/output_inception_4a/output_0_split_0
I0321 14:31:51.219449 15398 net.cpp:382] inception_4b/1x1 -> inception_4b/1x1
I0321 14:31:51.219903 15398 net.cpp:124] Setting up inception_4b/1x1
I0321 14:31:51.219925 15398 net.cpp:131] Top shape: 128 80 14 14 (2007040)
I0321 14:31:51.219938 15398 net.cpp:139] Memory required for data: 2540110336
I0321 14:31:51.219956 15398 layer_factory.hpp:77] Creating layer inception_4b/relu_1x1
I0321 14:31:51.219974 15398 net.cpp:86] Creating Layer inception_4b/relu_1x1
I0321 14:31:51.219990 15398 net.cpp:408] inception_4b/relu_1x1 <- inception_4b/1x1
I0321 14:31:51.220007 15398 net.cpp:369] inception_4b/relu_1x1 -> inception_4b/1x1 (in-place)
I0321 14:31:51.220029 15398 net.cpp:124] Setting up inception_4b/relu_1x1
I0321 14:31:51.220047 15398 net.cpp:131] Top shape: 128 80 14 14 (2007040)
I0321 14:31:51.220059 15398 net.cpp:139] Memory required for data: 2548138496
I0321 14:31:51.220072 15398 layer_factory.hpp:77] Creating layer inception_4b/3x3_reduce
I0321 14:31:51.220093 15398 net.cpp:86] Creating Layer inception_4b/3x3_reduce
I0321 14:31:51.220109 15398 net.cpp:408] inception_4b/3x3_reduce <- inception_4a/output_inception_4a/output_0_split_1
I0321 14:31:51.220129 15398 net.cpp:382] inception_4b/3x3_reduce -> inception_4b/3x3_reduce
I0321 14:31:51.220630 15398 net.cpp:124] Setting up inception_4b/3x3_reduce
I0321 14:31:51.220652 15398 net.cpp:131] Top shape: 128 56 14 14 (1404928)
I0321 14:31:51.220664 15398 net.cpp:139] Memory required for data: 2553758208
I0321 14:31:51.220700 15398 layer_factory.hpp:77] Creating layer inception_4b/relu_3x3_reduce
I0321 14:31:51.220726 15398 net.cpp:86] Creating Layer inception_4b/relu_3x3_reduce
I0321 14:31:51.220741 15398 net.cpp:408] inception_4b/relu_3x3_reduce <- inception_4b/3x3_reduce
I0321 14:31:51.220758 15398 net.cpp:369] inception_4b/relu_3x3_reduce -> inception_4b/3x3_reduce (in-place)
I0321 14:31:51.220780 15398 net.cpp:124] Setting up inception_4b/relu_3x3_reduce
I0321 14:31:51.220800 15398 net.cpp:131] Top shape: 128 56 14 14 (1404928)
I0321 14:31:51.220813 15398 net.cpp:139] Memory required for data: 2559377920
I0321 14:31:51.220824 15398 layer_factory.hpp:77] Creating layer inception_4b/3x3
I0321 14:31:51.220846 15398 net.cpp:86] Creating Layer inception_4b/3x3
I0321 14:31:51.220862 15398 net.cpp:408] inception_4b/3x3 <- inception_4b/3x3_reduce
I0321 14:31:51.220882 15398 net.cpp:382] inception_4b/3x3 -> inception_4b/3x3
I0321 14:31:51.221671 15398 net.cpp:124] Setting up inception_4b/3x3
I0321 14:31:51.221693 15398 net.cpp:131] Top shape: 128 112 14 14 (2809856)
I0321 14:31:51.221735 15398 net.cpp:139] Memory required for data: 2570617344
I0321 14:31:51.221757 15398 layer_factory.hpp:77] Creating layer inception_4b/relu_3x3
I0321 14:31:51.221774 15398 net.cpp:86] Creating Layer inception_4b/relu_3x3
I0321 14:31:51.221789 15398 net.cpp:408] inception_4b/relu_3x3 <- inception_4b/3x3
I0321 14:31:51.221806 15398 net.cpp:369] inception_4b/relu_3x3 -> inception_4b/3x3 (in-place)
I0321 14:31:51.221824 15398 net.cpp:124] Setting up inception_4b/relu_3x3
I0321 14:31:51.221843 15398 net.cpp:131] Top shape: 128 112 14 14 (2809856)
I0321 14:31:51.221855 15398 net.cpp:139] Memory required for data: 2581856768
I0321 14:31:51.221868 15398 layer_factory.hpp:77] Creating layer inception_4b/5x5_reduce
I0321 14:31:51.221917 15398 net.cpp:86] Creating Layer inception_4b/5x5_reduce
I0321 14:31:51.221932 15398 net.cpp:408] inception_4b/5x5_reduce <- inception_4a/output_inception_4a/output_0_split_2
I0321 14:31:51.221953 15398 net.cpp:382] inception_4b/5x5_reduce -> inception_4b/5x5_reduce
I0321 14:31:51.222272 15398 net.cpp:124] Setting up inception_4b/5x5_reduce
I0321 14:31:51.222295 15398 net.cpp:131] Top shape: 128 12 14 14 (301056)
I0321 14:31:51.222307 15398 net.cpp:139] Memory required for data: 2583060992
I0321 14:31:51.222339 15398 layer_factory.hpp:77] Creating layer inception_4b/relu_5x5_reduce
I0321 14:31:51.222359 15398 net.cpp:86] Creating Layer inception_4b/relu_5x5_reduce
I0321 14:31:51.222374 15398 net.cpp:408] inception_4b/relu_5x5_reduce <- inception_4b/5x5_reduce
I0321 14:31:51.222391 15398 net.cpp:369] inception_4b/relu_5x5_reduce -> inception_4b/5x5_reduce (in-place)
I0321 14:31:51.222414 15398 net.cpp:124] Setting up inception_4b/relu_5x5_reduce
I0321 14:31:51.222434 15398 net.cpp:131] Top shape: 128 12 14 14 (301056)
I0321 14:31:51.222445 15398 net.cpp:139] Memory required for data: 2584265216
I0321 14:31:51.222457 15398 layer_factory.hpp:77] Creating layer inception_4b/5x5
I0321 14:31:51.222479 15398 net.cpp:86] Creating Layer inception_4b/5x5
I0321 14:31:51.222496 15398 net.cpp:408] inception_4b/5x5 <- inception_4b/5x5_reduce
I0321 14:31:51.222515 15398 net.cpp:382] inception_4b/5x5 -> inception_4b/5x5
I0321 14:31:51.222898 15398 net.cpp:124] Setting up inception_4b/5x5
I0321 14:31:51.222920 15398 net.cpp:131] Top shape: 128 32 14 14 (802816)
I0321 14:31:51.222934 15398 net.cpp:139] Memory required for data: 2587476480
I0321 14:31:51.222952 15398 layer_factory.hpp:77] Creating layer inception_4b/relu_5x5
I0321 14:31:51.222970 15398 net.cpp:86] Creating Layer inception_4b/relu_5x5
I0321 14:31:51.222986 15398 net.cpp:408] inception_4b/relu_5x5 <- inception_4b/5x5
I0321 14:31:51.223004 15398 net.cpp:369] inception_4b/relu_5x5 -> inception_4b/5x5 (in-place)
I0321 14:31:51.223027 15398 net.cpp:124] Setting up inception_4b/relu_5x5
I0321 14:31:51.223047 15398 net.cpp:131] Top shape: 128 32 14 14 (802816)
I0321 14:31:51.223058 15398 net.cpp:139] Memory required for data: 2590687744
I0321 14:31:51.223069 15398 layer_factory.hpp:77] Creating layer inception_4b/pool
I0321 14:31:51.223101 15398 net.cpp:86] Creating Layer inception_4b/pool
I0321 14:31:51.223117 15398 net.cpp:408] inception_4b/pool <- inception_4a/output_inception_4a/output_0_split_3
I0321 14:31:51.223137 15398 net.cpp:382] inception_4b/pool -> inception_4b/pool
I0321 14:31:51.223204 15398 net.cpp:124] Setting up inception_4b/pool
I0321 14:31:51.223223 15398 net.cpp:131] Top shape: 128 256 14 14 (6422528)
I0321 14:31:51.223237 15398 net.cpp:139] Memory required for data: 2616377856
I0321 14:31:51.223258 15398 layer_factory.hpp:77] Creating layer inception_4b/pool_proj
I0321 14:31:51.223294 15398 net.cpp:86] Creating Layer inception_4b/pool_proj
I0321 14:31:51.223314 15398 net.cpp:408] inception_4b/pool_proj <- inception_4b/pool
I0321 14:31:51.223335 15398 net.cpp:382] inception_4b/pool_proj -> inception_4b/pool_proj
I0321 14:31:51.223675 15398 net.cpp:124] Setting up inception_4b/pool_proj
I0321 14:31:51.223697 15398 net.cpp:131] Top shape: 128 32 14 14 (802816)
I0321 14:31:51.223711 15398 net.cpp:139] Memory required for data: 2619589120
I0321 14:31:51.223749 15398 layer_factory.hpp:77] Creating layer inception_4b/relu_pool_proj
I0321 14:31:51.223772 15398 net.cpp:86] Creating Layer inception_4b/relu_pool_proj
I0321 14:31:51.223788 15398 net.cpp:408] inception_4b/relu_pool_proj <- inception_4b/pool_proj
I0321 14:31:51.223806 15398 net.cpp:369] inception_4b/relu_pool_proj -> inception_4b/pool_proj (in-place)
I0321 14:31:51.223829 15398 net.cpp:124] Setting up inception_4b/relu_pool_proj
I0321 14:31:51.223848 15398 net.cpp:131] Top shape: 128 32 14 14 (802816)
I0321 14:31:51.223861 15398 net.cpp:139] Memory required for data: 2622800384
I0321 14:31:51.223873 15398 layer_factory.hpp:77] Creating layer inception_4b/output
I0321 14:31:51.223888 15398 net.cpp:86] Creating Layer inception_4b/output
I0321 14:31:51.223901 15398 net.cpp:408] inception_4b/output <- inception_4b/1x1
I0321 14:31:51.223917 15398 net.cpp:408] inception_4b/output <- inception_4b/3x3
I0321 14:31:51.223934 15398 net.cpp:408] inception_4b/output <- inception_4b/5x5
I0321 14:31:51.223950 15398 net.cpp:408] inception_4b/output <- inception_4b/pool_proj
I0321 14:31:51.223970 15398 net.cpp:382] inception_4b/output -> inception_4b/output
I0321 14:31:51.224021 15398 net.cpp:124] Setting up inception_4b/output
I0321 14:31:51.224041 15398 net.cpp:131] Top shape: 128 256 14 14 (6422528)
I0321 14:31:51.224053 15398 net.cpp:139] Memory required for data: 2648490496
I0321 14:31:51.224066 15398 layer_factory.hpp:77] Creating layer inception_4b/output_inception_4b/output_0_split
I0321 14:31:51.224082 15398 net.cpp:86] Creating Layer inception_4b/output_inception_4b/output_0_split
I0321 14:31:51.224095 15398 net.cpp:408] inception_4b/output_inception_4b/output_0_split <- inception_4b/output
I0321 14:31:51.224113 15398 net.cpp:382] inception_4b/output_inception_4b/output_0_split -> inception_4b/output_inception_4b/output_0_split_0
I0321 14:31:51.224136 15398 net.cpp:382] inception_4b/output_inception_4b/output_0_split -> inception_4b/output_inception_4b/output_0_split_1
I0321 14:31:51.224161 15398 net.cpp:382] inception_4b/output_inception_4b/output_0_split -> inception_4b/output_inception_4b/output_0_split_2
I0321 14:31:51.224187 15398 net.cpp:382] inception_4b/output_inception_4b/output_0_split -> inception_4b/output_inception_4b/output_0_split_3
I0321 14:31:51.224277 15398 net.cpp:124] Setting up inception_4b/output_inception_4b/output_0_split
I0321 14:31:51.224297 15398 net.cpp:131] Top shape: 128 256 14 14 (6422528)
I0321 14:31:51.224313 15398 net.cpp:131] Top shape: 128 256 14 14 (6422528)
I0321 14:31:51.224326 15398 net.cpp:131] Top shape: 128 256 14 14 (6422528)
I0321 14:31:51.224341 15398 net.cpp:131] Top shape: 128 256 14 14 (6422528)
I0321 14:31:51.224356 15398 net.cpp:139] Memory required for data: 2751250944
I0321 14:31:51.224380 15398 layer_factory.hpp:77] Creating layer inception_4c/1x1
I0321 14:31:51.224417 15398 net.cpp:86] Creating Layer inception_4c/1x1
I0321 14:31:51.224433 15398 net.cpp:408] inception_4c/1x1 <- inception_4b/output_inception_4b/output_0_split_0
I0321 14:31:51.224454 15398 net.cpp:382] inception_4c/1x1 -> inception_4c/1x1
I0321 14:31:51.224872 15398 net.cpp:124] Setting up inception_4c/1x1
I0321 14:31:51.224895 15398 net.cpp:131] Top shape: 128 64 14 14 (1605632)
I0321 14:31:51.224906 15398 net.cpp:139] Memory required for data: 2757673472
I0321 14:31:51.224925 15398 layer_factory.hpp:77] Creating layer inception_4c/relu_1x1
I0321 14:31:51.224942 15398 net.cpp:86] Creating Layer inception_4c/relu_1x1
I0321 14:31:51.224957 15398 net.cpp:408] inception_4c/relu_1x1 <- inception_4c/1x1
I0321 14:31:51.224974 15398 net.cpp:369] inception_4c/relu_1x1 -> inception_4c/1x1 (in-place)
I0321 14:31:51.224997 15398 net.cpp:124] Setting up inception_4c/relu_1x1
I0321 14:31:51.225015 15398 net.cpp:131] Top shape: 128 64 14 14 (1605632)
I0321 14:31:51.225028 15398 net.cpp:139] Memory required for data: 2764096000
I0321 14:31:51.225040 15398 layer_factory.hpp:77] Creating layer inception_4c/3x3_reduce
I0321 14:31:51.225060 15398 net.cpp:86] Creating Layer inception_4c/3x3_reduce
I0321 14:31:51.225090 15398 net.cpp:408] inception_4c/3x3_reduce <- inception_4b/output_inception_4b/output_0_split_1
I0321 14:31:51.225114 15398 net.cpp:382] inception_4c/3x3_reduce -> inception_4c/3x3_reduce
I0321 14:31:51.225528 15398 net.cpp:124] Setting up inception_4c/3x3_reduce
I0321 14:31:51.225548 15398 net.cpp:131] Top shape: 128 64 14 14 (1605632)
I0321 14:31:51.225561 15398 net.cpp:139] Memory required for data: 2770518528
I0321 14:31:51.225592 15398 layer_factory.hpp:77] Creating layer inception_4c/relu_3x3_reduce
I0321 14:31:51.225623 15398 net.cpp:86] Creating Layer inception_4c/relu_3x3_reduce
I0321 14:31:51.225637 15398 net.cpp:408] inception_4c/relu_3x3_reduce <- inception_4c/3x3_reduce
I0321 14:31:51.225654 15398 net.cpp:369] inception_4c/relu_3x3_reduce -> inception_4c/3x3_reduce (in-place)
I0321 14:31:51.225677 15398 net.cpp:124] Setting up inception_4c/relu_3x3_reduce
I0321 14:31:51.225708 15398 net.cpp:131] Top shape: 128 64 14 14 (1605632)
I0321 14:31:51.225721 15398 net.cpp:139] Memory required for data: 2776941056
I0321 14:31:51.225734 15398 layer_factory.hpp:77] Creating layer inception_4c/3x3
I0321 14:31:51.225756 15398 net.cpp:86] Creating Layer inception_4c/3x3
I0321 14:31:51.225772 15398 net.cpp:408] inception_4c/3x3 <- inception_4c/3x3_reduce
I0321 14:31:51.225793 15398 net.cpp:382] inception_4c/3x3 -> inception_4c/3x3
I0321 14:31:51.227980 15398 net.cpp:124] Setting up inception_4c/3x3
I0321 14:31:51.228008 15398 net.cpp:131] Top shape: 128 128 14 14 (3211264)
I0321 14:31:51.228021 15398 net.cpp:139] Memory required for data: 2789786112
I0321 14:31:51.228042 15398 layer_factory.hpp:77] Creating layer inception_4c/relu_3x3
I0321 14:31:51.228060 15398 net.cpp:86] Creating Layer inception_4c/relu_3x3
I0321 14:31:51.228078 15398 net.cpp:408] inception_4c/relu_3x3 <- inception_4c/3x3
I0321 14:31:51.228097 15398 net.cpp:369] inception_4c/relu_3x3 -> inception_4c/3x3 (in-place)
I0321 14:31:51.228121 15398 net.cpp:124] Setting up inception_4c/relu_3x3
I0321 14:31:51.228142 15398 net.cpp:131] Top shape: 128 128 14 14 (3211264)
I0321 14:31:51.228154 15398 net.cpp:139] Memory required for data: 2802631168
I0321 14:31:51.228166 15398 layer_factory.hpp:77] Creating layer inception_4c/5x5_reduce
I0321 14:31:51.228207 15398 net.cpp:86] Creating Layer inception_4c/5x5_reduce
I0321 14:31:51.228225 15398 net.cpp:408] inception_4c/5x5_reduce <- inception_4b/output_inception_4b/output_0_split_2
I0321 14:31:51.228247 15398 net.cpp:382] inception_4c/5x5_reduce -> inception_4c/5x5_reduce
I0321 14:31:51.228546 15398 net.cpp:124] Setting up inception_4c/5x5_reduce
I0321 14:31:51.228570 15398 net.cpp:131] Top shape: 128 12 14 14 (301056)
I0321 14:31:51.228582 15398 net.cpp:139] Memory required for data: 2803835392
I0321 14:31:51.228615 15398 layer_factory.hpp:77] Creating layer inception_4c/relu_5x5_reduce
I0321 14:31:51.228633 15398 net.cpp:86] Creating Layer inception_4c/relu_5x5_reduce
I0321 14:31:51.228648 15398 net.cpp:408] inception_4c/relu_5x5_reduce <- inception_4c/5x5_reduce
I0321 14:31:51.228665 15398 net.cpp:369] inception_4c/relu_5x5_reduce -> inception_4c/5x5_reduce (in-place)
I0321 14:31:51.228688 15398 net.cpp:124] Setting up inception_4c/relu_5x5_reduce
I0321 14:31:51.228709 15398 net.cpp:131] Top shape: 128 12 14 14 (301056)
I0321 14:31:51.228723 15398 net.cpp:139] Memory required for data: 2805039616
I0321 14:31:51.228734 15398 layer_factory.hpp:77] Creating layer inception_4c/5x5
I0321 14:31:51.228756 15398 net.cpp:86] Creating Layer inception_4c/5x5
I0321 14:31:51.228772 15398 net.cpp:408] inception_4c/5x5 <- inception_4c/5x5_reduce
I0321 14:31:51.228792 15398 net.cpp:382] inception_4c/5x5 -> inception_4c/5x5
I0321 14:31:51.229147 15398 net.cpp:124] Setting up inception_4c/5x5
I0321 14:31:51.229169 15398 net.cpp:131] Top shape: 128 32 14 14 (802816)
I0321 14:31:51.229182 15398 net.cpp:139] Memory required for data: 2808250880
I0321 14:31:51.229202 15398 layer_factory.hpp:77] Creating layer inception_4c/relu_5x5
I0321 14:31:51.229238 15398 net.cpp:86] Creating Layer inception_4c/relu_5x5
I0321 14:31:51.229274 15398 net.cpp:408] inception_4c/relu_5x5 <- inception_4c/5x5
I0321 14:31:51.229295 15398 net.cpp:369] inception_4c/relu_5x5 -> inception_4c/5x5 (in-place)
I0321 14:31:51.229316 15398 net.cpp:124] Setting up inception_4c/relu_5x5
I0321 14:31:51.229336 15398 net.cpp:131] Top shape: 128 32 14 14 (802816)
I0321 14:31:51.229349 15398 net.cpp:139] Memory required for data: 2811462144
I0321 14:31:51.229362 15398 layer_factory.hpp:77] Creating layer inception_4c/pool
I0321 14:31:51.229377 15398 net.cpp:86] Creating Layer inception_4c/pool
I0321 14:31:51.229392 15398 net.cpp:408] inception_4c/pool <- inception_4b/output_inception_4b/output_0_split_3
I0321 14:31:51.229409 15398 net.cpp:382] inception_4c/pool -> inception_4c/pool
I0321 14:31:51.229478 15398 net.cpp:124] Setting up inception_4c/pool
I0321 14:31:51.229497 15398 net.cpp:131] Top shape: 128 256 14 14 (6422528)
I0321 14:31:51.229511 15398 net.cpp:139] Memory required for data: 2837152256
I0321 14:31:51.229535 15398 layer_factory.hpp:77] Creating layer inception_4c/pool_proj
I0321 14:31:51.229562 15398 net.cpp:86] Creating Layer inception_4c/pool_proj
I0321 14:31:51.229578 15398 net.cpp:408] inception_4c/pool_proj <- inception_4c/pool
I0321 14:31:51.229599 15398 net.cpp:382] inception_4c/pool_proj -> inception_4c/pool_proj
I0321 14:31:51.229975 15398 net.cpp:124] Setting up inception_4c/pool_proj
I0321 14:31:51.229998 15398 net.cpp:131] Top shape: 128 32 14 14 (802816)
I0321 14:31:51.230011 15398 net.cpp:139] Memory required for data: 2840363520
I0321 14:31:51.230046 15398 layer_factory.hpp:77] Creating layer inception_4c/relu_pool_proj
I0321 14:31:51.230080 15398 net.cpp:86] Creating Layer inception_4c/relu_pool_proj
I0321 14:31:51.230095 15398 net.cpp:408] inception_4c/relu_pool_proj <- inception_4c/pool_proj
I0321 14:31:51.230113 15398 net.cpp:369] inception_4c/relu_pool_proj -> inception_4c/pool_proj (in-place)
I0321 14:31:51.230135 15398 net.cpp:124] Setting up inception_4c/relu_pool_proj
I0321 14:31:51.230156 15398 net.cpp:131] Top shape: 128 32 14 14 (802816)
I0321 14:31:51.230170 15398 net.cpp:139] Memory required for data: 2843574784
I0321 14:31:51.230181 15398 layer_factory.hpp:77] Creating layer inception_4c/output
I0321 14:31:51.230197 15398 net.cpp:86] Creating Layer inception_4c/output
I0321 14:31:51.230214 15398 net.cpp:408] inception_4c/output <- inception_4c/1x1
I0321 14:31:51.230231 15398 net.cpp:408] inception_4c/output <- inception_4c/3x3
I0321 14:31:51.230245 15398 net.cpp:408] inception_4c/output <- inception_4c/5x5
I0321 14:31:51.230260 15398 net.cpp:408] inception_4c/output <- inception_4c/pool_proj
I0321 14:31:51.230281 15398 net.cpp:382] inception_4c/output -> inception_4c/output
I0321 14:31:51.230334 15398 net.cpp:124] Setting up inception_4c/output
I0321 14:31:51.230355 15398 net.cpp:131] Top shape: 128 256 14 14 (6422528)
I0321 14:31:51.230367 15398 net.cpp:139] Memory required for data: 2869264896
I0321 14:31:51.230393 15398 layer_factory.hpp:77] Creating layer inception_4c/output_inception_4c/output_0_split
I0321 14:31:51.230413 15398 net.cpp:86] Creating Layer inception_4c/output_inception_4c/output_0_split
I0321 14:31:51.230427 15398 net.cpp:408] inception_4c/output_inception_4c/output_0_split <- inception_4c/output
I0321 14:31:51.230446 15398 net.cpp:382] inception_4c/output_inception_4c/output_0_split -> inception_4c/output_inception_4c/output_0_split_0
I0321 14:31:51.230469 15398 net.cpp:382] inception_4c/output_inception_4c/output_0_split -> inception_4c/output_inception_4c/output_0_split_1
I0321 14:31:51.230494 15398 net.cpp:382] inception_4c/output_inception_4c/output_0_split -> inception_4c/output_inception_4c/output_0_split_2
I0321 14:31:51.230520 15398 net.cpp:382] inception_4c/output_inception_4c/output_0_split -> inception_4c/output_inception_4c/output_0_split_3
I0321 14:31:51.230605 15398 net.cpp:124] Setting up inception_4c/output_inception_4c/output_0_split
I0321 14:31:51.230630 15398 net.cpp:131] Top shape: 128 256 14 14 (6422528)
I0321 14:31:51.230648 15398 net.cpp:131] Top shape: 128 256 14 14 (6422528)
I0321 14:31:51.230684 15398 net.cpp:131] Top shape: 128 256 14 14 (6422528)
I0321 14:31:51.230700 15398 net.cpp:131] Top shape: 128 256 14 14 (6422528)
I0321 14:31:51.230715 15398 net.cpp:139] Memory required for data: 2972025344
I0321 14:31:51.230729 15398 layer_factory.hpp:77] Creating layer inception_4d/1x1
I0321 14:31:51.230752 15398 net.cpp:86] Creating Layer inception_4d/1x1
I0321 14:31:51.230769 15398 net.cpp:408] inception_4d/1x1 <- inception_4c/output_inception_4c/output_0_split_0
I0321 14:31:51.230790 15398 net.cpp:382] inception_4d/1x1 -> inception_4d/1x1
I0321 14:31:51.231189 15398 net.cpp:124] Setting up inception_4d/1x1
I0321 14:31:51.231212 15398 net.cpp:131] Top shape: 128 56 14 14 (1404928)
I0321 14:31:51.231225 15398 net.cpp:139] Memory required for data: 2977645056
I0321 14:31:51.231245 15398 layer_factory.hpp:77] Creating layer inception_4d/relu_1x1
I0321 14:31:51.231278 15398 net.cpp:86] Creating Layer inception_4d/relu_1x1
I0321 14:31:51.231297 15398 net.cpp:408] inception_4d/relu_1x1 <- inception_4d/1x1
I0321 14:31:51.231314 15398 net.cpp:369] inception_4d/relu_1x1 -> inception_4d/1x1 (in-place)
I0321 14:31:51.231334 15398 net.cpp:124] Setting up inception_4d/relu_1x1
I0321 14:31:51.231351 15398 net.cpp:131] Top shape: 128 56 14 14 (1404928)
I0321 14:31:51.231364 15398 net.cpp:139] Memory required for data: 2983264768
I0321 14:31:51.231375 15398 layer_factory.hpp:77] Creating layer inception_4d/3x3_reduce
I0321 14:31:51.231396 15398 net.cpp:86] Creating Layer inception_4d/3x3_reduce
I0321 14:31:51.231411 15398 net.cpp:408] inception_4d/3x3_reduce <- inception_4c/output_inception_4c/output_0_split_1
I0321 14:31:51.231432 15398 net.cpp:382] inception_4d/3x3_reduce -> inception_4d/3x3_reduce
I0321 14:31:51.231886 15398 net.cpp:124] Setting up inception_4d/3x3_reduce
I0321 14:31:51.231909 15398 net.cpp:131] Top shape: 128 72 14 14 (1806336)
I0321 14:31:51.231921 15398 net.cpp:139] Memory required for data: 2990490112
I0321 14:31:51.231956 15398 layer_factory.hpp:77] Creating layer inception_4d/relu_3x3_reduce
I0321 14:31:51.231976 15398 net.cpp:86] Creating Layer inception_4d/relu_3x3_reduce
I0321 14:31:51.231989 15398 net.cpp:408] inception_4d/relu_3x3_reduce <- inception_4d/3x3_reduce
I0321 14:31:51.232007 15398 net.cpp:369] inception_4d/relu_3x3_reduce -> inception_4d/3x3_reduce (in-place)
I0321 14:31:51.232029 15398 net.cpp:124] Setting up inception_4d/relu_3x3_reduce
I0321 14:31:51.232049 15398 net.cpp:131] Top shape: 128 72 14 14 (1806336)
I0321 14:31:51.232061 15398 net.cpp:139] Memory required for data: 2997715456
I0321 14:31:51.232074 15398 layer_factory.hpp:77] Creating layer inception_4d/3x3
I0321 14:31:51.232110 15398 net.cpp:86] Creating Layer inception_4d/3x3
I0321 14:31:51.232127 15398 net.cpp:408] inception_4d/3x3 <- inception_4d/3x3_reduce
I0321 14:31:51.232148 15398 net.cpp:382] inception_4d/3x3 -> inception_4d/3x3
I0321 14:31:51.233203 15398 net.cpp:124] Setting up inception_4d/3x3
I0321 14:31:51.233225 15398 net.cpp:131] Top shape: 128 144 14 14 (3612672)
I0321 14:31:51.233237 15398 net.cpp:139] Memory required for data: 3012166144
I0321 14:31:51.233256 15398 layer_factory.hpp:77] Creating layer inception_4d/relu_3x3
I0321 14:31:51.233273 15398 net.cpp:86] Creating Layer inception_4d/relu_3x3
I0321 14:31:51.233290 15398 net.cpp:408] inception_4d/relu_3x3 <- inception_4d/3x3
I0321 14:31:51.233309 15398 net.cpp:369] inception_4d/relu_3x3 -> inception_4d/3x3 (in-place)
I0321 14:31:51.233330 15398 net.cpp:124] Setting up inception_4d/relu_3x3
I0321 14:31:51.233350 15398 net.cpp:131] Top shape: 128 144 14 14 (3612672)
I0321 14:31:51.233363 15398 net.cpp:139] Memory required for data: 3026616832
I0321 14:31:51.233376 15398 layer_factory.hpp:77] Creating layer inception_4d/5x5_reduce
I0321 14:31:51.233397 15398 net.cpp:86] Creating Layer inception_4d/5x5_reduce
I0321 14:31:51.233412 15398 net.cpp:408] inception_4d/5x5_reduce <- inception_4c/output_inception_4c/output_0_split_2
I0321 14:31:51.233434 15398 net.cpp:382] inception_4d/5x5_reduce -> inception_4d/5x5_reduce
I0321 14:31:51.233773 15398 net.cpp:124] Setting up inception_4d/5x5_reduce
I0321 14:31:51.233795 15398 net.cpp:131] Top shape: 128 16 14 14 (401408)
I0321 14:31:51.233808 15398 net.cpp:139] Memory required for data: 3028222464
I0321 14:31:51.233841 15398 layer_factory.hpp:77] Creating layer inception_4d/relu_5x5_reduce
I0321 14:31:51.233870 15398 net.cpp:86] Creating Layer inception_4d/relu_5x5_reduce
I0321 14:31:51.233885 15398 net.cpp:408] inception_4d/relu_5x5_reduce <- inception_4d/5x5_reduce
I0321 14:31:51.233906 15398 net.cpp:369] inception_4d/relu_5x5_reduce -> inception_4d/5x5_reduce (in-place)
I0321 14:31:51.233930 15398 net.cpp:124] Setting up inception_4d/relu_5x5_reduce
I0321 14:31:51.233950 15398 net.cpp:131] Top shape: 128 16 14 14 (401408)
I0321 14:31:51.233963 15398 net.cpp:139] Memory required for data: 3029828096
I0321 14:31:51.233975 15398 layer_factory.hpp:77] Creating layer inception_4d/5x5
I0321 14:31:51.233997 15398 net.cpp:86] Creating Layer inception_4d/5x5
I0321 14:31:51.234014 15398 net.cpp:408] inception_4d/5x5 <- inception_4d/5x5_reduce
I0321 14:31:51.234033 15398 net.cpp:382] inception_4d/5x5 -> inception_4d/5x5
I0321 14:31:51.234421 15398 net.cpp:124] Setting up inception_4d/5x5
I0321 14:31:51.234443 15398 net.cpp:131] Top shape: 128 32 14 14 (802816)
I0321 14:31:51.234457 15398 net.cpp:139] Memory required for data: 3033039360
I0321 14:31:51.234475 15398 layer_factory.hpp:77] Creating layer inception_4d/relu_5x5
I0321 14:31:51.234509 15398 net.cpp:86] Creating Layer inception_4d/relu_5x5
I0321 14:31:51.234526 15398 net.cpp:408] inception_4d/relu_5x5 <- inception_4d/5x5
I0321 14:31:51.234544 15398 net.cpp:369] inception_4d/relu_5x5 -> inception_4d/5x5 (in-place)
I0321 14:31:51.234565 15398 net.cpp:124] Setting up inception_4d/relu_5x5
I0321 14:31:51.234585 15398 net.cpp:131] Top shape: 128 32 14 14 (802816)
I0321 14:31:51.234596 15398 net.cpp:139] Memory required for data: 3036250624
I0321 14:31:51.234608 15398 layer_factory.hpp:77] Creating layer inception_4d/pool
I0321 14:31:51.234624 15398 net.cpp:86] Creating Layer inception_4d/pool
I0321 14:31:51.234637 15398 net.cpp:408] inception_4d/pool <- inception_4c/output_inception_4c/output_0_split_3
I0321 14:31:51.234655 15398 net.cpp:382] inception_4d/pool -> inception_4d/pool
I0321 14:31:51.234725 15398 net.cpp:124] Setting up inception_4d/pool
I0321 14:31:51.234745 15398 net.cpp:131] Top shape: 128 256 14 14 (6422528)
I0321 14:31:51.234757 15398 net.cpp:139] Memory required for data: 3061940736
I0321 14:31:51.234781 15398 layer_factory.hpp:77] Creating layer inception_4d/pool_proj
I0321 14:31:51.234808 15398 net.cpp:86] Creating Layer inception_4d/pool_proj
I0321 14:31:51.234827 15398 net.cpp:408] inception_4d/pool_proj <- inception_4d/pool
I0321 14:31:51.234848 15398 net.cpp:382] inception_4d/pool_proj -> inception_4d/pool_proj
I0321 14:31:51.235188 15398 net.cpp:124] Setting up inception_4d/pool_proj
I0321 14:31:51.235210 15398 net.cpp:131] Top shape: 128 32 14 14 (802816)
I0321 14:31:51.235224 15398 net.cpp:139] Memory required for data: 3065152000
I0321 14:31:51.235242 15398 layer_factory.hpp:77] Creating layer inception_4d/relu_pool_proj
I0321 14:31:51.235270 15398 net.cpp:86] Creating Layer inception_4d/relu_pool_proj
I0321 14:31:51.235286 15398 net.cpp:408] inception_4d/relu_pool_proj <- inception_4d/pool_proj
I0321 14:31:51.235303 15398 net.cpp:369] inception_4d/relu_pool_proj -> inception_4d/pool_proj (in-place)
I0321 14:31:51.235322 15398 net.cpp:124] Setting up inception_4d/relu_pool_proj
I0321 14:31:51.235342 15398 net.cpp:131] Top shape: 128 32 14 14 (802816)
I0321 14:31:51.235352 15398 net.cpp:139] Memory required for data: 3068363264
I0321 14:31:51.235365 15398 layer_factory.hpp:77] Creating layer inception_4d/output
I0321 14:31:51.235380 15398 net.cpp:86] Creating Layer inception_4d/output
I0321 14:31:51.235394 15398 net.cpp:408] inception_4d/output <- inception_4d/1x1
I0321 14:31:51.235409 15398 net.cpp:408] inception_4d/output <- inception_4d/3x3
I0321 14:31:51.235424 15398 net.cpp:408] inception_4d/output <- inception_4d/5x5
I0321 14:31:51.235455 15398 net.cpp:408] inception_4d/output <- inception_4d/pool_proj
I0321 14:31:51.235476 15398 net.cpp:382] inception_4d/output -> inception_4d/output
I0321 14:31:51.235527 15398 net.cpp:124] Setting up inception_4d/output
I0321 14:31:51.235546 15398 net.cpp:131] Top shape: 128 264 14 14 (6623232)
I0321 14:31:51.235559 15398 net.cpp:139] Memory required for data: 3094856192
I0321 14:31:51.235584 15398 layer_factory.hpp:77] Creating layer inception_4d/output_inception_4d/output_0_split
I0321 14:31:51.235605 15398 net.cpp:86] Creating Layer inception_4d/output_inception_4d/output_0_split
I0321 14:31:51.235621 15398 net.cpp:408] inception_4d/output_inception_4d/output_0_split <- inception_4d/output
I0321 14:31:51.235641 15398 net.cpp:382] inception_4d/output_inception_4d/output_0_split -> inception_4d/output_inception_4d/output_0_split_0
I0321 14:31:51.235666 15398 net.cpp:382] inception_4d/output_inception_4d/output_0_split -> inception_4d/output_inception_4d/output_0_split_1
I0321 14:31:51.235689 15398 net.cpp:382] inception_4d/output_inception_4d/output_0_split -> inception_4d/output_inception_4d/output_0_split_2
I0321 14:31:51.235713 15398 net.cpp:382] inception_4d/output_inception_4d/output_0_split -> inception_4d/output_inception_4d/output_0_split_3
I0321 14:31:51.235800 15398 net.cpp:124] Setting up inception_4d/output_inception_4d/output_0_split
I0321 14:31:51.235819 15398 net.cpp:131] Top shape: 128 264 14 14 (6623232)
I0321 14:31:51.235836 15398 net.cpp:131] Top shape: 128 264 14 14 (6623232)
I0321 14:31:51.235849 15398 net.cpp:131] Top shape: 128 264 14 14 (6623232)
I0321 14:31:51.235864 15398 net.cpp:131] Top shape: 128 264 14 14 (6623232)
I0321 14:31:51.235880 15398 net.cpp:139] Memory required for data: 3200827904
I0321 14:31:51.235893 15398 layer_factory.hpp:77] Creating layer inception_4e/1x1
I0321 14:31:51.235915 15398 net.cpp:86] Creating Layer inception_4e/1x1
I0321 14:31:51.235931 15398 net.cpp:408] inception_4e/1x1 <- inception_4d/output_inception_4d/output_0_split_0
I0321 14:31:51.235952 15398 net.cpp:382] inception_4e/1x1 -> inception_4e/1x1
I0321 14:31:51.236523 15398 net.cpp:124] Setting up inception_4e/1x1
I0321 14:31:51.236546 15398 net.cpp:131] Top shape: 128 128 14 14 (3211264)
I0321 14:31:51.236560 15398 net.cpp:139] Memory required for data: 3213672960
I0321 14:31:51.236582 15398 layer_factory.hpp:77] Creating layer inception_4e/relu_1x1
I0321 14:31:51.236616 15398 net.cpp:86] Creating Layer inception_4e/relu_1x1
I0321 14:31:51.236634 15398 net.cpp:408] inception_4e/relu_1x1 <- inception_4e/1x1
I0321 14:31:51.236652 15398 net.cpp:369] inception_4e/relu_1x1 -> inception_4e/1x1 (in-place)
I0321 14:31:51.236675 15398 net.cpp:124] Setting up inception_4e/relu_1x1
I0321 14:31:51.236696 15398 net.cpp:131] Top shape: 128 128 14 14 (3211264)
I0321 14:31:51.236707 15398 net.cpp:139] Memory required for data: 3226518016
I0321 14:31:51.236719 15398 layer_factory.hpp:77] Creating layer inception_4e/3x3_reduce
I0321 14:31:51.236740 15398 net.cpp:86] Creating Layer inception_4e/3x3_reduce
I0321 14:31:51.236757 15398 net.cpp:408] inception_4e/3x3_reduce <- inception_4d/output_inception_4d/output_0_split_1
I0321 14:31:51.236779 15398 net.cpp:382] inception_4e/3x3_reduce -> inception_4e/3x3_reduce
I0321 14:31:51.237243 15398 net.cpp:124] Setting up inception_4e/3x3_reduce
I0321 14:31:51.237265 15398 net.cpp:131] Top shape: 128 80 14 14 (2007040)
I0321 14:31:51.237278 15398 net.cpp:139] Memory required for data: 3234546176
I0321 14:31:51.237310 15398 layer_factory.hpp:77] Creating layer inception_4e/relu_3x3_reduce
I0321 14:31:51.237329 15398 net.cpp:86] Creating Layer inception_4e/relu_3x3_reduce
I0321 14:31:51.237344 15398 net.cpp:408] inception_4e/relu_3x3_reduce <- inception_4e/3x3_reduce
I0321 14:31:51.237361 15398 net.cpp:369] inception_4e/relu_3x3_reduce -> inception_4e/3x3_reduce (in-place)
I0321 14:31:51.237385 15398 net.cpp:124] Setting up inception_4e/relu_3x3_reduce
I0321 14:31:51.237403 15398 net.cpp:131] Top shape: 128 80 14 14 (2007040)
I0321 14:31:51.237416 15398 net.cpp:139] Memory required for data: 3242574336
I0321 14:31:51.237444 15398 layer_factory.hpp:77] Creating layer inception_4e/3x3
I0321 14:31:51.237479 15398 net.cpp:86] Creating Layer inception_4e/3x3
I0321 14:31:51.237494 15398 net.cpp:408] inception_4e/3x3 <- inception_4e/3x3_reduce
I0321 14:31:51.237514 15398 net.cpp:382] inception_4e/3x3 -> inception_4e/3x3
I0321 14:31:51.238793 15398 net.cpp:124] Setting up inception_4e/3x3
I0321 14:31:51.238818 15398 net.cpp:131] Top shape: 128 160 14 14 (4014080)
I0321 14:31:51.238831 15398 net.cpp:139] Memory required for data: 3258630656
I0321 14:31:51.238850 15398 layer_factory.hpp:77] Creating layer inception_4e/relu_3x3
I0321 14:31:51.238869 15398 net.cpp:86] Creating Layer inception_4e/relu_3x3
I0321 14:31:51.238886 15398 net.cpp:408] inception_4e/relu_3x3 <- inception_4e/3x3
I0321 14:31:51.238907 15398 net.cpp:369] inception_4e/relu_3x3 -> inception_4e/3x3 (in-place)
I0321 14:31:51.238930 15398 net.cpp:124] Setting up inception_4e/relu_3x3
I0321 14:31:51.238950 15398 net.cpp:131] Top shape: 128 160 14 14 (4014080)
I0321 14:31:51.238963 15398 net.cpp:139] Memory required for data: 3274686976
I0321 14:31:51.238975 15398 layer_factory.hpp:77] Creating layer inception_4e/5x5_reduce
I0321 14:31:51.238999 15398 net.cpp:86] Creating Layer inception_4e/5x5_reduce
I0321 14:31:51.239015 15398 net.cpp:408] inception_4e/5x5_reduce <- inception_4d/output_inception_4d/output_0_split_2
I0321 14:31:51.239040 15398 net.cpp:382] inception_4e/5x5_reduce -> inception_4e/5x5_reduce
I0321 14:31:51.239387 15398 net.cpp:124] Setting up inception_4e/5x5_reduce
I0321 14:31:51.239408 15398 net.cpp:131] Top shape: 128 16 14 14 (401408)
I0321 14:31:51.239420 15398 net.cpp:139] Memory required for data: 3276292608
I0321 14:31:51.239455 15398 layer_factory.hpp:77] Creating layer inception_4e/relu_5x5_reduce
I0321 14:31:51.239485 15398 net.cpp:86] Creating Layer inception_4e/relu_5x5_reduce
I0321 14:31:51.239500 15398 net.cpp:408] inception_4e/relu_5x5_reduce <- inception_4e/5x5_reduce
I0321 14:31:51.239521 15398 net.cpp:369] inception_4e/relu_5x5_reduce -> inception_4e/5x5_reduce (in-place)
I0321 14:31:51.239543 15398 net.cpp:124] Setting up inception_4e/relu_5x5_reduce
I0321 14:31:51.239563 15398 net.cpp:131] Top shape: 128 16 14 14 (401408)
I0321 14:31:51.239575 15398 net.cpp:139] Memory required for data: 3277898240
I0321 14:31:51.239588 15398 layer_factory.hpp:77] Creating layer inception_4e/5x5
I0321 14:31:51.239609 15398 net.cpp:86] Creating Layer inception_4e/5x5
I0321 14:31:51.239626 15398 net.cpp:408] inception_4e/5x5 <- inception_4e/5x5_reduce
I0321 14:31:51.239652 15398 net.cpp:382] inception_4e/5x5 -> inception_4e/5x5
I0321 14:31:51.240181 15398 net.cpp:124] Setting up inception_4e/5x5
I0321 14:31:51.240205 15398 net.cpp:131] Top shape: 128 64 14 14 (1605632)
I0321 14:31:51.240216 15398 net.cpp:139] Memory required for data: 3284320768
I0321 14:31:51.240236 15398 layer_factory.hpp:77] Creating layer inception_4e/relu_5x5
I0321 14:31:51.240252 15398 net.cpp:86] Creating Layer inception_4e/relu_5x5
I0321 14:31:51.240268 15398 net.cpp:408] inception_4e/relu_5x5 <- inception_4e/5x5
I0321 14:31:51.240286 15398 net.cpp:369] inception_4e/relu_5x5 -> inception_4e/5x5 (in-place)
I0321 14:31:51.240305 15398 net.cpp:124] Setting up inception_4e/relu_5x5
I0321 14:31:51.240324 15398 net.cpp:131] Top shape: 128 64 14 14 (1605632)
I0321 14:31:51.240336 15398 net.cpp:139] Memory required for data: 3290743296
I0321 14:31:51.240348 15398 layer_factory.hpp:77] Creating layer inception_4e/pool
I0321 14:31:51.240380 15398 net.cpp:86] Creating Layer inception_4e/pool
I0321 14:31:51.240396 15398 net.cpp:408] inception_4e/pool <- inception_4d/output_inception_4d/output_0_split_3
I0321 14:31:51.240414 15398 net.cpp:382] inception_4e/pool -> inception_4e/pool
I0321 14:31:51.240492 15398 net.cpp:124] Setting up inception_4e/pool
I0321 14:31:51.240512 15398 net.cpp:131] Top shape: 128 264 14 14 (6623232)
I0321 14:31:51.240525 15398 net.cpp:139] Memory required for data: 3317236224
I0321 14:31:51.240536 15398 layer_factory.hpp:77] Creating layer inception_4e/pool_proj
I0321 14:31:51.240581 15398 net.cpp:86] Creating Layer inception_4e/pool_proj
I0321 14:31:51.240599 15398 net.cpp:408] inception_4e/pool_proj <- inception_4e/pool
I0321 14:31:51.240624 15398 net.cpp:382] inception_4e/pool_proj -> inception_4e/pool_proj
I0321 14:31:51.241183 15398 net.cpp:124] Setting up inception_4e/pool_proj
I0321 14:31:51.241204 15398 net.cpp:131] Top shape: 128 64 14 14 (1605632)
I0321 14:31:51.241215 15398 net.cpp:139] Memory required for data: 3323658752
I0321 14:31:51.241235 15398 layer_factory.hpp:77] Creating layer inception_4e/relu_pool_proj
I0321 14:31:51.241252 15398 net.cpp:86] Creating Layer inception_4e/relu_pool_proj
I0321 14:31:51.241268 15398 net.cpp:408] inception_4e/relu_pool_proj <- inception_4e/pool_proj
I0321 14:31:51.241286 15398 net.cpp:369] inception_4e/relu_pool_proj -> inception_4e/pool_proj (in-place)
I0321 14:31:51.241308 15398 net.cpp:124] Setting up inception_4e/relu_pool_proj
I0321 14:31:51.241328 15398 net.cpp:131] Top shape: 128 64 14 14 (1605632)
I0321 14:31:51.241340 15398 net.cpp:139] Memory required for data: 3330081280
I0321 14:31:51.241353 15398 layer_factory.hpp:77] Creating layer inception_4e/output
I0321 14:31:51.241380 15398 net.cpp:86] Creating Layer inception_4e/output
I0321 14:31:51.241396 15398 net.cpp:408] inception_4e/output <- inception_4e/1x1
I0321 14:31:51.241410 15398 net.cpp:408] inception_4e/output <- inception_4e/3x3
I0321 14:31:51.241426 15398 net.cpp:408] inception_4e/output <- inception_4e/5x5
I0321 14:31:51.241441 15398 net.cpp:408] inception_4e/output <- inception_4e/pool_proj
I0321 14:31:51.241464 15398 net.cpp:382] inception_4e/output -> inception_4e/output
I0321 14:31:51.241518 15398 net.cpp:124] Setting up inception_4e/output
I0321 14:31:51.241542 15398 net.cpp:131] Top shape: 128 416 14 14 (10436608)
I0321 14:31:51.241559 15398 net.cpp:139] Memory required for data: 3371827712
I0321 14:31:51.241571 15398 layer_factory.hpp:77] Creating layer conv_16
I0321 14:31:51.241591 15398 net.cpp:86] Creating Layer conv_16
I0321 14:31:51.241610 15398 net.cpp:408] conv_16 <- inception_4e/output
I0321 14:31:51.241636 15398 net.cpp:382] conv_16 -> conv_16
I0321 14:31:51.243969 15398 net.cpp:124] Setting up conv_16
I0321 14:31:51.243991 15398 net.cpp:131] Top shape: 128 128 14 14 (3211264)
I0321 14:31:51.244004 15398 net.cpp:139] Memory required for data: 3384672768
I0321 14:31:51.244024 15398 layer_factory.hpp:77] Creating layer relu_16
I0321 14:31:51.244041 15398 net.cpp:86] Creating Layer relu_16
I0321 14:31:51.244058 15398 net.cpp:408] relu_16 <- conv_16
I0321 14:31:51.244076 15398 net.cpp:369] relu_16 -> conv_16 (in-place)
I0321 14:31:51.244098 15398 net.cpp:124] Setting up relu_16
I0321 14:31:51.244118 15398 net.cpp:131] Top shape: 128 128 14 14 (3211264)
I0321 14:31:51.244132 15398 net.cpp:139] Memory required for data: 3397517824
I0321 14:31:51.244143 15398 layer_factory.hpp:77] Creating layer conv_face_predict
I0321 14:31:51.244180 15398 net.cpp:86] Creating Layer conv_face_predict
I0321 14:31:51.244195 15398 net.cpp:408] conv_face_predict <- conv_16
I0321 14:31:51.244220 15398 net.cpp:382] conv_face_predict -> conv_face_predict
I0321 14:31:51.244602 15398 net.cpp:124] Setting up conv_face_predict
I0321 14:31:51.244623 15398 net.cpp:131] Top shape: 128 20 14 14 (501760)
I0321 14:31:51.244635 15398 net.cpp:139] Memory required for data: 3399524864
I0321 14:31:51.244655 15398 layer_factory.hpp:77] Creating layer pool5/7x7_s1
I0321 14:31:51.244676 15398 net.cpp:86] Creating Layer pool5/7x7_s1
I0321 14:31:51.244693 15398 net.cpp:408] pool5/7x7_s1 <- conv_face_predict
I0321 14:31:51.244711 15398 net.cpp:382] pool5/7x7_s1 -> pool5/7x7_s1
I0321 14:31:51.244765 15398 net.cpp:124] Setting up pool5/7x7_s1
I0321 14:31:51.244784 15398 net.cpp:131] Top shape: 128 20 11 11 (309760)
I0321 14:31:51.244797 15398 net.cpp:139] Memory required for data: 3400763904
I0321 14:31:51.244808 15398 layer_factory.hpp:77] Creating layer pool5/drop_7x7_s1
I0321 14:31:51.244839 15398 net.cpp:86] Creating Layer pool5/drop_7x7_s1
I0321 14:31:51.244854 15398 net.cpp:408] pool5/drop_7x7_s1 <- pool5/7x7_s1
I0321 14:31:51.244895 15398 net.cpp:369] pool5/drop_7x7_s1 -> pool5/7x7_s1 (in-place)
I0321 14:31:51.244956 15398 net.cpp:124] Setting up pool5/drop_7x7_s1
I0321 14:31:51.244976 15398 net.cpp:131] Top shape: 128 20 11 11 (309760)
I0321 14:31:51.244987 15398 net.cpp:139] Memory required for data: 3402002944
I0321 14:31:51.244999 15398 layer_factory.hpp:77] Creating layer loss3_my/predict
I0321 14:31:51.245025 15398 net.cpp:86] Creating Layer loss3_my/predict
I0321 14:31:51.245043 15398 net.cpp:408] loss3_my/predict <- pool5/7x7_s1
I0321 14:31:51.245066 15398 net.cpp:382] loss3_my/predict -> loss3_my/predict
I0321 14:31:51.245232 15398 net.cpp:124] Setting up loss3_my/predict
I0321 14:31:51.245252 15398 net.cpp:131] Top shape: 128 1 (128)
I0321 14:31:51.245265 15398 net.cpp:139] Memory required for data: 3402003456
I0321 14:31:51.245285 15398 layer_factory.hpp:77] Creating layer loss3_my/loss3_my
I0321 14:31:51.245743 15398 net.cpp:86] Creating Layer loss3_my/loss3_my
I0321 14:31:51.245764 15398 net.cpp:408] loss3_my/loss3_my <- loss3_my/predict
I0321 14:31:51.245781 15398 net.cpp:408] loss3_my/loss3_my <- label
I0321 14:31:51.245803 15398 net.cpp:382] loss3_my/loss3_my -> loss3_my/loss3_my
I0321 14:31:51.246006 15398 net.cpp:124] Setting up loss3_my/loss3_my
I0321 14:31:51.246029 15398 net.cpp:131] Top shape: 1 (1)
I0321 14:31:51.246042 15398 net.cpp:134]     with loss weight 1
I0321 14:31:51.246093 15398 net.cpp:139] Memory required for data: 3402003460
I0321 14:31:51.246109 15398 net.cpp:200] loss3_my/loss3_my needs backward computation.
I0321 14:31:51.246121 15398 net.cpp:200] loss3_my/predict needs backward computation.
I0321 14:31:51.246134 15398 net.cpp:200] pool5/drop_7x7_s1 needs backward computation.
…
I0321 14:31:51.251142 15398 solver.cpp:173] Creating test net (#0) specified by net file: models/age_google_half/train_val.prototxt
I0321 14:31:51.251317 15398 net.cpp:296] The NetState phase (1) differed from the phase (0) specified by a rule in layer data
I0321 14:31:51.252310 15398 net.cpp:53] Initializing net from parameters: 
name: "GoogleNet-half"
state {
  phase: TEST
}
layer {
  name: "data"
  type: "Python"
  top: "data"
  top: "label"
  include {
    phase: TEST
  }
  python_param {
    module: "data_generator"
    layer: "DataLayer"
    param_str: "/home/zhongzhen/dataset/attribute/age/test.txt"
  }
}
layer {
  name: "conv1/7x7_s2"
  type: "Convolution"
  bottom: "data"
  top: "conv1/7x7_s2"
  param {
    lr_mult: 1
    decay_mult: 1
  }
  param {
    lr_mult: 2
    decay_mult: 0
  }
  convolution_param {
    num_output: 32
    pad: 3
    kernel_size: 7
    stride: 2
    weight_filler {
      type: "xavier"
      std: 0.1
    }
    bias_filler {
      type: "constant"
      value: 0.2
    }
  }
}
layer {
  name: "conv1/relu_7x7"
  type: "ReLU"
  bottom: "conv1/7x7_s2"
  top: "conv1/7x7_s2"
}
layer {
  name: "pool1/3x3_s2"
  type: "Pooling"
  bottom: "conv1/7x7_s2"
  top: "pool1/3x3_s2"
  pooling_param {
    pool: MAX
    kernel_size: 3
    stride: 2
  }
}
layer {
  name: "pool1/norm1"
  type: "LRN"
  bottom: "pool1/3x3_s2"
  top: "pool1/norm1"
  lrn_param {
    local_size: 5
    alpha: 0.0001
    beta: 0.75
  }
}
layer {
  name: "conv2/3x3_reduce"
  type: "Convolution"
  bottom: "pool1/norm1"
  top: "conv2/3x3_reduce"
  param {
    lr_mult: 1
    decay_mult: 1
  }
  param {
    lr_mult: 2
    decay_mult: 0
  }
  convolution_param {
    num_output: 32
    kernel_size: 1
    weight_filler {
      type: "xavier"
      std: 0.1
    }
    bias_filler {
      type: "constant"
      value: 0.2
    }
  }
}
layer {
  name: "conv2/relu_3x3_reduce"
  type: "ReLU"
  bottom: "conv2/3x3_reduce"
  top: "conv2/3x3_reduce"
}
layer {
  name: "conv2/3x3"
  type: "Convolution"
  bottom: "conv2/3x3_reduce"
  top: "conv2/3x3"
  param {
    lr_mult: 1
    decay_mult: 1
  }
  param {
    lr_mult: 2
    decay_mult: 0
  }
  convolution_param {
    num_output: 96
    pad: 1
    kernel_size: 3
    weight_filler {
      type: "xavier"
      std: 0.03
    }
    bias_filler {
      type: "constant"
      value: 0.2
    }
  }
}
layer {
  name: "conv2/relu_3x3"
  type: "ReLU"
  bottom: "conv2/3x3"
  top: "conv2/3x3"
}
layer {
  name: "conv2/norm2"
  type: "LRN"
  bottom: "conv2/3x3"
  top: "conv2/norm2"
  lrn_param {
    local_size: 5
    alpha: 0.0001
    beta: 0.75
  }
}
layer {
  name: "pool2/3x3_s2"
  type: "Pooling"
  bottom: "conv2/norm2"
  top: "pool2/3x3_s2"
  pooling_param {
    pool: MAX
    kernel_size: 3
    stride: 2
  }
}
layer {
  name: "inception_3a/1x1"
  type: "Convolution"
  bottom: "pool2/3x3_s2"
  top: "inception_3a/1x1"
  param {
    lr_mult: 1
    decay_mult: 1
  }
  param {
    lr_mult: 2
    decay_mult: 0
  }
  convolution_param {
    num_output: 32
    kernel_size: 1
    weight_filler {
      type: "xavier"
      std: 0.03
    }
    bias_filler {
      type: "constant"
      value: 0.2
    }
  }
}
layer {
  name: "inception_3a/relu_1x1"
  type: "ReLU"
  bottom: "inception_3a/1x1"
  top: "inception_3a/1x1"
}
layer {
  name: "inception_3a/3x3_reduce"
  type: "Convolution"
  bottom: "pool2/3x3_s2"
  top: "inception_3a/3x3_reduce"
  param {
    lr_mult: 1
    decay_mult: 1
  }
  param {
    lr_mult: 2
    decay_mult: 0
  }
  convolution_param {
    num_output: 48
    kernel_size: 1
    weight_filler {
      type: "xavier"
      std: 0.09
    }
    bias_filler {
      type: "constant"
      value: 0.2
    }
  }
}
layer {
  name: "inception_3a/relu_3x3_reduce"
  type: "ReLU"
  bottom: "inception_3a/3x3_reduce"
  top: "inception_3a/3x3_reduce"
}
layer {
  name: "inception_3a/3x3"
  type: "Convolution"
  bottom: "inception_3a/3x3_reduce"
  top: "inception_3a/3x3"
  param {
    lr_mult: 1
    decay_mult: 1
  }
  param {
    lr_mult: 2
    decay_mult: 0
  }
  convolution_param {
    num_output: 64
    pad: 1
    kernel_size: 3
    weight_filler {
      type: "xavier"
      std: 0.03
    }
    bias_filler {
      type: "constant"
      value: 0.2
    }
  }
}
layer {
  name: "inception_3a/relu_3x3"
  type: "ReLU"
  bottom: "inception_3a/3x3"
  top: "inception_3a/3x3"
}
layer {
  name: "inception_3a/5x5_reduce"
  type: "Convolution"
  bottom: "pool2/3x3_s2"
  top: "inception_3a/5x5_reduce"
  param {
    lr_mult: 1
    decay_mult: 1
  }
  param {
    lr_mult: 2
    decay_mult: 0
  }
  convolution_param {
    num_output: 8
    kernel_size: 1
    weight_filler {
      type: "xavier"
      std: 0.2
    }
    bias_filler {
      type: "constant"
      value: 0.2
    }
  }
}
layer {
  name: "inception_3a/relu_5x5_reduce"
  type: "ReLU"
  bottom: "inception_3a/5x5_reduce"
  top: "inception_3a/5x5_reduce"
}
layer {
  name: "inception_3a/5x5"
  type: "Convolution"
  bottom: "inception_3a/5x5_reduce"
  top: "inception_3a/5x5"
  param {
    lr_mult: 1
    decay_mult: 1
  }
  param {
    lr_mult: 2
    decay_mult: 0
  }
  convolution_param {
    num_output: 16
    pad: 2
    kernel_size: 5
    weight_filler {
      type: "xavier"
      std: 0.03
    }
    bias_filler {
      type: "constant"
      value: 0.2
    }
  }
}
layer {
  name: "inception_3a/relu_5x5"
  type: "ReLU"
  bottom: "inception_3a/5x5"
  top: "inception_3a/5x5"
}
layer {
  name: "inception_3a/pool"
  type: "Pooling"
  bottom: "pool2/3x3_s2"
  top: "inception_3a/pool"
  pooling_param {
    pool: MAX
    kernel_size: 3
    stride: 1
    pad: 1
  }
}
layer {
  name: "inception_3a/pool_proj"
  type: "Convolution"
  bottom: "inception_3a/pool"
  top: "inception_3a/pool_proj"
  param {
    lr_mult: 1
    decay_mult: 1
  }
  param {
    lr_mult: 2
    decay_mult: 0
  }
  convolution_param {
    num_output: 16
    kernel_size: 1
    weight_filler {
      type: "xavier"
      std: 0.1
    }
    bias_filler {
      type: "constant"
      value: 0.2
    }
  }
}
layer {
  name: "inception_3a/relu_pool_proj"
  type: "ReLU"
  bottom: "inception_3a/pool_proj"
  top: "inception_3a/pool_proj"
}
layer {
  name: "inception_3a/output"
  type: "Concat"
  bottom: "inception_3a/1x1"
  bottom: "inception_3a/3x3"
  bottom: "inception_3a/5x5"
  bottom: "inception_3a/pool_proj"
  top: "inception_3a/output"
}
layer {
  name: "inception_3b/1x1"
  type: "Convolution"
  bottom: "inception_3a/output"
  top: "inception_3b/1x1"
  param {
    lr_mult: 1
    decay_mult: 1
  }
  param {
    lr_mult: 2
    decay_mult: 0
  }
  convolution_param {
    num_output: 64
    kernel_size: 1
    weight_filler {
      type: "xavier"
      std: 0.03
    }
    bias_filler {
      type: "constant"
      value: 0.2
    }
  }
}
layer {
  name: "inception_3b/relu_1x1"
  type: "ReLU"
  bottom: "inception_3b/1x1"
  top: "inception_3b/1x1"
}
layer {
  name: "inception_3b/3x3_reduce"
  type: "Convolution"
  bottom: "inception_3a/output"
  top: "inception_3b/3x3_reduce"
  param {
    lr_mult: 1
    decay_mult: 1
  }
  param {
    lr_mult: 2
    decay_mult: 0
  }
  convolution_param {
    num_output: 64
    kernel_size: 1
    weight_filler {
      type: "xavier"
      std: 0.09
    }
    bias_filler {
      type: "constant"
      value: 0.2
    }
  }
}
layer {
  name: "inception_3b/relu_3x3_reduce"
  type: "ReLU"
  bottom: "inception_3b/3x3_reduce"
  top: "inception_3b/3x3_reduce"
}
layer {
  name: "inception_3b/3x3"
  type: "Convolution"
  bottom: "inception_3b/3x3_reduce"
  top: "inception_3b/3x3"
  param {
    lr_mult: 1
    decay_mult: 1
  }
  param {
    lr_mult: 2
    decay_mult: 0
  }
  convolution_param {
    num_output: 96
    pad: 1
    kernel_size: 3
    weight_filler {
      type: "xavier"
      std: 0.03
    }
    bias_filler {
      type: "constant"
      value: 0.2
    }
  }
}
layer {
  name: "inception_3b/relu_3x3"
  type: "ReLU"
  bottom: "inception_3b/3x3"
  top: "inception_3b/3x3"
}
layer {
  name: "inception_3b/5x5_reduce"
  type: "Convolution"
  bottom: "inception_3a/output"
  top: "inception_3b/5x5_reduce"
  param {
    lr_mult: 1
    decay_mult: 1
  }
  param {
    lr_mult: 2
    decay_mult: 0
  }
  convolution_param {
    num_output: 16
    kernel_size: 1
    weight_filler {
      type: "xavier"
      std: 0.2
    }
    bias_filler {
      type: "constant"
      value: 0.2
    }
  }
}
layer {
  name: "inception_3b/relu_5x5_reduce"
  type: "ReLU"
  bottom: "inception_3b/5x5_reduce"
  top: "inception_3b/5x5_reduce"
}
layer {
  name: "inception_3b/5x5"
  type: "Convolution"
  bottom: "inception_3b/5x5_reduce"
  top: "inception_3b/5x5"
  param {
    lr_mult: 1
    decay_mult: 1
  }
  param {
    lr_mult: 2
    decay_mult: 0
  }
  convolution_param {
    num_output: 48
    pad: 2
    kernel_size: 5
    weight_filler {
      type: "xavier"
      std: 0.03
    }
    bias_filler {
      type: "constant"
      value: 0.2
    }
  }
}
layer {
  name: "inception_3b/relu_5x5"
  type: "ReLU"
  bottom: "inception_3b/5x5"
  top: "inception_3b/5x5"
}
layer {
  name: "inception_3b/pool"
  type: "Pooling"
  bottom: "inception_3a/output"
  top: "inception_3b/pool"
  pooling_param {
    pool: MAX
    kernel_size: 3
    stride: 1
    pad: 1
  }
}
layer {
  name: "inception_3b/pool_proj"
  type: "Convolution"
  bottom: "inception_3b/pool"
  top: "inception_3b/pool_proj"
  param {
    lr_mult: 1
    decay_mult: 1
  }
  param {
    lr_mult: 2
    decay_mult: 0
  }
  convolution_param {
    num_output: 32
    kernel_size: 1
    weight_filler {
      type: "xavier"
      std: 0.1
    }
    bias_filler {
      type: "constant"
      value: 0.2
    }
  }
}
layer {
  name: "inception_3b/relu_pool_proj"
  type: "ReLU"
  bottom: "inception_3b/pool_proj"
  top: "inception_3b/pool_proj"
}
layer {
  name: "inception_3b/output"
  type: "Concat"
  bottom: "inception_3b/1x1"
  bottom: "inception_3b/3x3"
  bottom: "inception_3b/5x5"
  bottom: "inception_3b/pool_proj"
  top: "inception_3b/output"
}
layer {
  name: "pool3/3x3_s2"
  type: "Pooling"
  bottom: "inception_3b/output"
  top: "pool3/3x3_s2"
  pooling_param {
    pool: MAX
    kernel_size: 3
    stride: 2
  }
}
layer {
  name: "inception_4a/1x1"
  type: "Convolution"
  bottom: "pool3/3x3_s2"
  top: "inception_4a/1x1"
  param {
    lr_mult: 1
    decay_mult: 1
  }
  param {
    lr_mult: 2
    decay_mult: 0
  }
  convolution_param {
    num_output: 96
    kernel_size: 1
    weight_filler {
      type: "xavier"
      std: 0.03
    }
    bias_filler {
      type: "constant"
      value: 0.2
    }
  }
}
layer {
  name: "inception_4a/relu_1x1"
  type: "ReLU"
  bottom: "inception_4a/1x1"
  top: "inception_4a/1x1"
}
layer {
  name: "inception_4a/3x3_reduce"
  type: "Convolution"
  bottom: "pool3/3x3_s2"
  top: "inception_4a/3x3_reduce"
  param {
    lr_mult: 1
    decay_mult: 1
  }
  param {
    lr_mult: 2
    decay_mult: 0
  }
  convolution_param {
    num_output: 48
    kernel_size: 1
    weight_filler {
      type: "xavier"
      std: 0.09
    }
    bias_filler {
      type: "constant"
      value: 0.2
    }
  }
}
layer {
  name: "inception_4a/relu_3x3_reduce"
  type: "ReLU"
  bottom: "inception_4a/3x3_reduce"
  top: "inception_4a/3x3_reduce"
}
layer {
  name: "inception_4a/3x3"
  type: "Convolution"
  bottom: "inception_4a/3x3_reduce"
  top: "inception_4a/3x3"
  param {
    lr_mult: 1
    decay_mult: 1
  }
  param {
    lr_mult: 2
    decay_mult: 0
  }
  convolution_param {
    num_output: 104
    pad: 1
    kernel_size: 3
    weight_filler {
      type: "xavier"
      std: 0.03
    }
    bias_filler {
      type: "constant"
      value: 0.2
    }
  }
}
layer {
  name: "inception_4a/relu_3x3"
  type: "ReLU"
  bottom: "inception_4a/3x3"
  top: "inception_4a/3x3"
}
layer {
  name: "inception_4a/5x5_reduce"
  type: "Convolution"
  bottom: "pool3/3x3_s2"
  top: "inception_4a/5x5_reduce"
  param {
    lr_mult: 1
    decay_mult: 1
  }
  param {
    lr_mult: 2
    decay_mult: 0
  }
  convolution_param {
    num_output: 8
    kernel_size: 1
    weight_filler {
      type: "xavier"
      std: 0.2
    }
    bias_filler {
      type: "constant"
      value: 0.2
    }
  }
}
layer {
  name: "inception_4a/relu_5x5_reduce"
  type: "ReLU"
  bottom: "inception_4a/5x5_reduce"
  top: "inception_4a/5x5_reduce"
}
layer {
  name: "inception_4a/5x5"
  type: "Convolution"
  bottom: "inception_4a/5x5_reduce"
  top: "inception_4a/5x5"
  param {
    lr_mult: 1
    decay_mult: 1
  }
  param {
    lr_mult: 2
    decay_mult: 0
  }
  convolution_param {
    num_output: 24
    pad: 2
    kernel_size: 5
    weight_filler {
      type: "xavier"
      std: 0.03
    }
    bias_filler {
      type: "constant"
      value: 0.2
    }
  }
}
layer {
  name: "inception_4a/relu_5x5"
  type: "ReLU"
  bottom: "inception_4a/5x5"
  top: "inception_4a/5x5"
}
layer {
  name: "inception_4a/pool"
  type: "Pooling"
  bottom: "pool3/3x3_s2"
  top: "inception_4a/pool"
  pooling_param {
    pool: MAX
    kernel_size: 3
    stride: 1
    pad: 1
  }
}
layer {
  name: "inception_4a/pool_proj"
  type: "Convolution"
  bottom: "inception_4a/pool"
  top: "inception_4a/pool_proj"
  param {
    lr_mult: 1
    decay_mult: 1
  }
  param {
    lr_mult: 2
    decay_mult: 0
  }
  convolution_param {
    num_output: 32
    kernel_size: 1
    weight_filler {
      type: "xavier"
      std: 0.1
    }
    bias_filler {
      type: "constant"
      value: 0.2
    }
  }
}
layer {
  name: "inception_4a/relu_pool_proj"
  type: "ReLU"
  bottom: "inception_4a/pool_proj"
  top: "inception_4a/pool_proj"
}
layer {
  name: "inception_4a/output"
  type: "Concat"
  bottom: "inception_4a/1x1"
  bottom: "inception_4a/3x3"
  bottom: "inception_4a/5x5"
  bottom: "inception_4a/pool_proj"
  top: "inception_4a/output"
}
layer {
  name: "inception_4b/1x1"
  type: "Convolution"
  bottom: "inception_4a/output"
  top: "inception_4b/1x1"
  param {
    lr_mult: 1
    decay_mult: 1
  }
  param {
    lr_mult: 2
    decay_mult: 0
  }
  convolution_param {
    num_output: 80
    kernel_size: 1
    weight_filler {
      type: "xavier"
      std: 0.03
    }
    bias_filler {
      type: "constant"
      value: 0.2
    }
  }
}
layer {
  name: "inception_4b/relu_1x1"
  type: "ReLU"
  bottom: "inception_4b/1x1"
  top: "inception_4b/1x1"
}
layer {
  name: "inception_4b/3x3_reduce"
  type: "Convolution"
  bottom: "inception_4a/output"
  top: "inception_4b/3x3_reduce"
  param {
    lr_mult: 1
    decay_mult: 1
  }
  param {
    lr_mult: 2
    decay_mult: 0
  }
  convolution_param {
    num_output: 56
    kernel_size: 1
    weight_filler {
      type: "xavier"
      std: 0.09
    }
    bias_filler {
      type: "constant"
      value: 0.2
    }
  }
}
layer {
  name: "inception_4b/relu_3x3_reduce"
  type: "ReLU"
  bottom: "inception_4b/3x3_reduce"
  top: "inception_4b/3x3_reduce"
}
layer {
  name: "inception_4b/3x3"
  type: "Convolution"
  bottom: "inception_4b/3x3_reduce"
  top: "inception_4b/3x3"
  param {
    lr_mult: 1
    decay_mult: 1
  }
  param {
    lr_mult: 2
    decay_mult: 0
  }
  convolution_param {
    num_output: 112
    pad: 1
    kernel_size: 3
    weight_filler {
      type: "xavier"
      std: 0.03
    }
    bias_filler {
      type: "constant"
      value: 0.2
    }
  }
}
layer {
  name: "inception_4b/relu_3x3"
  type: "ReLU"
  bottom: "inception_4b/3x3"
  top: "inception_4b/3x3"
}
layer {
  name: "inception_4b/5x5_reduce"
  type: "Convolution"
  bottom: "inception_4a/output"
  top: "inception_4b/5x5_reduce"
  param {
    lr_mult: 1
    decay_mult: 1
  }
  param {
    lr_mult: 2
    decay_mult: 0
  }
  convolution_param {
    num_output: 12
    kernel_size: 1
    weight_filler {
      type: "xavier"
      std: 0.2
    }
    bias_filler {
      type: "constant"
      value: 0.2
    }
  }
}
layer {
  name: "inception_4b/relu_5x5_reduce"
  type: "ReLU"
  bottom: "inception_4b/5x5_reduce"
  top: "inception_4b/5x5_reduce"
}
layer {
  name: "inception_4b/5x5"
  type: "Convolution"
  bottom: "inception_4b/5x5_reduce"
  top: "inception_4b/5x5"
  param {
    lr_mult: 1
    decay_mult: 1
  }
  param {
    lr_mult: 2
    decay_mult: 0
  }
  convolution_param {
    num_output: 32
    pad: 2
    kernel_size: 5
    weight_filler {
      type: "xavier"
      std: 0.03
    }
    bias_filler {
      type: "constant"
      value: 0.2
    }
  }
}
layer {
  name: "inception_4b/relu_5x5"
  type: "ReLU"
  bottom: "inception_4b/5x5"
  top: "inception_4b/5x5"
}
layer {
  name: "inception_4b/pool"
  type: "Pooling"
  bottom: "inception_4a/output"
  top: "inception_4b/pool"
  pooling_param {
    pool: MAX
    kernel_size: 3
    stride: 1
    pad: 1
  }
}
layer {
  name: "inception_4b/pool_proj"
  type: "Convolution"
  bottom: "inception_4b/pool"
  top: "inception_4b/pool_proj"
  param {
    lr_mult: 1
    decay_mult: 1
  }
  param {
    lr_mult: 2
    decay_mult: 0
  }
  convolution_param {
    num_output: 32
    kernel_size: 1
    weight_filler {
      type: "xavier"
      std: 0.1
    }
    bias_filler {
      type: "constant"
      value: 0.2
    }
  }
}
layer {
  name: "inception_4b/relu_pool_proj"
  type: "ReLU"
  bottom: "inception_4b/pool_proj"
  top: "inception_4b/pool_proj"
}
layer {
  name: "inception_4b/output"
  type: "Concat"
  bottom: "inception_4b/1x1"
  bottom: "inception_4b/3x3"
  bottom: "inception_4b/5x5"
  bottom: "inception_4b/pool_proj"
  top: "inception_4b/output"
}
layer {
  name: "inception_4c/1x1"
  type: "Convolution"
  bottom: "inception_4b/output"
  top: "inception_4c/1x1"
  param {
    lr_mult: 1
    decay_mult: 1
  }
  param {
    lr_mult: 2
    decay_mult: 0
  }
  convolution_param {
    num_output: 64
    kernel_size: 1
    weight_filler {
      type: "xavier"
      std: 0.03
    }
    bias_filler {
      type: "constant"
      value: 0.2
    }
  }
}
layer {
  name: "inception_4c/relu_1x1"
  type: "ReLU"
  bottom: "inception_4c/1x1"
  top: "inception_4c/1x1"
}
layer {
  name: "inception_4c/3x3_reduce"
  type: "Convolution"
  bottom: "inception_4b/output"
  top: "inception_4c/3x3_reduce"
  param {
    lr_mult: 1
    decay_mult: 1
  }
  param {
    lr_mult: 2
    decay_mult: 0
  }
  convolution_param {
    num_output: 64
    kernel_size: 1
    weight_filler {
      type: "xavier"
      std: 0.09
    }
    bias_filler {
      type: "constant"
      value: 0.2
    }
  }
}
layer {
  name: "inception_4c/relu_3x3_reduce"
  type: "ReLU"
  bottom: "inception_4c/3x3_reduce"
  top: "inception_4c/3x3_reduce"
}
layer {
  name: "inception_4c/3x3"
  type: "Convolution"
  bottom: "inception_4c/3x3_reduce"
  top: "inception_4c/3x3"
  param {
    lr_mult: 1
    decay_mult: 1
  }
  param {
    lr_mult: 2
    decay_mult: 0
  }
  convolution_param {
    num_output: 128
    pad: 1
    kernel_size: 3
    weight_filler {
      type: "xavier"
      std: 0.03
    }
    bias_filler {
      type: "constant"
      value: 0.2
    }
  }
}
layer {
  name: "inception_4c/relu_3x3"
  type: "ReLU"
  bottom: "inception_4c/3x3"
  top: "inception_4c/3x3"
}
layer {
  name: "inception_4c/5x5_reduce"
  type: "Convolution"
  bottom: "inception_4b/output"
  top: "inception_4c/5x5_reduce"
  param {
    lr_mult: 1
    decay_mult: 1
  }
  param {
    lr_mult: 2
    decay_mult: 0
  }
  convolution_param {
    num_output: 12
    kernel_size: 1
    weight_filler {
      type: "xavier"
      std: 0.2
    }
    bias_filler {
      type: "constant"
      value: 0.2
    }
  }
}
layer {
  name: "inception_4c/relu_5x5_reduce"
  type: "ReLU"
  bottom: "inception_4c/5x5_reduce"
  top: "inception_4c/5x5_reduce"
}
layer {
  name: "inception_4c/5x5"
  type: "Convolution"
  bottom: "inception_4c/5x5_reduce"
  top: "inception_4c/5x5"
  param {
    lr_mult: 1
    decay_mult: 1
  }
  param {
    lr_mult: 2
    decay_mult: 0
  }
  convolution_param {
    num_output: 32
    pad: 2
    kernel_size: 5
    weight_filler {
      type: "xavier"
      std: 0.03
    }
    bias_filler {
      type: "constant"
      value: 0.2
    }
  }
}
layer {
  name: "inception_4c/relu_5x5"
  type: "ReLU"
  bottom: "inception_4c/5x5"
  top: "inception_4c/5x5"
}
layer {
  name: "inception_4c/pool"
  type: "Pooling"
  bottom: "inception_4b/output"
  top: "inception_4c/pool"
  pooling_param {
    pool: MAX
    kernel_size: 3
    stride: 1
    pad: 1
  }
}
layer {
  name: "inception_4c/pool_proj"
  type: "Convolution"
  bottom: "inception_4c/pool"
  top: "inception_4c/pool_proj"
  param {
    lr_mult: 1
    decay_mult: 1
  }
  param {
    lr_mult: 2
    decay_mult: 0
  }
  convolution_param {
    num_output: 32
    kernel_size: 1
    weight_filler {
      type: "xavier"
      std: 0.1
    }
    bias_filler {
      type: "constant"
      value: 0.2
    }
  }
}
layer {
  name: "inception_4c/relu_pool_proj"
  type: "ReLU"
  bottom: "inception_4c/pool_proj"
  top: "inception_4c/pool_proj"
}
layer {
  name: "inception_4c/output"
  type: "Concat"
  bottom: "inception_4c/1x1"
  bottom: "inception_4c/3x3"
  bottom: "inception_4c/5x5"
  bottom: "inception_4c/pool_proj"
  top: "inception_4c/output"
}
layer {
  name: "inception_4d/1x1"
  type: "Convolution"
  bottom: "inception_4c/output"
  top: "inception_4d/1x1"
  param {
    lr_mult: 1
    decay_mult: 1
  }
  param {
    lr_mult: 2
    decay_mult: 0
  }
  convolution_param {
    num_output: 56
    kernel_size: 1
    weight_filler {
      type: "xavier"
      std: 0.03
    }
    bias_filler {
      type: "constant"
      value: 0.2
    }
  }
}
layer {
  name: "inception_4d/relu_1x1"
  type: "ReLU"
  bottom: "inception_4d/1x1"
  top: "inception_4d/1x1"
}
layer {
  name: "inception_4d/3x3_reduce"
  type: "Convolution"
  bottom: "inception_4c/output"
  top: "inception_4d/3x3_reduce"
  param {
    lr_mult: 1
    decay_mult: 1
  }
  param {
    lr_mult: 2
    decay_mult: 0
  }
  convolution_param {
    num_output: 72
    kernel_size: 1
    weight_filler {
      type: "xavier"
      std: 0.09
    }
    bias_filler {
      type: "constant"
      value: 0.2
    }
  }
}
layer {
  name: "inception_4d/relu_3x3_reduce"
  type: "ReLU"
  bottom: "inception_4d/3x3_reduce"
  top: "inception_4d/3x3_reduce"
}
layer {
  name: "inception_4d/3x3"
  type: "Convolution"
  bottom: "inception_4d/3x3_reduce"
  top: "inception_4d/3x3"
  param {
    lr_mult: 1
    decay_mult: 1
  }
  param {
    lr_mult: 2
    decay_mult: 0
  }
  convolution_param {
    num_output: 144
    pad: 1
    kernel_size: 3
    weight_filler {
      type: "xavier"
      std: 0.03
    }
    bias_filler {
      type: "constant"
      value: 0.2
    }
  }
}
layer {
  name: "inception_4d/relu_3x3"
  type: "ReLU"
  bottom: "inception_4d/3x3"
  top: "inception_4d/3x3"
}
layer {
  name: "inception_4d/5x5_reduce"
  type: "Convolution"
  bottom: "inception_4c/output"
  top: "inception_4d/5x5_reduce"
  param {
    lr_mult: 1
    decay_mult: 1
  }
  param {
    lr_mult: 2
    decay_mult: 0
  }
  convolution_param {
    num_output: 16
    kernel_size: 1
    weight_filler {
      type: "xavier"
      std: 0.2
    }
    bias_filler {
      type: "constant"
      value: 0.2
    }
  }
}
layer {
  name: "inception_4d/relu_5x5_reduce"
  type: "ReLU"
  bottom: "inception_4d/5x5_reduce"
  top: "inception_4d/5x5_reduce"
}
layer {
  name: "inception_4d/5x5"
  type: "Convolution"
  bottom: "inception_4d/5x5_reduce"
  top: "inception_4d/5x5"
  param {
    lr_mult: 1
    decay_mult: 1
  }
  param {
    lr_mult: 2
    decay_mult: 0
  }
  convolution_param {
    num_output: 32
    pad: 2
    kernel_size: 5
    weight_filler {
      type: "xavier"
      std: 0.03
    }
    bias_filler {
      type: "constant"
      value: 0.2
    }
  }
}
layer {
  name: "inception_4d/relu_5x5"
  type: "ReLU"
  bottom: "inception_4d/5x5"
  top: "inception_4d/5x5"
}
layer {
  name: "inception_4d/pool"
  type: "Pooling"
  bottom: "inception_4c/output"
  top: "inception_4d/pool"
  pooling_param {
    pool: MAX
    kernel_size: 3
    stride: 1
    pad: 1
  }
}
layer {
  name: "inception_4d/pool_proj"
  type: "Convolution"
  bottom: "inception_4d/pool"
  top: "inception_4d/pool_proj"
  param {
    lr_mult: 1
    decay_mult: 1
  }
  param {
    lr_mult: 2
    decay_mult: 0
  }
  convolution_param {
    num_output: 32
    kernel_size: 1
    weight_filler {
      type: "xavier"
      std: 0.1
    }
    bias_filler {
      type: "constant"
      value: 0.2
    }
  }
}
layer {
  name: "inception_4d/relu_pool_proj"
  type: "ReLU"
  bottom: "inception_4d/pool_proj"
  top: "inception_4d/pool_proj"
}
layer {
  name: "inception_4d/output"
  type: "Concat"
  bottom: "inception_4d/1x1"
  bottom: "inception_4d/3x3"
  bottom: "inception_4d/5x5"
  bottom: "inception_4d/pool_proj"
  top: "inception_4d/output"
}
layer {
  name: "inception_4e/1x1"
  type: "Convolution"
  bottom: "inception_4d/output"
  top: "inception_4e/1x1"
  param {
    lr_mult: 1
    decay_mult: 1
  }
  param {
    lr_mult: 2
    decay_mult: 0
  }
  convolution_param {
    num_output: 128
    kernel_size: 1
    weight_filler {
      type: "xavier"
      std: 0.03
    }
    bias_filler {
      type: "constant"
      value: 0.2
    }
  }
}
layer {
  name: "inception_4e/relu_1x1"
  type: "ReLU"
  bottom: "inception_4e/1x1"
  top: "inception_4e/1x1"
}
layer {
  name: "inception_4e/3x3_reduce"
  type: "Convolution"
  bottom: "inception_4d/output"
  top: "inception_4e/3x3_reduce"
  param {
    lr_mult: 1
    decay_mult: 1
  }
  param {
    lr_mult: 2
    decay_mult: 0
  }
  convolution_param {
    num_output: 80
    kernel_size: 1
    weight_filler {
      type: "xavier"
      std: 0.09
    }
    bias_filler {
      type: "constant"
      value: 0.2
    }
  }
}
layer {
  name: "inception_4e/relu_3x3_reduce"
  type: "ReLU"
  bottom: "inception_4e/3x3_reduce"
  top: "inception_4e/3x3_reduce"
}
layer {
  name: "inception_4e/3x3"
  type: "Convolution"
  bottom: "inception_4e/3x3_reduce"
  top: "inception_4e/3x3"
  param {
    lr_mult: 1
    decay_mult: 1
  }
  param {
    lr_mult: 2
    decay_mult: 0
  }
  convolution_param {
    num_output: 160
    pad: 1
    kernel_size: 3
    weight_filler {
      type: "xavier"
      std: 0.03
    }
    bias_filler {
      type: "constant"
      value: 0.2
    }
  }
}
layer {
  name: "inception_4e/relu_3x3"
  type: "ReLU"
  bottom: "inception_4e/3x3"
  top: "inception_4e/3x3"
}
layer {
  name: "inception_4e/5x5_reduce"
  type: "Convolution"
  bottom: "inception_4d/output"
  top: "inception_4e/5x5_reduce"
  param {
    lr_mult: 1
    decay_mult: 1
  }
  param {
    lr_mult: 2
    decay_mult: 0
  }
  convolution_param {
    num_output: 16
    kernel_size: 1
    weight_filler {
      type: "xavier"
      std: 0.2
    }
    bias_filler {
      type: "constant"
      value: 0.2
    }
  }
}
layer {
  name: "inception_4e/relu_5x5_reduce"
  type: "ReLU"
  bottom: "inception_4e/5x5_reduce"
  top: "inception_4e/5x5_reduce"
}
layer {
  name: "inception_4e/5x5"
  type: "Convolution"
  bottom: "inception_4e/5x5_reduce"
  top: "inception_4e/5x5"
  param {
    lr_mult: 1
    decay_mult: 1
  }
  param {
    lr_mult: 2
    decay_mult: 0
  }
  convolution_param {
    num_output: 64
    pad: 2
    kernel_size: 5
    weight_filler {
      type: "xavier"
      std: 0.03
    }
    bias_filler {
      type: "constant"
      value: 0.2
    }
  }
}
layer {
  name: "inception_4e/relu_5x5"
  type: "ReLU"
  bottom: "inception_4e/5x5"
  top: "inception_4e/5x5"
}
layer {
  name: "inception_4e/pool"
  type: "Pooling"
  bottom: "inception_4d/output"
  top: "inception_4e/pool"
  pooling_param {
    pool: MAX
    kernel_size: 3
    stride: 1
    pad: 1
  }
}
layer {
  name: "inception_4e/pool_proj"
  type: "Convolution"
  bottom: "inception_4e/pool"
  top: "inception_4e/pool_proj"
  param {
    lr_mult: 1
    decay_mult: 1
  }
  param {
    lr_mult: 2
    decay_mult: 0
  }
  convolution_param {
    num_output: 64
    kernel_size: 1
    weight_filler {
      type: "xavier"
      std: 0.1
    }
    bias_filler {
      type: "constant"
      value: 0.2
    }
  }
}
layer {
  name: "inception_4e/relu_pool_proj"
  type: "ReLU"
  bottom: "inception_4e/pool_proj"
  top: "inception_4e/pool_proj"
}
layer {
  name: "inception_4e/output"
  type: "Concat"
  bottom: "inception_4e/1x1"
  bottom: "inception_4e/3x3"
  bottom: "inception_4e/5x5"
  bottom: "inception_4e/pool_proj"
  top: "inception_4e/output"
}
layer {
  name: "conv_16"
  type: "Convolution"
  bottom: "inception_4e/output"
  top: "conv_16"
  param {
    lr_mult: 1
    decay_mult: 1
  }
  param {
    lr_mult: 2
    decay_mult: 0
  }
  convolution_param {
    num_output: 128
    kernel_size: 1
    weight_filler {
      type: "gaussian"
      std: 0.01
    }
    bias_filler {
      type: "constant"
      value: 0
    }
  }
}
layer {
  name: "relu_16"
  type: "ReLU"
  bottom: "conv_16"
  top: "conv_16"
}
layer {
  name: "conv_face_predict"
  type: "Convolution"
  bottom: "conv_16"
  top: "conv_face_predict"
  param {
    lr_mult: 1
    decay_mult: 1
  }
  param {
    lr_mult: 2
    decay_mult: 0
  }
  convolution_param {
    num_output: 20
    kernel_size: 1
    weight_filler {
      type: "gaussian"
      std: 0.01
    }
    bias_filler {
      type: "constant"
      value: 0
    }
  }
}
layer {
  name: "pool5/7x7_s1"
  type: "Pooling"
  bottom: "conv_face_predict"
  top: "pool5/7x7_s1"
  pooling_param {
    pool: AVE
    kernel_size: 4
    stride: 1
  }
}
layer {
  name: "pool5/drop_7x7_s1"
  type: "Dropout"
  bottom: "pool5/7x7_s1"
  top: "pool5/7x7_s1"
  dropout_param {
    dropout_ratio: 0.4
  }
}
layer {
  name: "loss3_my/predict"
  type: "InnerProduct"
  bottom: "pool5/7x7_s1"
  top: "loss3_my/predict"
  param {
    lr_mult: 1
    decay_mult: 1
  }
  param {
    lr_mult: 2
    decay_mult: 0
  }
  inner_product_param {
    num_output: 1
    weight_filler {
      type: "xavier"
    }
    bias_filler {
      type: "constant"
      value: 0
    }
  }
}
layer {
  name: "loss3_my/loss3_my"
  type: "Python"
  bottom: "loss3_my/predict"
  bottom: "label"
  top: "loss3_my/loss3_my"
  loss_weight: 1
  python_param {
    module: "robust_loss"
    layer: "RobustLossLayer"
  }
}
layer {
  name: "loss3_my/loss3_test"
  type: "Python"
  bottom: "loss3_my/predict"
  bottom: "label"
  top: "loss3_my/loss3_test"
  loss_weight: 1
  include {
    phase: TEST
  }
  python_param {
    module: "robust_loss"
    layer: "RobustLossLayer"
  }
}
I0321 14:31:51.253368 15398 layer_factory.hpp:77] Creating layer data
I0321 14:31:51.253438 15398 net.cpp:86] Creating Layer data
I0321 14:31:51.253459 15398 net.cpp:382] data -> data
I0321 14:31:51.253480 15398 net.cpp:382] data -> label
I0321 14:31:51.289443 15398 net.cpp:124] Setting up data
I0321 14:31:51.289504 15398 net.cpp:131] Top shape: 128 3 224 224 (19267584)
I0321 14:31:51.289521 15398 net.cpp:131] Top shape: 128 1 (128)
I0321 14:31:51.289533 15398 net.cpp:139] Memory required for data: 77070848
I0321 14:31:51.289549 15398 layer_factory.hpp:77] Creating layer label_data_1_split
I0321 14:31:51.289578 15398 net.cpp:86] Creating Layer label_data_1_split
I0321 14:31:51.289599 15398 net.cpp:408] label_data_1_split <- label
I0321 14:31:51.289620 15398 net.cpp:382] label_data_1_split -> label_data_1_split_0
I0321 14:31:51.289654 15398 net.cpp:382] label_data_1_split -> label_data_1_split_1
I0321 14:31:51.289736 15398 net.cpp:124] Setting up label_data_1_split
I0321 14:31:51.289757 15398 net.cpp:131] Top shape: 128 1 (128)
I0321 14:31:51.289773 15398 net.cpp:131] Top shape: 128 1 (128)
I0321 14:31:51.289785 15398 net.cpp:139] Memory required for data: 77071872
I0321 14:31:51.289798 15398 layer_factory.hpp:77] Creating layer conv1/7x7_s2
I0321 14:31:51.289849 15398 net.cpp:86] Creating Layer conv1/7x7_s2
I0321 14:31:51.289871 15398 net.cpp:408] conv1/7x7_s2 <- data
I0321 14:31:51.289891 15398 net.cpp:382] conv1/7x7_s2 -> conv1/7x7_s2
I0321 14:31:51.290256 15398 net.cpp:124] Setting up conv1/7x7_s2
I0321 14:31:51.290278 15398 net.cpp:131] Top shape: 128 32 112 112 (51380224)
I0321 14:31:51.290292 15398 net.cpp:139] Memory required for data: 282592768
I0321 14:31:51.290320 15398 layer_factory.hpp:77] Creating layer conv1/relu_7x7
I0321 14:31:51.290344 15398 net.cpp:86] Creating Layer conv1/relu_7x7
I0321 14:31:51.290359 15398 net.cpp:408] conv1/relu_7x7 <- conv1/7x7_s2
I0321 14:31:51.290407 15398 net.cpp:369] conv1/relu_7x7 -> conv1/7x7_s2 (in-place)
I0321 14:31:51.290431 15398 net.cpp:124] Setting up conv1/relu_7x7
I0321 14:31:51.290448 15398 net.cpp:131] Top shape: 128 32 112 112 (51380224)
I0321 14:31:51.290454 15398 net.cpp:139] Memory required for data: 488113664
I0321 14:31:51.290460 15398 layer_factory.hpp:77] Creating layer pool1/3x3_s2
I0321 14:31:51.290472 15398 net.cpp:86] Creating Layer pool1/3x3_s2
I0321 14:31:51.290484 15398 net.cpp:408] pool1/3x3_s2 <- conv1/7x7_s2
I0321 14:31:51.290493 15398 net.cpp:382] pool1/3x3_s2 -> pool1/3x3_s2
I0321 14:31:51.290544 15398 net.cpp:124] Setting up pool1/3x3_s2
I0321 14:31:51.290558 15398 net.cpp:131] Top shape: 128 32 56 56 (12845056)
I0321 14:31:51.290565 15398 net.cpp:139] Memory required for data: 539493888
I0321 14:31:51.290570 15398 layer_factory.hpp:77] Creating layer pool1/norm1
I0321 14:31:51.290581 15398 net.cpp:86] Creating Layer pool1/norm1
I0321 14:31:51.290587 15398 net.cpp:408] pool1/norm1 <- pool1/3x3_s2
I0321 14:31:51.290596 15398 net.cpp:382] pool1/norm1 -> pool1/norm1
I0321 14:31:51.290637 15398 net.cpp:124] Setting up pool1/norm1
I0321 14:31:51.290652 15398 net.cpp:131] Top shape: 128 32 56 56 (12845056)
I0321 14:31:51.290657 15398 net.cpp:139] Memory required for data: 590874112
I0321 14:31:51.290663 15398 layer_factory.hpp:77] Creating layer conv2/3x3_reduce
I0321 14:31:51.290675 15398 net.cpp:86] Creating Layer conv2/3x3_reduce
I0321 14:31:51.290683 15398 net.cpp:408] conv2/3x3_reduce <- pool1/norm1
I0321 14:31:51.290691 15398 net.cpp:382] conv2/3x3_reduce -> conv2/3x3_reduce
I0321 14:31:51.290964 15398 net.cpp:124] Setting up conv2/3x3_reduce
I0321 14:31:51.290982 15398 net.cpp:131] Top shape: 128 32 56 56 (12845056)
I0321 14:31:51.290987 15398 net.cpp:139] Memory required for data: 642254336
I0321 14:31:51.290999 15398 layer_factory.hpp:77] Creating layer conv2/relu_3x3_reduce
I0321 14:31:51.291010 15398 net.cpp:86] Creating Layer conv2/relu_3x3_reduce
I0321 14:31:51.291016 15398 net.cpp:408] conv2/relu_3x3_reduce <- conv2/3x3_reduce
I0321 14:31:51.291024 15398 net.cpp:369] conv2/relu_3x3_reduce -> conv2/3x3_reduce (in-place)
I0321 14:31:51.291034 15398 net.cpp:124] Setting up conv2/relu_3x3_reduce
I0321 14:31:51.291044 15398 net.cpp:131] Top shape: 128 32 56 56 (12845056)
I0321 14:31:51.291049 15398 net.cpp:139] Memory required for data: 693634560
I0321 14:31:51.291055 15398 layer_factory.hpp:77] Creating layer conv2/3x3
I0321 14:31:51.291069 15398 net.cpp:86] Creating Layer conv2/3x3
I0321 14:31:51.291074 15398 net.cpp:408] conv2/3x3 <- conv2/3x3_reduce
I0321 14:31:51.291084 15398 net.cpp:382] conv2/3x3 -> conv2/3x3
I0321 14:31:51.291586 15398 net.cpp:124] Setting up conv2/3x3
I0321 14:31:51.291607 15398 net.cpp:131] Top shape: 128 96 56 56 (38535168)
I0321 14:31:51.291622 15398 net.cpp:139] Memory required for data: 847775232
I0321 14:31:51.291646 15398 layer_factory.hpp:77] Creating layer conv2/relu_3x3
I0321 14:31:51.291663 15398 net.cpp:86] Creating Layer conv2/relu_3x3
I0321 14:31:51.291678 15398 net.cpp:408] conv2/relu_3x3 <- conv2/3x3
I0321 14:31:51.291697 15398 net.cpp:369] conv2/relu_3x3 -> conv2/3x3 (in-place)
I0321 14:31:51.291714 15398 net.cpp:124] Setting up conv2/relu_3x3
I0321 14:31:51.291725 15398 net.cpp:131] Top shape: 128 96 56 56 (38535168)
I0321 14:31:51.291731 15398 net.cpp:139] Memory required for data: 1001915904
I0321 14:31:51.291738 15398 layer_factory.hpp:77] Creating layer conv2/norm2
I0321 14:31:51.291746 15398 net.cpp:86] Creating Layer conv2/norm2
I0321 14:31:51.291752 15398 net.cpp:408] conv2/norm2 <- conv2/3x3
I0321 14:31:51.291760 15398 net.cpp:382] conv2/norm2 -> conv2/norm2
I0321 14:31:51.291806 15398 net.cpp:124] Setting up conv2/norm2
I0321 14:31:51.291821 15398 net.cpp:131] Top shape: 128 96 56 56 (38535168)
I0321 14:31:51.291826 15398 net.cpp:139] Memory required for data: 1156056576
I0321 14:31:51.291832 15398 layer_factory.hpp:77] Creating layer pool2/3x3_s2
I0321 14:31:51.291842 15398 net.cpp:86] Creating Layer pool2/3x3_s2
I0321 14:31:51.291864 15398 net.cpp:408] pool2/3x3_s2 <- conv2/norm2
I0321 14:31:51.291874 15398 net.cpp:382] pool2/3x3_s2 -> pool2/3x3_s2
I0321 14:31:51.291919 15398 net.cpp:124] Setting up pool2/3x3_s2
I0321 14:31:51.291934 15398 net.cpp:131] Top shape: 128 96 28 28 (9633792)
I0321 14:31:51.291940 15398 net.cpp:139] Memory required for data: 1194591744
I0321 14:31:51.291945 15398 layer_factory.hpp:77] Creating layer pool2/3x3_s2_pool2/3x3_s2_0_split
I0321 14:31:51.291959 15398 net.cpp:86] Creating Layer pool2/3x3_s2_pool2/3x3_s2_0_split
I0321 14:31:51.291967 15398 net.cpp:408] pool2/3x3_s2_pool2/3x3_s2_0_split <- pool2/3x3_s2
I0321 14:31:51.291976 15398 net.cpp:382] pool2/3x3_s2_pool2/3x3_s2_0_split -> pool2/3x3_s2_pool2/3x3_s2_0_split_0
I0321 14:31:51.291986 15398 net.cpp:382] pool2/3x3_s2_pool2/3x3_s2_0_split -> pool2/3x3_s2_pool2/3x3_s2_0_split_1
I0321 14:31:51.291998 15398 net.cpp:382] pool2/3x3_s2_pool2/3x3_s2_0_split -> pool2/3x3_s2_pool2/3x3_s2_0_split_2
I0321 14:31:51.292007 15398 net.cpp:382] pool2/3x3_s2_pool2/3x3_s2_0_split -> pool2/3x3_s2_pool2/3x3_s2_0_split_3
I0321 14:31:51.292073 15398 net.cpp:124] Setting up pool2/3x3_s2_pool2/3x3_s2_0_split
I0321 14:31:51.292088 15398 net.cpp:131] Top shape: 128 96 28 28 (9633792)
I0321 14:31:51.292095 15398 net.cpp:131] Top shape: 128 96 28 28 (9633792)
I0321 14:31:51.292101 15398 net.cpp:131] Top shape: 128 96 28 28 (9633792)
I0321 14:31:51.292109 15398 net.cpp:131] Top shape: 128 96 28 28 (9633792)
I0321 14:31:51.292114 15398 net.cpp:139] Memory required for data: 1348732416
I0321 14:31:51.292119 15398 layer_factory.hpp:77] Creating layer inception_3a/1x1
I0321 14:31:51.292131 15398 net.cpp:86] Creating Layer inception_3a/1x1
I0321 14:31:51.292137 15398 net.cpp:408] inception_3a/1x1 <- pool2/3x3_s2_pool2/3x3_s2_0_split_0
I0321 14:31:51.292146 15398 net.cpp:382] inception_3a/1x1 -> inception_3a/1x1
I0321 14:31:51.292445 15398 net.cpp:124] Setting up inception_3a/1x1
I0321 14:31:51.292464 15398 net.cpp:131] Top shape: 128 32 28 28 (3211264)
I0321 14:31:51.292470 15398 net.cpp:139] Memory required for data: 1361577472
I0321 14:31:51.292479 15398 layer_factory.hpp:77] Creating layer inception_3a/relu_1x1
I0321 14:31:51.292491 15398 net.cpp:86] Creating Layer inception_3a/relu_1x1
I0321 14:31:51.292500 15398 net.cpp:408] inception_3a/relu_1x1 <- inception_3a/1x1
I0321 14:31:51.292508 15398 net.cpp:369] inception_3a/relu_1x1 -> inception_3a/1x1 (in-place)
I0321 14:31:51.292517 15398 net.cpp:124] Setting up inception_3a/relu_1x1
I0321 14:31:51.292526 15398 net.cpp:131] Top shape: 128 32 28 28 (3211264)
I0321 14:31:51.292531 15398 net.cpp:139] Memory required for data: 1374422528
I0321 14:31:51.292536 15398 layer_factory.hpp:77] Creating layer inception_3a/3x3_reduce
I0321 14:31:51.292551 15398 net.cpp:86] Creating Layer inception_3a/3x3_reduce
I0321 14:31:51.292560 15398 net.cpp:408] inception_3a/3x3_reduce <- pool2/3x3_s2_pool2/3x3_s2_0_split_1
I0321 14:31:51.292569 15398 net.cpp:382] inception_3a/3x3_reduce -> inception_3a/3x3_reduce
I0321 14:31:51.292883 15398 net.cpp:124] Setting up inception_3a/3x3_reduce
I0321 14:31:51.292901 15398 net.cpp:131] Top shape: 128 48 28 28 (4816896)
I0321 14:31:51.292906 15398 net.cpp:139] Memory required for data: 1393690112
I0321 14:31:51.292922 15398 layer_factory.hpp:77] Creating layer inception_3a/relu_3x3_reduce
I0321 14:31:51.292935 15398 net.cpp:86] Creating Layer inception_3a/relu_3x3_reduce
I0321 14:31:51.292944 15398 net.cpp:408] inception_3a/relu_3x3_reduce <- inception_3a/3x3_reduce
I0321 14:31:51.292955 15398 net.cpp:369] inception_3a/relu_3x3_reduce -> inception_3a/3x3_reduce (in-place)
I0321 14:31:51.292968 15398 net.cpp:124] Setting up inception_3a/relu_3x3_reduce
I0321 14:31:51.292976 15398 net.cpp:131] Top shape: 128 48 28 28 (4816896)
I0321 14:31:51.292981 15398 net.cpp:139] Memory required for data: 1412957696
I0321 14:31:51.292986 15398 layer_factory.hpp:77] Creating layer inception_3a/3x3
I0321 14:31:51.292997 15398 net.cpp:86] Creating Layer inception_3a/3x3
I0321 14:31:51.293006 15398 net.cpp:408] inception_3a/3x3 <- inception_3a/3x3_reduce
I0321 14:31:51.293035 15398 net.cpp:382] inception_3a/3x3 -> inception_3a/3x3
I0321 14:31:51.293568 15398 net.cpp:124] Setting up inception_3a/3x3
I0321 14:31:51.293592 15398 net.cpp:131] Top shape: 128 64 28 28 (6422528)
I0321 14:31:51.293607 15398 net.cpp:139] Memory required for data: 1438647808
I0321 14:31:51.293625 15398 layer_factory.hpp:77] Creating layer inception_3a/relu_3x3
I0321 14:31:51.293644 15398 net.cpp:86] Creating Layer inception_3a/relu_3x3
I0321 14:31:51.293655 15398 net.cpp:408] inception_3a/relu_3x3 <- inception_3a/3x3
I0321 14:31:51.293663 15398 net.cpp:369] inception_3a/relu_3x3 -> inception_3a/3x3 (in-place)
I0321 14:31:51.293673 15398 net.cpp:124] Setting up inception_3a/relu_3x3
I0321 14:31:51.293684 15398 net.cpp:131] Top shape: 128 64 28 28 (6422528)
I0321 14:31:51.293689 15398 net.cpp:139] Memory required for data: 1464337920
I0321 14:31:51.293702 15398 layer_factory.hpp:77] Creating layer inception_3a/5x5_reduce
I0321 14:31:51.293718 15398 net.cpp:86] Creating Layer inception_3a/5x5_reduce
I0321 14:31:51.293726 15398 net.cpp:408] inception_3a/5x5_reduce <- pool2/3x3_s2_pool2/3x3_s2_0_split_2
I0321 14:31:51.293738 15398 net.cpp:382] inception_3a/5x5_reduce -> inception_3a/5x5_reduce
I0321 14:31:51.294015 15398 net.cpp:124] Setting up inception_3a/5x5_reduce
I0321 14:31:51.294033 15398 net.cpp:131] Top shape: 128 8 28 28 (802816)
I0321 14:31:51.294039 15398 net.cpp:139] Memory required for data: 1467549184
I0321 14:31:51.294047 15398 layer_factory.hpp:77] Creating layer inception_3a/relu_5x5_reduce
I0321 14:31:51.294061 15398 net.cpp:86] Creating Layer inception_3a/relu_5x5_reduce
I0321 14:31:51.294070 15398 net.cpp:408] inception_3a/relu_5x5_reduce <- inception_3a/5x5_reduce
I0321 14:31:51.294078 15398 net.cpp:369] inception_3a/relu_5x5_reduce -> inception_3a/5x5_reduce (in-place)
I0321 14:31:51.294088 15398 net.cpp:124] Setting up inception_3a/relu_5x5_reduce
I0321 14:31:51.294098 15398 net.cpp:131] Top shape: 128 8 28 28 (802816)
…
I0321 14:31:51.302564 15398 net.cpp:131] Top shape: 128 104 14 14 (2609152)
I0321 14:31:51.302575 15398 net.cpp:139] Memory required for data: 2356266496
I0321 14:31:51.302585 15398 layer_factory.hpp:77] Creating layer inception_4a/relu_3x3
I0321 14:31:51.302597 15398 net.cpp:86] Creating Layer inception_4a/relu_3x3
I0321 14:31:51.302603 15398 net.cpp:408] inception_4a/relu_3x3 <- inception_4a/3x3
I0321 14:31:51.302620 15398 net.cpp:369] inception_4a/relu_3x3 -> inception_4a/3x3 (in-place)
I0321 14:31:51.302646 15398 net.cpp:124] Setting up inception_4a/relu_3x3
I0321 14:31:51.302675 15398 net.cpp:131] Top shape: 128 104 14 14 (2609152)
I0321 14:31:51.302682 15398 net.cpp:139] Memory required for data: 2366703104
I0321 14:31:51.302690 15398 layer_factory.hpp:77] Creating layer inception_4a/5x5_reduce
I0321 14:31:51.302707 15398 net.cpp:86] Creating Layer inception_4a/5x5_reduce
I0321 14:31:51.302714 15398 net.cpp:408] inception_4a/5x5_reduce <- pool3/3x3_s2_pool3/3x3_s2_0_split_2
I0321 14:31:51.302724 15398 net.cpp:382] inception_4a/5x5_reduce -> inception_4a/5x5_reduce
I0321 14:31:51.303051 15398 net.cpp:124] Setting up inception_4a/5x5_reduce
I0321 14:31:51.303071 15398 net.cpp:131] Top shape: 128 8 14 14 (200704)
I0321 14:31:51.303076 15398 net.cpp:139] Memory required for data: 2367505920
I0321 14:31:51.303086 15398 layer_factory.hpp:77] Creating layer inception_4a/relu_5x5_reduce
I0321 14:31:51.303097 15398 net.cpp:86] Creating Layer inception_4a/relu_5x5_reduce
I0321 14:31:51.303103 15398 net.cpp:408] inception_4a/relu_5x5_reduce <- inception_4a/5x5_reduce
I0321 14:31:51.303114 15398 net.cpp:369] inception_4a/relu_5x5_reduce -> inception_4a/5x5_reduce (in-place)
I0321 14:31:51.303124 15398 net.cpp:124] Setting up inception_4a/relu_5x5_reduce
I0321 14:31:51.303133 15398 net.cpp:131] Top shape: 128 8 14 14 (200704)
I0321 14:31:51.303138 15398 net.cpp:139] Memory required for data: 2368308736
I0321 14:31:51.303143 15398 layer_factory.hpp:77] Creating layer inception_4a/5x5
I0321 14:31:51.303158 15398 net.cpp:86] Creating Layer inception_4a/5x5
I0321 14:31:51.303165 15398 net.cpp:408] inception_4a/5x5 <- inception_4a/5x5_reduce
I0321 14:31:51.303175 15398 net.cpp:382] inception_4a/5x5 -> inception_4a/5x5
I0321 14:31:51.303490 15398 net.cpp:124] Setting up inception_4a/5x5
I0321 14:31:51.303508 15398 net.cpp:131] Top shape: 128 24 14 14 (602112)
I0321 14:31:51.303514 15398 net.cpp:139] Memory required for data: 2370717184
I0321 14:31:51.303524 15398 layer_factory.hpp:77] Creating layer inception_4a/relu_5x5
I0321 14:31:51.303531 15398 net.cpp:86] Creating Layer inception_4a/relu_5x5
I0321 14:31:51.303539 15398 net.cpp:408] inception_4a/relu_5x5 <- inception_4a/5x5
I0321 14:31:51.303549 15398 net.cpp:369] inception_4a/relu_5x5 -> inception_4a/5x5 (in-place)
I0321 14:31:51.303558 15398 net.cpp:124] Setting up inception_4a/relu_5x5
I0321 14:31:51.303566 15398 net.cpp:131] Top shape: 128 24 14 14 (602112)
I0321 14:31:51.303571 15398 net.cpp:139] Memory required for data: 2373125632
I0321 14:31:51.303576 15398 layer_factory.hpp:77] Creating layer inception_4a/pool
I0321 14:31:51.303586 15398 net.cpp:86] Creating Layer inception_4a/pool
I0321 14:31:51.303591 15398 net.cpp:408] inception_4a/pool <- pool3/3x3_s2_pool3/3x3_s2_0_split_3
I0321 14:31:51.303602 15398 net.cpp:382] inception_4a/pool -> inception_4a/pool
I0321 14:31:51.303653 15398 net.cpp:124] Setting up inception_4a/pool
I0321 14:31:51.303668 15398 net.cpp:131] Top shape: 128 240 14 14 (6021120)
I0321 14:31:51.303673 15398 net.cpp:139] Memory required for data: 2397210112
I0321 14:31:51.303678 15398 layer_factory.hpp:77] Creating layer inception_4a/pool_proj
I0321 14:31:51.303692 15398 net.cpp:86] Creating Layer inception_4a/pool_proj
I0321 14:31:51.303700 15398 net.cpp:408] inception_4a/pool_proj <- inception_4a/pool
I0321 14:31:51.303711 15398 net.cpp:382] inception_4a/pool_proj -> inception_4a/pool_proj
I0321 14:31:51.304056 15398 net.cpp:124] Setting up inception_4a/pool_proj
I0321 14:31:51.304075 15398 net.cpp:131] Top shape: 128 32 14 14 (802816)
I0321 14:31:51.304080 15398 net.cpp:139] Memory required for data: 2400421376
I0321 14:31:51.304090 15398 layer_factory.hpp:77] Creating layer inception_4a/relu_pool_proj
I0321 14:31:51.304097 15398 net.cpp:86] Creating Layer inception_4a/relu_pool_proj
I0321 14:31:51.304105 15398 net.cpp:408] inception_4a/relu_pool_proj <- inception_4a/pool_proj
I0321 14:31:51.304112 15398 net.cpp:369] inception_4a/relu_pool_proj -> inception_4a/pool_proj (in-place)
I0321 14:31:51.304121 15398 net.cpp:124] Setting up inception_4a/relu_pool_proj
I0321 14:31:51.304128 15398 net.cpp:131] Top shape: 128 32 14 14 (802816)
I0321 14:31:51.304149 15398 net.cpp:139] Memory required for data: 2403632640
I0321 14:31:51.304157 15398 layer_factory.hpp:77] Creating layer inception_4a/output
I0321 14:31:51.304168 15398 net.cpp:86] Creating Layer inception_4a/output
I0321 14:31:51.304175 15398 net.cpp:408] inception_4a/output <- inception_4a/1x1
I0321 14:31:51.304183 15398 net.cpp:408] inception_4a/output <- inception_4a/3x3
I0321 14:31:51.304190 15398 net.cpp:408] inception_4a/output <- inception_4a/5x5
I0321 14:31:51.304198 15398 net.cpp:408] inception_4a/output <- inception_4a/pool_proj
I0321 14:31:51.304205 15398 net.cpp:382] inception_4a/output -> inception_4a/output
I0321 14:31:51.304242 15398 net.cpp:124] Setting up inception_4a/output
I0321 14:31:51.304256 15398 net.cpp:131] Top shape: 128 256 14 14 (6422528)
I0321 14:31:51.304262 15398 net.cpp:139] Memory required for data: 2429322752
I0321 14:31:51.304268 15398 layer_factory.hpp:77] Creating layer inception_4a/output_inception_4a/output_0_split
I0321 14:31:51.304276 15398 net.cpp:86] Creating Layer inception_4a/output_inception_4a/output_0_split
I0321 14:31:51.304282 15398 net.cpp:408] inception_4a/output_inception_4a/output_0_split <- inception_4a/output
I0321 14:31:51.304293 15398 net.cpp:382] inception_4a/output_inception_4a/output_0_split -> inception_4a/output_inception_4a/output_0_split_0
I0321 14:31:51.304304 15398 net.cpp:382] inception_4a/output_inception_4a/output_0_split -> inception_4a/output_inception_4a/output_0_split_1
I0321 14:31:51.304313 15398 net.cpp:382] inception_4a/output_inception_4a/output_0_split -> inception_4a/output_inception_4a/output_0_split_2
I0321 14:31:51.304322 15398 net.cpp:382] inception_4a/output_inception_4a/output_0_split -> inception_4a/output_inception_4a/output_0_split_3
I0321 14:31:51.304397 15398 net.cpp:124] Setting up inception_4a/output_inception_4a/output_0_split
I0321 14:31:51.304419 15398 net.cpp:131] Top shape: 128 256 14 14 (6422528)
I0321 14:31:51.304436 15398 net.cpp:131] Top shape: 128 256 14 14 (6422528)
I0321 14:31:51.304448 15398 net.cpp:131] Top shape: 128 256 14 14 (6422528)
I0321 14:31:51.304461 15398 net.cpp:131] Top shape: 128 256 14 14 (6422528)
I0321 14:31:51.304471 15398 net.cpp:139] Memory required for data: 2532083200
I0321 14:31:51.304481 15398 layer_factory.hpp:77] Creating layer inception_4b/1x1
I0321 14:31:51.304507 15398 net.cpp:86] Creating Layer inception_4b/1x1
I0321 14:31:51.304522 15398 net.cpp:408] inception_4b/1x1 <- inception_4a/output_inception_4a/output_0_split_0
I0321 14:31:51.304533 15398 net.cpp:382] inception_4b/1x1 -> inception_4b/1x1
I0321 14:31:51.304970 15398 net.cpp:124] Setting up inception_4b/1x1
I0321 14:31:51.304986 15398 net.cpp:131] Top shape: 128 80 14 14 (2007040)
I0321 14:31:51.304992 15398 net.cpp:139] Memory required for data: 2540111360
I0321 14:31:51.305001 15398 layer_factory.hpp:77] Creating layer inception_4b/relu_1x1
I0321 14:31:51.305009 15398 net.cpp:86] Creating Layer inception_4b/relu_1x1
I0321 14:31:51.305016 15398 net.cpp:408] inception_4b/relu_1x1 <- inception_4b/1x1
I0321 14:31:51.305027 15398 net.cpp:369] inception_4b/relu_1x1 -> inception_4b/1x1 (in-place)
I0321 14:31:51.305037 15398 net.cpp:124] Setting up inception_4b/relu_1x1
I0321 14:31:51.305044 15398 net.cpp:131] Top shape: 128 80 14 14 (2007040)
I0321 14:31:51.305050 15398 net.cpp:139] Memory required for data: 2548139520
I0321 14:31:51.305055 15398 layer_factory.hpp:77] Creating layer inception_4b/3x3_reduce
I0321 14:31:51.305066 15398 net.cpp:86] Creating Layer inception_4b/3x3_reduce
I0321 14:31:51.305073 15398 net.cpp:408] inception_4b/3x3_reduce <- inception_4a/output_inception_4a/output_0_split_1
I0321 14:31:51.305084 15398 net.cpp:382] inception_4b/3x3_reduce -> inception_4b/3x3_reduce
I0321 14:31:51.305515 15398 net.cpp:124] Setting up inception_4b/3x3_reduce
I0321 14:31:51.305532 15398 net.cpp:131] Top shape: 128 56 14 14 (1404928)
I0321 14:31:51.305538 15398 net.cpp:139] Memory required for data: 2553759232
I0321 14:31:51.305547 15398 layer_factory.hpp:77] Creating layer inception_4b/relu_3x3_reduce
I0321 14:31:51.305570 15398 net.cpp:86] Creating Layer inception_4b/relu_3x3_reduce
I0321 14:31:51.305578 15398 net.cpp:408] inception_4b/relu_3x3_reduce <- inception_4b/3x3_reduce
I0321 14:31:51.305586 15398 net.cpp:369] inception_4b/relu_3x3_reduce -> inception_4b/3x3_reduce (in-place)
I0321 14:31:51.305595 15398 net.cpp:124] Setting up inception_4b/relu_3x3_reduce
I0321 14:31:51.305603 15398 net.cpp:131] Top shape: 128 56 14 14 (1404928)
I0321 14:31:51.305608 15398 net.cpp:139] Memory required for data: 2559378944
I0321 14:31:51.305614 15398 layer_factory.hpp:77] Creating layer inception_4b/3x3
I0321 14:31:51.305629 15398 net.cpp:86] Creating Layer inception_4b/3x3
I0321 14:31:51.305635 15398 net.cpp:408] inception_4b/3x3 <- inception_4b/3x3_reduce
I0321 14:31:51.305646 15398 net.cpp:382] inception_4b/3x3 -> inception_4b/3x3
I0321 14:31:51.306428 15398 net.cpp:124] Setting up inception_4b/3x3
I0321 14:31:51.306447 15398 net.cpp:131] Top shape: 128 112 14 14 (2809856)
I0321 14:31:51.306452 15398 net.cpp:139] Memory required for data: 2570618368
I0321 14:31:51.306462 15398 layer_factory.hpp:77] Creating layer inception_4b/relu_3x3
I0321 14:31:51.306479 15398 net.cpp:86] Creating Layer inception_4b/relu_3x3
I0321 14:31:51.306486 15398 net.cpp:408] inception_4b/relu_3x3 <- inception_4b/3x3
I0321 14:31:51.306495 15398 net.cpp:369] inception_4b/relu_3x3 -> inception_4b/3x3 (in-place)
I0321 14:31:51.306504 15398 net.cpp:124] Setting up inception_4b/relu_3x3
I0321 14:31:51.306512 15398 net.cpp:131] Top shape: 128 112 14 14 (2809856)
I0321 14:31:51.306519 15398 net.cpp:139] Memory required for data: 2581857792
I0321 14:31:51.306524 15398 layer_factory.hpp:77] Creating layer inception_4b/5x5_reduce
I0321 14:31:51.306542 15398 net.cpp:86] Creating Layer inception_4b/5x5_reduce
I0321 14:31:51.306550 15398 net.cpp:408] inception_4b/5x5_reduce <- inception_4a/output_inception_4a/output_0_split_2
I0321 14:31:51.306561 15398 net.cpp:382] inception_4b/5x5_reduce -> inception_4b/5x5_reduce
I0321 14:31:51.306926 15398 net.cpp:124] Setting up inception_4b/5x5_reduce
I0321 14:31:51.306946 15398 net.cpp:131] Top shape: 128 12 14 14 (301056)
I0321 14:31:51.306951 15398 net.cpp:139] Memory required for data: 2583062016
I0321 14:31:51.306960 15398 layer_factory.hpp:77] Creating layer inception_4b/relu_5x5_reduce
I0321 14:31:51.306972 15398 net.cpp:86] Creating Layer inception_4b/relu_5x5_reduce
I0321 14:31:51.306979 15398 net.cpp:408] inception_4b/relu_5x5_reduce <- inception_4b/5x5_reduce
I0321 14:31:51.306988 15398 net.cpp:369] inception_4b/relu_5x5_reduce -> inception_4b/5x5_reduce (in-place)
I0321 14:31:51.306998 15398 net.cpp:124] Setting up inception_4b/relu_5x5_reduce
I0321 14:31:51.307005 15398 net.cpp:131] Top shape: 128 12 14 14 (301056)
I0321 14:31:51.307010 15398 net.cpp:139] Memory required for data: 2584266240
I0321 14:31:51.307015 15398 layer_factory.hpp:77] Creating layer inception_4b/5x5
I0321 14:31:51.307030 15398 net.cpp:86] Creating Layer inception_4b/5x5
I0321 14:31:51.307037 15398 net.cpp:408] inception_4b/5x5 <- inception_4b/5x5_reduce
I0321 14:31:51.307046 15398 net.cpp:382] inception_4b/5x5 -> inception_4b/5x5
I0321 14:31:51.307402 15398 net.cpp:124] Setting up inception_4b/5x5
I0321 14:31:51.307420 15398 net.cpp:131] Top shape: 128 32 14 14 (802816)
I0321 14:31:51.307425 15398 net.cpp:139] Memory required for data: 2587477504
I0321 14:31:51.307435 15398 layer_factory.hpp:77] Creating layer inception_4b/relu_5x5
I0321 14:31:51.307446 15398 net.cpp:86] Creating Layer inception_4b/relu_5x5
I0321 14:31:51.307452 15398 net.cpp:408] inception_4b/relu_5x5 <- inception_4b/5x5
I0321 14:31:51.307461 15398 net.cpp:369] inception_4b/relu_5x5 -> inception_4b/5x5 (in-place)
I0321 14:31:51.307471 15398 net.cpp:124] Setting up inception_4b/relu_5x5
I0321 14:31:51.307477 15398 net.cpp:131] Top shape: 128 32 14 14 (802816)
I0321 14:31:51.307483 15398 net.cpp:139] Memory required for data: 2590688768
I0321 14:31:51.307488 15398 layer_factory.hpp:77] Creating layer inception_4b/pool
I0321 14:31:51.307497 15398 net.cpp:86] Creating Layer inception_4b/pool
I0321 14:31:51.307518 15398 net.cpp:408] inception_4b/pool <- inception_4a/output_inception_4a/output_0_split_3
I0321 14:31:51.307531 15398 net.cpp:382] inception_4b/pool -> inception_4b/pool
I0321 14:31:51.307585 15398 net.cpp:124] Setting up inception_4b/pool
I0321 14:31:51.307600 15398 net.cpp:131] Top shape: 128 256 14 14 (6422528)
I0321 14:31:51.307605 15398 net.cpp:139] Memory required for data: 2616378880
I0321 14:31:51.307610 15398 layer_factory.hpp:77] Creating layer inception_4b/pool_proj
I0321 14:31:51.307626 15398 net.cpp:86] Creating Layer inception_4b/pool_proj
I0321 14:31:51.307634 15398 net.cpp:408] inception_4b/pool_proj <- inception_4b/pool
I0321 14:31:51.307644 15398 net.cpp:382] inception_4b/pool_proj -> inception_4b/pool_proj
I0321 14:31:51.307987 15398 net.cpp:124] Setting up inception_4b/pool_proj
I0321 14:31:51.308004 15398 net.cpp:131] Top shape: 128 32 14 14 (802816)
I0321 14:31:51.308010 15398 net.cpp:139] Memory required for data: 2619590144
I0321 14:31:51.308019 15398 layer_factory.hpp:77] Creating layer inception_4b/relu_pool_proj
I0321 14:31:51.308027 15398 net.cpp:86] Creating Layer inception_4b/relu_pool_proj
I0321 14:31:51.308034 15398 net.cpp:408] inception_4b/relu_pool_proj <- inception_4b/pool_proj
I0321 14:31:51.308045 15398 net.cpp:369] inception_4b/relu_pool_proj -> inception_4b/pool_proj (in-place)
I0321 14:31:51.308055 15398 net.cpp:124] Setting up inception_4b/relu_pool_proj
I0321 14:31:51.308063 15398 net.cpp:131] Top shape: 128 32 14 14 (802816)
I0321 14:31:51.308068 15398 net.cpp:139] Memory required for data: 2622801408
I0321 14:31:51.308073 15398 layer_factory.hpp:77] Creating layer inception_4b/output
I0321 14:31:51.308081 15398 net.cpp:86] Creating Layer inception_4b/output
I0321 14:31:51.308087 15398 net.cpp:408] inception_4b/output <- inception_4b/1x1
I0321 14:31:51.308094 15398 net.cpp:408] inception_4b/output <- inception_4b/3x3
I0321 14:31:51.308101 15398 net.cpp:408] inception_4b/output <- inception_4b/5x5
I0321 14:31:51.308109 15398 net.cpp:408] inception_4b/output <- inception_4b/pool_proj
I0321 14:31:51.308116 15398 net.cpp:382] inception_4b/output -> inception_4b/output
I0321 14:31:51.308152 15398 net.cpp:124] Setting up inception_4b/output
I0321 14:31:51.308166 15398 net.cpp:131] Top shape: 128 256 14 14 (6422528)
I0321 14:31:51.308172 15398 net.cpp:139] Memory required for data: 2648491520
I0321 14:31:51.308178 15398 layer_factory.hpp:77] Creating layer inception_4b/output_inception_4b/output_0_split
I0321 14:31:51.308187 15398 net.cpp:86] Creating Layer inception_4b/output_inception_4b/output_0_split
I0321 14:31:51.308192 15398 net.cpp:408] inception_4b/output_inception_4b/output_0_split <- inception_4b/output
I0321 14:31:51.308204 15398 net.cpp:382] inception_4b/output_inception_4b/output_0_split -> inception_4b/output_inception_4b/output_0_split_0
I0321 14:31:51.308215 15398 net.cpp:382] inception_4b/output_inception_4b/output_0_split -> inception_4b/output_inception_4b/output_0_split_1
I0321 14:31:51.308224 15398 net.cpp:382] inception_4b/output_inception_4b/output_0_split -> inception_4b/output_inception_4b/output_0_split_2
I0321 14:31:51.308233 15398 net.cpp:382] inception_4b/output_inception_4b/output_0_split -> inception_4b/output_inception_4b/output_0_split_3
I0321 14:31:51.308305 15398 net.cpp:124] Setting up inception_4b/output_inception_4b/output_0_split
I0321 14:31:51.308321 15398 net.cpp:131] Top shape: 128 256 14 14 (6422528)
I0321 14:31:51.308329 15398 net.cpp:131] Top shape: 128 256 14 14 (6422528)
I0321 14:31:51.308336 15398 net.cpp:131] Top shape: 128 256 14 14 (6422528)
I0321 14:31:51.308342 15398 net.cpp:131] Top shape: 128 256 14 14 (6422528)
I0321 14:31:51.308347 15398 net.cpp:139] Memory required for data: 2751251968
I0321 14:31:51.308352 15398 layer_factory.hpp:77] Creating layer inception_4c/1x1
I0321 14:31:51.308364 15398 net.cpp:86] Creating Layer inception_4c/1x1
I0321 14:31:51.308370 15398 net.cpp:408] inception_4c/1x1 <- inception_4b/output_inception_4b/output_0_split_0
I0321 14:31:51.308382 15398 net.cpp:382] inception_4c/1x1 -> inception_4c/1x1
I0321 14:31:51.308814 15398 net.cpp:124] Setting up inception_4c/1x1
I0321 14:31:51.308841 15398 net.cpp:131] Top shape: 128 64 14 14 (1605632)
I0321 14:31:51.308857 15398 net.cpp:139] Memory required for data: 2757674496
I0321 14:31:51.308876 15398 layer_factory.hpp:77] Creating layer inception_4c/relu_1x1
I0321 14:31:51.308893 15398 net.cpp:86] Creating Layer inception_4c/relu_1x1
I0321 14:31:51.308907 15398 net.cpp:408] inception_4c/relu_1x1 <- inception_4c/1x1
I0321 14:31:51.308928 15398 net.cpp:369] inception_4c/relu_1x1 -> inception_4c/1x1 (in-place)
I0321 14:31:51.308943 15398 net.cpp:124] Setting up inception_4c/relu_1x1
I0321 14:31:51.308951 15398 net.cpp:131] Top shape: 128 64 14 14 (1605632)
I0321 14:31:51.308956 15398 net.cpp:139] Memory required for data: 2764097024
I0321 14:31:51.308962 15398 layer_factory.hpp:77] Creating layer inception_4c/3x3_reduce
I0321 14:31:51.308974 15398 net.cpp:86] Creating Layer inception_4c/3x3_reduce
I0321 14:31:51.308979 15398 net.cpp:408] inception_4c/3x3_reduce <- inception_4b/output_inception_4b/output_0_split_1
I0321 14:31:51.308991 15398 net.cpp:382] inception_4c/3x3_reduce -> inception_4c/3x3_reduce
I0321 14:31:51.309402 15398 net.cpp:124] Setting up inception_4c/3x3_reduce
I0321 14:31:51.309419 15398 net.cpp:131] Top shape: 128 64 14 14 (1605632)
I0321 14:31:51.309425 15398 net.cpp:139] Memory required for data: 2770519552
I0321 14:31:51.309434 15398 layer_factory.hpp:77] Creating layer inception_4c/relu_3x3_reduce
I0321 14:31:51.309443 15398 net.cpp:86] Creating Layer inception_4c/relu_3x3_reduce
I0321 14:31:51.309450 15398 net.cpp:408] inception_4c/relu_3x3_reduce <- inception_4c/3x3_reduce
I0321 14:31:51.309458 15398 net.cpp:369] inception_4c/relu_3x3_reduce -> inception_4c/3x3_reduce (in-place)
I0321 14:31:51.309468 15398 net.cpp:124] Setting up inception_4c/relu_3x3_reduce
I0321 14:31:51.309474 15398 net.cpp:131] Top shape: 128 64 14 14 (1605632)
I0321 14:31:51.309480 15398 net.cpp:139] Memory required for data: 2776942080
I0321 14:31:51.309485 15398 layer_factory.hpp:77] Creating layer inception_4c/3x3
I0321 14:31:51.309499 15398 net.cpp:86] Creating Layer inception_4c/3x3
I0321 14:31:51.309505 15398 net.cpp:408] inception_4c/3x3 <- inception_4c/3x3_reduce
I0321 14:31:51.309516 15398 net.cpp:382] inception_4c/3x3 -> inception_4c/3x3
I0321 14:31:51.310497 15398 net.cpp:124] Setting up inception_4c/3x3
I0321 14:31:51.310516 15398 net.cpp:131] Top shape: 128 128 14 14 (3211264)
I0321 14:31:51.310523 15398 net.cpp:139] Memory required for data: 2789787136
I0321 14:31:51.310533 15398 layer_factory.hpp:77] Creating layer inception_4c/relu_3x3
I0321 14:31:51.310541 15398 net.cpp:86] Creating Layer inception_4c/relu_3x3
I0321 14:31:51.310549 15398 net.cpp:408] inception_4c/relu_3x3 <- inception_4c/3x3
I0321 14:31:51.310559 15398 net.cpp:369] inception_4c/relu_3x3 -> inception_4c/3x3 (in-place)
I0321 14:31:51.310569 15398 net.cpp:124] Setting up inception_4c/relu_3x3
I0321 14:31:51.310576 15398 net.cpp:131] Top shape: 128 128 14 14 (3211264)
I0321 14:31:51.310581 15398 net.cpp:139] Memory required for data: 2802632192
I0321 14:31:51.310587 15398 layer_factory.hpp:77] Creating layer inception_4c/5x5_reduce
I0321 14:31:51.310601 15398 net.cpp:86] Creating Layer inception_4c/5x5_reduce
I0321 14:31:51.310608 15398 net.cpp:408] inception_4c/5x5_reduce <- inception_4b/output_inception_4b/output_0_split_2
I0321 14:31:51.310617 15398 net.cpp:382] inception_4c/5x5_reduce -> inception_4c/5x5_reduce
I0321 14:31:51.310914 15398 net.cpp:124] Setting up inception_4c/5x5_reduce
I0321 14:31:51.310931 15398 net.cpp:131] Top shape: 128 12 14 14 (301056)
I0321 14:31:51.310937 15398 net.cpp:139] Memory required for data: 2803836416
I0321 14:31:51.310946 15398 layer_factory.hpp:77] Creating layer inception_4c/relu_5x5_reduce
I0321 14:31:51.310957 15398 net.cpp:86] Creating Layer inception_4c/relu_5x5_reduce
I0321 14:31:51.310964 15398 net.cpp:408] inception_4c/relu_5x5_reduce <- inception_4c/5x5_reduce
I0321 14:31:51.310973 15398 net.cpp:369] inception_4c/relu_5x5_reduce -> inception_4c/5x5_reduce (in-place)
I0321 14:31:51.310997 15398 net.cpp:124] Setting up inception_4c/relu_5x5_reduce
I0321 14:31:51.311010 15398 net.cpp:131] Top shape: 128 12 14 14 (301056)
I0321 14:31:51.311022 15398 net.cpp:139] Memory required for data: 2805040640
I0321 14:31:51.311033 15398 layer_factory.hpp:77] Creating layer inception_4c/5x5
I0321 14:31:51.311100 15398 net.cpp:86] Creating Layer inception_4c/5x5
I0321 14:31:51.311115 15398 net.cpp:408] inception_4c/5x5 <- inception_4c/5x5_reduce
I0321 14:31:51.311126 15398 net.cpp:382] inception_4c/5x5 -> inception_4c/5x5
I0321 14:31:51.311488 15398 net.cpp:124] Setting up inception_4c/5x5
I0321 14:31:51.311506 15398 net.cpp:131] Top shape: 128 32 14 14 (802816)
I0321 14:31:51.311511 15398 net.cpp:139] Memory required for data: 2808251904
I0321 14:31:51.311520 15398 layer_factory.hpp:77] Creating layer inception_4c/relu_5x5
I0321 14:31:51.311528 15398 net.cpp:86] Creating Layer inception_4c/relu_5x5
I0321 14:31:51.311534 15398 net.cpp:408] inception_4c/relu_5x5 <- inception_4c/5x5
I0321 14:31:51.311545 15398 net.cpp:369] inception_4c/relu_5x5 -> inception_4c/5x5 (in-place)
I0321 14:31:51.311555 15398 net.cpp:124] Setting up inception_4c/relu_5x5
I0321 14:31:51.311563 15398 net.cpp:131] Top shape: 128 32 14 14 (802816)
I0321 14:31:51.311568 15398 net.cpp:139] Memory required for data: 2811463168
I0321 14:31:51.311573 15398 layer_factory.hpp:77] Creating layer inception_4c/pool
I0321 14:31:51.311581 15398 net.cpp:86] Creating Layer inception_4c/pool
I0321 14:31:51.311589 15398 net.cpp:408] inception_4c/pool <- inception_4b/output_inception_4b/output_0_split_3
I0321 14:31:51.311599 15398 net.cpp:382] inception_4c/pool -> inception_4c/pool
I0321 14:31:51.311669 15398 net.cpp:124] Setting up inception_4c/pool
I0321 14:31:51.311686 15398 net.cpp:131] Top shape: 128 256 14 14 (6422528)
I0321 14:31:51.311692 15398 net.cpp:139] Memory required for data: 2837153280
I0321 14:31:51.311698 15398 layer_factory.hpp:77] Creating layer inception_4c/pool_proj
I0321 14:31:51.311712 15398 net.cpp:86] Creating Layer inception_4c/pool_proj
I0321 14:31:51.311720 15398 net.cpp:408] inception_4c/pool_proj <- inception_4c/pool
I0321 14:31:51.311733 15398 net.cpp:382] inception_4c/pool_proj -> inception_4c/pool_proj
I0321 14:31:51.312072 15398 net.cpp:124] Setting up inception_4c/pool_proj
I0321 14:31:51.312088 15398 net.cpp:131] Top shape: 128 32 14 14 (802816)
I0321 14:31:51.312093 15398 net.cpp:139] Memory required for data: 2840364544
I0321 14:31:51.312119 15398 layer_factory.hpp:77] Creating layer inception_4c/relu_pool_proj
I0321 14:31:51.312130 15398 net.cpp:86] Creating Layer inception_4c/relu_pool_proj
I0321 14:31:51.312139 15398 net.cpp:408] inception_4c/relu_pool_proj <- inception_4c/pool_proj
I0321 14:31:51.312146 15398 net.cpp:369] inception_4c/relu_pool_proj -> inception_4c/pool_proj (in-place)
I0321 14:31:51.312156 15398 net.cpp:124] Setting up inception_4c/relu_pool_proj
I0321 14:31:51.312163 15398 net.cpp:131] Top shape: 128 32 14 14 (802816)
I0321 14:31:51.312168 15398 net.cpp:139] Memory required for data: 2843575808
I0321 14:31:51.312173 15398 layer_factory.hpp:77] Creating layer inception_4c/output
I0321 14:31:51.312182 15398 net.cpp:86] Creating Layer inception_4c/output
I0321 14:31:51.312188 15398 net.cpp:408] inception_4c/output <- inception_4c/1x1
I0321 14:31:51.312196 15398 net.cpp:408] inception_4c/output <- inception_4c/3x3
I0321 14:31:51.312202 15398 net.cpp:408] inception_4c/output <- inception_4c/5x5
I0321 14:31:51.312209 15398 net.cpp:408] inception_4c/output <- inception_4c/pool_proj
I0321 14:31:51.312221 15398 net.cpp:382] inception_4c/output -> inception_4c/output
I0321 14:31:51.312255 15398 net.cpp:124] Setting up inception_4c/output
I0321 14:31:51.312273 15398 net.cpp:131] Top shape: 128 256 14 14 (6422528)
I0321 14:31:51.312278 15398 net.cpp:139] Memory required for data: 2869265920
I0321 14:31:51.312283 15398 layer_factory.hpp:77] Creating layer inception_4c/output_inception_4c/output_0_split
I0321 14:31:51.312292 15398 net.cpp:86] Creating Layer inception_4c/output_inception_4c/output_0_split
I0321 14:31:51.312312 15398 net.cpp:408] inception_4c/output_inception_4c/output_0_split <- inception_4c/output
I0321 14:31:51.312322 15398 net.cpp:382] inception_4c/output_inception_4c/output_0_split -> inception_4c/output_inception_4c/output_0_split_0
I0321 14:31:51.312333 15398 net.cpp:382] inception_4c/output_inception_4c/output_0_split -> inception_4c/output_inception_4c/output_0_split_1
I0321 14:31:51.312343 15398 net.cpp:382] inception_4c/output_inception_4c/output_0_split -> inception_4c/output_inception_4c/output_0_split_2
I0321 14:31:51.312355 15398 net.cpp:382] inception_4c/output_inception_4c/output_0_split -> inception_4c/output_inception_4c/output_0_split_3
I0321 14:31:51.312429 15398 net.cpp:124] Setting up inception_4c/output_inception_4c/output_0_split
I0321 14:31:51.312444 15398 net.cpp:131] Top shape: 128 256 14 14 (6422528)
I0321 14:31:51.312451 15398 net.cpp:131] Top shape: 128 256 14 14 (6422528)
I0321 14:31:51.312458 15398 net.cpp:131] Top shape: 128 256 14 14 (6422528)
I0321 14:31:51.312464 15398 net.cpp:131] Top shape: 128 256 14 14 (6422528)
I0321 14:31:51.312469 15398 net.cpp:139] Memory required for data: 2972026368
I0321 14:31:51.312475 15398 layer_factory.hpp:77] Creating layer inception_4d/1x1
I0321 14:31:51.312490 15398 net.cpp:86] Creating Layer inception_4d/1x1
I0321 14:31:51.312497 15398 net.cpp:408] inception_4d/1x1 <- inception_4c/output_inception_4c/output_0_split_0
I0321 14:31:51.312510 15398 net.cpp:382] inception_4d/1x1 -> inception_4d/1x1
I0321 14:31:51.312950 15398 net.cpp:124] Setting up inception_4d/1x1
I0321 14:31:51.312969 15398 net.cpp:131] Top shape: 128 56 14 14 (1404928)
I0321 14:31:51.312975 15398 net.cpp:139] Memory required for data: 2977646080
I0321 14:31:51.312984 15398 layer_factory.hpp:77] Creating layer inception_4d/relu_1x1
I0321 14:31:51.313006 15398 net.cpp:86] Creating Layer inception_4d/relu_1x1
I0321 14:31:51.313017 15398 net.cpp:408] inception_4d/relu_1x1 <- inception_4d/1x1
I0321 14:31:51.313026 15398 net.cpp:369] inception_4d/relu_1x1 -> inception_4d/1x1 (in-place)
I0321 14:31:51.313035 15398 net.cpp:124] Setting up inception_4d/relu_1x1
I0321 14:31:51.313043 15398 net.cpp:131] Top shape: 128 56 14 14 (1404928)
I0321 14:31:51.313048 15398 net.cpp:139] Memory required for data: 2983265792
I0321 14:31:51.313055 15398 layer_factory.hpp:77] Creating layer inception_4d/3x3_reduce
I0321 14:31:51.313068 15398 net.cpp:86] Creating Layer inception_4d/3x3_reduce
I0321 14:31:51.313076 15398 net.cpp:408] inception_4d/3x3_reduce <- inception_4c/output_inception_4c/output_0_split_1
I0321 14:31:51.313087 15398 net.cpp:382] inception_4d/3x3_reduce -> inception_4d/3x3_reduce
I0321 14:31:51.313525 15398 net.cpp:124] Setting up inception_4d/3x3_reduce
I0321 14:31:51.313544 15398 net.cpp:131] Top shape: 128 72 14 14 (1806336)
I0321 14:31:51.313549 15398 net.cpp:139] Memory required for data: 2990491136
I0321 14:31:51.313558 15398 layer_factory.hpp:77] Creating layer inception_4d/relu_3x3_reduce
I0321 14:31:51.313566 15398 net.cpp:86] Creating Layer inception_4d/relu_3x3_reduce
I0321 14:31:51.313573 15398 net.cpp:408] inception_4d/relu_3x3_reduce <- inception_4d/3x3_reduce
I0321 14:31:51.313580 15398 net.cpp:369] inception_4d/relu_3x3_reduce -> inception_4d/3x3_reduce (in-place)
I0321 14:31:51.313591 15398 net.cpp:124] Setting up inception_4d/relu_3x3_reduce
I0321 14:31:51.313597 15398 net.cpp:131] Top shape: 128 72 14 14 (1806336)
I0321 14:31:51.313602 15398 net.cpp:139] Memory required for data: 2997716480
I0321 14:31:51.313607 15398 layer_factory.hpp:77] Creating layer inception_4d/3x3
I0321 14:31:51.313622 15398 net.cpp:86] Creating Layer inception_4d/3x3
I0321 14:31:51.313628 15398 net.cpp:408] inception_4d/3x3 <- inception_4d/3x3_reduce
I0321 14:31:51.313640 15398 net.cpp:382] inception_4d/3x3 -> inception_4d/3x3
I0321 14:31:51.314784 15398 net.cpp:124] Setting up inception_4d/3x3
I0321 14:31:51.314801 15398 net.cpp:131] Top shape: 128 144 14 14 (3612672)
I0321 14:31:51.314807 15398 net.cpp:139] Memory required for data: 3012167168
I0321 14:31:51.314831 15398 layer_factory.hpp:77] Creating layer inception_4d/relu_3x3
I0321 14:31:51.314844 15398 net.cpp:86] Creating Layer inception_4d/relu_3x3
I0321 14:31:51.314851 15398 net.cpp:408] inception_4d/relu_3x3 <- inception_4d/3x3
I0321 14:31:51.314859 15398 net.cpp:369] inception_4d/relu_3x3 -> inception_4d/3x3 (in-place)
I0321 14:31:51.314869 15398 net.cpp:124] Setting up inception_4d/relu_3x3
I0321 14:31:51.314877 15398 net.cpp:131] Top shape: 128 144 14 14 (3612672)
I0321 14:31:51.314882 15398 net.cpp:139] Memory required for data: 3026617856
I0321 14:31:51.314888 15398 layer_factory.hpp:77] Creating layer inception_4d/5x5_reduce
I0321 14:31:51.314901 15398 net.cpp:86] Creating Layer inception_4d/5x5_reduce
I0321 14:31:51.314908 15398 net.cpp:408] inception_4d/5x5_reduce <- inception_4c/output_inception_4c/output_0_split_2
I0321 14:31:51.314918 15398 net.cpp:382] inception_4d/5x5_reduce -> inception_4d/5x5_reduce
I0321 14:31:51.315277 15398 net.cpp:124] Setting up inception_4d/5x5_reduce
I0321 14:31:51.315296 15398 net.cpp:131] Top shape: 128 16 14 14 (401408)
I0321 14:31:51.315302 15398 net.cpp:139] Memory required for data: 3028223488
I0321 14:31:51.315311 15398 layer_factory.hpp:77] Creating layer inception_4d/relu_5x5_reduce
I0321 14:31:51.315323 15398 net.cpp:86] Creating Layer inception_4d/relu_5x5_reduce
I0321 14:31:51.315330 15398 net.cpp:408] inception_4d/relu_5x5_reduce <- inception_4d/5x5_reduce
I0321 14:31:51.315338 15398 net.cpp:369] inception_4d/relu_5x5_reduce -> inception_4d/5x5_reduce (in-place)
I0321 14:31:51.315348 15398 net.cpp:124] Setting up inception_4d/relu_5x5_reduce
I0321 14:31:51.315356 15398 net.cpp:131] Top shape: 128 16 14 14 (401408)
I0321 14:31:51.315361 15398 net.cpp:139] Memory required for data: 3029829120
I0321 14:31:51.315366 15398 layer_factory.hpp:77] Creating layer inception_4d/5x5
I0321 14:31:51.315381 15398 net.cpp:86] Creating Layer inception_4d/5x5
I0321 14:31:51.315387 15398 net.cpp:408] inception_4d/5x5 <- inception_4d/5x5_reduce
I0321 14:31:51.315399 15398 net.cpp:382] inception_4d/5x5 -> inception_4d/5x5
I0321 14:31:51.315785 15398 net.cpp:124] Setting up inception_4d/5x5
I0321 14:31:51.315804 15398 net.cpp:131] Top shape: 128 32 14 14 (802816)
I0321 14:31:51.315809 15398 net.cpp:139] Memory required for data: 3033040384
I0321 14:31:51.315817 15398 layer_factory.hpp:77] Creating layer inception_4d/relu_5x5
I0321 14:31:51.315826 15398 net.cpp:86] Creating Layer inception_4d/relu_5x5
I0321 14:31:51.315834 15398 net.cpp:408] inception_4d/relu_5x5 <- inception_4d/5x5
I0321 14:31:51.315843 15398 net.cpp:369] inception_4d/relu_5x5 -> inception_4d/5x5 (in-place)
I0321 14:31:51.315853 15398 net.cpp:124] Setting up inception_4d/relu_5x5
I0321 14:31:51.315861 15398 net.cpp:131] Top shape: 128 32 14 14 (802816)
I0321 14:31:51.315866 15398 net.cpp:139] Memory required for data: 3036251648
I0321 14:31:51.315872 15398 layer_factory.hpp:77] Creating layer inception_4d/pool
I0321 14:31:51.315881 15398 net.cpp:86] Creating Layer inception_4d/pool
I0321 14:31:51.315886 15398 net.cpp:408] inception_4d/pool <- inception_4c/output_inception_4c/output_0_split_3
I0321 14:31:51.315897 15398 net.cpp:382] inception_4d/pool -> inception_4d/pool
I0321 14:31:51.315948 15398 net.cpp:124] Setting up inception_4d/pool
I0321 14:31:51.315961 15398 net.cpp:131] Top shape: 128 256 14 14 (6422528)
I0321 14:31:51.315968 15398 net.cpp:139] Memory required for data: 3061941760
I0321 14:31:51.315973 15398 layer_factory.hpp:77] Creating layer inception_4d/pool_proj
I0321 14:31:51.315987 15398 net.cpp:86] Creating Layer inception_4d/pool_proj
I0321 14:31:51.315994 15398 net.cpp:408] inception_4d/pool_proj <- inception_4d/pool
I0321 14:31:51.316006 15398 net.cpp:382] inception_4d/pool_proj -> inception_4d/pool_proj
I0321 14:31:51.316345 15398 net.cpp:124] Setting up inception_4d/pool_proj
I0321 14:31:51.316361 15398 net.cpp:131] Top shape: 128 32 14 14 (802816)
I0321 14:31:51.316367 15398 net.cpp:139] Memory required for data: 3065153024
I0321 14:31:51.316390 15398 layer_factory.hpp:77] Creating layer inception_4d/relu_pool_proj
I0321 14:31:51.316400 15398 net.cpp:86] Creating Layer inception_4d/relu_pool_proj
I0321 14:31:51.316406 15398 net.cpp:408] inception_4d/relu_pool_proj <- inception_4d/pool_proj
I0321 14:31:51.316413 15398 net.cpp:369] inception_4d/relu_pool_proj -> inception_4d/pool_proj (in-place)
I0321 14:31:51.316423 15398 net.cpp:124] Setting up inception_4d/relu_pool_proj
I0321 14:31:51.316431 15398 net.cpp:131] Top shape: 128 32 14 14 (802816)
I0321 14:31:51.316435 15398 net.cpp:139] Memory required for data: 3068364288
I0321 14:31:51.316442 15398 layer_factory.hpp:77] Creating layer inception_4d/output
I0321 14:31:51.316452 15398 net.cpp:86] Creating Layer inception_4d/output
I0321 14:31:51.316458 15398 net.cpp:408] inception_4d/output <- inception_4d/1x1
I0321 14:31:51.316465 15398 net.cpp:408] inception_4d/output <- inception_4d/3x3
I0321 14:31:51.316473 15398 net.cpp:408] inception_4d/output <- inception_4d/5x5
I0321 14:31:51.316479 15398 net.cpp:408] inception_4d/output <- inception_4d/pool_proj
I0321 14:31:51.316488 15398 net.cpp:382] inception_4d/output -> inception_4d/output
I0321 14:31:51.316524 15398 net.cpp:124] Setting up inception_4d/output
I0321 14:31:51.316540 15398 net.cpp:131] Top shape: 128 264 14 14 (6623232)
I0321 14:31:51.316545 15398 net.cpp:139] Memory required for data: 3094857216
I0321 14:31:51.316550 15398 layer_factory.hpp:77] Creating layer inception_4d/output_inception_4d/output_0_split
I0321 14:31:51.316560 15398 net.cpp:86] Creating Layer inception_4d/output_inception_4d/output_0_split
I0321 14:31:51.316565 15398 net.cpp:408] inception_4d/output_inception_4d/output_0_split <- inception_4d/output
I0321 14:31:51.316573 15398 net.cpp:382] inception_4d/output_inception_4d/output_0_split -> inception_4d/output_inception_4d/output_0_split_0
I0321 14:31:51.316586 15398 net.cpp:382] inception_4d/output_inception_4d/output_0_split -> inception_4d/output_inception_4d/output_0_split_1
I0321 14:31:51.316596 15398 net.cpp:382] inception_4d/output_inception_4d/output_0_split -> inception_4d/output_inception_4d/output_0_split_2
I0321 14:31:51.316606 15398 net.cpp:382] inception_4d/output_inception_4d/output_0_split -> inception_4d/output_inception_4d/output_0_split_3
I0321 14:31:51.316676 15398 net.cpp:124] Setting up inception_4d/output_inception_4d/output_0_split
I0321 14:31:51.316690 15398 net.cpp:131] Top shape: 128 264 14 14 (6623232)
I0321 14:31:51.316697 15398 net.cpp:131] Top shape: 128 264 14 14 (6623232)
I0321 14:31:51.316704 15398 net.cpp:131] Top shape: 128 264 14 14 (6623232)
I0321 14:31:51.316710 15398 net.cpp:131] Top shape: 128 264 14 14 (6623232)
I0321 14:31:51.316715 15398 net.cpp:139] Memory required for data: 3200828928
I0321 14:31:51.316721 15398 layer_factory.hpp:77] Creating layer inception_4e/1x1
I0321 14:31:51.316735 15398 net.cpp:86] Creating Layer inception_4e/1x1
I0321 14:31:51.316745 15398 net.cpp:408] inception_4e/1x1 <- inception_4d/output_inception_4d/output_0_split_0
I0321 14:31:51.316756 15398 net.cpp:382] inception_4e/1x1 -> inception_4e/1x1
I0321 14:31:51.317314 15398 net.cpp:124] Setting up inception_4e/1x1
I0321 14:31:51.317332 15398 net.cpp:131] Top shape: 128 128 14 14 (3211264)
I0321 14:31:51.317337 15398 net.cpp:139] Memory required for data: 3213673984
I0321 14:31:51.317347 15398 layer_factory.hpp:77] Creating layer inception_4e/relu_1x1
I0321 14:31:51.317356 15398 net.cpp:86] Creating Layer inception_4e/relu_1x1
I0321 14:31:51.317363 15398 net.cpp:408] inception_4e/relu_1x1 <- inception_4e/1x1
I0321 14:31:51.317371 15398 net.cpp:369] inception_4e/relu_1x1 -> inception_4e/1x1 (in-place)
I0321 14:31:51.317381 15398 net.cpp:124] Setting up inception_4e/relu_1x1
I0321 14:31:51.317389 15398 net.cpp:131] Top shape: 128 128 14 14 (3211264)
I0321 14:31:51.317394 15398 net.cpp:139] Memory required for data: 3226519040
I0321 14:31:51.317399 15398 layer_factory.hpp:77] Creating layer inception_4e/3x3_reduce
I0321 14:31:51.317412 15398 net.cpp:86] Creating Layer inception_4e/3x3_reduce
I0321 14:31:51.317420 15398 net.cpp:408] inception_4e/3x3_reduce <- inception_4d/output_inception_4d/output_0_split_1
I0321 14:31:51.317442 15398 net.cpp:382] inception_4e/3x3_reduce -> inception_4e/3x3_reduce
I0321 14:31:51.317939 15398 net.cpp:124] Setting up inception_4e/3x3_reduce
I0321 14:31:51.317958 15398 net.cpp:131] Top shape: 128 80 14 14 (2007040)
I0321 14:31:51.317965 15398 net.cpp:139] Memory required for data: 3234547200
I0321 14:31:51.317973 15398 layer_factory.hpp:77] Creating layer inception_4e/relu_3x3_reduce
I0321 14:31:51.317982 15398 net.cpp:86] Creating Layer inception_4e/relu_3x3_reduce
I0321 14:31:51.317988 15398 net.cpp:408] inception_4e/relu_3x3_reduce <- inception_4e/3x3_reduce
I0321 14:31:51.317996 15398 net.cpp:369] inception_4e/relu_3x3_reduce -> inception_4e/3x3_reduce (in-place)
I0321 14:31:51.318006 15398 net.cpp:124] Setting up inception_4e/relu_3x3_reduce
I0321 14:31:51.318013 15398 net.cpp:131] Top shape: 128 80 14 14 (2007040)
I0321 14:31:51.318018 15398 net.cpp:139] Memory required for data: 3242575360
I0321 14:31:51.318023 15398 layer_factory.hpp:77] Creating layer inception_4e/3x3
I0321 14:31:51.318038 15398 net.cpp:86] Creating Layer inception_4e/3x3
I0321 14:31:51.318045 15398 net.cpp:408] inception_4e/3x3 <- inception_4e/3x3_reduce
I0321 14:31:51.318056 15398 net.cpp:382] inception_4e/3x3 -> inception_4e/3x3
I0321 14:31:51.320857 15398 net.cpp:124] Setting up inception_4e/3x3
I0321 14:31:51.320883 15398 net.cpp:131] Top shape: 128 160 14 14 (4014080)
I0321 14:31:51.320889 15398 net.cpp:139] Memory required for data: 3258631680
I0321 14:31:51.320900 15398 layer_factory.hpp:77] Creating layer inception_4e/relu_3x3
I0321 14:31:51.320909 15398 net.cpp:86] Creating Layer inception_4e/relu_3x3
I0321 14:31:51.320917 15398 net.cpp:408] inception_4e/relu_3x3 <- inception_4e/3x3
I0321 14:31:51.320926 15398 net.cpp:369] inception_4e/relu_3x3 -> inception_4e/3x3 (in-place)
I0321 14:31:51.320937 15398 net.cpp:124] Setting up inception_4e/relu_3x3
I0321 14:31:51.320945 15398 net.cpp:131] Top shape: 128 160 14 14 (4014080)
I0321 14:31:51.320950 15398 net.cpp:139] Memory required for data: 3274688000
I0321 14:31:51.320955 15398 layer_factory.hpp:77] Creating layer inception_4e/5x5_reduce
I0321 14:31:51.320971 15398 net.cpp:86] Creating Layer inception_4e/5x5_reduce
I0321 14:31:51.320978 15398 net.cpp:408] inception_4e/5x5_reduce <- inception_4d/output_inception_4d/output_0_split_2
I0321 14:31:51.320992 15398 net.cpp:382] inception_4e/5x5_reduce -> inception_4e/5x5_reduce
I0321 14:31:51.321336 15398 net.cpp:124] Setting up inception_4e/5x5_reduce
I0321 14:31:51.321355 15398 net.cpp:131] Top shape: 128 16 14 14 (401408)
I0321 14:31:51.321362 15398 net.cpp:139] Memory required for data: 3276293632
I0321 14:31:51.321372 15398 layer_factory.hpp:77] Creating layer inception_4e/relu_5x5_reduce
I0321 14:31:51.321382 15398 net.cpp:86] Creating Layer inception_4e/relu_5x5_reduce
I0321 14:31:51.321390 15398 net.cpp:408] inception_4e/relu_5x5_reduce <- inception_4e/5x5_reduce
I0321 14:31:51.321398 15398 net.cpp:369] inception_4e/relu_5x5_reduce -> inception_4e/5x5_reduce (in-place)
I0321 14:31:51.321408 15398 net.cpp:124] Setting up inception_4e/relu_5x5_reduce
I0321 14:31:51.321416 15398 net.cpp:131] Top shape: 128 16 14 14 (401408)
I0321 14:31:51.321421 15398 net.cpp:139] Memory required for data: 3277899264
I0321 14:31:51.321426 15398 layer_factory.hpp:77] Creating layer inception_4e/5x5
I0321 14:31:51.321440 15398 net.cpp:86] Creating Layer inception_4e/5x5
I0321 14:31:51.321447 15398 net.cpp:408] inception_4e/5x5 <- inception_4e/5x5_reduce
I0321 14:31:51.321458 15398 net.cpp:382] inception_4e/5x5 -> inception_4e/5x5
I0321 14:31:51.321986 15398 net.cpp:124] Setting up inception_4e/5x5
I0321 14:31:51.322005 15398 net.cpp:131] Top shape: 128 64 14 14 (1605632)
I0321 14:31:51.322011 15398 net.cpp:139] Memory required for data: 3284321792
I0321 14:31:51.322021 15398 layer_factory.hpp:77] Creating layer inception_4e/relu_5x5
I0321 14:31:51.322033 15398 net.cpp:86] Creating Layer inception_4e/relu_5x5
I0321 14:31:51.322039 15398 net.cpp:408] inception_4e/relu_5x5 <- inception_4e/5x5
I0321 14:31:51.322074 15398 net.cpp:369] inception_4e/relu_5x5 -> inception_4e/5x5 (in-place)
I0321 14:31:51.322085 15398 net.cpp:124] Setting up inception_4e/relu_5x5
I0321 14:31:51.322093 15398 net.cpp:131] Top shape: 128 64 14 14 (1605632)
I0321 14:31:51.322099 15398 net.cpp:139] Memory required for data: 3290744320
I0321 14:31:51.322105 15398 layer_factory.hpp:77] Creating layer inception_4e/pool
I0321 14:31:51.322119 15398 net.cpp:86] Creating Layer inception_4e/pool
I0321 14:31:51.322126 15398 net.cpp:408] inception_4e/pool <- inception_4d/output_inception_4d/output_0_split_3
I0321 14:31:51.322139 15398 net.cpp:382] inception_4e/pool -> inception_4e/pool
I0321 14:31:51.322194 15398 net.cpp:124] Setting up inception_4e/pool
I0321 14:31:51.322209 15398 net.cpp:131] Top shape: 128 264 14 14 (6623232)
I0321 14:31:51.322216 15398 net.cpp:139] Memory required for data: 3317237248
I0321 14:31:51.322221 15398 layer_factory.hpp:77] Creating layer inception_4e/pool_proj
I0321 14:31:51.322245 15398 net.cpp:86] Creating Layer inception_4e/pool_proj
I0321 14:31:51.322252 15398 net.cpp:408] inception_4e/pool_proj <- inception_4e/pool
I0321 14:31:51.322263 15398 net.cpp:382] inception_4e/pool_proj -> inception_4e/pool_proj
I0321 14:31:51.322737 15398 net.cpp:124] Setting up inception_4e/pool_proj
I0321 14:31:51.322754 15398 net.cpp:131] Top shape: 128 64 14 14 (1605632)
I0321 14:31:51.322759 15398 net.cpp:139] Memory required for data: 3323659776
I0321 14:31:51.322769 15398 layer_factory.hpp:77] Creating layer inception_4e/relu_pool_proj
I0321 14:31:51.322778 15398 net.cpp:86] Creating Layer inception_4e/relu_pool_proj
I0321 14:31:51.322785 15398 net.cpp:408] inception_4e/relu_pool_proj <- inception_4e/pool_proj
I0321 14:31:51.322796 15398 net.cpp:369] inception_4e/relu_pool_proj -> inception_4e/pool_proj (in-place)
I0321 14:31:51.322808 15398 net.cpp:124] Setting up inception_4e/relu_pool_proj
I0321 14:31:51.322814 15398 net.cpp:131] Top shape: 128 64 14 14 (1605632)
I0321 14:31:51.322820 15398 net.cpp:139] Memory required for data: 3330082304
I0321 14:31:51.322825 15398 layer_factory.hpp:77] Creating layer inception_4e/output
I0321 14:31:51.322835 15398 net.cpp:86] Creating Layer inception_4e/output
I0321 14:31:51.322841 15398 net.cpp:408] inception_4e/output <- inception_4e/1x1
I0321 14:31:51.322849 15398 net.cpp:408] inception_4e/output <- inception_4e/3x3
I0321 14:31:51.322855 15398 net.cpp:408] inception_4e/output <- inception_4e/5x5
I0321 14:31:51.322862 15398 net.cpp:408] inception_4e/output <- inception_4e/pool_proj
I0321 14:31:51.322870 15398 net.cpp:382] inception_4e/output -> inception_4e/output
I0321 14:31:51.322906 15398 net.cpp:124] Setting up inception_4e/output
I0321 14:31:51.322921 15398 net.cpp:131] Top shape: 128 416 14 14 (10436608)
I0321 14:31:51.322926 15398 net.cpp:139] Memory required for data: 3371828736
I0321 14:31:51.322932 15398 layer_factory.hpp:77] Creating layer conv_16
I0321 14:31:51.322947 15398 net.cpp:86] Creating Layer conv_16
I0321 14:31:51.322954 15398 net.cpp:408] conv_16 <- inception_4e/output
I0321 14:31:51.322968 15398 net.cpp:382] conv_16 -> conv_16
I0321 14:31:51.325397 15398 net.cpp:124] Setting up conv_16
I0321 14:31:51.325418 15398 net.cpp:131] Top shape: 128 128 14 14 (3211264)
I0321 14:31:51.325428 15398 net.cpp:139] Memory required for data: 3384673792
I0321 14:31:51.325446 15398 layer_factory.hpp:77] Creating layer relu_16
I0321 14:31:51.325459 15398 net.cpp:86] Creating Layer relu_16
I0321 14:31:51.325465 15398 net.cpp:408] relu_16 <- conv_16
I0321 14:31:51.325474 15398 net.cpp:369] relu_16 -> conv_16 (in-place)
I0321 14:31:51.325484 15398 net.cpp:124] Setting up relu_16
I0321 14:31:51.325492 15398 net.cpp:131] Top shape: 128 128 14 14 (3211264)
I0321 14:31:51.325497 15398 net.cpp:139] Memory required for data: 3397518848
I0321 14:31:51.325503 15398 layer_factory.hpp:77] Creating layer conv_face_predict
I0321 14:31:51.325518 15398 net.cpp:86] Creating Layer conv_face_predict
I0321 14:31:51.325525 15398 net.cpp:408] conv_face_predict <- conv_16
I0321 14:31:51.325549 15398 net.cpp:382] conv_face_predict -> conv_face_predict
I0321 14:31:51.325991 15398 net.cpp:124] Setting up conv_face_predict
I0321 14:31:51.326010 15398 net.cpp:131] Top shape: 128 20 14 14 (501760)
I0321 14:31:51.326017 15398 net.cpp:139] Memory required for data: 3399525888
I0321 14:31:51.326026 15398 layer_factory.hpp:77] Creating layer pool5/7x7_s1
I0321 14:31:51.326036 15398 net.cpp:86] Creating Layer pool5/7x7_s1
I0321 14:31:51.326042 15398 net.cpp:408] pool5/7x7_s1 <- conv_face_predict
I0321 14:31:51.326055 15398 net.cpp:382] pool5/7x7_s1 -> pool5/7x7_s1
I0321 14:31:51.326093 15398 net.cpp:124] Setting up pool5/7x7_s1
I0321 14:31:51.326108 15398 net.cpp:131] Top shape: 128 20 11 11 (309760)
I0321 14:31:51.326113 15398 net.cpp:139] Memory required for data: 3400764928
I0321 14:31:51.326119 15398 layer_factory.hpp:77] Creating layer pool5/drop_7x7_s1
I0321 14:31:51.326129 15398 net.cpp:86] Creating Layer pool5/drop_7x7_s1
I0321 14:31:51.326135 15398 net.cpp:408] pool5/drop_7x7_s1 <- pool5/7x7_s1
I0321 14:31:51.326143 15398 net.cpp:369] pool5/drop_7x7_s1 -> pool5/7x7_s1 (in-place)
I0321 14:31:51.326179 15398 net.cpp:124] Setting up pool5/drop_7x7_s1
I0321 14:31:51.326191 15398 net.cpp:131] Top shape: 128 20 11 11 (309760)
I0321 14:31:51.326197 15398 net.cpp:139] Memory required for data: 3402003968
I0321 14:31:51.326203 15398 layer_factory.hpp:77] Creating layer loss3_my/predict
I0321 14:31:51.326220 15398 net.cpp:86] Creating Layer loss3_my/predict
I0321 14:31:51.326226 15398 net.cpp:408] loss3_my/predict <- pool5/7x7_s1
I0321 14:31:51.326236 15398 net.cpp:382] loss3_my/predict -> loss3_my/predict
I0321 14:31:51.326380 15398 net.cpp:124] Setting up loss3_my/predict
I0321 14:31:51.326396 15398 net.cpp:131] Top shape: 128 1 (128)
I0321 14:31:51.326402 15398 net.cpp:139] Memory required for data: 3402004480
I0321 14:31:51.326411 15398 layer_factory.hpp:77] Creating layer loss3_my/predict_loss3_my/predict_0_split
I0321 14:31:51.326421 15398 net.cpp:86] Creating Layer loss3_my/predict_loss3_my/predict_0_split
I0321 14:31:51.326427 15398 net.cpp:408] loss3_my/predict_loss3_my/predict_0_split <- loss3_my/predict
I0321 14:31:51.326438 15398 net.cpp:382] loss3_my/predict_loss3_my/predict_0_split -> loss3_my/predict_loss3_my/predict_0_split_0
I0321 14:31:51.326450 15398 net.cpp:382] loss3_my/predict_loss3_my/predict_0_split -> loss3_my/predict_loss3_my/predict_0_split_1
I0321 14:31:51.326493 15398 net.cpp:124] Setting up loss3_my/predict_loss3_my/predict_0_split
I0321 14:31:51.326506 15398 net.cpp:131] Top shape: 128 1 (128)
I0321 14:31:51.326514 15398 net.cpp:131] Top shape: 128 1 (128)
I0321 14:31:51.326519 15398 net.cpp:139] Memory required for data: 3402005504
I0321 14:31:51.326524 15398 layer_factory.hpp:77] Creating layer loss3_my/loss3_my
I0321 14:31:51.326594 15398 net.cpp:86] Creating Layer loss3_my/loss3_my
I0321 14:31:51.326608 15398 net.cpp:408] loss3_my/loss3_my <- loss3_my/predict_loss3_my/predict_0_split_0
I0321 14:31:51.326617 15398 net.cpp:408] loss3_my/loss3_my <- label_data_1_split_0
I0321 14:31:51.326627 15398 net.cpp:382] loss3_my/loss3_my -> loss3_my/loss3_my
I0321 14:31:51.326782 15398 net.cpp:124] Setting up loss3_my/loss3_my
I0321 14:31:51.326800 15398 net.cpp:131] Top shape: 1 (1)
I0321 14:31:51.326807 15398 net.cpp:134]     with loss weight 1
I0321 14:31:51.326828 15398 net.cpp:139] Memory required for data: 3402005508
I0321 14:31:51.326834 15398 layer_factory.hpp:77] Creating layer loss3_my/loss3_test
I0321 14:31:51.326866 15398 net.cpp:86] Creating Layer loss3_my/loss3_test
I0321 14:31:51.326880 15398 net.cpp:408] loss3_my/loss3_test <- loss3_my/predict_loss3_my/predict_0_split_1
I0321 14:31:51.326889 15398 net.cpp:408] loss3_my/loss3_test <- label_data_1_split_1
I0321 14:31:51.326899 15398 net.cpp:382] loss3_my/loss3_test -> loss3_my/loss3_test
I0321 14:31:51.327024 15398 net.cpp:124] Setting up loss3_my/loss3_test
I0321 14:31:51.327044 15398 net.cpp:131] Top shape: 1 (1)
I0321 14:31:51.327049 15398 net.cpp:134]     with loss weight 1
I0321 14:31:51.327076 15398 net.cpp:139] Memory required for data: 3402005512
I0321 14:31:51.327085 15398 net.cpp:200] loss3_my/loss3_test needs backward computation.
I0321 14:31:51.327091 15398 net.cpp:200] loss3_my/loss3_my needs backward computation.
I0321 14:31:51.327097 15398 net.cpp:200] loss3_my/predict_loss3_my/predict_0_split needs backward computation.
…
